L2minimization/data-revision-3d/model_OGA_3D_sinpipipi_neuron_512_N_2048_deterministic.pt (torch, 22926 bytes, 3 tensors)

weight f8 [512, 3]
00000000: 0100 0000 0000 e03f 2f21 0914 8e98 e33f
00000010: 2e21 0914 8e98 e33f 0100 0000 0000 e03f
00000020: 2f21 0914 8e98 e33f 2e21 0914 8e98 e33f
00000030: fcff ffff ffff dfbf 3021 0914 8e98 e3bf
00000040: 2e21 0914 8e98 e3bf fcff ffff ffff dfbf
00000050: debb 7b47 e135 d5bf 43be 40e9 719a e93f
00000060: d80b e296 8469 e53f 6068 d1cf 6e33 d23f
00000070: 6b34 17d9 6ef8 e5bf d50b e296 8469 e5bf
00000080: c4be 33a8 d7c7 e73f 0000 0000 0000 0000
00000090: d80b e296 8469 e53f 6c34 17d9 6ef8 e5bf
000000a0: 5f68 d1cf 6e33 d23f 4ee9 2f37 efc6 d3bf
000000b0: bc20 48ec 034b d73f e127 3209 ff1d ecbf
000000c0: fcff ffff ffff dfbf 43be 40e9 719a e9bf
000000d0: e0bb 7b47 e135 d53f 0100 0000 0000 e03f
000000e0: 2f21 0914 8e98 e3bf 2e21 0914 8e98 e3bf
000000f0: 7f00 7a32 fc4c efbf 6ee1 da71 545e b4bf
00000100: decd 6bc0 4096 c83f 4ee9 2f37 efc6 d3bf
00000110: b7cd 6f99 1b85 e53f b6cd 6f99 1b85 e53f
00000120: fcff ffff ffff dfbf 2f21 0914 8e98 e33f
00000130: 2e21 0914 8e98 e33f d80b e296 8469 e53f
00000140: 5d68 d1cf 6e33 d2bf 6c34 17d9 6ef8 e53f
00000150: d50b e296 8469 e5bf 57f1 d030 c1d0 e03f
00000160: 5af1 d030 c1d0 e0bf d50b e296 8469 e5bf
00000170: 6768 d1cf 6e33 d2bf 6d34 17d9 6ef8 e5bf
00000180: 6257 3c9b 60c2 babf f20e afdc e280 e63f
00000190: f50e afdc e280 e6bf a8f4 979b 77e3 e93f
000001a0: 7dcf 45ba a199 da3f 80cf 45ba a199 dabf
000001b0: d80b e296 8469 e53f c0a3 0675 75ac a3bc
000001c0: c1be 33a8 d7c7 e7bf d80b e296 8469 e53f
000001d0: 6a34 17d9 6ef8 e53f 6668 d1cf 6e33 d2bf
000001e0: 4ee9 2f37 efc6 d3bf b7cd 6f99 1b85 e53f
000001f0: b6cd 6f99 1b85 e53f d80b e296 8469 e53f
00000200: 56f1 d030 c1d0 e0bf 57f1 d030 c1d0 e03f
00000210: d80b e296 8469 e53f 6c34 17d9 6ef8 e53f
00000220: 5e68 d1cf 6e33 d23f 6257 3c9b 60c2 babf
00000230: f30e afdc e280 e6bf f40e afdc e280 e63f
00000240: 6257 3c9b 60c2 babf f20e afdc e280 e63f
00000250: f50e afdc e280 e6bf d50b e296 8469 e5bf
00000260: 58f1 d030 c1d0 e0bf 59f1 d030 c1d0 e03f
00000270: 0100 0000 0000 e03f 2f21 0914 8e98 e33f
00000280: 2e21 0914 8e98 e33f d80b e296 8469 e53f
00000290: 57f1 d030 c1d0 e03f 56f1 d030 c1d0 e03f
000002a0: d50b e296 8469 e5bf 6368 d1cf 6e33 d23f
000002b0: 6e34 17d9 6ef8 e5bf 0100 0000 0000 e03f
000002c0: 2f21 0914 8e98 e3bf 2e21 0914 8e98 e3bf
000002d0: d50b e296 8469 e5bf 0485 b346 473b 8a3c
000002e0: c4be 33a8 d7c7 e73f 6257 3c9b 60c2 babf
000002f0: f50e afdc e280 e6bf f30e afdc e280 e6bf
00000300: d80b e296 8469 e53f c1be 33a8 d7c7 e7bf
00000310: 0085 b346 473b 9a3c 957f ffae c33b ed3f
00000320: d01a 0621 f907 da3f 0000 0000 0000 0000
00000330: 7f00 7a32 fc4c efbf 8871 7ba2 69d1 c23f
00000340: 8771 7ba2 69d1 c23f 4ee9 2f37 efc6 d3bf
00000350: cffa 8fdb 852d a9bc 0055 4413 0e6f eebf
00000360: 957f ffae c33b ed3f 664e 18ff 2368 d2bf
00000370: 674e 18ff 2368 d23f 6257 3c9b 60c2 babf
00000380: f30e afdc e280 e6bf f40e afdc e280 e63f
00000390: a8f4 979b 77e3 e93f 80cf 45ba a199 dabf
000003a0: 7ecf 45ba a199 dabf 0100 0000 0000 e03f
000003b0: aa4c 58e8 7ab6 eb3f 0000 0000 0000 0000
000003c0: d80b e296 8469 e53f c1be 33a8 d7c7 e73f
000003d0: 0000 0000 0000 0000 0100 0000 0000 e03f
000003e0: a538 e5fb a991 8e3c aa4c 58e8 7ab6 eb3f
000003f0: d80b e296 8469 e53f 58f1 d030 c1d0 e0bf
00000400: 56f1 d030 c1d0 e0bf 6257 3c9b 60c2 babf
00000410: f20e afdc e280 e63f f50e afdc e280 e6bf
00000420: 4ee9 2f37 efc6 d3bf e227 3209 ff1d ecbf
00000430: ba20 48ec 034b d73f 0100 0000 0000 e03f
00000440: 2e21 0914 8e98 e3bf 2f21 0914 8e98 e33f
00000450: 947f ffae c33b edbf 0c7f 612d 1789 95bc
00000460: d51a 0621 f907 dabf a7f4 979b 77e3 e9bf
00000470: 7fcf 45ba a199 dabf 80cf 45ba a199 da3f
00000480: 6257 3c9b 60c2 babf 8a2c eccb 895b d8bf
00000490: ab10 21e5 f566 ed3f 50e9 2f37 efc6 d33f
000004a0: b8cd 6f99 1b85 e5bf b6cd 6f99 1b85 e5bf
000004b0: 6257 3c9b 60c2 babf f50e afdc e280 e6bf
000004c0: f30e afdc e280 e6bf a8f4 979b 77e3 e93f
000004d0: 7dcf 45ba a199 da3f 80cf 45ba a199 dabf
000004e0: 0100 0000 0000 e03f e1bb 7b47 e135 d53f
000004f0: 41be 40e9 719a e9bf 50e9 2f37 efc6 d33f
00000500: b620 48ec 034b d7bf e127 3209 ff1d ec3f
00000510: 7b57 3c9b 60c2 ba3f 8b2c eccb 895b d83f
00000520: aa10 21e5 f566 ed3f 7b57 3c9b 60c2 ba3f
00000530: ab10 21e5 f566 edbf 882c eccb 895b d8bf
00000540: 6257 3c9b 60c2 babf 72fa 7af8 658d 913c
00000550: c767 f894 1fd3 ef3f fcff ffff ffff dfbf
00000560: 2e21 0914 8e98 e3bf 2f21 0914 8e98 e33f
00000570: 6257 3c9b 60c2 babf c767 f894 1fd3 ef3f
00000580: 0000 0000 0000 0000 d80b e296 8469 e53f
00000590: 0085 b346 473b 8a3c c1be 33a8 d7c7 e73f
000005a0: a8f4 979b 77e3 e93f 1822 0538 9b60 e13f
000005b0: 71da 033a b1ca ccbf 50e9 2f37 efc6 d33f
000005c0: b7cd 6f99 1b85 e53f b6cd 6f99 1b85 e53f
000005d0: 50e9 2f37 efc6 d33f e127 3209 ff1d ecbf
000005e0: b920 48ec 034b d73f 0100 0000 0000 e03f
000005f0: 43be 40e9 719a e9bf dcbb 7b47 e135 d5bf
00000600: fcff ffff ffff dfbf dfbb 7b47 e135 d53f
00000610: 43be 40e9 719a e93f 0100 0000 0000 e03f
00000620: 7cea eb7c 3fed a6bc aa4c 58e8 7ab6 ebbf
00000630: fcff ffff ffff dfbf ab4c 58e8 7ab6 eb3f
00000640: 0000 0000 0000 0000 fcff ffff ffff dfbf
00000650: 41be 40e9 719a e93f e8bb 7b47 e135 d5bf
00000660: a7f4 979b 77e3 e9bf 7ecf 45ba a199 da3f
00000670: 82cf 45ba a199 dabf fcff ffff ffff dfbf
00000680: e2bb 7b47 e135 d53f 42be 40e9 719a e9bf
00000690: 4ee9 2f37 efc6 d3bf 0055 4413 0e6f eebf
000006a0: e051 b5e7 03c9 a03c 50e9 2f37 efc6 d33f
000006b0: e127 3209 ff1d ec3f b720 48ec 034b d73f
000006c0: d80b e296 8469 e53f 6c34 17d9 6ef8 e53f
000006d0: 5e68 d1cf 6e33 d23f 947f ffae c33b edbf
000006e0: 25dd 375a b50c d83f b47e d45d 62ec c33f
000006f0: 947f ffae c33b edbf 6b4e 18ff 2368 d2bf
00000700: 694e 18ff 2368 d2bf a8f4 979b 77e3 e93f
00000710: 1a22 0538 9b60 e13f 64da 033a b1ca cc3f
00000720: fcff ffff ffff dfbf ab4c 58e8 7ab6 eb3f
00000730: 0000 0000 0000 0000 0100 0000 0000 e03f
00000740: dfbb 7b47 e135 d53f 42be 40e9 719a e93f
00000750: a8f4 979b 77e3 e93f 7fcf 45ba a199 da3f
00000760: 7ecf 45ba a199 da3f 7b57 3c9b 60c2 ba3f
00000770: 942c eccb 895b d8bf a810 21e5 f566 edbf
00000780: d80b e296 8469 e53f 6068 d1cf 6e33 d23f
00000790: 6b34 17d9 6ef8 e5bf fcff ffff ffff dfbf
000007a0: 2e21 0914 8e98 e3bf 2f21 0914 8e98 e33f
000007b0: 8000 7a32 fc4c ef3f cecd 6bc0 4096 c83f
000007c0: 6de1 da71 545e b4bf a8f4 979b 77e3 e93f
000007d0: 7ecf 45ba a199 dabf 7fcf 45ba a199 da3f
000007e0: 7f00 7a32 fc4c efbf 0459 42ac d99c cabf
000007f0: 047b dc22 025b 7d3c 947f ffae c33b edbf
0.5000000000000001 0.6123724356957946 0.6123724356957945 0.5000000000000001 0.6123724356957946 0.6123724356957945 -0.4999999999999998 -0.6123724356957947
-0.6123724356957945 -0.4999999999999998 -0.3314135740355918 0.8001031451912656 0.6691306063588582 0.28438921255804495 -0.6865762939502366 -0.6691306063588579
0.7431448254773945 0.0 0.6691306063588582 -0.6865762939502367 0.2843892125580449 -0.30901699437494734 0.36395357202901457 -0.8786616496665794
-0.4999999999999998 -0.8001031451912656 0.3314135740355919 0.5000000000000001 -0.6123724356957946 -0.6123724356957945 -0.9781476007338056 -0.0795643594709696
0.19208535571634305 -0.30901699437494734 0.6724985119639574 0.6724985119639573 -0.4999999999999998 0.6123724356957946 0.6123724356957945 0.6691306063588582
-0.2843892125580448 0.6865762939502367 -0.6691306063588579 0.5254827454987588 -0.5254827454987592 -0.6691306063588579 -0.28438921255804533 -0.6865762939502368
-0.10452846326765333 0.7032331762534041 -0.7032331762534044 0.8090169943749475 0.41562693777745335 -0.4156269377774535 0.6691306063588582 -1.3651348977357137e-16
-0.7431448254773941 0.6691306063588582 0.6865762939502364 -0.2843892125580453 -0.30901699437494734 0.6724985119639574 0.6724985119639573 0.6691306063588582
-0.5254827454987587 0.5254827454987588 0.6691306063588582 0.6865762939502367 0.28438921255804483 -0.10452846326765333 -0.7032331762534042 0.7032331762534043
-0.10452846326765333 0.7032331762534041 -0.7032331762534044 -0.6691306063588579 -0.525482745498759 0.5254827454987591 0.5000000000000001 0.6123724356957946
0.6123724356957945 0.6691306063588582 0.5254827454987588 0.5254827454987587 -0.6691306063588579 0.2843892125580451 -0.6865762939502369 0.5000000000000001
-0.6123724356957946 -0.6123724356957945 -0.6691306063588579 4.550449659119048e-17 0.7431448254773945 -0.10452846326765333 -0.7032331762534044 -0.7032331762534042
0.6691306063588582 -0.7431448254773941 9.100899318238091e-17 0.9135454576426009 0.40673664307580015 0.0 -0.9781476007338056 0.14701576646519876
0.14701576646519873 -0.30901699437494734 -1.7470624777336386e-16 -0.9510565162951536 0.9135454576426009 -0.2876062384759507 0.28760623847595074 -0.10452846326765333
-0.7032331762534042 0.7032331762534043 0.8090169943749475 -0.4156269377774535 -0.4156269377774534 0.5000000000000001 0.8660254037844386 0.0
0.6691306063588582 0.7431448254773941 0.0 0.5000000000000001 5.302876193624534e-17 0.8660254037844386 0.6691306063588582 -0.525482745498759
-0.5254827454987587 -0.10452846326765333 0.7032331762534041 -0.7032331762534044 -0.30901699437494734 -0.8786616496665796 0.36395357202901446 0.5000000000000001
-0.6123724356957945 0.6123724356957946 -0.9135454576426008 -7.471630920580776e-17 -0.40673664307580043 -0.8090169943749473 -0.41562693777745346 0.4156269377774535
-0.10452846326765333 -0.3805870524817655 0.9188184237650793 0.30901699437494745 -0.6724985119639575 -0.6724985119639573 -0.10452846326765333 -0.7032331762534044
-0.7032331762534042 0.8090169943749475 0.41562693777745335 -0.4156269377774535 0.5000000000000001 0.33141357403559196 -0.8001031451912654 0.30901699437494745
-0.36395357202901424 0.8786616496665794 0.10452846326765368 0.38058705248176555 0.9188184237650792 0.10452846326765368 -0.9188184237650793 -0.3805870524817654
-0.10452846326765333 6.089690279223575e-17 0.9945218953682734 -0.4999999999999998 -0.6123724356957945 0.6123724356957946 -0.10452846326765333 0.9945218953682734
0.0 0.6691306063588582 4.5504496591190456e-17 0.7431448254773941 0.8090169943749475 0.5430427641049986 -0.22493567784086424 0.30901699437494745
0.6724985119639574 0.6724985119639573 0.30901699437494745 -0.8786616496665794 0.3639535720290144 0.5000000000000001 -0.8001031451912656 -0.3314135740355917
-0.4999999999999998 0.33141357403559185 0.8001031451912656 0.5000000000000001 -1.5908628580873602e-16 -0.8660254037844386 -0.4999999999999998 0.8660254037844387
0.0 -0.4999999999999998 0.8001031451912654 -0.33141357403559235 -0.8090169943749473 0.4156269377774534 -0.41562693777745363 -0.4999999999999998
0.331413574035592 -0.8001031451912655 -0.30901699437494734 -0.9510565162951536 1.1647083184890926e-16 0.30901699437494745 0.8786616496665794 0.3639535720290143
0.6691306063588582 0.6865762939502367 0.28438921255804483 -0.9135454576426008 0.3757756596600806 0.15565137464090173 -0.9135454576426008 -0.28760623847595096
-0.28760623847595085 0.8090169943749475 0.5430427641049989 0.22493567784086388 -0.4999999999999998 0.8660254037844387 0.0 0.5000000000000001
0.33141357403559185 0.8001031451912655 0.8090169943749475 0.41562693777745346 0.4156269377774534 0.10452846326765368 -0.38058705248176605 -0.9188184237650789
0.6691306063588582 0.28438921255804495 -0.6865762939502366 -0.4999999999999998 -0.6123724356957945 0.6123724356957946 0.9781476007338057 0.1920853557163426
-0.07956435947096958 0.8090169943749475 -0.4156269377774534 0.41562693777745346 -0.9781476007338056 -0.20791169081775973 2.546183866652836e-17 -0.9135454576426008

bias f8 [512]
00000000: 83c0 caa1 45b6 fb3f 82c0 caa1 45b6 ebbf
00000010: 83c0 caa1 45b6 fb3f 0000 0000 0000 0080
00000020: 0000 0000 0000 0080 0000 0000 0000 0080
00000030: 0000 0000 0000 0080 84c0 caa1 45b6 db3f
00000040: 84c0 caa1 45b6 db3f 84c0 caa1 45b6 db3f
00000050: 84c0 caa1 45b6 db3f 82c0 caa1 45b6 ebbf
00000060: 0000 0000 0000 0080 82c0 caa1 45b6 ebbf
00000070: 0000 0000 0000 0080 83c0 caa1 45b6 eb3f
00000080: 0000 0000 0000 0080 0000 0000 0000 0080
00000090: 0000 0000 0000 0080 82c0 caa1 45b6 ebbf
000000a0: 84c0 caa1 45b6 dbbf 84c0 caa1 45b6 dbbf
000000b0: 82c0 caa1 45b6 ebbf 84c0 caa1 45b6 db3f
000000c0: 84c0 caa1 45b6 db3f 84c0 caa1 45b6 db3f
000000d0: 84c0 caa1 45b6 dbbf 6310 5839 b4c8 f4bf
000000e0: 84c0 caa1 45b6 db3f 83c0 caa1 45b6 eb3f
000000f0: 84c0 caa1 45b6 db3f 83c0 caa1 45b6 eb3f
00000100: 84c0 caa1 45b6 dbbf 84c0 caa1 45b6 dbbf
00000110: 0000 0000 0000 0080 84c0 caa1 45b6 db3f
00000120: 0000 0000 0000 0080 0000 0000 0000 0080
00000130: 0000 0000 0000 0080 84c0 caa1 45b6 dbbf
00000140: 82c0 caa1 45b6 ebbf 82c0 caa1 45b6 ebbf
00000150: 0000 0000 0000 0080 84c0 caa1 45b6 dbbf
00000160: 0000 0000 0000 0080 84c0 caa1 45b6 dbbf
00000170: 83c0 caa1 45b6 eb3f 83c0 caa1 45b6 eb3f
00000180: 84c0 caa1 45b6 dbbf 0000 0000 0000 0080
00000190: 84c0 caa1 45b6 db3f 84c0 caa1 45b6 dbbf
000001a0: 84c0 caa1 45b6 db3f 82c0 caa1 45b6 ebbf
000001b0: 82c0 caa1 45b6 ebbf 83c0 caa1 45b6 eb3f
000001c0: 84c0 caa1 45b6 dbbf 84c0 caa1 45b6 db3f
000001d0: 84c0 caa1 45b6 dbbf 84c0 caa1 45b6 dbbf
000001e0: 84c0 caa1 45b6 dbbf 6310 5839 b4c8 f4bf
000001f0: 0000 0000 0000 0080 84c0 caa1 45b6 db3f
00000200: 84c0 caa1 45b6 dbbf 0000 0000 0000 0080
00000210: 0000 0000 0000 0080 0000 0000 0000 0080
00000220: 83c0 caa1 45b6 eb3f 84c0 caa1 45b6 db3f
00000230: 83c0 caa1 45b6 eb3f 84c0 caa1 45b6 dbbf
00000240: 84c0 caa1 45b6 dbbf 84c0 caa1 45b6 db3f
00000250: 84c0 caa1 45b6 db3f 6310 5839 b4c8 f4bf
00000260: 84c0 caa1 45b6 dbbf 82c0 caa1 45b6 ebbf
00000270: 82c0 caa1 45b6 ebbf 83c0 caa1 45b6 eb3f
00000280: 84c0 caa1 45b6 db3f 0000 0000 0000 0080
00000290: 82c0 caa1 45b6 ebbf 84c0 caa1 45b6 dbbf
000002a0: 84c0 caa1 45b6 db3f 0000 0000 0000 0080
000002b0: 84c0 caa1 45b6 dbbf 84c0 caa1 45b6 dbbf
000002c0: 84c0 caa1 45b6 db3f 0000 0000 0000 0080
000002d0: 0000 0000 0000 0080 84c0 caa1 45b6 dbbf
000002e0: 84c0 caa1 45b6 dbbf 83c0 caa1 45b6 eb3f
000002f0: 84c0 caa1 45b6 db3f 84c0 caa1 45b6 dbbf
00000300: 0000 0000 0000 0080 82c0 caa1 45b6 ebbf
00000310: 83c0 caa1 45b6 eb3f 0000 0000 0000 0080
00000320: 84c0 caa1 45b6 dbbf 84c0 caa1 45b6 dbbf
00000330: 82c0 caa1 45b6 ebbf 84c0 caa1 45b6 db3f
00000340: 82c0 caa1 45b6 ebbf 83c0 caa1 45b6 eb3f
00000350: 84c0 caa1 45b6 db3f 84c0 caa1 45b6 db3f
00000360: 6310 5839 b4c8 f4bf 83c0 caa1 45b6 eb3f
00000370: 84c0 caa1 45b6 dbbf 0000 0000 0000 0080
00000380: 0000 0000 0000 0080 0000 0000 0000 0080
00000390: 0000 0000 0000 0080 84c0 caa1 45b6 db3f
000003a0: 84c0 caa1 45b6 db3f 84c0 caa1 45b6 dbbf
000003b0: 84c0 caa1 45b6 db3f 84c0 caa1 45b6 dbbf
000003c0: 84c0 caa1 45b6 dbbf 84c0 caa1 45b6 dbbf
000003d0: 6210 5839 b4c8 f43f 83c0 caa1 45b6 eb3f
000003e0: 83c0 caa1 45b6 eb3f 82c0 caa1 45b6 ebbf
000003f0: 84c0 caa1 45b6 db3f 84c0 caa1 45b6 dbbf
00000400: 84c0 caa1 45b6 db3f 0000 0000 0000 0080
00000410: 83c0 caa1 45b6 eb3f 84c0 caa1 45b6 db3f
00000420: 83c0 caa1 45b6 eb3f 84c0 caa1 45b6 db3f
00000430: 0000 0000 0000 0080 82c0 caa1 45b6 ebbf
00000440: 82c0 caa1 45b6 ebbf 83c0 caa1 45b6 eb3f
00000450: 84c0 caa1 45b6 db3f 84c0 caa1 45b6 db3f
00000460: 84c0 caa1 45b6 dbbf 0000 0000 0000 0080
00000470: 83c0 caa1 45b6 eb3f 83c0 caa1 45b6 eb3f
00000480: 84c0 caa1 45b6 dbbf 83c0 caa1 45b6 eb3f
00000490: 82c0 caa1 45b6 ebbf 84c0 caa1 45b6 db3f
000004a0: 84c0 caa1 45b6 dbbf 84c0 caa1 45b6 db3f
000004b0: 84c0 caa1 45b6 dbbf 0000 0000 0000 0080
000004c0: 83c0 caa1 45b6 eb3f 82c0 caa1 45b6 ebbf
000004d0: 84c0 caa1 45b6 dbbf 84c0 caa1 45b6 dbbf
000004e0: 0000 0000 0000 0080 0000 0000 0000 0080
000004f0: 0000 0000 0000 0080 84c0 caa1 45b6 dbbf
00000500: 0000 0000 0000 0080 83c0 caa1 45b6 eb3f
00000510: 6210 5839 b4c8 f43f 84c0 caa1 45b6 dbbf
00000520: 84c0 caa1 45b6 db3f 82c0 caa1 45b6 ebbf
00000530: 84c0 caa1 45b6 db3f 84c0 caa1 45b6 dbbf
00000540: 83c0 caa1 45b6 eb3f 84c0 caa1 45b6 db3f
00000550: 84c0 caa1 45b6 dbbf 84c0 caa1 45b6 dbbf
00000560: 0000 0000 0000 0080 0000 0000 0000 0080
00000570: 84c0 caa1 45b6 db3f 84c0 caa1 45b6 db3f
00000580: 84c0 caa1 45b6 db3f 6310 5839 b4c8 f4bf
00000590: 82c0 caa1 45b6 ebbf 0000 0000 0000 0080
000005a0: 0000 0000 0000 0080 6210 5839 b4c8 f43f
000005b0: 84c0 caa1 45b6 dbbf 0000 0000 0000 0080
000005c0: 84c0 caa1 45b6 dbbf 84c0 caa1 45b6 db3f
000005d0: 0000 0000 0000 0080 82c0 caa1 45b6 ebbf
000005e0: 84c0 caa1 45b6 dbbf 82c0 caa1 45b6 ebbf
000005f0: 82c0 caa1 45b6 ebbf 82c0 caa1 45b6 ebbf
00000600: 84c0 caa1 45b6 dbbf 82c0 caa1 45b6 ebbf
00000610: 84c0 caa1 45b6 dbbf 84c0 caa1 45b6 dbbf
00000620: 0000 0000 0000 0080 0000 0000 0000 0080
00000630: 84c0 caa1 45b6 db3f 82c0 caa1 45b6 ebbf
00000640: 82c0 caa1 45b6 ebbf 0000 0000 0000 0080
00000650: 84c0 caa1 45b6 db3f 0000 0000 0000 0080
00000660: 6210 5839 b4c8 f43f 6210 5839 b4c8 f43f
00000670: 84c0 caa1 45b6 dbbf 0000 0000 0000 0080
00000680: 84c0 caa1 45b6 dbbf 0000 0000 0000 0080
00000690: 0000 0000 0000 0080 0000 0000 0000 0080
000006a0: 84c0 caa1 45b6 dbbf 0000 0000 0000 0080
000006b0: 0000 0000 0000 0080 84c0 caa1 45b6 dbbf
000006c0: 82c0 caa1 45b6 ebbf 83c0 caa1 45b6 eb3f
000006d0: 0000 0000 0000 0080 84c0 caa1 45b6 db3f
000006e0: 82c0 caa1 45b6 ebbf 84c0 caa1 45b6 dbbf
000006f0: 84c0 caa1 45b6 db3f 83c0 caa1 45b6 eb3f
00000700: 6210 5839 b4c8 f43f 82c0 caa1 45b6 ebbf
00000710: 83c0 caa1 45b6 eb3f 83c0 caa1 45b6 eb3f
00000720: 83c0 caa1 45b6 eb3f 84c0 caa1 45b6 db3f
00000730: 84c0 caa1 45b6 dbbf 83c0 caa1 45b6 eb3f
00000740: 84c0 caa1 45b6 dbbf 0000 0000 0000 0080
00000750: 0000 0000 0000 0080 84c0 caa1 45b6 dbbf
00000760: 83c0 caa1 45b6 eb3f 6210 5839 b4c8 f43f
00000770: 0000 0000 0000 0080 6310 5839 b4c8 f4bf
00000780: 82c0 caa1 45b6 ebbf 83c0 caa1 45b6 eb3f
00000790: 83c0 caa1 45b6 eb3f 0000 0000 0000 0080
000007a0: 0000 0000 0000 0080 0000 0000 0000 0080
000007b0: 84c0 caa1 45b6 db3f 84c0 caa1 45b6 dbbf
000007c0: 84c0 caa1 45b6 dbbf 84c0 caa1 45b6 dbbf
000007d0: 0000 0000 0000 0080 84c0 caa1 45b6 db3f
000007e0: 84c0 caa1 45b6 dbbf 0000 0000 0000 0080
000007f0: 84c0 caa1 45b6 dbbf 6210 5839 b4c8 f43f
1.732 -0.8659999999999999 1.732 -0.0 -0.0 -0.0 -0.0 0.43300000000000005
0.43300000000000005 0.43300000000000005 0.43300000000000005 -0.8659999999999999 -0.0 -0.8659999999999999 -0.0 0.866
-0.0 -0.0 -0.0 -0.8659999999999999 -0.43300000000000005 -0.43300000000000005 -0.8659999999999999 0.43300000000000005
0.43300000000000005 0.43300000000000005 -0.43300000000000005 -1.2990000000000002 0.43300000000000005 0.866 0.43300000000000005 0.866
-0.43300000000000005 -0.43300000000000005 -0.0 0.43300000000000005 -0.0 -0.0 -0.0 -0.43300000000000005
-0.8659999999999999 -0.8659999999999999 -0.0 -0.43300000000000005 -0.0 -0.43300000000000005 0.866 0.866
-0.43300000000000005 -0.0 0.43300000000000005 -0.43300000000000005 0.43300000000000005 -0.8659999999999999 -0.8659999999999999 0.866
-0.43300000000000005 0.43300000000000005 -0.43300000000000005 -0.43300000000000005 -0.43300000000000005 -1.2990000000000002 -0.0 0.43300000000000005
-0.43300000000000005 -0.0 -0.0 -0.0 0.866 0.43300000000000005 0.866 -0.43300000000000005
-0.43300000000000005 0.43300000000000005 0.43300000000000005 -1.2990000000000002 -0.43300000000000005 -0.8659999999999999 -0.8659999999999999 0.866
0.43300000000000005 -0.0 -0.8659999999999999 -0.43300000000000005 0.43300000000000005 -0.0 -0.43300000000000005 -0.43300000000000005
0.43300000000000005 -0.0 -0.0 -0.43300000000000005 -0.43300000000000005 0.866 0.43300000000000005 -0.43300000000000005
-0.0 -0.8659999999999999 0.866 -0.0 -0.43300000000000005 -0.43300000000000005 -0.8659999999999999 0.43300000000000005
-0.8659999999999999 0.866 0.43300000000000005 0.43300000000000005 -1.2990000000000002 0.866 -0.43300000000000005 -0.0
-0.0 -0.0 -0.0 0.43300000000000005 0.43300000000000005 -0.43300000000000005 0.43300000000000005 -0.43300000000000005
-0.43300000000000005 -0.43300000000000005 1.299 0.866 0.866 -0.8659999999999999 0.43300000000000005 -0.43300000000000005
0.43300000000000005 -0.0 0.866 0.43300000000000005 0.866 0.43300000000000005 -0.0 -0.8659999999999999
-0.8659999999999999 0.866 0.43300000000000005 0.43300000000000005 -0.43300000000000005 -0.0 0.866 0.866
-0.43300000000000005 0.866 -0.8659999999999999 0.43300000000000005 -0.43300000000000005 0.43300000000000005 -0.43300000000000005 -0.0
0.866 -0.8659999999999999 -0.43300000000000005 -0.43300000000000005 -0.0 -0.0 -0.0 -0.43300000000000005
-0.0 0.866 1.299 -0.43300000000000005 0.43300000000000005 -0.8659999999999999 0.43300000000000005 -0.43300000000000005
0.866 0.43300000000000005 -0.43300000000000005 -0.43300000000000005 -0.0 -0.0 0.43300000000000005 0.43300000000000005
0.43300000000000005 -1.2990000000000002 -0.8659999999999999 -0.0 -0.0 1.299 -0.43300000000000005 -0.0
-0.43300000000000005 0.43300000000000005 -0.0 -0.8659999999999999 -0.43300000000000005 -0.8659999999999999 -0.8659999999999999 -0.8659999999999999
-0.43300000000000005 -0.8659999999999999 -0.43300000000000005 -0.43300000000000005 -0.0 -0.0 0.43300000000000005 -0.8659999999999999
-0.8659999999999999 -0.0 0.43300000000000005 -0.0 1.299 1.299 -0.43300000000000005 -0.0
-0.43300000000000005 -0.0 -0.0 -0.0 -0.43300000000000005 -0.0 -0.0 -0.43300000000000005
-0.8659999999999999 0.866 -0.0 0.43300000000000005 -0.8659999999999999 -0.43300000000000005 0.43300000000000005 0.866
1.299 -0.8659999999999999 0.866 0.866 0.866 0.43300000000000005 -0.43300000000000005 0.866
-0.43300000000000005 -0.0 -0.0 -0.43300000000000005 0.866 1.299 -0.0 -1.2990000000000002
-0.8659999999999999 0.866 0.866 -0.0 -0.0 -0.0 0.43300000000000005 -0.43300000000000005
-0.43300000000000005 -0.43300000000000005 -0.0 0.43300000000000005 -0.43300000000000005 -0.0 -0.43300000000000005 1.299

weight f8 [1, 512]
00000000: 91e4 460e 77c2 9fbf 21d3 8737 2832 d7bf
00000010: d70d 6727 e2c0 b53f fee0 9313 84b6 cbbf
00000020: f087 b1c3 e0f3 c6bf b0df b00a b406 b2bf
00000030: 7816 faf6 e0f3 d6bf 468e ae74 2f28 b0bf
00000040: cbe4 98f3 3ce8 c5bf 6b17 08bb 706d ddbf
00000050: 15af c0d4 b88c aa3f 0a6b cfde 4cbd d23f
00000060: e1c1 181b 1eb0 c23f 3c2a cdcf 524a bd3f
00000070: 88ee a2af fd63 b93f 66dd 3c69 d27f c1bf
00000080: a902 bc44 de9e b5bf 6b01 9cda 04a6 b63f
00000090: dbc5 3722 91cb c6bf a8e1 bdd5 524a bd3f
000000a0: 0727 ef71 191c cbbf acca 38fc 7fc4 c1bf
000000b0: db91 936b d27f c1bf 71b6 4342 35cd b13f
000000c0: bc60 103e 35cd a13f f343 d13c 6031 d7bf
000000d0: bcba 017e 5a35 e73f b09e 45a8 7af2 d53f
000000e0: 0c2d 77f0 1e89 91bf 318e bed0 0b1e e53f
000000f0: 6997 3769 c72e a63f d7ba da0f 2c43 b6bf
00000100: a461 c3fb d895 9c3f 5b46 4cc3 4d8e a1bf
00000110: baef e4cd 370f b33f 05b9 e95e edcb 8fbf
00000120: abe7 7207 a201 c73f e654 b16f 70d0 c5bf
00000130: 5a7a 8c90 7e93 b9bf bc5e 2362 301a c2bf
00000140: 329a 75cc adb8 a8bf ff96 0bf9 789a a1bf
00000150: 10ac 358f 9b47 7fbf c550 ae6c ef05 bd3f
00000160: 4767 4903 9efd d33f a052 21ab 37a5 aebf
00000170: 6037 7a56 a373 7e3f ad3f 3f11 8553 d13f
00000180: 9b3d ddb4 e393 9dbf 10b0 9d0c a5b3 ce3f
00000190: 6aae c977 b761 a2bf 5477 f832 8409 c3bf
000001a0: c835 535b 0aa3 c73f 00a3 25b2 3334 d13f
000001b0: 42fc 9268 9ccd 89bf 69fc d80d 57f1 b4bf
000001c0: 30cf d9ba 2582 8e3f aee8 0d63 b9d4 88bf
000001d0: 7032 957d 03ce 963f 490c 1d12 917f 9e3f
000001e0: ce71 030b 5594 cabf 71b7 300b 24f0 da3f
000001f0: 302e 41c1 d074 bbbf c481 a773 865d b9bf
00000200: 71e1 7400 0137 a1bf e65f 713b d75c a9bf
00000210: 4eea 6016 c749 a1bf 14fc d613 84b6 cbbf
00000220: 7b0f 8e11 8553 d13f 62ca 23f3 3ce8 c5bf
00000230: a8eb 6ba8 2277 6e3f 4a92 a60c e37c b7bf
00000240: 76d7 0015 585b c63f 3bf7 2fa5 a4a7 b4bf
00000250: 5e19 ef50 fb02 c23f d356 fad7 3f11 d33f
00000260: 850d a7f7 f9e6 a7bf 1a37 f1eb ddea c0bf
00000270: cee2 c1f8 4c02 b3bf 8062 ed0f 57f1 b4bf
00000280: e665 da64 ce7b d03f 4265 7c05 2cdd c93f
00000290: 5a84 6e10 22e4 b5bf 4b62 6c33 8409 c3bf
000002a0: 16d0 5d81 d52c 963f 4118 79eb 574e a6bf
000002b0: 3f70 160c f81b b83f 9082 d4f3 37c6 913f
000002c0: 5075 a6b1 3911 b9bf a68b 642d e341 bdbf
000002d0: 2485 9156 ce67 c1bf 82e9 a0e1 d43f ea3f
000002e0: ba4f bbe1 071b 91bf 6504 8714 7c21 bbbf
000002f0: da73 6307 fcef afbf c7a3 4176 5995 d93f
00000300: 54cc 4da7 3bfd 9bbf 8bbb d1ea ddea c0bf
00000310: d2e1 d1b0 3334 d13f 0d74 48a1 a8b9 c43f
00000320: a148 a909 e37c c7bf ee98 c90a 5594 cabf
00000330: c4b4 ef13 7c21 cbbf 8a5d e9ed d3b8 9fbf
00000340: bc83 c54a 3ed6 d1bf 7a73 2aed 0c68 b2bf
00000350: bbff 3ea2 130d d23f 1a18 8ae7 ed52 aabf
00000360: afed ffd6 3f11 d33f d219 2c9c e7fe b3bf
00000370: 704b ce74 2e28 b0bf 56dd bca0 ab8d 95bf
00000380: c594 c5e9 359b b53f 56a7 a655 ce67 b1bf
00000390: 4409 455d e511 a9bf 75c9 68dc 4c69 cb3f
000003a0: e830 2270 eccd b0bf a2e5 e975 eb1f cebf
000003b0: b92f 2aa6 7b49 a83f b92d 0a4e f560 d53f
000003c0: 5173 c022 e4b9 be3f 1862 1cab 9e8b 8f3f
000003d0: 0e36 229d 92c6 d73f 3061 475d ccd2 71bf
000003e0: 403c 4915 aa2e a03f 004b 1b4a cb6f cc3f
000003f0: 842a 2bbe f94e aa3f 4983 6506 fcef afbf
00000400: a0fb 516f 7be2 5cbf 4039 8477 3fc0 b5bf
00000410: 7452 844b 6322 bd3f 3ec7 5875 eb1f cebf
00000420: 4008 ebb1 3540 49bf 8cce cc61 d22b af3f
00000430: f627 6c9e 1a05 a6bf ff49 4649 cb6f cc3f
00000440: 3719 3914 bbca c93f 5335 1823 899c d3bf
00000450: fb19 8908 f81b b83f 860a 0f30 adb7 c0bf
00000460: ea3b ac6c 42b2 bbbf 0fd2 0e7e 96b3 a13f
00000470: 9311 2398 e3b7 c63f 286e b7ff bd6e b4bf
00000480: c0fa 5c0a 80ca 5ebf f0b1 50d2 0cde b83f
00000490: 5215 4611 b2e3 afbf f240 3c3f 7ce6 a73f
000004a0: 0499 7630 b451 98bf c12f ba86 bd85 bfbf
000004b0: 5089 6d92 1de4 acbf 10f5 b4f6 624f b0bf
000004c0: 2613 da96 0115 c83f 4865 7023 899c c3bf
000004d0: 0a23 9326 21fb 99bf dac0 b815 3463 d53f
000004e0: daf7 4f04 9efd d33f 5b65 2e80 21c0 bebf
000004f0: 3bd1 05aa 3bfd 9bbf cbf8 c7a1 130d d23f
00000500: bc93 c32c e341 bdbf aa5c 1138 17e8 d53f
00000510: 1842 dbb8 815b d43f cc96 69b4 e393 adbf
00000520: a286 6d61 301a c2bf f192 e90d b2e3 afbf
00000530: 19e8 2850 f560 d53f bf6a 8e16 585b c63f
00000540: bb5b cea4 37d7 b43f d26e e6c7 aee6 d4bf
00000550: ffb9 92d4 9763 b63f 9b4d 4718 3463 d53f
00000560: bb8b 2cfb 624f b0bf 166d ffa1 5f05 a83f
00000570: 1214 c4f0 37c6 913f b59e 8cf7 7284 b23f
00000580: ea06 f59f 5fff cd3f e1fa 4cb4 815b d43f
00000590: 9279 567a cad9 d53f a36c fd32 f14c b93f
000005a0: a686 03af 4013 c0bf 221a b066 507a b0bf
000005b0: 8c99 c677 607c 8a3f 9f91 6d48 c848 bc3f
000005c0: 9e95 fff8 e7fa a03f a097 7e26 eb17 663f
000005d0: 67ff 2506 a201 c73f 15b3 f4cd 4714 d23f
000005e0: 93a4 b5e0 4c69 cb3f 3057 9914 bbca c93f
000005f0: e230 b48e e3b7 c63f 3d72 accf 4714 d23f
00000600: 32a8 3765 ce7b d03f d43f 353c 17e8 d53f
00000610: 9b85 e25a d22b af3f 2e41 44d5 b88c aa3f
00000620: 3467 e62e f14c a93f 7074 b0a1 a8b9 c43f
00000630: a4ba a7e9 2022 9f3f d4d8 f4a8 22f7 c2bf
00000640: 4e93 27ae 22f7 c2bf 9cee bcbf e81a be3f
00000650: 746a 8afb 122b c83f a26e 70c0 e81a be3f
00000660: 989b 7b66 507a b0bf e76d 446e 0bfc d33f
00000670: 34fc a398 ed3d 97bf 4e79 9931 f121 b93f
00000680: 3001 5c0e 94c8 afbf 3bd3 06ab 4013 c0bf
00000690: cdcb 812b 1b35 b5bf 5c3b 7d86 2d3b 80bf
000006a0: 6c48 9c5b edcb 8fbf 6e36 c933 f121 c93f
000006b0: 7afa 4075 e135 bdbf 77f1 97d2 2adc a13f
000006c0: df47 92ed 977a c4bf 7342 36bc 06aa 93bf
000006d0: 3b1d f274 e135 bdbf 1136 9c12 94c8 afbf
000006e0: 6a8a c0f8 4c4a a9bf c014 ccee 1181 793f
000006f0: cce5 b0ae 241f aa3f 1d80 5528 e978 cf3f
00000700: f4ea f169 0bfc d33f 7a17 93bb e7f8 abbf
00000710: 1220 d2c4 a1dc b33f b3e6 810c cd9f d03f
00000720: aaf1 2aeb 977a c4bf 5e56 4ba4 a4a7 b4bf
00000730: b663 7124 1d42 b63f db57 ed28 e978 cf3f
00000740: 226e 09e9 071b a1bf 1a9e a448 c848 bc3f
00000750: 7ba6 dddd 04a6 b63f 3cd2 3a1c f9f0 b4bf
00000760: e526 de37 ee39 db3f fe58 dc15 d454 e03f
00000770: b281 998d ca26 98bf e15f a1e6 a5cd cdbf
00000780: 86b4 de27 a641 b6bf 3418 9dc6 adb8 98bf
00000790: 4b40 2830 ee39 db3f 3826 b6f9 611e 893f
000007a0: aa4e 9ec1 781b c73f 5c9c 6f61 f91f 99bf
000007b0: b052 abc0 2b50 763f e847 c264 3914 863f
000007c0: a21a 6683 108f b43f 7ccf 46c5 4d8e a1bf
000007d0: 76f4 7dc4 781b c73f 2cb4 9298 9e8b 8f3f
000007e0: 64c3 3ea8 3c9a 72bf 3740 256e ff65 d03f
000007f0: c0d2 2117 f9f0 b4bf 3e17 cbbe b974 be3f
-0.031015262838739736 -0.3624363462725331 0.08497441732384146 -0.21650744396152527 -0.17931756549211242 -0.07041478405960677 -0.3586351787456361 -0.06311318014791664
-0.17114984411617792 -0.45980470909886745 0.05185487362936506 0.292803971851456 0.14599968264657462 0.11441533635403628 0.09918199098586389 -0.13671331537782833
-0.08445538690649336 0.08847074830192063 -0.1780873696402939 0.11441533773711987 -0.21179502547448 -0.13880920234222083 -0.1367133164668662 0.06953747623239238
0.034768737627190544 -0.3623886674805014 0.7252628766126104 0.34292475159461855 -0.017124637057162537 0.6599177434004045 0.043325645059481506 -0.0869624651629509
0.027915373197943474 -0.034288816537934884 0.07445095802989857 -0.01552567907239367 0.17973733295167213 -0.17042355970139694 -0.09990683583280582 -0.14142422477629235
-0.04828398819772807 -0.0343816570291846 -0.00763664975543589 0.11337181475966236 0.3123545677277559 -0.05985425914756104 0.0074344997771172705 0.27072264370235183
-0.028884466089321142 0.23985732189191866 -0.035901769039665535 -0.14872791756436732 0.1846630998538059 0.26881115338487405 -0.012599203053808353 -0.08180755699230392
0.01489667393182223 -0.012124489150427156 0.02227025465008342 0.029783503275450127 -0.20765173948065158 0.4209070309906258 -0.10725121229295875 -0.09908333133308306
-0.033622771554692295 -0.04953644371624914 -0.033766004068145436 -0.21650744408359002 0.27072264398906726 -0.1711498439031685 0.003718917552189411 -0.09174937304357758
0.17466259980727344 -0.08068303139586146 0.14071599437574894 0.2979278191718155 -0.04668408535101335 -0.1321675684034112 -0.0742538554494658 -0.0818075574765178
0.2575565323728298 0.20206213252894584 -0.08551228428997729 -0.14872791777522062 0.021655403157140617 -0.04356646298815337 0.09417677207096718 0.017357706315240196
-0.09791908824123152 -0.11428661211225108 -0.13598040797209265 0.8202919394309875 -0.016704676773613626 -0.10597968579442492 -0.06237781133834348 0.3997405676696499
-0.027333194815082187 -0.1321675678804833 0.268811152148854 0.16191585421702862 -0.18349874469510488 -0.2076517393754282 -0.21195937131361664 -0.030978499790163684
-0.2787013750258287 -0.07190018453770888 0.28204813808769885 -0.05141395045670567 0.29792781826082665 -0.07810828745650802 -0.06311312057213825 -0.021048242269185856
0.08439957578009956 -0.06799020377243656 -0.04896466029687699 0.2141510082452204 -0.06564214456210815 -0.23534911401274622 0.04743563083056252 0.33404286023207025
0.12002397392684584 0.015403022381677053 0.3714949163921525 -0.004351423548051778 0.03160602102126875 0.2221616851662347 0.05138378569025284 -0.06237781122286507
-0.0017629819315343256 -0.08496472041972414 0.11380596727060227 -0.23534911374877682 -0.0007705938513356062 0.060881208837966744 -0.04300769027584288 0.22216168477878281
0.2014993523354833 -0.3064291804046963 0.09417677124393002 -0.1306053623830687 -0.10818877366203564 0.034573271644522056 0.1774868481499082 -0.07981479161338056
-0.0018793344874691725 0.09713821539543921 -0.06228405438290942 0.046680338591729056 -0.02374917550846424 -0.12313446559181697 -0.05642788326692261 -0.06371134303204351
0.1881410585957834 -0.15321459036275997 -0.025372045497337438 0.33417989846476603 0.31235456868296085 -0.12011918429779682 -0.02733319497333862 0.2820481376546808
-0.11428661196585116 0.342290692094546 0.31808512737646444 -0.05776893212605003 -0.14142422444551978 -0.0622840539915951 0.3340428622065033 0.17466260053045876
0.0814089562758075 -0.326579756941766 0.08745716991209206 0.3341799008460044 -0.06371134407213123 0.046915997052304245 0.017357706136881097 0.07233351272281648
0.23435588179022854 0.3180851231335691 0.3414179033951764 0.09883029456016117 -0.12558754487604523 -0.0643663645460966 0.012932542472140061 0.1104855706049137
0.03316426195651022 0.0026969521313330996 0.1797373323461173 0.28248782265545574 0.21415101024766567 0.20149935251054663 0.17748684375727125 0.28248782425524493
0.257556532712104 0.34229069595039374 0.06088120803293436 0.05185487368919649 0.049415146803950455 0.16191585440620626 0.03040362764471162 -0.14816697358919007
-0.14816697600977097 0.11759810143569854 0.18881451875934696 0.11759810159895293 -0.06436636449835331 0.3122585846737977 -0.022697174493256436 0.09817416630673856
-0.06207716632161675 -0.1255875430194012 -0.08284158527548798 -0.007925372759613296 -0.015525678976278288 0.196348333631636 -0.1141034041656698 0.034882868010728645
-0.1599912557617804 -0.019203286397500862 -0.11410340409394319 -0.0620771668164758 -0.04939499413037114 0.006226606416707969 0.05101885445078444 0.24587740392144122
0.31225858064833223 -0.0546333710167763 0.07758532576747282 0.2597534773009144 -0.15999125464248937 -0.08068303118792516 0.0869463170978538 0.24587740419764156
-0.03340935439765881 0.11048557065498024 0.08847074906011614 -0.08180195750430469 0.4254107995590018 0.5103550364463272 -0.02358547677283846 -0.23283838044403551
-0.08693922494303949 -0.02414199375859756 0.42541079237799256 0.012264981682864037 0.1805258698847088 -0.024536034175892105 0.005447550686501643 0.0107807620882205
0.0803079911039313 -0.03428881676828063 0.18052587122284408 0.015403021842155772 -0.004541623060433906 0.25622545009992187 -0.08180195631741594 0.11896859081306574
