L2minimization/data-non-smooth/model_OGA_2D_cone2d_relu2_neuron_1024_N_4096_randomized_trial3.pt (torch, 34550 bytes, 3 tensors)

fc1.weight f8 [1024, 2]
-0.008898363965672321 -0.03606697667314587 0.10462253014859847 0.8653636833703932 0.030615845392165386 -0.867906240940889 -0.8853940883290509 0.08899427104930757
0.840557008088763 -0.02803559183623662 -0.688818535462664 -0.6419739463533257 -0.6011721406112218 0.7102558354124188 -0.6326128689240311 -0.7289375392780679
0.68258648365448 -0.707363427973467 -0.13842585806776836 0.9705272739533003 0.18929183332205318 -0.9610069007703792 0.9407347490028398 -0.1923827330233431
-0.9798799366712205 0.056839719071939444 0.8598522141903615 0.4895017180515622 0.7417294005141115 -0.6555660893184178 0.9225051199813471 0.3375345953899113
0.3162324365228772 0.9192754361364708 0.3469027644161617 0.9275357912317 -0.5146437801193728 0.8532483911876662 0.6128906899176005 0.6227768068810245
-0.983810379324602 0.15290246561687354 -0.8743465674452425 0.4594179663529811 -0.48241084373506915 0.7860685367376813 -0.785191892299908 0.4783536367183792
-0.8562631400680532 -0.25416710485796823 -0.37826839063507467 -0.9248356813216998 -0.6891241970763888 -0.7141416241476689 0.6299047172870754 0.7659211717791076
-0.9503539529755518 -0.2788176541562417 0.47239084853991364 -0.8742144580524254 0.9958261020783968 -0.08028290496143052 -0.10213229112628401 -0.9881062692574704
0.14318086543524033 -0.9012906282603661 0.86639635585164 -0.38816549351419466 0.1275092293192059 -0.9911152149018605 -0.869658688869362 -0.4852671546644968
-0.6214722815624342 0.7807924760993016 -0.8855790451917896 0.44527206490812005 -0.20539365705917303 -0.9315814093959113 -0.1658206369129994 0.9106176031259258
0.9809109107359381 0.16931887884931046 0.9207168642241549 0.2188819376130225 -0.3853755000760273 -0.8475840651756188 0.7356798997794489 -0.4236663360566267
-0.24577975597576915 0.9655002679904471 0.5045755795501119 0.8536528783329466 -0.025584673527369498 0.9804654144901203 0.5428472238706216 -0.6898695702073109
-0.30851812898334297 0.7745306561338764 0.5135006124690452 0.5941222942142874 0.9851965642270072 0.15654160305471557 0.3325159137271711 -0.9409404986281067
-0.8329880938090998 -0.5507897500481607 -0.7565191382584548 -0.28261290613161155 -0.9418098519185112 0.32325196522129535 -0.7930996170215675 0.6011410683226055
0.9282007740549685 0.36955364245475514 0.7762273502874978 0.6237520455681719 -0.8177705525698984 0.5194829047492474 0.6933997013650475 -0.7182600095133211
-0.7588090316753795 0.4780325937447167 0.7375101450347842 0.6707797588849801 -0.3804255273162815 -0.8198312155997497 0.24333502184703074 0.8881783639683215
-0.32605475450476723 -0.9435524267717479 -0.9703100683818253 -0.02529308796656948 -0.5498033860293672 0.552348108877605 0.895879953486341 -0.0726482817450545
0.5622930157979552 -0.7939189786851338 -0.009222707132874325 -0.9312213117545449 0.8898937914858407 -0.39611965845170904 -0.621916154084454 -0.46881880841004525
0.5972224322793548 0.6809749206437116 -0.4819417533446759 -0.8632407512222772 -0.8166500804015092 0.572085607620267 0.008697785148181716 0.9966350389162245
-0.01885682494817112 0.9986791114428832 -0.3939749565919704 0.8909331135424576 -0.703226777718982 0.412710999745674 -0.9296604345566749 -0.3611934622937015
0.5934332972432718 0.7747515229012706 -0.22511679187329023 -0.97252106134398 0.3717140984202059 -0.6815585689761458 0.7749106209721609 -0.6308382425472738
-0.9966054516012056 -0.005650017874765065 -0.8736879862147864 -0.40128379608746273 -0.1572448146916722 -0.9851846975632635 -0.4206507976864861 -0.8756098977939222
0.45874271680009054 0.8332945878282214 0.8841591051954311 -0.46196028079085444 0.8924481661427375 -0.450867631842847 0.7868863280488816 0.5849905754342288
0.6566092412186773 0.7527653050980345 -0.49933757302589354 -0.8637702720027947 -0.5263698588883673 -0.8491189267614553 -0.6278516096588045 -0.7773904383356561
0.4222979492666382 -0.9062276605166798 0.4382272174576917 -0.8755405111449011 0.957757355131031 -0.2839623472305878 0.9879307524887413 -0.1521115314352654
0.9351118699851847 -0.2396774748711199 0.2014621634243094 -0.9792210259742736 -0.11481858574646753 -0.9640491787571351 -0.2679950433162812 -0.759276132384747
0.029739743629112112 0.8084912895630254 -0.3136516781387088 0.8199239566262234 -0.9603834286488687 -0.22805644137989714 -0.9033149916392328 -0.08487663565830751
-0.9358864247000226 -0.03543228467797824 -0.11229151405050632 -0.9804523533996229 0.9683689303183298 0.05761602009052582 -0.7118361295443523 0.7005372058746261
0.8874616886371727 0.45988097041348874 0.7749621213636035 0.48792611400070474 -0.9628065219900936 -0.26385846832815707 0.4353694046596737 -0.8480593204955714
0.9432900474430352 -0.33007549985913337 0.7746561019705319 0.6323056396245219 0.867794072371214 0.14476485797734434 -0.7613968502097583 -0.42072182482771253
0.41977629098940766 0.906528616114211 -0.6906092932115966 -0.7055288368214901 0.9978720558567094 0.0353990719939895 0.8664419222791866 -0.24798465203684936
0.5259459104453409 -0.850259342915439 0.5433937839358052 -0.8212242320599825 -0.03716119255935619 -0.9560099043186581 -0.3679968052991954 0.9197974116419283
00000000: 7584 c331 4e39 82bf 04b3 8dea 5e77 a2bf
00000010: a9ba 69c9 8ac8 ba3f 1d1a e72d 0fb1 eb3f
00000020: 3083 cb9a c259 9f3f b7bb 1a4f e3c5 ebbf
00000030: 833d aefb 2555 ecbf a829 b01b 54c8 b63f
00000040: 6846 85cf d7e5 ea3f a418 3eb8 5cb5 9cbf
00000050: b11a 562b cd0a e6bf 4917 0ff2 0c8b e4bf
00000060: dc20 665b cd3c e3bf c376 1c72 6aba e63f
00000070: 9ed6 e157 5d3e e4bf 22d5 80d1 7453 e7bf
00000080: ab9a ff9b bfd7 e53f 2d0a b1a0 b8a2 e6bf
00000090: d630 a942 f0b7 c1bf b52c b036 8f0e ef3f
000000a0: 2651 c2fc b63a c83f 4640 418b 91c0 eebf
000000b0: e5b1 a5c2 7f1a ee3f ed3e 5355 ff9f c8bf
000000c0: 5c4d 402b 2d5b efbf c53c 0e7d 181a ad3f
000000d0: c0e7 6aca e883 eb3f 6481 9703 ff53 df3f
000000e0: cc12 b64b 3fbc e73f afa7 3fbc 65fa e4bf
000000f0: 53cc 1675 2985 ed3f fff7 1db4 2a9a d53f
00000100: b735 33f9 263d d43f e81c c751 b46a ed3f
00000110: 53cd 03a7 a733 d63f 55b5 268a 5fae ed3f
00000120: 0e7b 963b f677 e0bf 2180 f091 cf4d eb3f
00000130: d001 a7ef cc9c e33f a35c 48a0 c9ed e33f
00000140: c043 95e7 5f7b efbf aeaf a6d8 4e92 c33f
00000150: 7582 11a7 a5fa ebbf 9393 2b9d 1a67 dd3f
00000160: 20fc 44bb d1df debf 497e 3634 7927 e93f
00000170: 1166 50bf 4a20 e9bf d932 6892 589d de3f
00000180: 0e9a ebf4 8166 ebbf de5f c51a 4644 d0bf
00000190: 3ed8 b89f 8c35 d8bf 246b aeff 4098 edbf
000001a0: 4269 2a30 4e0d e6bf 65a6 0d89 3fda e6bf
000001b0: fd02 0bf0 2d28 e43f 555e 031e 6d82 e83f
000001c0: 2af0 74b1 4c69 eebf f880 8900 26d8 d1bf
000001d0: ce26 5ad3 a63b de3f 26d1 6099 90f9 ebbf
000001e0: 83c1 9db3 cedd ef3f 77ba 3ca3 6b8d b4bf
000001f0: bbc0 4082 5725 babf 75de ed09 919e efbf
00000200: ec89 3a27 c053 c23f e239 9271 5fd7 ecbf
00000210: 3334 b8d9 84b9 eb3f 0f11 0515 b4d7 d8bf
00000220: 979c eef0 3852 c03f c049 5241 37b7 efbf
00000230: 6a09 6c75 3ed4 ebbf e3d8 c6f7 9d0e dfbf
00000240: 0dcc 95d6 19e3 e3bf 4be6 b980 40fc e83f
00000250: 7fe4 a3dd a956 ecbf b393 2667 567f dc3f
00000260: 99ff efdf 564a cabf 4758 ddd0 83cf edbf
00000270: 5388 4552 9c39 c5bf ebce 1287 c723 ed3f
00000280: 51d0 3c47 9f63 ef3f 0668 a0b3 3dac c53f
00000290: 47fd 9636 8376 ed3f 62d4 ddc5 5204 cc3f
000002a0: 4c65 6000 fea9 d8bf ce47 119e 681f ebbf
000002b0: c412 bc92 b08a e73f fde0 7168 591d dbbf
000002c0: 2ba7 f706 b675 cfbf e78a 69d1 60e5 ee3f
000002d0: 30e5 90af 7b25 e03f d370 52d7 1f51 eb3f
000002e0: 44c8 5060 de32 9abf 4903 4301 f95f ef3f
000002f0: 6ff5 2724 015f e13f a378 5159 6913 e6bf
00000300: 6838 8dd2 c2be d3bf 7f05 bb83 f4c8 e83f
00000310: 03fa 20d6 986e e03f 0232 efc1 0c03 e33f
00000320: e591 eff1 ba86 ef3f 69ad ca24 8e09 c43f
00000330: 7fe5 b6d3 f047 d53f 6cde a23f 2f1c eebf
00000340: 43c2 9ba5 d6a7 eabf 42b9 6dd3 11a0 e1bf
00000350: 04c8 b39f 6735 e8bf 8bd1 5071 5416 d2bf
00000360: aa4c 216a 4e23 eebf 7990 bf02 29b0 d43f
00000370: fd7c b272 1261 e9bf 884c 9731 8c3c e33f
00000380: e403 161c d2b3 ed3f 937e 1d52 c4a6 d73f
00000390: 75db 77bd dad6 e83f a7e8 90d9 c6f5 e33f
000003a0: 0e6d 5d26 2d2b eabf cb54 d79c 9a9f e03f
000003b0: d268 0d92 5430 e63f b44c 5c6a fcfb e6bf
000003c0: dc90 dee0 2948 e8bf 278f 2305 1698 de3f
000003d0: 4d90 2ce0 ae99 e73f 275a e71c 0777 e53f
000003e0: 57c4 984f e458 d8bf 0bb5 67ac 0e3c eabf
000003f0: f9f7 661c 9a25 cf3f 7b47 4808 f56b ec3f
00000400: 0169 d3c2 14de d4bf 9679 e1db 9431 eebf
00000410: 2abe 55b3 c70c efbf df6a 8666 6ee6 99bf
00000420: fe3c 4745 fd97 e1bf 5860 f4f0 d5ac e13f
00000430: edb4 ab6f 0cab ec3f 64a2 34ea 1399 b2bf
00000440: bfe2 33ec 4dfe e13f 3b0b 24c6 c867 e9bf
00000450: 0358 21cc 5ae3 82bf 225e eaa2 90cc edbf
00000460: 4c0b 6b8b 027a ec3f f493 9644 065a d9bf
00000470: ceb2 d4b4 bce6 e3bf bfbb 779a 2001 debf
00000480: 177a e237 721c e33f 31f3 b1ea 8bca e53f
00000490: 584e 4c39 22d8 debf 755f 6211 ab9f ebbf
000004a0: 4535 7359 ff21 eabf 04b9 e779 864e e23f
000004b0: e895 12f6 24d0 813f 012c 462a 6fe4 ef3f
000004c0: 88cd d519 344f 93bf 860e 5be5 2df5 ef3f
000004d0: a55a 80bc e236 d9bf 70d3 3229 8682 ec3f
000004e0: 042f 7f71 d580 e6bf 49db a665 db69 da3f
000004f0: 4dcb 593d c7bf edbf 3526 052f cb1d d7bf
00000500: b78d 80d3 67fd e23f 8d63 acb4 c3ca e83f
00000510: fb27 7085 a0d0 ccbf 6798 247d e41e efbf
00000520: 7d52 0bee 29ca d73f 95f4 81ea 53cf e5bf
00000530: 5fc0 cc5b 11cc e83f 22d0 99ae d32f e4bf
00000540: 458f b41d 31e4 efbf 9724 e71f 7924 77bf
00000550: 5e6b f681 40f5 ebbf 8d10 273b a2ae d9bf
00000560: ed7c 481c 9920 c4bf 49b9 110f a286 efbf
00000570: a362 c652 f1eb dabf 8485 620c ff04 ecbf
00000580: 23d0 7b69 0a5c dd3f 0afe 5469 59aa ea3f
00000590: cdcc 2809 084b ec3f 770d 83da c190 ddbf
000005a0: d6a9 de74 ef8e ec3f 7fc2 65e9 03db dcbf
000005b0: 9276 943c 2c2e e93f daa9 be27 3eb8 e23f
000005c0: 9623 2962 f102 e53f 64b4 de43 a716 e83f
000005d0: b8da 7394 25f5 dfbf f449 b08d 01a4 ebbf
000005e0: 4fd2 309a 05d8 e0bf bb5c 9b74 fb2b ebbf
000005f0: 7c37 4742 5c17 e4bf effd 9be9 61e0 e8bf
00000600: 3228 51fa ed06 db3f 97ca 9426 d1ff ecbf
00000610: d7a9 cc2b ea0b dc3f 5c18 b688 6d04 ecbf
00000620: ce51 b9c0 f2a5 ee3f 3aa6 a968 702c d2bf
00000630: aadb 14f4 209d ef3f c6f1 6d02 6478 c3bf
00000640: 3b02 76ba 6fec ed3f a864 1462 c0ad cebf
00000650: eef7 a41d 83c9 c93f abae 4355 c755 efbf
00000660: 6809 c136 c064 bdbf f5eb cfa9 7dd9 eebf
00000670: 6025 a2ae d426 d1bf 343a a775 fd4b e8bf
00000680: d924 1d69 1874 9e3f 1ac5 f81f 29df e93f
00000690: cf3d fc7c de12 d4bf 6554 5d2a d13c ea3f
000006a0: 095a 3507 76bb eebf d134 af16 f430 cdbf
000006b0: ef76 62d7 f4e7 ecbf f1d0 58a6 79ba b5bf
000006c0: 3f6c 5b16 c8f2 edbf 8436 d42f 2e24 a2bf
000006d0: 911a 77fc 22bf bcbf 5767 249d dd5f efbf
000006e0: 58c0 c5d6 e0fc ee3f e36a 07d4 d87f ad3f
000006f0: 8222 1090 5cc7 e6bf 8d9b 9b00 cd6a e63f
00000700: 74c9 240e 1666 ec3f a8a2 fe97 b06e dd3f
00000710: 9ca7 dc5c 7dcc e83f 50d5 9f73 2e3a df3f
00000720: aa55 8a9f 4fcf eebf 587e 0fa1 0ee3 d0bf
00000730: 754e aca2 17dd db3f 3716 d34c 4d23 ebbf
00000740: be1f 0d9c 6e2f ee3f edc5 46fd f41f d5bf
00000750: 6187 f397 fbc9 e83f 1870 6809 d93b e43f
00000760: 99e7 0f13 f8c4 eb3f 36b7 4fa5 a787 c23f
00000770: d2b4 5ded 5c5d e8bf 454d 963b 1bed dabf
00000780: 45e2 5b60 9ddd da3f 5828 e34c 4802 ed3f
00000790: 180a 15a9 7819 e6bf 2510 1136 b193 e6bf
000007a0: 36e6 af60 91ee ef3f 0fbe 0bc1 d31f a23f
000007b0: c251 0269 e4b9 eb3f 2740 3409 f6bd cfbf
000007c0: 637c 9a84 8cd4 e03f 9c16 de14 5335 ebbf
000007d0: c053 5b5c 7b63 e13f be2b 6c0a 7847 eabf
000007e0: f911 72b5 ca06 a3bf 586c 3615 a297 eebf
000007f0: b5b8 f278 428d d7bf 2e52 3efb fa6e ed3f

fc1.bias f8 [1024]
0.9993097579391453 0.490101848281489 0.4957836493338388 0.4562426197456474 0.5409971550232581 0.3367469040787276 0.36623586063564073 -0.2616314619898414
0.18361011164377072 -0.19726908610062982 -0.2015796083667356 -0.2792973613427683 -0.19132317174097796 -0.14505942843021946 -0.14167074132908683 0.187229005560488
-0.2343708996588651 0.13905332798825498 0.08431466373117948 -0.48632710290852893 0.09347712844040214 -0.15637522882097746 -0.3864919577402604 0.3932575371239444
-0.4496804618492072 0.039899714291930885 -0.12292103832766826 -0.12878200868137038 0.13815961709035302 0.11223175819635293 0.04341692746268702 0.11495649509000902
-0.4088697141917583 0.31414153531788797 -0.037842135622357706 -0.0906065862829278 -0.06430639560964628 0.13222156756617737 -0.29994920121211605 -0.3785222546310338
0.09562898339104617 -0.32306524622745847 0.36481087758114367 -0.5284713055151183 -0.08603222688543002 0.12915203380335946 0.19502050012553684 0.47895393060078273
-0.5521945552044535 0.6191411959411739 -0.06987457583671237 -0.06375064830787479 0.0525498507530429 -0.5897531167671178 -0.09220829577539456 -0.09809390121816687
-0.0432831190209336 0.09167598548786689 0.24776770375254167 -0.05744051602124318 -0.4423727984014971 -0.0783153946614565 -0.4279640126159747 -0.38977847672910415
-0.05828477501013015 0.24053821088960653 0.6266001941668835 0.43831647938538976 -0.23134221332993798 0.3643374949237122 -0.2262261171108596 0.6272393659280219
0.4237906603933389 0.15015842238202304 0.07616235115828854 0.08150428048864501 -0.04779594669558679 -0.22588032400343638 -0.5789142680811242 -0.07259999460180837
-0.21816736576569068 0.059373523215792985 0.6303225730456129 0.039454293104895774 -0.08213191302272144 -0.275028394427897 -0.06844837426675994 -0.23740306082913068
0.30850486167816954 0.06968052577047212 -0.015957734954810163 0.19645847750320605 0.046996806135053595 0.06754928103857634 -0.04395247284641288 0.038294420391809136
0.02039287521801254 -0.20343480337300732 0.04545584723340729 -0.029238849010311384 0.2609990395618623 0.023220228213514965 0.2396369614747989 -0.5930247984264778
0.5877562269764487 0.478902213558437 -0.16016844109181094 -0.420497303914234 0.35051555352752534 -0.16156670011294416 0.24277975414573127 -0.050368123458076515
0.030352005746011768 0.40169866532986453 -0.05815762980777566 -0.3020742796182274 -0.03541257951151686 0.009874298903976573 -0.47536994420365253 0.4932220418881323
0.04465124510279173 0.1590215851483514 -0.05475642284032765 -0.43333821395223204 -0.020974962951747347 0.17410903554215573 -0.2909709755494466 0.13620232313141833
-0.006606489406032112 0.18577239857892505 -0.2720386780843882 -0.3358605021431687 -0.357597347048027 0.13676848009856715 -0.11938246851520408 0.2874386845117645
-0.24318911033576784 -0.4975823882848694 0.3104599992182882 0.508408138576566 -0.4880769462021784 0.019405295595599007 -0.02485890983002707 -0.05706284769657645
0.44369142414763135 0.5888480473910701 -0.6422728724528503 0.0574902198018054 -0.23950086074504162 0.024026895475862915 0.36342098412656637 -0.5837619164679289
0.04086228611204442 -0.02546077870950732 0.1455443781903221 0.6321767530525859 -0.5106048983542918 0.5380540979117348 0.048249070485696544 0.16551104434045796
-0.036473357977302716 -0.04167513871066153 0.15901174777070673 -0.04088866623431039 -0.051110591120262824 -0.08642708090218873 0.3710479385999863 -0.32645728742073404
0.15164904489634434 0.15101398442449113 0.22587883871338102 0.22482890246572435 -0.35480948691174186 0.2633330361434335 0.37862502764036576 -0.11886286420693988
0.10837194668116339 0.033053494331883294 0.02527550876412646 -0.22626550820838884 0.3131358376528622 0.04854894260910568 0.02147643983868332 0.03719062493118411
0.27256943064475536 -0.401496607830362 -0.03237724064416607 -0.029015898444899314 -0.04891456319510676 -0.13901817827581583 0.03609025192046985 -0.042940937361221905
-0.12514771308998301 -0.02025087151598223 -0.13055460329940963 0.13647329650360412 0.48358762603513017 0.5115429211015541 0.12921791568805763 -0.12287488664095723
-0.4620680444350527 0.019655524841249376 -0.7006538090177817 -0.1282497035434106 0.22316294140981904 0.2809930039113865 -0.02913426690392472 -0.12599759049609718
0.025082286461663775 0.0975278532925998 0.19589767651245907 -0.05291971906757182 -0.6205016328075891 0.022471227794678125 -0.18216972352772115 0.028548810860023012
0.7014470343669592 0.024122680766117323 -0.3534665504555131 -0.23222420211124978 -0.5417697272605899 -0.33798082393864837 -0.3567538932007904 0.30722127527793636
0.022343317806476633 -0.2918571219434079 0.0365092440965492 -0.31739949401153994 0.3897007929849169 0.11780419630941556 0.11517996178677298 0.2898662284033087
0.09276295839697654 -0.0780925984272188 -0.10730120358742422 0.4332637804893459 0.3235359226096119 0.11060469153468958 0.029411013154402404 -0.01682057562232375
-0.02145733350334992 0.030394701954431076 0.19440828138333666 -0.029316213385497128 0.043073781560534916 -0.05427020215503386 0.15946829552250302 -0.17688774905452267
-0.005844561755360845 0.03320665811136796 -0.32928998270337584 -0.03459080871325446 -0.09650080074632963 0.1888999206662653 -0.17894938800316157 0.008858371454681088
00000000: 8783 1d75 58fa ef3f 6500 8524 d45d df3f
00000010: 94f1 f157 ebba df3f b254 b63e 1433 dd3f
00000020: d7b9 0144 d94f e13f 5708 03e3 428d d53f
00000030: 025c 0389 6870 d73f 5f77 36e3 91be d0bf
00000040: a8c9 5c40 8980 c73f 9631 a808 1d40 c9bf
00000050: 08e1 bc50 5ccd c9bf d8e1 340a 02e0 d1bf
00000060: 4e18 cc16 477d c8bf 8cc8 8aae 4e91 c2bf
00000070: 0b7d 6750 4422 c2bf d258 dfbb 1ef7 c73f
00000080: 469f 959a ddff cdbf a404 0edc 7fcc c13f
00000090: 8974 4c53 a595 b53f bfa2 89b6 fb1f dfbf
000000a0: 3155 93f9 1dee b73f 1166 d87e 1a04 c4bf
000000b0: e954 aac3 48bc d8bf 0c95 36a9 212b d93f
000000c0: a8b8 528f 90c7 dcbf 26d6 0140 bc6d a43f
000000d0: 1492 9bcf c077 bfbf 1dc2 ccc9 ed7b c0bf
000000e0: 22f6 83de 36af c13f 6ba2 0673 38bb bc3f
000000f0: 2410 1757 be3a a63f eed6 dff2 c96d bd3f
00000100: 70d2 b1e0 eb2a dabf 0f5b 2019 e51a d43f
00000110: 3e51 d15d 0b60 a3bf 252b e344 fe31 b7bf
00000120: 6b2b 114a 6276 b0bf 1ae4 42e6 a2ec c03f
00000130: 0fb6 6a22 5e32 d3bf cfb3 1c68 b539 d8bf
00000140: 6eda 361c 247b b83f 0e5a c1da 19ad d4bf
00000150: 99e8 1bb9 0f59 d73f bdfa c1a7 3ce9 e0bf
00000160: 4afe df40 3506 b6bf 3bdb b2c8 0d88 c03f
00000170: fc5b 0b87 6ef6 c83f 1e25 0e63 2ea7 de3f
00000180: 933c 74ea 93ab e1bf b48e 8532 01d0 e33f
00000190: 9561 0ada 4ce3 b1bf 47c4 9465 f651 b0bf
000001a0: 66ba c964 d0e7 aa3f a952 a7ed 41df e2bf
000001b0: 7774 c67e f69a b7bf e948 ab91 ae1c b9bf
000001c0: acdb 5379 3429 a6bf c5bb 7fcf 1378 b73f
000001d0: b1a3 4f24 dab6 cf3f f99e 8de3 d768 adbf
000001e0: 4890 71ff d54f dcbf 4d23 d84a 7a0c b4bf
000001f0: 183c 832b c363 dbbf e41d 8f6c 21f2 d8bf
00000200: 6be4 0b85 80d7 adbf 6ec7 9ac2 f4c9 ce3f
00000210: 02a6 b3d9 1b0d e43f d484 1090 600d dc3f
00000220: f4d9 3724 9f9c cdbf a9d9 5936 4e51 d73f
00000230: ac00 3f37 faf4 ccbf 9396 6d4a 5812 e43f
00000240: 2656 afdc 621f db3f 64c4 ac24 6438 c33f
00000250: 124c 6937 607f b33f 21c8 2eeb 76dd b43f
00000260: 18b8 e0d7 b578 a8bf 58cb 337e a5e9 ccbf
00000270: 1d14 1337 7786 e2bf c329 81ca e995 b2bf
00000280: 7a51 8282 e8ec cbbf d995 ebd8 3466 ae3f
00000290: d52a a53e 9a2b e43f de07 2565 5a33 a43f
000002a0: 24f8 63d8 9806 b5bf 5b82 e2b1 109a d1bf
000002b0: 85aa f028 d585 b1bf 019f 1d37 3963 cebf
000002c0: bb24 e42c 8bbe d33f e82d 5a3b 95d6 b13f
000002d0: 0c20 ff76 3957 90bf eef8 f227 8d25 c93f
000002e0: daa6 bb22 f70f a83f d5d2 ede0 e84a b13f
000002f0: 9c47 e842 f080 a6bf 1879 6786 539b a33f
00000300: 93f5 87b0 dee1 943f 0f79 add1 260a cabf
00000310: e814 8f22 fd45 a73f 237f 16f1 c9f0 9dbf
00000320: b228 cd50 35b4 d03f f87c 2123 0bc7 973f
00000330: b239 3988 6cac ce3f caad 5e24 0ffa e2bf
00000340: 5e4b 9c25 e6ce e23f aaca 4d78 55a6 de3f
00000350: c899 2b44 6680 c4bf 2a8a 1786 6de9 dabf
00000360: b9f6 c8c9 d86e d63f 40ca 8db6 37ae c4bf
00000370: 40ea 1730 6813 cf3f 11d3 06c6 d9c9 a9bf
00000380: 7041 30a0 9814 9f3f 4e12 9c51 6eb5 d93f
00000390: 3715 133c d6c6 adbf 3013 fb5b 2f55 d3bf
000003a0: ede8 bcfd 9821 a2bf e576 e8f6 f938 843f
000003b0: 3cc9 f60e 766c debf 0fdb e42e f390 df3f
000003c0: 3164 e22a 87dc a63f e8fd c8bd d15a c43f
000003d0: 1db8 b0aa 0809 acbf 720a 4234 d0bb dbbf
000003e0: d477 a6ef 757a 95bf 88bb cb72 3449 c63f
000003f0: 567c 04ba 449f d2bf 9c8c bee5 136f c13f
00000400: 5961 0bff 670f 7bbf d1ae 32d4 63c7 c73f
00000410: 34a6 67ea 1469 d1bf 6946 2e0c bd7e d5bf
00000420: f149 adfb dfe2 d6bf 01d0 922a a181 c13f
00000430: b111 fd75 d98f bebf a154 6539 6565 d23f
00000440: b456 d11d d220 cfbf 0df1 2fcd 63d8 dfbf
00000450: 7df5 d69d 93de d33f 5c9c 0625 e144 e03f
00000460: 91ac 7716 a73c dfbf 812a cf57 fbde 933f
00000470: abcc ef32 9d74 99bf 22cb 5871 5737 adbf
00000480: 15b4 0eb7 7065 dc3f 9775 3bdc d7d7 e23f
00000490: 0560 c9d6 7f8d e4bf 57f7 c6ab 5b6f ad3f
000004a0: 54c4 21d6 f6a7 cebf 8547 2ca9 819a 983f
000004b0: 3d3d 6016 4a42 d73f 4629 7c78 2dae e2bf
000004c0: bb67 fbcc e6eb a43f f556 8def 6312 9abf
000004d0: e9d7 38bc 32a1 c23f d8df f4bd ca3a e43f
000004e0: a57d 7315 e056 e0bf 524f 403a bd37 e13f
000004f0: 78d0 9827 1ab4 a83f 61d7 4845 772f c53f
00000500: 6729 60cf a2ac a2bf a019 a39b 7156 a5bf
00000510: 3170 2d38 7f5a c43f 9bc0 81f8 5bef a4bf
00000520: ae77 aeda 2a2b aabf 8eb1 f6cd 1520 b6bf
00000530: 0440 62da 3fbf d73f c3d3 401b ade4 d4bf
00000540: e053 2664 3c69 c33f 81c1 2b1e 6d54 c33f
00000550: 79f3 9008 99e9 cc3f 0e97 a487 31c7 cc3f
00000560: 962c a6d9 32b5 d6bf d250 8cce 72da d03f
00000570: dc65 ca77 643b d83f 454a 7af2 cb6d bebf
00000580: eba8 cc8e 43be bb3f 4d11 593a 63ec a03f
00000590: e871 20ae d2e1 993f 7fe2 fba6 44f6 ccbf
000005a0: c92c 7be5 6a0a d43f fee1 8531 68db a83f
000005b0: c574 f77a ebfd 953f 942f 984b a60a a33f
000005c0: 528c a00d c771 d13f a286 05d4 1eb2 d9bf
000005d0: e61f 67eb bf93 a0bf 2d23 8afb 57b6 9dbf
000005e0: 2c35 7162 540b a9bf 8b3f 9f00 59cb c1bf
000005f0: ebd7 67e7 6b7a a23f 5987 40c3 5afc a5bf
00000600: 6a01 721b d704 c0bf 57ae 81fb a4bc 94bf
00000610: 21b1 c163 03b6 c0bf 3651 a1fc f477 c13f
00000620: ec8d a483 19f3 de3f 1c35 9442 8f5e e03f
00000630: c4ff f770 368a c03f ef63 9f83 ba74 bfbf
00000640: b503 d8d8 8592 ddbf 8ef9 83f1 9320 943f
00000650: 1193 7189 c16b e6bf 0467 387d 7c6a c0bf
00000660: 2765 846f 9a90 cc3f b211 8d14 cafb d13f
00000670: fc60 2e8e 5fd5 9dbf dd1b 4765 b020 c0bf
00000680: 413b 3fc0 2baf 993f ce3e 57dc 95f7 b83f
00000690: 05e0 fdd0 2c13 c93f 79de 6a1d 4b18 abbf
000006a0: 05be 803d 26db e3bf 7c9b ea91 b202 973f
000006b0: fabb 6f66 5651 c7bf 9a17 ef43 e63b 9d3f
000006c0: d26e 0f0d 4172 e63f dae5 edb3 9db3 983f
000006d0: 5eed 9b2a 329f d6bf 5a29 b4cc 85b9 cdbf
000006e0: a081 9177 2d56 e1bf d876 5f52 7aa1 d5bf
000006f0: 1528 0148 0ed5 d6bf cb10 7d6c 83a9 d33f
00000700: 2f43 0dad 2ae1 963f f580 767e c9ad d2bf
00000710: afef caf2 56b1 a23f 0dfa a2f7 4550 d4bf
00000720: 6a1c 4698 dbf0 d83f 4b02 7b72 6a28 be3f
00000730: 2c5a 0719 6f7c bd3f c140 cd14 2b8d d23f
00000740: 8660 9830 50bf b73f 06f8 4d64 e0fd b3bf
00000750: 97bb 3a78 1778 bbbf 5a8e ef01 98ba db3f
00000760: 4720 ac03 d0b4 d43f 0af8 eccc 9650 bc3f
00000770: dbc0 8fae eb1d 9e3f 9f85 cab8 6939 91bf
00000780: ca00 a046 e9f8 95bf 45bb 76eb c91f 9f3f
00000790: ac76 4edd 5ee2 c83f b4dd eec6 1105 9ebf
000007a0: e62e 3c46 c40d a63f 7f6d cece 4dc9 abbf
000007b0: 464e 0205 7569 c43f 1149 a0fc 41a4 c6bf
000007c0: f462 9499 77f0 77bf 0610 328d 7600 a13f
000007d0: 4221 a74a 1613 d5bf 1dcc 54f0 e2b5 a1bf
000007e0: ca48 3ec7 46b4 b8bf e542 bd62 df2d c83f
000007f0: 0670 8e44 d0e7 c6bf 98a5 8c7d 5624 823f

fc2.weight f8 [1, 1024]
-0.012431093789447813 0.0028422568953517103 -0.004525703155946672 -0.007644539418585841 0.00482041550645315 0.0014238897125399452 0.0053074116179191114 -0.009650331177233233
0.04088932394746976 0.0017442306317364531 0.009394991514683785 0.0006445045901440836 -0.04214617718871709 -0.016845651678361738 0.010173284561300039 -0.0057736162233731165
0.007784649704818976 -0.03304744386212977 -0.044783834383614704 0.0037261230508285567 -0.09764025991713861 -0.046724961187731895 0.010397452570133978 0.008187389801156028
0.008727060362265419 -0.21664373900287642 -0.014241613919281073 -0.009548160346567101 0.0073841817860732855 0.025700334240685026 -0.601150625321528 -0.023582813404323996
-0.0023623311599578756 -0.0024251446157339267 0.06262196598147765 -0.0367981584276082 0.052313623318355866 0.19192690314248484 -0.002515808794352074 0.031913764914258576
0.01707788886691994 -0.015740270007844167 0.0007549378434278405 0.0038213883433079496 -0.09316755887348004 0.016657122654389678 0.02260142878605456 -0.008516390704972756
0.0018768262469451835 0.005714474522382375 -0.047449849443405724 -0.08461199801725756 -0.035054986676658274 0.005749598725552027 -0.05921904758405136 -0.10164213181331795
0.6090548113935925 -0.07043740601439087 0.04179266588336597 -0.1957332164740041 -0.0026719469681218597 -0.009869743428795317 0.002045428999396754 -0.006935421525593375
-0.15002027237471846 -0.0030425483757446103 0.003332323003104434 0.00872989742725698 -0.010178704207847257 -0.004577542246320495 0.009772974899238214 0.0017183905865177543
0.004480165883022584 -0.02577245927171511 0.09652779681423351 0.013744134624986571 0.0845631337437316 -0.02919434665891187 0.0016874800598901572 -0.09780043236043681
-0.009133597703379709 0.21110686446658194 7.912921049716983e-05 0.33655084445312017 -0.009559126178165797 0.0004116540244526895 -0.06106093410688616 0.011117225413803378
-0.003022680716095455 -0.014323430554095873 -1.423509890256345 0.0013256632285709676 -0.23854670331563105 0.10388165808891477 0.15505642914483414 -0.11984696692830307
0.7892457560818047 0.01824535789679609 0.3256391981021758 -0.6303023162947747 0.0037310154944098536 -0.06453651437443071 -0.021586591064063024 0.0027834315393147585
-0.0017862798297427734 -0.0019423677239043717 0.005132097919745406 -0.009183654286111509 -0.015462027457190277 -0.022045605108145048 -0.015682193997503747 0.05625088454816872
0.040057810395817295 0.0037907496670859923 -0.07331765044310065 0.0048315207054199704 0.07512719602373413 0.8461705809668817 0.0047635369485094165 -0.00462290206654385
-0.13563870675838158 -0.006608018066247339 -0.2938088426305492 0.0038356471093873665 -0.7926126389493818 0.017850126447323547 0.0022632150351204676 0.05545834369986383
-1.0845381544753394 0.032678976191506885 0.02241573814258739 0.0020667783689757454 0.008245382918504402 0.01102059383554085 0.01116739840000376 -0.00856618871926899
-0.0060910297418127505 -0.0010193817531097 -0.003624013831681634 0.001208249962080743 -0.0031184642248172287 0.6805920784011399 -0.21251410135813997 0.014147781027184371
-0.0064082179519456784 -0.00409658885326786 0.002084008916895129 0.11736841453846358 -0.007701049667869702 -0.4593898368617162 -0.00091471548932034 0.003738304541478183
-0.516109677328053 -0.6230715782266733 -0.010081592434187405 -0.003970360954158174 0.0009422013971017569 -0.0075681914120517635 -0.25702729337348246 0.027299935685913164
-0.633322205006131 -0.05360041189660014 0.00241675803174817 0.3036323589904572 0.274334662739559 -0.018943960491985237 0.011366241061926144 0.011643929915409678
-0.0014361546188824633 -0.002113199688467408 0.0007341314852521015 0.03163738978607018 -0.004487945252297363 -0.005769183361793763 -0.003478135137492096 0.02576505002429877
-0.024322374835269767 0.3135332517411832 -0.3057005977350118 -0.00022631717445026516 -0.02622616025929977 0.05413054609172459 0.38498758212675904 -0.09435295708039013
-0.008839122392861358 -0.007892941931703071 -0.37499966531056034 0.5149821110139283 0.10033542036282468 -0.0045439308035530234 -0.11874699817906609 0.1582347243498386
-0.056959834438650485 -1.063401974601918 -0.004774966519466602 -0.029567782387354937 0.0008720015552399624 0.005337626589609844 -0.04539195645420846 -0.010754960035232948
-0.0011234553914396758 1.1476356377373007 0.0032057169200333194 0.11603892972148537 -2.538856634082451e-05 0.007410465274056606 -0.5675098953980031 0.043496933532791444
0.29716069634138215 -0.07855843450819802 0.00306551492064832 0.20000295939889 0.001848598695895685 -0.40387073092488224 -0.02255740312946814 0.2891963515988661
-0.0024379247343128347 0.5700045554572243 -0.009188072044474992 0.001880466806927935 0.0007342971939488735 -0.004840520858149032 0.0013123139545521273 -0.007559799520258881
0.26478651441364814 0.0012956320088885974 0.15769391491510057 0.009605013852892606 -0.006926782819364135 -0.054518132469324125 -0.003794316492678478 -0.00021343181544254417
0.03898824407317841 0.13180137678280074 0.08752950404157016 0.0037537751415321514 0.01771365571880763 0.008879370807813154 -0.023907887307403345 -0.676117245511259
-1.42056015718716 0.8397392238399132 -0.021744616479994136 -0.35501163579024486 0.21147294775207418 0.14057911856356178 -0.040776410624761915 -0.016602696027102917
-0.8354113476606186 -0.0032455552797042942 0.009970152003611387 0.21983190947922204 0.018779059954420176 -0.018140387531576187 -0.008885575382529669 1.0509365849968395
00000000: 6ec6 3b2a 7975 89bf 5f1a 320d a548 673f
00000010: e936 bd30 8b89 72bf 43a2 bb6c e14f 7fbf
00000020: 5ee9 406f 92be 733f 52ee e6ef 3954 573f
00000030: 5aba 3475 39bd 753f bc0e 6a86 8dc3 83bf
00000040: 0a49 380a 72ef a43f fb81 4761 d593 5c3f
00000050: 6f03 6a6a ae3d 833f c15b 8211 7f1e 453f
00000060: a69a 5a09 2f94 a5bf c64a 278c fc3f 91bf
00000070: 7096 de23 bbd5 843f 6ba3 be4d 13a6 77bf
00000080: 95c8 49fe cbe2 7f3f 615f 3535 98eb a0bf
00000090: a65b 2220 e8ed a6bf 3520 9d14 3f86 6e3f
000000a0: fdf6 1dbb f3fe b8bf 4896 6a88 55ec a7bf
000000b0: e5e4 0076 424b 853f a50b 7cdb 8cc4 803f
000000c0: 2fe9 c436 7edf 813f 0a44 f366 fbba cbbf
000000d0: 5b5e 3410 b52a 8dbf ac5c 6763 fc8d 83bf
000000e0: a763 7634 e03e 7e3f 9273 3d3c 3051 9a3f
000000f0: ac3a 773c a03c e3bf 5fe7 46d1 1726 98bf
00000100: 0000 61e2 2a5a 63bf c135 019a e5dd 63bf
00000110: ead3 e63f fe07 b03f 19cc ff4d 35d7 a2bf
00000120: 7f40 93ea d9c8 aa3f a019 1c8e 0f91 c83f
00000130: d6d6 d48f 089c 64bf 91ac 3241 0057 a03f
00000140: d92d acb8 dd7c 913f 7fd5 a7a3 371e 90bf
00000150: 116c 8cac e0bc 483f 47df b63e 084e 6f3f
00000160: 77e5 6842 d4d9 b7bf 802b 2f94 900e 913f
00000170: 0879 ea35 d424 973f 6e68 769c 0a71 81bf
00000180: fb35 75d6 fabf 5e3f 75d3 ff92 0f68 773f
00000190: 857d 1ebf 584b a8bf a555 55c4 21a9 b5bf
000001a0: 7d09 ad2a baf2 a1bf fda5 dc27 e48c 773f
000001b0: 2cf8 5881 f551 aebf 19af 0800 3805 babf
000001c0: 8e05 0d84 607d e33f b133 3f93 2f08 b2bf
000001d0: 5409 5d2a d965 a53f 0c95 bf39 c90d c9bf
000001e0: ab06 089b 7ae3 65bf 7f02 f989 9636 84bf
000001f0: 0e10 1455 93c1 603f a4af 2e0a 5168 7cbf
00000200: 1310 cb41 dd33 c3bf 4578 a6b8 afec 68bf
00000210: 8666 2d4a 634c 6b3f 987c 94ff fae0 813f
00000220: b4c3 818d 92d8 84bf af71 e7a3 e6bf 72bf
00000230: 3767 9d7c da03 843f 4ef9 bbd7 7327 5c3f
00000240: 85fa 2b5f cb59 723f 5d89 d676 1864 9abf
00000250: 50d9 78b2 0bb6 b83f ba21 cf85 e225 8c3f
00000260: f168 e0f5 eda5 b53f 2530 8370 1fe5 9dbf
00000270: d151 dfea cda5 5b3f 0ad2 85fa 7209 b9bf
00000280: 705a 72bb a2b4 82bf 622b 6cbb 8c05 cb3f
00000290: 3d4b 277c 45be 143f 6782 978d 0c8a d53f
000002a0: 852b 8232 bc93 83bf 29ab 8192 68fa 3a3f
000002b0: 5dc5 1af6 6043 afbf 5aab 98bc a0c4 863f
000002c0: f3d6 4c5a 05c3 68bf adf6 5e4e 9a55 8dbf
000002d0: d3ef 824e b2c6 f6bf ea0b 950d 3cb8 553f
000002e0: 8295 a7c8 b288 cebf 9d69 2504 fd97 ba3f
000002f0: d615 1b9a e3d8 c33f de5a 7b73 4aae bebf
00000300: c219 dc50 8041 e93f 0dd9 e13d e9ae 923f
00000310: a83f 89ca 45d7 d43f 0888 62c3 6f2b e4bf
00000320: 8783 f0b0 8190 6e3f cdd1 a20a 7785 b0bf
00000330: 61ee 9b9a cb1a 96bf 770a d36d 47cd 663f
00000340: f3e3 d05c 3344 5dbf d460 7676 e1d2 5fbf
00000350: 4f52 9a0b 6505 753f a06f 8836 e1ce 82bf
00000360: 4161 1132 8eaa 8fbf c90d d783 1f93 96bf
00000370: 6d2d 6539 fe0e 90bf 2ecb 027b eacc ac3f
00000380: 18e5 3213 7582 a43f 9d5e 1e3b c70d 6f3f
00000390: c667 df0e f2c4 b2bf 3732 b776 37ca 733f
000003a0: 744d f631 893b b33f e9e1 8253 d413 eb3f
000003b0: 99a0 8336 ee82 733f 2ec1 03d3 76ef 72bf
000003c0: 7aab ccf0 9b5c c1bf 0549 c657 0211 7bbf
000003d0: a8ec 979a c3cd d2bf 5423 9a5c ef6b 6f3f
000003e0: 1be2 552e 155d e9bf a46a 48b5 4d47 923f
000003f0: afb7 e851 4e8a 623f 7465 f638 0965 ac3f
00000400: c0c5 0bae 445a f1bf f7c0 047c 4cbb a03f
00000410: ccd3 f3b8 26f4 963f 2331 1730 59ee 603f
00000420: bde3 d28f f4e2 803f ae63 d910 f791 863f
00000430: 677d 46d7 eede 863f 967a 3463 268b 81bf
00000440: 830a a458 e8f2 78bf 83f4 abd2 98b3 50bf
00000450: dcf5 649c 1bb0 6dbf 0055 a484 c4cb 533f
00000460: 30ae 7fbb e48b 69bf 3ac9 d409 69c7 e53f
00000470: 38d2 a27d a933 cbbf 74f1 9406 83f9 8c3f
00000480: 7bcb 77e8 803f 7abf 432b 66b2 95c7 70bf
00000490: 637b 90c4 7b12 613f a8ac 063e db0b be3f
000004a0: ac73 7ec7 228b 7fbf e8e4 5ba1 a466 ddbf
000004b0: d5a8 4e8e 30f9 4dbf 28bd f0f7 ca9f 6e3f
000004c0: 3dbd 2871 f883 e0bf 119f 71ce 33f0 e3bf
000004d0: ce19 5f6e a8a5 84bf 1f09 39a7 3943 70bf
000004e0: 77fb e817 c2df 4e3f e990 ace9 d2ff 7ebf
000004f0: fbfb cd9a 2273 d0bf 42cb d0ab 83f4 9b3f
00000500: 419f caed 2c44 e4bf 30ca 4b60 8371 abbf
00000510: 6cb3 ad16 4fcc 633f 1fc4 f76a b66e d33f
00000520: c209 28f9 b28e d13f 8744 14ab 0b66 93bf
00000530: e88a 1d0d 2f47 873f 9903 78d1 c5d8 873f
00000540: eab5 af47 ab87 57bf 890a a971 b34f 61bf
00000550: 81f2 2c5c 570e 483f 1a88 eca4 c632 a03f
00000560: 9791 5ba1 f361 72bf 7506 d15d 6da1 77bf
00000570: 44c3 5495 2d7e 6cbf 88c9 ef3c 2762 9a3f
00000580: 9d05 eaf1 f6e7 98bf 72f6 9bc5 ed10 d43f
00000590: 04ee 683d 9990 d3bf 3f38 bfb9 f1a9 2dbf
000005a0: 5711 74d2 07db 9abf 8a6e 5bba ffb6 ab3f
000005b0: 516f a6f4 a2a3 d83f 56f0 f0f0 8327 b8bf
000005c0: 4f4a d2ec 3e1a 82bf 7525 babb 2c2a 80bf
000005d0: 7144 a198 feff d7bf 3e8e 9ac3 bb7a e03f
000005e0: f5b7 1605 95af b93f b70e 2523 a89c 72bf
000005f0: f060 ad09 3466 bebf f249 1613 0941 c43f
00000600: effb 32e4 d629 adbf 48ac f6c9 b103 f1bf
00000610: 6250 a650 ea8e 73bf e7c9 7949 0447 9ebf
00000620: 8069 b614 e192 4c3f bf09 403a e8dc 753f
00000630: e0ce f150 9d3d a7bf d709 f84c b206 86bf
00000640: 653c 8b0a 1d68 52bf 99e4 bc2f b75c f23f
00000650: b4ea 9d2a e042 6a3f 8b74 3730 bab4 bd3f
00000660: 2502 78fe 309f fabe 55e3 00a0 6f5a 7e3f
00000670: 7881 1c83 0a29 e2bf d9ce ffe5 3a45 a63f
00000680: 3757 1c4c ae04 d33f a2a4 09d3 671c b4bf
00000690: f0f4 8bca d91c 693f 6c58 dc6c b299 c93f
000006a0: 91a5 4ebc 9549 5e3f 3693 489f 04d9 d9bf
000006b0: b21f e5b2 4919 97bf 6156 0f6a 3182 d23f
000006c0: 32a1 20e0 b2f8 63bf 4150 8831 7a3d e23f
000006d0: 6cf3 8d27 32d1 82bf f04c f7db 3fcf 5e3f
000006e0: c8ba 7e37 bb0f 483f 186f 806c a7d3 73bf
000006f0: 40a8 1461 3e80 553f 8de1 423b 06f7 7ebf
00000700: 5905 f522 43f2 d03f e6df c546 463a 553f
00000710: 0d56 ab6f 502f c43f cca3 0123 cbab 833f
00000720: ac84 cf1a 425f 7cbf ef4e fdf7 cce9 abbf
00000730: 0b31 e527 4215 6fbf 9d01 a255 95f9 2bbf
00000740: 880e 7262 44f6 a33f 9ec9 6c15 dede c03f
00000750: 3b2c 4b65 5568 b63f a879 05af 3cc0 6e3f
00000760: d3ff 0450 8723 923f e433 d4f9 582f 823f
00000770: 6131 6828 4f7b 98bf 5070 37a2 c0a2 e5bf
00000780: 5be9 9149 9dba f6bf 7df2 f1ca 24df ea3f
00000790: fc21 9582 3844 96bf c4c9 5ab9 82b8 d6bf
000007a0: 6dbc 4aa9 8b11 cb3f 8d91 5d1e 7ffe c13f
000007b0: 03ca 294c a5e0 a4bf 94eb d811 4c00 91bf
000007c0: cc1b 1d94 b0bb eabf 36fd 1339 6c96 6abf
000007d0: b951 5526 3b6b 843f 884d eab6 7323 cc3f
000007e0: ba59 6a61 d13a 933f ba52 bdcc 6493 92bf
000007f0: 8992 64bd 9932 82bf 9cb3 6be1 a2d0 f03f
