L2minimization/data-non-smooth/model_OGA_2D_Lshape2d_relu1_neuron_1024_N_4096_randomized_trial8.pt (torch, 34560 bytes, 3 tensors)

fc1.weight f8 [1024, 2]
00000000: ca1c 1240 6760 d0bf da98 27d5 6771 d53f
00000010: 2ccb 3c01 e126 e33f 6c09 a339 9587 d8bf
00000020: dda2 0e4a 93c2 e33f 7880 d064 61e8 e83f
00000030: e76c bbfe 2884 e6bf c445 d2d6 6c52 e5bf
00000040: 0917 39a8 a7d3 e7bf 9e0a 31d8 2395 e43f
00000050: dcca e040 391f bcbf db5a dd95 f631 edbf
00000060: 4f00 d3ef 3ad5 a3bf 1c94 58b7 8e93 efbf
00000070: 3e1c b84b f7c6 ec3f eddd f86c 0512 aabf
00000080: f587 e7b4 3fac eabf 6175 d77a 2912 e13f
00000090: 3bf2 b7d2 2c96 dcbf e8f6 bfe4 6066 ec3f
000000a0: 39fa 688e 00f5 efbf 1745 1b0c aaa7 a73f
000000b0: c680 6124 971f ea3f 4311 3584 c948 d83f
000000c0: 7bb5 5435 a892 e5bf 3afd cf44 993a e33f
000000d0: a5d4 37dd 2136 e43f 987a bfb7 739a e83f
000000e0: 41a1 6ad9 7cad ee3f a476 73a7 4ec2 c9bf
000000f0: a157 5cd0 6ee6 dc3f 2915 45ac cb5e ebbf
00000100: ca40 5547 9ef7 c1bf a40c 14d6 f1ad efbf
00000110: f687 06c8 a142 b93f c55f 446b d819 ef3f
00000120: 1ff1 9535 d56f eabf 0e9e e83b d376 e0bf
00000130: 3837 1a62 8a48 eebf 454e e9d8 fd9b d4bf
00000140: 235a b0ed 0ee2 eb3f 46d8 d8e6 1b60 dfbf
00000150: d760 0da9 9a1d 70bf bb4b f98c 97f3 e9bf
00000160: 54e5 7f2b 2d4d e5bf eba3 afb3 c5cf e73f
00000170: 4c7a 20da f075 cbbf eccd fda9 8c3d ef3f
00000180: 7626 0135 91f3 c0bf d994 3a05 2925 ef3f
00000190: 3da1 3156 31a9 e8bf 9773 181e e5f1 c2bf
000001a0: d995 b374 8a04 ef3f a1bf e3c8 0f30 c13f
000001b0: c353 7bea 2578 ee3f d337 7cb5 b780 d2bf
000001c0: cc03 5b86 fe09 eb3f a0e6 2064 7e0c e13f
000001d0: c16c 8553 af58 e7bf 9e26 cd04 1c90 dabf
000001e0: 16b5 9e3d 5637 eb3f 41f1 ab9b 904d dfbf
000001f0: 2dbe df45 e784 e03f 443d 487c e13d ebbf
00000200: e43b 87d8 4f9d d83f 1911 e5e7 7982 ed3f
00000210: 5e6c 85e6 c49e ee3f 61cb c67d 28ef d13f
00000220: 28f5 6c8e 7557 aabf a6dd 3f45 d467 ec3f
00000230: 82e8 fbf8 1fa8 e53f f422 c1b7 3c5a debf
00000240: a35e 4ebf 6eb1 dabf aee0 6ea8 6215 ed3f
00000250: 9417 50a3 bf85 e0bf 6d84 f502 a123 e93f
00000260: f332 9757 26a8 e53f 44cf 1204 dc80 e73f
00000270: b18a fd5c aeba d3bf fab7 4555 b8e6 e7bf
00000280: 14db 1ee2 94e8 ee3f 04cb d456 0809 cebf
00000290: 0a54 040f f867 ee3f e800 0d81 70f1 d3bf
000002a0: a55f d6b9 3097 efbf d41e f712 deec b5bf
000002b0: 8d39 001a 3de1 a13f b96c db21 d4c0 ef3f
000002c0: 66cf 6f8e 0be0 d43f 6d74 1d91 8c16 eebf
000002d0: 5890 9939 87aa d43f f56d ace7 68f3 eabf
000002e0: 32cb 0559 1f34 ee3f 3ac9 fe24 8e86 a3bf
000002f0: 4660 8fb4 e637 ea3f 8bce 247e d14d cdbf
00000300: 338e d302 22de c93f 0133 34f0 dd0f ec3f
00000310: 9944 d0ec 9a1c eb3f 0ac1 268c fae7 e0bf
00000320: a228 22c3 72c4 e73f adae 4707 7542 e5bf
00000330: 5a1b f993 393d b43f f135 9bc7 43e6 efbf
00000340: 4edb bced 1d07 e33f ad88 5834 71ba e53f
00000350: 7186 bf72 9f72 e2bf 8c2a 68db 2025 ea3f
00000360: 8dd9 8164 2077 c3bf 1d6b 2092 8d80 ef3f
00000370: a1e6 2fec 4803 e73f 4563 339a d14b e4bf
00000380: f32f bda2 191a 9cbf a4e8 054a a6b8 ed3f
00000390: 9cd1 0c74 d5e3 ec3f 9f6f 4e8a f3ef dabf
000003a0: f211 2c44 66f8 d43f e382 802b 633b ee3f
000003b0: 0a5e efc4 449a eb3f d362 5c16 bad6 b53f
000003c0: b6a8 4a17 20ec ebbf 811f 555c f641 dfbf
000003d0: 23a7 04aa ab29 e73f 3531 d469 4411 e63f
000003e0: e9a4 0dfb 1f02 e8bf d76a 7648 7879 e23f
000003f0: 7cc1 ee50 9a9a efbf 8635 e271 50c7 c23f
00000400: d7ae 6a5d bcca e5bf fb5b 4377 946e e73f
00000410: cfdb ae11 f39a e3bf 0495 d47e 0ab3 e83f
00000420: 8d5b ec1a e1f1 edbf d90f 55f2 d38a bfbf
00000430: 73a2 4c8c 31bd eb3f 4d9f 54d9 c49e d5bf
00000440: 0f5d bdee 5241 d3bf 5e38 7600 bc35 ebbf
00000450: 7c46 040d 05d4 ee3f 5259 5242 56c9 cd3f
00000460: d912 7adb 2253 e5bf 96f7 533a d140 e7bf
00000470: e636 a151 576e 93bf d6de 21a6 4543 e8bf
00000480: 3eaf a8f4 c546 e93f 90bf 3ae0 b39f e3bf
00000490: 82db aa65 4c3f e4bf 987a c33e 83af e83f
000004a0: 43ec fad1 75ae be3f a644 ef67 4ab4 ef3f
000004b0: fc2f 01dc bceb a9bf 4e91 3981 be95 ee3f
000004c0: 5b70 dbe6 8e21 ea3f e52e a2fa 3a2c e2bf
000004d0: bcff 9db4 953b ed3f 242c 9bbf 52c4 d4bf
000004e0: f360 8da0 d510 e9bf 9287 fb86 bbd5 9a3f
000004f0: 9b4a 3d60 451f e8bf 39eb 2af3 c34e d8bf
00000500: 5806 61f3 141f c6bf d12b 27ed e601 ea3f
00000510: 9a68 84f8 292f e1bf a215 c9f7 1671 eabf
00000520: d92e 1c0b f205 a93f ec73 b549 fedd ea3f
00000530: 0859 37a2 a683 ef3f 9bcb 2889 541c c4bf
00000540: 6665 12e8 51e8 ef3f be34 3527 93cf b23f
00000550: 0184 88d4 45f3 e43f 74ab 4bc3 e585 e43f
00000560: c117 4298 3c2b edbf 60c9 0c49 ad28 d6bf
00000570: 7c08 8b6a 6500 e1bf 38d1 f108 c51b ebbf
00000580: 8143 8b7b d251 b3bf 5eee 2a6b 0797 ebbf
00000590: d7a8 7095 60b2 ee3f 3b13 6d83 cb11 d23f
000005a0: a2de 02d1 cf6b 4a3f 9d7c d852 d5f6 ef3f
000005b0: 0370 d5f0 770e ec3f be9d 9f60 f569 c4bf
000005c0: 7b0a 66bb 4783 cbbf f143 61ff 0119 efbf
000005d0: 1fca b1c0 0ba8 cd3f 0ae6 a299 49e8 eebf
000005e0: 11d3 01ec 9049 ef3f 2399 e334 e232 c93f
000005f0: 79d9 5374 15f6 eabf 3b8a 6582 1168 b13f
00000600: c1e0 0b36 8921 ea3f bc3f 904b 69d6 e0bf
00000610: 81c6 5fe4 1981 c13f d457 e240 4313 ee3f
00000620: eb4a 95d5 b2e5 dc3f afdd dd59 15d1 ebbf
00000630: 1c50 1635 8977 e2bf c361 400e 6933 e93f
00000640: 27a0 e735 dc7f ed3f a2b1 961b 8df5 d43f
00000650: c938 9647 f428 ed3f 63dc 4d77 6ccb ce3f
00000660: bfaa 5195 30bb d83f c6f5 cf9c 876d edbf
00000670: d15a 2c9e e9dd efbf 8f18 8a07 c684 a2bf
00000680: a5d0 3515 bab4 ee3f 3473 1cd6 b7a4 d1bf
00000690: ec9f 57f2 401d e63f d7fa 8abf ed1f e73f
000006a0: ae1c 10e9 cb3b ed3f d4ef 3937 9d30 d9bf
000006b0: 85f1 99f5 160f ca3f e882 7cd3 8fc8 edbf
000006c0: b737 a200 5b00 a0bf e558 5478 0c48 eb3f
000006d0: 1c7c 5ccb ef13 ddbf b4a2 9024 7334 e3bf
000006e0: 90ce 62e6 c429 edbf d151 b79d 3b4a d9bf
000006f0: c6f4 17fe 81ed dc3f 9949 4a53 6859 ec3f
00000700: 9202 5484 c22c ea3f 1f40 b1e5 4c1a de3f
00000710: c2c2 de8a 30bb e6bf 1ae0 d7d0 b5cb e3bf
00000720: d373 f088 cf41 d53f 3000 8f0f 3829 eebf
00000730: adcd 1dba 191f e03f f915 1b82 519c ebbf
00000740: 21cf 3643 52ce e53f 4009 9689 fa28 e4bf
00000750: eeb1 a856 4407 e63f 7f08 6e02 d20c e1bf
00000760: 919e 39ff 0ff6 ecbf 35fc 2e09 da2b db3f
00000770: e8a5 87a3 c1c7 e7bf 0fa6 9399 b8af 8c3f
00000780: 657f 773d d97b d2bf 0915 4c1b d1a2 ee3f
00000790: b783 a335 cdbb d2bf 9249 493e d3f3 ed3f
000007a0: 9e42 a6be 2a6e e03f 2926 45e8 2f73 ebbf
000007b0: dbc9 af18 ce9f edbf 6909 18ee 3013 c7bf
000007c0: 0baf 4461 8a2e eb3f b1b5 f268 abe2 e0bf
000007d0: 7160 07c0 e273 e9bf c072 4f61 e054 e33f
000007e0: 7216 3c1c c13f e23f 0ec6 b1d8 771d e9bf
000007f0: 71a5 6c58 31d6 e73f 3064 8a60 46d7 df3f
-0.25588399178418497 0.3350467282856592 0.5984959625405728 -0.3832753241405473 0.6175018736294892 0.7783667534859111 -0.7036328292118953 -0.6663116641740818
-0.7445867810826893 0.643205568551213 -0.1098514350312984 -0.9123490263981141 -0.03873619248906889 -0.986762388322521 0.8992878416910413 -0.05091874079920076
-0.833526471451704 0.5334670447588615 -0.44666596010191356 0.8874973743220069 -0.9986574918219225 0.04620105169090943 0.8163562498630419 0.37944257651203744
-0.6741524736041095 0.6009031623833956 0.6316079445520201 0.7688540066554479 0.9586776968399492 -0.20124228645629672 0.451564506032236 -0.8553217281957234
-0.14036921008164988 -0.9899834805695673 0.09867297299800257 0.9719049544391899 -0.8261514708133609 -0.514505021103959 -0.946355048757801 -0.32202097113370015
0.8713450090752456 -0.49024102729470476 -0.003934482709915885 -0.8109853509325754 -0.6656709527589251 0.7441128262990991 -0.21453676844335445 0.9762633628983486
-0.13243308151350036 0.9732861616254481 -0.7706534083818394 -0.1480070492697478 0.9693043021513247 0.13427922543587292 0.9521665172311419 -0.2891062996212643
0.8449699997073536 0.5327751117358339 -0.7295757895730263 -0.4150457426918396 0.8505049899592076 -0.4891091842871625 0.5162235607840039 -0.8513038089167044
0.3846015562566534 0.9221772698588523 0.9568809988371745 0.2802220562254459 -0.05144851077646201 0.8876744606522393 0.6767730582207749 -0.47425764031190387
-0.41707962686767014 0.9088605203351301 -0.5163267316536229 0.7855992372316344 0.6767760954622574 0.7344799117622434 -0.3082691104993201 -0.7469140687442171
0.9658913055817231 -0.23465065231138038 0.950191525773904 -0.3116112957250281 -0.9872058515202197 -0.08564556086559644 0.0349215597380975 0.9922886525413538
0.32617463025893867 -0.9402525743750069 0.32290821671472747 -0.8422131085275725 0.9438626040194775 -0.038135950103781416 0.8193238760532118 -0.2289373269974145
0.20209145677573445 0.8769368831140981 0.8472418427719673 -0.5283177125293446 0.7427305041503767 -0.6643624441325834 0.07905921805023067 -0.9968584917602908
0.5946187632861013 0.6790090582255935 -0.5764920464682303 0.817032269028759 -0.15207295329646478 0.9844425062213734 0.7191509831456707 -0.6342552196248127
-0.027443314130593376 0.9287902303469946 0.9028117434123035 -0.42089546686633555 0.3276611009353295 0.9447494363449461 0.8625816198718337 0.08530772252960199
-0.8725738959231168 -0.48840102211806175 0.7238367386500822 0.6896078173609 -0.7502593902001112 0.5773278632435347 -0.9876224117961523 0.14670758782123644
-0.6809980225129618 0.7322485284192902 -0.6126647324916749 0.7718555905491091 -0.9357762838215976 -0.12321209589305172 0.8668449154111627 -0.3378154871338566
-0.3008620578234095 -0.8503093728084072 0.9633813146812851 0.23270681608546312 -0.6663984572083691 -0.7266622676104244 -0.01897560535171907 -0.7582119221469508
0.789889314507924 -0.6132449511987819 -0.6327268586818351 0.7714248872615199 0.11984955193013129 0.9907581357930624 -0.05062666116336342 0.9557793163226422
0.8165964611939772 -0.567899217146501 0.9135235335997929 -0.32448261939561207 -0.7833049903665866 0.02620594989173914 -0.7538172607113042 -0.37980746027794826
-0.17282354243984588 0.8127321845907948 -0.5370073179103827 -0.8263048972664147 0.048873485428058756 0.8395987929940225 0.984820668056984 -0.1571145696376249
0.9971093685773382 0.07347984034750518 0.6546963835754697 0.6413449110381024 -0.9115279172699432 -0.34623272069725 -0.5312983590049636 -0.8471398520182793
-0.07546725765429409 -0.8621861546630034 0.9592745703460207 0.28233611902787786 0.0008063091973075818 0.9988810175017481 0.8767661765846245 -0.15948359697288866
-0.21494385385820522 -0.9718027103318702 0.2316908541575495 -0.9658554077824999 0.9777302369608113 0.1968653448340741 -0.842539527132245 0.06799420770179491
0.8165937476724353 -0.5261732555245469 0.13675235415535172 0.9398514048832518 0.45151968820316196 -0.8692728762825278 -0.5770917927607147 0.7875256803845833
0.9218579342677956 0.32748725599483397 0.9112492941074147 0.2405829985179678 0.3864251573747132 -0.9196203291646092 -0.9958389367410182 -0.036169231815663776
0.9595613874685297 -0.2756785956315071 0.6910710080383047 0.7226475468704291 0.9135493804941655 -0.3935921706504335 0.20358550064328199 -0.9307326441376889
-0.03125271208510532 0.8525450086770233 -0.45434183940409567 -0.6001525606307809 -0.9113487720228068 -0.395155815143224 0.45199632467104 0.8859140040170131
0.8179638466391046 0.47035524779221477 -0.7103502952869223 -0.618616969964026 0.33214176533675505 -0.9425316146735039 0.5037964472853013 -0.8628318349007592
0.6814357102179863 -0.6300022780635928 0.6883870785291586 -0.5328149840791098 -0.9050369248261224 0.4245514955218284 -0.7431343263571621 0.014007036387243791
-0.28880911829582195 0.9573751004360541 -0.2927124999824246 0.936013814595116 0.5134481166479252 -0.8578109299207358 -0.9257574541246031 -0.18027316690138243
0.8494312190791516 -0.527669625260094 -0.7953962088167953 0.604110899028079 0.5702825118502928 -0.784847186309152 0.7448965765990306 0.4975143378047191

fc1.bias f8 [1024]
00000000: 867b f144 6b04 ed3f f897 bd0f 0483 e63f
00000010: 2ebd f18d 2701 bd3f 9c9e 6f94 6d98 cf3f
00000020: 5df7 4cf1 73da c6bf 0d08 9374 dc3d d93f
00000030: 3786 43e5 4128 c4bf e882 eeaf eecc db3f
00000040: a715 f3d5 6664 c23f f1a2 d29e 8701 bd3f
00000050: 6a04 1c1c 6cfc 973f 07be 29dd d4dd db3f
00000060: e6b4 b8bc 3b7c dbbf 858c cc73 3d84 b9bf
00000070: eec2 a8f5 6ebd c93f c025 59ab 7a41 d03f
00000080: 5a2a a9c2 4201 8f3f d9c8 5b08 455a cbbf
00000090: ac15 d99b 8a66 cdbf b3e2 bc41 b65f 9bbf
000000a0: 056d 497b a406 953f 1dae 768c c1b8 e23f
000000b0: 2515 59e3 59dd ac3f d173 d03a 5071 9e3f
000000c0: 83b4 2c26 af01 c8bf 18f7 f45a a2d5 e3bf
000000d0: 7c32 0c00 cc5c ca3f d14d a294 9056 b9bf
000000e0: 9e20 cfdc bae2 a73f 8067 577b d564 e13f
000000f0: f8e1 c6a5 2bc2 c83f c6d7 3093 1802 b83f
00000100: 1d0a 4218 81ed a4bf 3c6a 24a3 6796 b3bf
00000110: 5143 f4aa 2049 ddbf 9c19 402c be04 e23f
00000120: 064d db36 15f5 703f ef14 77d7 f8d1 d53f
00000130: 1c7d c6cb 1bab a93f cecc c184 42da e23f
00000140: 32b4 2831 0809 bc3f aa9d 6303 d70b 783f
00000150: e8d7 21a9 3237 c1bf bce0 1bd9 0572 bebf
00000160: b59b 1409 7cff b83f e82c 335b c7a1 db3f
00000170: 078e a24a 1300 d53f 7c32 7756 08d2 e03f
00000180: afcf 68c2 43e8 db3f 1e45 f42f 8154 acbf
00000190: 76b1 2069 eb60 b53f 31fc c0d3 808d 73bf
000001a0: c7a1 cef3 2a8e dbbf b70c 1315 0cfb 853f
000001b0: 5814 26ec 3288 b6bf 5607 768d c529 d23f
000001c0: e73c 0408 56a7 d7bf a692 e1e3 cc93 b63f
000001d0: 0e58 92a9 f211 833f 21f3 ff70 45ea df3f
000001e0: b38a 92fc fa3a 82bf ec4a fe28 1eee 96bf
000001f0: e346 0536 af9e d43f 4cf1 8359 d968 ac3f
00000200: 2c4b ca72 240a 7ebf 185d f05e b7c0 c53f
00000210: 2969 965e b624 d5bf 568b eacd d377 d73f
00000220: 42d1 b88c b3a2 db3f 621c 1b62 e90c c13f
00000230: 6da1 6e01 e35e c53f 353e 6314 fdda e43f
00000240: 4c64 dde8 8c36 63bf 4080 7e6f ad49 b1bf
00000250: 28b4 595e a542 b03f daae da56 5a8a d2bf
00000260: 3309 bb9e a26e ba3f 354f 71aa e766 cf3f
00000270: 72de 6696 eddf e3bf cd28 68e3 8328 e1bf
00000280: 65fb 9146 28ce e1bf a5c0 e529 19bd c5bf
00000290: 20fa c777 e74f e13f 55f6 f974 25e3 b23f
000002a0: 40c2 8572 0ccb 93bf f607 8151 9c9a d93f
000002b0: 473e 3cef 3a67 cc3f e85a b0a5 63de 813f
000002c0: b38e 44e7 b007 e03f a7c2 55a6 9728 82bf
000002d0: f7fb 6a44 0136 a8bf c9c1 c6a6 7609 ddbf
000002e0: 40c0 9110 7dd1 b83f d73e 0287 69ae bdbf
000002f0: 137f da64 849d b23f ad9b 712b 3219 e1bf
00000300: e445 e539 3260 cebf 4473 5953 6e08 d4bf
00000310: fd76 6308 ffc1 c9bf 9425 ceef 67ae cbbf
00000320: 6c16 f743 6385 ca3f dedc cfe3 e064 d53f
00000330: e7ff 448c 0d0e b2bf 15eb 4a89 cd69 b5bf
00000340: 074f 3915 7f28 ad3f 7428 3287 2d10 8d3f
00000350: 9e48 4418 833f babf 5b37 3dc2 5471 d33f
00000360: 5aa7 9129 ebb1 e0bf 2ac7 bd58 fd10 e5bf
00000370: 4eb5 75da a484 bdbf 81f4 e7b7 3dac babf
00000380: 3af5 b6e6 9132 d53f 96b8 171d 9f7c d53f
00000390: c33f 48f5 dd92 a23f 97a8 b69b af2c a53f
000003a0: 17ff 21d7 bcd6 d73f 0ea2 d215 b77f df3f
000003b0: b6f5 dce9 f463 9a3f 0d3b 378f 6968 e5bf
000003c0: d575 0b14 b44d 733f 919e b960 3d04 c93f
000003d0: 2d88 037e 339b 97bf 9d3d 25c4 ab45 d53f
000003e0: 06ee 0558 05f1 76bf 10d8 87bc 5a0e a9bf
000003f0: e10b 86f1 5309 cfbf 81aa 54c1 3573 dcbf
00000400: b735 465e 0b5e e3bf 3158 a235 6e5a 8f3f
00000410: 8669 55ba 814b e03f 4071 4981 2eed 7ebf
00000420: 7688 f7f9 231d b1bf 6f31 4535 94db 943f
00000430: 483e 4ef8 2033 a43f 25c4 e0d0 88b4 953f
00000440: 1359 e470 e30a c43f d603 38ce 556c a83f
00000450: 088c 4e60 ec82 b03f 2f93 1306 8905 e23f
00000460: 043e 64a0 7991 e33f 1e3d bf83 ec8e ca3f
00000470: 44d9 78c3 b206 cebf 1f90 70f8 3c4e d0bf
00000480: 74a2 6d60 d8ae db3f 71b3 dfc0 2911 cdbf
00000490: 0273 7790 9206 c73f 4402 8fac a894 a53f
000004a0: fa62 1b3b d303 a83f 283e 5ffe 223b e7bf
000004b0: 57ce 3bbb 7a00 d4bf 9783 7081 6b53 8dbf
000004c0: ecfc e96f 8924 e43f 59f7 89ce cd6b c83f
000004d0: c8c8 6cb1 1380 e1bf 7e66 94f5 d7b7 a8bf
000004e0: 30bd a50c 329b 8cbf 814e 9500 d1bd d63f
000004f0: 0bfe dc22 67a6 92bf 6767 340c 5f29 c3bf
00000500: 30ce 1584 2c90 973f be91 f607 8a57 e13f
00000510: 2da3 cc45 82c6 d3bf 811b 8162 fecb a33f
00000520: eb93 0ae5 a5c4 dc3f 2392 f51d 59e5 d7bf
00000530: 0d3c 139a 463d d93f cef0 1146 cd79 cf3f
00000540: 09fb df94 2628 d63f e086 b799 e506 90bf
00000550: c3f9 a3c1 6757 b23f ac01 c2dd 12fa df3f
00000560: 567b e5d6 3be1 a93f 0cb7 05b6 4da5 aa3f
00000570: 3910 0ff9 1882 c53f 5c05 3d06 a401 6b3f
00000580: 5f5f ca35 0782 b73f 0fe3 1349 76c9 d03f
00000590: 5193 9f33 7c1b ba3f 14e9 d710 a09b 813f
000005a0: 9a78 7dde 13af e43f 8d4e bd2b a6f8 e5bf
000005b0: a1a6 4ad3 e142 c73f 37a4 5f06 aee6 a23f
000005c0: 93f1 b3c5 fa8a d0bf bf46 b2f2 341e 52bf
000005d0: 18a9 0098 cc14 863f 6281 74ae 923b ddbf
000005e0: 19d0 c0ff 4583 c4bf c19d d5f5 50ee d0bf
000005f0: 6399 b446 9379 de3f c3a4 cd80 dd6f d4bf
00000600: 35cf 8e82 0271 b43f d95b 8d5f fa7f adbf
00000610: 939e 4d4a 25bc 7f3f 6edd a3cb e724 a1bf
00000620: ecc7 8119 056d c4bf abe1 461f e9fd de3f
00000630: a572 a74a c005 d1bf 64f4 71e2 c09d d33f
00000640: 19ea cbe9 f605 e33f 9d05 0682 51d4 9bbf
00000650: 8ad4 c395 55f5 c6bf bd18 07c8 ea5c db3f
00000660: c5c5 3e75 ca2f c63f 9049 8aa8 bb94 cfbf
00000670: 4c34 0fc6 2627 b13f 120e b20b 89f2 d63f
00000680: 320b eee9 72f3 85bf c73f 9207 ebf3 babf
00000690: 30f2 49df 07dc 8abf c2b7 dcb4 ea70 e3bf
000006a0: a043 7488 8da4 c73f a6b3 cf79 00d9 bb3f
000006b0: e98f 85d3 7c64 d4bf d86b 08d2 8223 d63f
000006c0: ee7a 5b99 e1bd b1bf 17af e131 9677 a83f
000006d0: 3788 9c9f ec14 933f 0c81 6c6e 7750 a83f
000006e0: bf87 bd89 4178 c5bf 355b 345f e72f d03f
000006f0: 148d 6f93 a4fa e43f cb6d 2b20 9b0c e4bf
00000700: 3e0d d92e 1585 e1bf ed6a ffaa c202 e6bf
00000710: c270 1cc2 475e 97bf 02b7 7f5b de0c a9bf
00000720: 08d0 c07c 436a e03f 629c 92ca a993 d43f
00000730: 6d43 81f1 80b0 c23f 84bc 55f9 ac62 c33f
00000740: 27bc 73d2 43ed 70bf bd37 4c47 a57e d23f
00000750: eda9 21b3 8768 c4bf 4471 1f5e 036b acbf
00000760: 0e93 06e6 0e68 c3bf 75e4 8251 b301 e33f
00000770: b963 e371 be57 dfbf fffd ca94 09a9 a83f
00000780: 3c75 8184 a666 b03f abcb 7a10 141c cdbf
00000790: ab11 bf59 62c1 b43f 8cb5 5f1f 7653 853f
000007a0: 8c09 af5b 0aea ce3f 34a2 a7d5 6507 c8bf
000007b0: d8a4 2cb0 c938 d8bf 2e4b d334 6c33 84bf
000007c0: f9bc 6572 6c02 7cbf 8855 e074 5f4d b1bf
000007d0: d09c 149e a2f7 d73f 6da3 3d83 4514 d23f
000007e0: c19d 652b c85b e43f 94c7 1198 7659 b63f
000007f0: 1d96 64c1 32b0 d0bf 8e32 2b7c f6d3 c0bf
0.9067894312428144 0.7034931476052853 0.11329886641918982 0.24683923480846637 -0.1785416534639194 0.3944007051869683 -0.15747855848808154 0.434383079345976
0.14368901678805665 0.11330459239492165 0.023423852172531325 0.4354145202441661 -0.42945760183176984 -0.09967407300114146 0.20109354968146625 0.2539965318033772
0.015139123502327202 -0.21369231136447445 -0.22969181642308223 -0.026732299578017215 0.02053315165026694 0.5850532287053657 0.056376275064886884 0.029729131307352056
-0.18755139698024345 -0.6198283936025488 0.20595693590475495 -0.09897712353477252 0.046651687101588055 0.5435588273060006 0.1934256133515786 0.09378198236012655
-0.040874513827493276 -0.07651374562230101 -0.4575883550142424 0.5630789627328343 0.004139979236885033 0.3409406761314377 0.05013357985012076 0.5891430466566818
0.10951281738444221 0.005870666404212891 -0.13449700601967085 -0.11892735052595332 0.09764838430110852 0.4317491903900206 0.32812959946224435 0.5256387413770223
0.43605131135268044 -0.05533221922281427 0.0835101253184741 -0.004773619872195532 -0.4305522328309305 0.010732740777149237 -0.08801573052740375 0.2837995416122018
-0.3695883825575507 0.0881927543974351 0.009311576652446998 0.49867378268372603 -0.008901558716677504 -0.02239272237018046 0.32218532824945906 0.055487434556172305
-0.007333891274032205 0.16994373450936773 -0.33036574589790973 0.36668868168833535 0.43180550329568146 0.13320653238608587 0.16695821351937515 0.6517320059010162
-0.0023453476086783605 -0.06753047916436206 0.06351693681217851 -0.2896943901239247 0.1032506597066785 0.24532790968316368 -0.6210849702392365 -0.5361957017460327
-0.5564156893086475 -0.16983332200789394 0.5410039271808422 0.07377847772473818 -0.019329256524942773 0.4000616832673808 0.22190033608829848 0.00872495507614475
0.5009388462971941 -0.008866486323968316 -0.04728702507190257 -0.453702605121205 0.09694654135250946 -0.11594256921875555 0.07271602117770852 -0.5343256805907594
-0.2373106749242161 -0.313014584918893 -0.20123279485317616 -0.21625994881860022 0.20719567125904648 0.3342821335531435 -0.07052693056630198 -0.08364567376967742
0.056949588146975975 0.01419101303897128 -0.10253161756944215 0.30379218071617736 -0.5217185794728991 -0.6583239300946151 -0.11530523618212848 -0.10419069042105102
0.3312115433762589 0.33573129502372845 0.0362767564694191 0.04135655189323122 0.372481546488403 0.49217011576777814 0.02577192952525361 -0.6689956471617237
0.0047127756413067505 0.1954418871202859 -0.023052982870361106 0.3323773780329818 -0.005600949167611008 -0.04893764068030759 -0.24247216504235694 -0.4445318592067125
-0.605230030183228 0.015309201251778233 0.5092171325043615 -0.007550412807713791 -0.0668508992453399 0.020368877173767282 0.039452581701990896 0.021196496724034248
0.1565822888594047 0.047701531813806916 0.06449773169747186 0.5631756895714711 0.6115081913612248 0.20748669083557386 -0.23457941574606356 -0.2547752786797463
0.4325467054064014 -0.2270862762228734 0.1798880772975267 0.04214980226925438 0.04690418335457554 -0.7259688347057294 -0.31252926144154486 -0.0143192671658328
0.629460066396772 0.19078991494091715 -0.5468843903857072 -0.04827761528777062 -0.013967886935204094 0.3553354745574567 -0.01821290159500503 -0.14970005126888994
0.02301091724571175 0.5419359355478759 -0.3089910203585074 0.03866572334714303 0.4495024430019032 -0.37337329793652624 0.39436497732543857 0.24590459748640686
0.3462006048065836 -0.015651309497008437 0.07164619901229856 0.49963828712500447 0.05054652212378723 0.05204241606666757 0.16803276215625987 0.003296680793852742
0.0918278223347193 0.2622962678574802 0.1019818903001355 0.00859761287118891 0.6463717790136514 -0.6866026739393917 0.18172858063671973 0.03691619708826759
-0.2584826403324538 -0.0011058346815712575 0.010781858814955345 -0.456761045805271 -0.16025614726970686 -0.2645456696249902 0.4761703672869741 -0.31932771280714806
0.07984939277122012 -0.05761701980980378 0.007747789063479299 -0.033484691246424045 -0.1595770239396751 0.48424747518904593 -0.2659760216754797 0.30650350679190397
0.5944780889834106 -0.027177117882734348 -0.17936200916998174 0.4275462106128421 0.17333346104491745 -0.2467264721822855 0.06700365386423462 0.3585531820501454
-0.010718248142216422 -0.10528439459653703 -0.013114987851843812 -0.6075337917770798 0.184709254863745 0.10877993558797402 -0.3186332765237681 0.34591742049241025
-0.0693036078841762 0.04778737410455685 0.01863450740996361 0.047488910893891484 -0.1677324221191707 0.2529238157016381 0.6555960540394232 -0.6265388134301529
-0.5474954524037583 -0.687836965541775 -0.022820588324166342 -0.048926304501817355 0.5129716335854946 0.3215126493691455 0.14601146499856146 0.15144884275966686
-0.0041325234699192475 0.28897983515423303 -0.15944000479369383 -0.05550394557914953 -0.15161310416910861 0.5939575759904431 -0.48973046419046856 0.04816465321846052
0.064066321706794 -0.22741938404723547 0.08107580843995403 0.010413096268133491 0.24151734806771363 -0.18772576267589758 -0.3784660549595862 -0.009863705980398398
-0.006838248844686528 -0.06758686641145151 0.37448945462751926 0.2824872762344544 0.6362038467022374 0.08730260098107429 -0.2607542885401431 -0.13146859229017988

fc2.weight f8 [1, 1024]
00000000: 95fe 9c57 cbb5 d13f d8b5 4b76 c38f 35bf
00000010: 0cc4 ad54 4d6d 80bf 7195 40d8 7bcf 58bf
00000020: 022c f44f c99e 61bf 8a58 3a49 822f 68bf
00000030: b637 4b77 9c09 5c3f ac3a 5c7b f4d2 62bf
00000040: 4290 464b 5011 43bf e08c 5f24 9d9b 6e3f
00000050: ea2b c411 0b40 983f a0cd c976 0a88 64bf
00000060: 1d2f c6d5 0601 45bf 5c29 b7f0 8bd7 5ebf
00000070: 83d7 7cb4 8528 65bf b154 482d 3244 6bbf
00000080: f486 b0ae 5be9 93bf 1996 65d7 ad78 6cbf
00000090: 0a64 fe38 947f 68bf 8788 991d e2f5 98bf
000000a0: fbcd 83fc 6229 94bf 3fb2 f926 a3f0 6bbf
000000b0: ec9c e523 0d40 613f c319 00ae 814f 8c3f
000000c0: 3cfc 6a8b 0979 6bbf aa03 d413 046b 4bbf
000000d0: 9601 6887 42ab 6dbf 3794 48cb dca8 713f
000000e0: 0614 3664 04d1 79bf aec2 f5df 6ec3 133f
000000f0: 949c 1412 19db 5fbf af4e 4009 84d3 73bf
00000100: b3ca 7432 9fb4 72bf 0228 a86c 2650 743f
00000110: c04d 83e1 e302 6bbf b02f 1c51 ef78 4dbf
00000120: 1b19 e80f 6c12 a43f 12c8 6c89 56e9 4f3f
00000130: ce3f 1fba 13cb 40bf 8ddf f394 a5e5 6bbf
00000140: b36d ecb3 f2c7 77bf 1c2a 31ef 7188 7ebf
00000150: 1cf5 fa8c 9c62 68bf 8229 73de b428 673f
00000160: d288 42b7 f508 84bf 132c 5afb 5b55 4dbf
00000170: abc3 1fd6 f586 63bf 339d 1e7c 370c 5dbf
00000180: bdee cae3 a095 2f3f 4427 ec9e 2f88 713f
00000190: 8d4f 3f99 f7a5 74bf 6602 b611 0fba a93f
000001a0: a791 0949 1aa3 36bf 178f 619b 4622 873f
000001b0: e63c f0db b59d 72bf ae2d 2fa9 71a0 4bbf
000001c0: 9072 8ff4 d644 68bf 19f6 d28e 21ea 74bf
000001d0: 3ae1 f56e 7670 a43f a3df a27a a1e9 71bf
000001e0: afbd 5971 0a37 913f 9cf6 bd85 8ec8 8dbf
000001f0: 1348 0d43 896a 653f c028 5ba7 429a 813f
00000200: d8e1 50a6 ad97 82bf 91be b66d b6c1 393f
00000210: 4a5e feca 3f11 78bf add1 0637 bb04 60bf
00000220: fede a868 edba 65bf c94f 66cf f368 77bf
00000230: 81af fee6 1530 68bf 1194 a70e f347 73bf
00000240: bcab 582a 03d6 a03f e6e9 fb1f c913 77bf
00000250: 8ddb d4fd 0ae4 703f 2308 7535 3313 60bf
00000260: 487e d99e 387d 75bf 118c b035 c979 2fbf
00000270: a94b 5a90 2202 79bf bfa2 7ea1 e806 58bf
00000280: d27c f44f 988a 3bbf 6d03 5d43 5c1b 4cbf
00000290: 805c 9a29 a473 2d3f 3a1e 7be1 6899 7fbf
000002a0: 6bbd 0581 e342 a53f 7f4f e9b8 dc19 cbbe
000002b0: a0f5 1ca0 27e6 513f 4a02 d049 1a56 983f
000002c0: ad26 f4f2 aac3 6fbf 4c91 9e60 b72c a83f
000002d0: 36bf c1e9 6cbe 90bf 75ce 1ec5 0794 483f
000002e0: 56cd ac58 0732 7cbf 9b00 a0f6 037e 773f
000002f0: 74ff 8a7b 5f9a 9dbf e030 3bb8 3cc0 46bf
00000300: 194f fdb1 f44f 693f 03be 53fd 3564 69bf
00000310: f624 79b6 842a 613f b30f e2ea 089c 5bbf
00000320: bb25 7771 6028 6cbf abc9 75d1 ac3c 67bf
00000330: 3b3a e21f 62e2 4f3f 23bc c295 06ee 7dbf
00000340: f230 5b1c da7c 81bf 06f6 a533 34b7 923f
00000350: 6438 8221 0e42 693f fd8a 800f fcbc 71bf
00000360: b618 a5f8 55f3 5bbf 690c 8dee 3074 35bf
00000370: 8286 822b 3c8b 8bbf 0313 ef0c 3f7d 8dbf
00000380: e96d 4430 d928 70bf daa5 8299 0572 46bf
00000390: d5bd 4ff9 d0de 88bf 80b1 eb8a 641e 80bf
000003a0: 0210 d0f5 39ac 60bf a803 a6ad cc23 59bf
000003b0: 36da a92d f6a2 803f bea6 2bcd e97b 7abf
000003c0: 057b 925f a98c 9c3f 4a7c 0b7f 9436 683f
000003d0: 8e31 d1eb 3ce3 8f3f da58 0cda c47c 3c3f
000003e0: 76fc 0aa8 a446 953f e73c 47c7 b19e 77bf
000003f0: 64f2 279b f4f5 513f b950 1a00 4de4 1b3f
00000400: f388 44d0 28f3 203f e839 e91d fb2d a73f
00000410: f654 e808 c4a3 6bbf a24e 59c5 c31b 84bf
00000420: 4db3 63f2 37b0 7abf 51da 6d63 35e0 933f
00000430: 14ec 5142 834a 7fbf a122 cfa1 959f 833f
00000440: 2926 5188 73ff 6fbf a091 898a ac2c 4ebf
00000450: 1652 69d8 014c 653f 9266 0e1f 109e 70bf
00000460: 5aa1 d97b 604e 4abf 130e 53b3 01f0 50bf
00000470: 812f ff13 5da4 6dbf 69b7 65e0 c4e1 72bf
00000480: 1c6c 19cb 6347 7cbf 3e6b c4c2 c1eb 673f
00000490: d445 3ec2 baf7 42bf 507b f37c 1bb3 733f
000004a0: c1b4 cc34 1aa3 703f 2a39 d3e0 3747 3bbf
000004b0: 1d39 45fa 0cac 73bf d160 9165 33af a53f
000004c0: 9b47 12fb c32f 2dbf 5225 d526 43a3 6abf
000004d0: 5132 708a dc23 5abf 6d88 0eff d3a6 a3bf
000004e0: c05f 2bc7 106f a1bf b93d 941a a1e3 3bbf
000004f0: 13f5 5b07 2959 92bf ea90 4bea 0f89 83bf
00000500: 8358 309e ce13 80bf 30e5 ce57 cba5 5ebf
00000510: a3c8 cb3d 87e0 51bf f785 0c03 a5d6 91bf
00000520: 44f8 74bc d9a6 6abf 78f7 c5dd 1c2e 75bf
00000530: 72dd 272f 895d 54bf e072 7e4f 21b4 55bf
00000540: 4cb3 0040 5c04 6ebf d6f0 a620 08e5 903f
00000550: cff6 1c48 31f6 93bf d93b 50d3 5372 53bf
00000560: 279d 0aee 3ac9 80bf 79f0 773b 6e3b 86bf
00000570: 72e1 db0b e583 70bf 3ae5 f0cf 2ba5 9e3f
00000580: 062e f5fa 69a0 59bf 052d 7206 9327 5fbf
00000590: 2091 5325 7eda 6a3f df0b 2163 8a46 ab3f
000005a0: 78ef faef b741 60bf bdcb 5a09 e796 38bf
000005b0: 9fc4 8b1c 47a0 71bf da68 1d61 6edb 8dbf
000005c0: d3fe 0e34 61a4 60bf 453f 8876 297f b93f
000005d0: c908 c95e 869b a83f 84fa 46a7 cdc7 55bf
000005e0: ebc2 8594 5038 68bf 5a43 444b 8f71 37bf
000005f0: 91c8 c7ad bc90 35bf 006f 5c38 f4f8 45bf
00000600: 9f7f 2887 cf01 6abf 1798 908c dd13 783f
00000610: 282e e067 3fe5 a03f 97a5 f52f 14ed 72bf
00000620: 423f bc60 c081 47bf ec53 6ba2 5055 57bf
00000630: 4350 d7a7 cb18 54bf 02eb c464 16b1 463f
00000640: 3c4f 19ab 8958 15bf 83ce 7dbf c730 92bf
00000650: 37ff 4101 7df9 243f e654 f17f 26f4 62bf
00000660: ae3b 6d95 dd2a 62bf c43b 86ed b82a 70bf
00000670: 7fba 6805 d233 89bf af47 c3be ca70 5fbf
00000680: 519e 7a09 67b2 913f 4377 2924 1f01 5c3f
00000690: 2857 f447 0178 7f3f ee12 25df deac 22bf
000006a0: 32c6 2078 c582 76bf 25a7 3cb9 65c2 5d3f
000006b0: 470b 59c4 e43f 323f f635 a841 9add 5abf
000006c0: 4d37 176c 90e7 81bf 1e1f c2f9 5a9a 7d3f
000006d0: 255e 608a 3eff 8a3f ef89 eeec 7c79 91bf
000006e0: 852d eba3 995b 4a3f 4b4e 53a4 ae7d 58bf
000006f0: a101 8edf 5715 65bf 7073 4561 0c60 64bf
00000700: 6d07 defe 96ed 66bf e19f b0f1 346e 75bf
00000710: 7c4f 7c8c 0648 993f 70f6 1633 c5bc 683f
00000720: a0d5 f5b6 4636 353f 8609 b2f1 518c 66bf
00000730: 4b82 2510 73c6 68bf f061 95d7 2997 73bf
00000740: 86d6 5649 8738 a83f d076 47d8 0662 67bf
00000750: 6648 dbc2 57e0 7abf 93de 15d0 ae7c 613f
00000760: 2f6a 4ab5 878e 78bf 955a 30c3 8949 67bf
00000770: be7b a56b f79d 5fbf 7a2b 28b2 bc02 78bf
00000780: a780 3f4e f2e9 77bf cfde 5087 165b 463f
00000790: 719f d001 65af 72bf 2bed 3005 3e58 aa3f
000007a0: 81d4 b771 dc83 65bf eab7 662f ecf0 6bbf
000007b0: 2c72 a3dc 0cca 67bf b0eb abf7 fe7b 9f3f
000007c0: 96b6 39a1 65c4 9d3f 7f5d f46c 59e1 563f
000007d0: 2321 930c 6022 37bf 4640 2e05 fc95 5ebf
000007e0: 02a3 29f0 ac89 59bf 806e c487 45d4 82bf
000007f0: b060 1d52 4496 553f 80b3 f4b3 bf73 61bf
0.27672084384901413 -0.0003290035440802453 -0.00802097716015917 -0.0015143117352719138 -0.0021509105569115236 -0.0029523415231081417 0.0017112758625219388 -0.0022978568112031663
-0.000581897932125937 0.0037363118344600904 0.023681805571907612 -0.0025062755942657083 -0.0006409915327351999 -0.0018824450115625035 -0.002582799093853562 -0.0033284168259891324
-0.019444878136829893 -0.003475513013813336 -0.00299052190525773 -0.024375470215439534 -0.01968912759998707 -0.003410643250211259 0.00210573736619645 0.01382352173096713
-0.0033536135118477344 -0.0008367319020693338 -0.0036217021363428954 0.0043114304321863394 -0.006302849916555614 7.539142824498454e-05 -0.001944326861414135 -0.004840389028703803
-0.004566785682345187 0.004959249587509264 -0.003297276573087621 -0.0008994263209571775 0.03920304960415618 0.000973860983185528 -0.0005124899218973357 -0.00340540256695116
-0.005805919702449302 -0.0074543428955373935 -0.0029767091399138922 0.002827027568490682 -0.009782714514873812 -0.0008951853876210135 -0.0023836900227185063 -0.0017729322284852466
0.00024097050654413822 0.004280267733301649 -0.0050410911389525805 0.050247641479477065 -0.00034541503649723266 0.011295844666342298 -0.0045449355957451806 -0.0008431010231730229
-0.0029625128122304292 -0.005106097302982637 0.03992052177904033 -0.004373198297052658 0.016811526459091727 -0.014542687851413043 0.00261427697152162 0.008595009548475807
-0.009078365934429053 0.0003930158979654564 -0.00587582511061375 -0.0019553810636471964 -0.002652610482325345 -0.005715324767510973 -0.002952616479850734 -0.0047072882102599115
0.03288278476642101 -0.005634103435790716 0.004123728690777717 -0.001962280289860467 -0.005246373342373163 -0.00024014073537256865 -0.006105551734111461 -0.00146649091582611
-0.0004202482086430151 -0.0008577538016894933 0.00022469881951245677 -0.007714662256780575 0.04152594518643123 -3.2306938415968692e-06 0.0010924708335119174 0.023765955691489794
-0.0038774813507459122 0.047216158432351024 -0.016351415412315627 0.0007500684680423324 -0.006883648583243604 0.0057354121036043105 -0.028909198680366413 -0.0006943031771356155
0.003089883728458431 -0.0030995420917105956 0.002095469669971646 -0.0016851508221700062 -0.003437221875832034 -0.0028365493159807262 0.000973031914115747 -0.007307077143351245
-0.00853891753231337 0.01827699246631733 0.0030832553857811796 -0.004330620395225135 -0.001705965000455429 -0.0003273601019381846 -0.013449163511100485 -0.014399044592104731
-0.003945206063032705 -0.0006849791852989132 -0.012143738373167881 -0.007870469560167903 -0.002035248950507552 -0.0015344141780533147 0.00812332465032482 -0.006465829169181423
0.027880331476462867 0.0029557133023981096 0.015570140787666966 0.0004346829028220152 0.02077729488041454 -0.0057665771932555515 0.0010962380152924828 0.0001063987729373353
0.00012931702816227456 0.04527268161892889 -0.0033739880375472887 -0.009818582019909986 -0.006515711347884712 0.01940997523657934 -0.007639420252526303 0.009581727028391386
-0.003905988358870589 -0.0009208528982296744 0.0025997196237688243 -0.004056990598564918 -0.0008028002846005953 -0.0010337845426854383 -0.0036184137279401955 -0.0046098413935008265
-0.006904020135688273 0.0029200348273098744 -0.0005788480670949011 0.004809481978752597 0.0040617965394577635 -0.0004162322446291828 -0.004802752202819141 0.04235230078546837
-0.0002226759657202843 -0.0032516776615564647 -0.0015954641073704543 -0.03838217247472717 -0.03405048781650022 -0.0004255550689586624 -0.017918244432611873 -0.00953876909029146
-0.007850279047527891 -0.0018705831309787195 -0.0010911293713289714 -0.017420366583911186 -0.0032533886584636146 -0.0051709296789094125 -0.0012430038156006876 -0.0013246846483305139
-0.003664188552667735 0.01649868678372076 -0.019493837381779507 -0.00118692575529499 -0.00819631613678824 -0.010855542363963121 -0.004032034599497402 0.029926952902518546
-0.0015641245807555006 -0.0019015250962038388 0.00327801359036263 0.05327255687782161 -0.001984462025431396 -0.0003752054266030166 -0.004303243426634711 -0.014578687990866635
-0.002031507349300779 0.0995965875993053 0.048061560698003776 -0.0013293751081701341 -0.002956540473114768 -0.0003577208365337835 -0.00032906156937352 -0.0006705467683078836
-0.003174691513109409 0.005878320146655034 0.03299902098669022 -0.004620627266697672 -0.0007173718781547727 -0.0014241492696573889 -0.0012266148399833344 0.0006924971908469359
-8.14279581161066e-05 -0.01776420694609594 0.00016002322138674595 -0.002313685603022908 -0.002217705517444788 -0.003946993231138177 -0.012305870809624196 -0.0019189815457605166
0.017282113984633366 0.001709251796135417 0.0076828050653341765 -0.00014248104668914498 -0.0054958070414144345 0.0018163674730637483 0.00027846655970991226 -0.0016397482310169776
-0.00874245481363869 0.007227282880314849 0.013182152364648545 -0.017065002404374082 0.0008043766209423908 -0.0014948087203280498 -0.0025736538195248603 -0.0024872056766710934
-0.002798838532670203 -0.0052320545319517195 0.024688818287429623 0.003019700198563062 0.0003236696856768421 -0.002752456709971432 -0.003024315578997771 -0.004782832570832771
0.047306277945080175 -0.0028543599785127785 -0.006561606232667305 0.002134648734393904 -0.005995302305246627 -0.002842682902620306 -0.0019297519889602678 -0.0058619852957332245
-0.005838343149633974 0.0006822452547856297 -0.004561800536101988 0.051454485067063814 -0.002626352839565416 -0.0034107792846134093 -0.0029039622505549114 0.03074644457499759
0.029069507565898954 0.0013965009018813421 -0.00035300106953829925 -0.0018668137679220972 -0.0015587033127763554 -0.009193938451566241 0.0013175646967820524 -0.002130388660268101
