L2minimization/data-non-smooth/model_OGA_2D_cone2d_relu1_neuron_1024_N_4096_randomized_trial8.pt (torch, 34550 bytes, 3 tensors)

fc1.weight f8 [1024, 2]
0.008900052894492185 0.0017030180953430635 -0.9987627342448956 0.04958459489367791 0.9740397622208389 -0.035767293019408335 -0.10003653521800256 -0.9947342231181078
0.04498855708260449 0.9734412370928518 0.7042783017670372 -0.709440282977513 0.7520446353295057 0.6574194921320768 0.01769633608483934 0.9647684326237173
-0.7419316681575655 -0.6353862888235984 -0.698404548823732 0.6760671535035184 -0.3663153620244347 0.9303078067391818 0.9542159813342072 -0.08893866490319843
0.4805480839676435 0.8761709272102871 -0.9196384757702193 -0.39259282648861665 0.9118723635921173 -0.4104152272320572 -0.5098099855332799 -0.7988994806160868
-0.6267976632950145 0.7068571256328336 -0.9133353809060294 -0.21595113717337772 -0.4986319074119241 -0.8576460653526106 0.4385927962678958 -0.7416240159243747
-0.41782829252854453 0.8968324999106335 -0.7363181974853222 -0.47535864494905733 -0.07596403424273922 0.997022284289106 0.5743853265424281 -0.8183048195784663
-0.8160873135477651 0.5778275501917168 0.6994003659381601 -0.43468793237908493 -0.7489724632285653 -0.6574515840885985 0.9776148661940549 0.20981637617793933
-0.9202030545559876 -0.34018761745644266 0.3925259462049235 0.8755406884473401 0.8526432816889677 -0.47709614870948913 0.9744160954202967 -0.22349967906789087
0.0633686978743815 0.9270760842653037 -0.3113176438282136 -0.9502255333391567 -0.641952509671862 -0.7667407381113903 -0.8141798564362221 -0.540297028439222
0.6744105230763741 -0.7177827161960986 0.8310499774935436 0.5561544016825529 0.86108952524064 0.0032754029755867743 -0.6818702622942076 0.7277214421456983
0.0793784333337678 -0.9930143256536758 0.17412819953649755 0.9822829792638521 -0.9296966043371738 0.3572502772709057 -0.3523644860852317 0.9052212533059216
-0.4918087459196439 -0.8693228547343846 -0.9713265294100154 -0.2127000285688726 -0.2096087366283893 0.9777424400072353 0.4856778539995646 -0.8740671887412859
-0.8119807191160932 0.5753162003156229 -0.9734058346551226 0.21625976164650532 0.997256178794658 0.07275972025086042 0.6277344738257635 -0.7552285706254567
-0.665606992563258 -0.7280892766294845 -0.9229960644481361 -0.3769298939341444 -0.02182497497727274 -0.9921831926750021 -0.7476065297591127 -0.6635901700225433
0.20163265461236227 0.9794078646405543 0.300055905229522 0.9398095345746724 0.6502408729240908 -0.7597245790821713 -0.3586088474179772 0.9330497490612265
0.9569107161428964 -0.23275620403042827 0.21759272801385093 -0.9730089358676549 0.7256971757346703 -0.6748792383368585 0.8688112950603994 0.49501888476731903
0.949708910345169 0.2674511707863341 -0.7609960972617932 0.6486329225517061 0.9063243920958663 -0.3726331787151739 -0.8576667318137722 0.5141921537628917
-0.4109483930326184 0.8832791040644248 0.341970493549245 0.9197849075557726 -0.5807560108027529 0.8134988169278027 0.9790767794916645 0.20103515909729727
-0.9475954388553568 0.3194696405775311 0.9142526293048671 -0.1299117186089747 -0.785634914472673 0.5766296357070889 -0.5515016770223226 -0.8338319457367106
-0.21156637741527723 -0.96432037729027 0.4168940095386823 0.9089550960645151 -0.05290560717097318 0.8114664159435115 0.9511445139975119 0.30817202191041393
-0.6260071543629913 -0.7756640701578215 0.975518886687669 -0.21829648437723365 0.684743798758752 0.7200986527322355 -0.9957515548072832 -0.08090386388340559
-0.034066727356821994 -0.9991857027368646 -0.2021340736618643 0.968280823895478 -0.3048010143115999 -0.9505094637146468 0.9896116804202584 -0.14374797147640916
-0.5688691359936401 -0.822230680781627 0.8190165087062268 0.5475237382587855 -0.8778099332021406 -0.4686482143714763 0.7067206827084264 -0.7074703362163907
-0.7618737654753013 0.6462586882358008 -0.6890325263198465 -0.7247297550987626 0.48572721124953094 -0.8725071416051692 -0.7721360384460447 -0.6354361988779228
-0.17043899567491833 0.9617400359305914 0.9467410771767664 0.3164407918324556 -0.4799098105953343 -0.8730411260970155 0.21608079919956585 0.9719961254403728
-0.09580569008909987 0.9950416978523916 0.285036855942319 -0.9584290637836094 0.4813889143942558 -0.8675537965008419 0.8113024173622841 -0.5785764074420585
0.9899562235600355 0.07669506827711495 -0.020778505862161425 -0.9996210667949943 -0.8777434721983646 -0.4782334921372054 0.5012408993593108 0.8650614946188795
0.1278532149002831 0.9917930605338652 -0.18229065605038916 -0.9474621111534304 -0.8831209219857622 -0.3481939751795813 0.8193990708484383 0.5666915936703601
0.9104712537275387 -0.4113457434797764 -0.8845127929779907 0.4664783102348116 -0.8500343403808236 -0.14983207713963237 0.14559911804470857 -0.9893274377413087
0.4459138745351956 -0.891224777887329 0.8100106777250572 -0.5858341545502916 0.13421165210684569 -0.8934131842701413 0.24917788885599146 -0.9613152213884155
-0.733747193720199 -0.6794166697981848 0.5804535563717607 -0.8101323933998344 -0.9338456417799759 -0.3568579032648758 -0.4355504827148349 0.9001541918476214
0.8067235926986656 0.5908476775064649 -0.9783953066032424 -0.11249394386549316 0.9470928556637511 -0.29919956048928675 0.3270114306932031 0.9445539866814172
00000000: 5b86 eae0 303a 823f ee20 89c1 f9e6 5b3f
00000010: a373 0144 ddf5 efbf 9b52 e8ea 2663 a93f
00000020: 71bf 776f 552b ef3f 57d2 9133 1750 a2bf
00000030: fd9d 2a8f fe9b b9bf bc22 90dd dcd4 efbf
00000040: 3c60 ba7a bd08 a73f d487 bc3c 6e26 ef3f
00000050: 25e6 2ba6 7289 e63f 164f bb1b bcb3 e6bf
00000060: 4deb 3be9 bf10 e83f f4b9 4e9a 9409 e53f
00000070: 6140 f902 fd1e 923f 1da0 4a0c 62df ee3f
00000080: 9d4f 537b e7bd e7bf 905f 5aa0 1555 e4bf
00000090: 066b 127f 5459 e6bf 4b51 4695 57a2 e53f
000000a0: d2b5 fafc b571 d7bf 9510 a5e0 14c5 ed3f
000000b0: b7d4 24f4 ef88 ee3f 9ef0 1b31 afc4 b6bf
000000c0: b4f9 32c0 4cc1 de3f ae5f c29c 9709 ec3f
000000d0: b571 32ab ad6d edbf 7f6b 9aa9 3d20 d9bf
000000e0: c223 78f3 0e2e ed3f 797e af3a 3e44 dabf
000000f0: fb44 e107 5d50 e0bf 0733 c1a4 9590 e9bf
00000100: 3af6 21f9 b90e e4bf e333 b1d5 929e e63f
00000110: d8ac e81e 0b3a edbf 16ca d86f 49a4 cbbf
00000120: 54e2 c4cd 95e9 dfbf fa70 4729 d671 ebbf
00000130: ded5 0e85 e711 dc3f 1159 ca49 62bb e7bf
00000140: 4f3b f0e0 b2bd dabf 1f65 2312 dab2 ec3f
00000150: a9c5 342e eb8f e7bf 3a55 7baa 466c debf
00000160: 7faa be02 6172 b3bf 25f5 0c47 9be7 ef3f
00000170: 10aa 1956 5d61 e23f 4cf5 c796 8d2f eabf
00000180: e0c7 4b24 631d eabf 9da3 d933 907d e23f
00000190: 7d79 50e0 7c61 e63f 892d 6255 edd1 dbbf
000001a0: e27a 6519 95f7 e7bf 45a5 8be7 d709 e5bf
000001b0: 5661 ccf8 9e48 ef3f dbbb ec54 43db ca3f
000001c0: a4e9 1fad 4d72 edbf 70b1 de48 a2c5 d5bf
000001d0: c305 7225 251f d93f 595b e6e7 6d04 ec3f
000001e0: 7043 4090 da48 eb3f c84e f048 be88 debf
000001f0: 8cd6 d0a9 6a2e ef3f d6ac 2132 a39b ccbf
00000200: 21e8 f554 ee38 b03f d157 da76 9baa ed3f
00000210: ae3c bad6 a0ec d3bf ba81 b060 3f68 eebf
00000220: 5106 54fd df8a e4bf d960 56df 2389 e8bf
00000230: dc93 0eea c20d eabf d5b7 68fe 1c4a e1bf
00000240: f71e 9660 c594 e53f 0848 7675 13f8 e6bf
00000250: 4ca4 551f f697 ea3f ad18 d850 04cc e13f
00000260: 5fc6 ba9e 0b8e eb3f 9fe9 2995 04d5 6a3f
00000270: df64 9595 e1d1 e5bf aea3 537a 7e49 e73f
00000280: a71e 2d1f 2552 b43f 858b a4fa c5c6 efbf
00000290: 0e0a 2935 d549 c63f d261 ebb6 dc6e ef3f
000002a0: bf92 da17 13c0 edbf e563 5744 30dd d63f
000002b0: b781 00c6 238d d6bf 64fa d28f 92f7 ec3f
000002c0: 2d25 e763 cb79 dfbf 3dfc d729 7ed1 ebbf
000002d0: cdb3 b15f 1b15 efbf a4e1 4729 c139 cbbf
000002e0: f42c 6386 75d4 cabf 11c1 7783 aa49 ef3f
000002f0: 3574 d490 5815 df3f c0d0 c4c0 5bf8 ebbf
00000300: 01c2 32fd befb e9bf e2dd 2685 fd68 e23f
00000310: ea89 32fe 2326 efbf 0d33 db5d 66ae cb3f
00000320: 0506 35ca 85e9 ef3f c88c f18a 61a0 b23f
00000330: d6e8 749b 6616 e43f ceea 7a1b d52a e8bf
00000340: 1a8a 2109 a74c e5bf 5124 f6e1 814c e7bf
00000350: c886 e40a 2f89 edbf d53d d58f 9e1f d8bf
00000360: fab9 0d47 4959 96bf 91c2 85f7 f6bf efbf
00000370: 13ed 7287 64ec e7bf 7434 c673 213c e5bf
00000380: 35d1 ae4c 19cf c93f ab71 8229 4f57 ef3f
00000390: a1ad fbae 1d34 d33f 4cf3 ee71 eb12 ee3f
000003a0: 2368 77f2 c5ce e43f 6302 a4eb a94f e8bf
000003b0: 95da ed85 72f3 d6bf 8549 b825 8bdb ed3f
000003c0: 5dd2 e038 039f ee3f bf3a 208e f4ca cdbf
000003d0: 665d 5519 14da cb3f 0b8e c8a2 e322 efbf
000003e0: 258f 9248 e938 e73f 90ff 2c58 9c98 e5bf
000003f0: 1ac1 5558 4dcd eb3f 0298 3eb0 63ae df3f
00000400: 9edf d4f0 0364 ee3f 4578 f383 eb1d d13f
00000410: ebef c37c 145a e8bf c7fd aed4 99c1 e43f
00000420: 6ecd f302 9c00 ed3f d21d ffd4 38d9 d7bf
00000430: 3f3c 8080 0172 ebbf 80af 881a 4374 e03f
00000440: 71ce 1a7d fa4c dabf e24c 268a d243 ec3f
00000450: 526c 7f35 d8e2 d53f 3fce 29c2 e06e ed3f
00000460: cb4d 2ba1 8d95 e2bf 6f44 c1ab 2e08 ea3f
00000470: 0b12 86d3 9854 ef3f 63a3 d524 85bb c93f
00000480: ed1e 77ab b352 eebf 8d1a 96ca 3072 d43f
00000490: 6faf e4ba 8e41 ed3f 3a77 657b f2a0 c0bf
000004a0: 3b30 08d5 eb23 e9bf dd85 68fe bf73 e23f
000004b0: 3f00 50d8 e6a5 e1bf 3393 2955 c0ae eabf
000004c0: 8245 f767 9b14 cbbf b87f 6a68 b6db eebf
000004d0: 267c 3736 64ae da3f ef25 64ff 2816 ed3f
000004e0: 9511 2699 7116 abbf 6df3 c86a 88f7 e93f
000004f0: bc73 ac9e c66f ee3f 626f e924 17b9 d33f
00000500: 60a2 e127 4008 e4bf ae52 c074 3dd2 e8bf
00000510: 1686 5e62 7337 ef3f f6b1 9da2 23f1 cbbf
00000520: 3bd8 b9d3 6be9 e53f 981d 6c54 0c0b e73f
00000530: 71d4 5a5d 32dd efbf accf 7f99 1db6 b4bf
00000540: 7a33 c2af 3171 a1bf ed56 7c4b 54f9 efbf
00000550: a479 e481 87df c9bf 4f33 ff10 28fc ee3f
00000560: 7a61 101d dc81 d3bf 4b2c a6d2 926a eebf
00000570: aca0 641d e6aa ef3f 28c3 2d62 5566 c2bf
00000580: 9b7c d90b 2d34 e2bf 6932 77b7 b64f eabf
00000590: ffdf f81b 6235 ea3f 5f5d b380 5085 e13f
000005a0: e1a0 66db 0417 ecbf 7479 8314 55fe ddbf
000005b0: a776 74b1 749d e63f 9110 9ed4 98a3 e6bf
000005c0: 87b2 4c17 4561 e8bf e450 57b3 26ae e43f
000005d0: 6891 cdf0 8d0c e6bf f4ca 9274 fc30 e7bf
000005e0: 6704 c695 2716 df3f 810f d718 94eb ebbf
000005f0: 540a 26a3 56b5 e8bf e301 9c4b 7e55 e4bf
00000600: 9e84 31ec f1d0 c5bf 966c 320a 93c6 ee3f
00000610: f620 88f1 b34b ee3f 7f9b 02e1 9040 d43f
00000620: 4356 62a3 d7b6 debf 4aca 94f1 f3ef ebbf
00000630: de86 ed1e 89a8 cb3f 1a5d 539e 971a ef3f
00000640: b611 b4c1 b886 b8bf b1d5 cdaf 61d7 ef3f
00000650: b652 9b39 0b3e d23f 6991 8f6d 73ab eebf
00000660: c8bc fe72 13cf de3f 75bc ef2d 00c3 ebbf
00000670: 7b93 b77c 30f6 e93f 0e6d 86ab b283 e2bf
00000680: 3f2f 95ac b8ad ef3f 1ac3 03ba 49a2 b33f
00000690: 7708 8dec f546 95bf 44de c851 e5fc efbf
000006a0: a0d2 6b7a 7916 ecbf e531 25a6 609b debf
000006b0: c94e c55a 2a0a e03f cc57 8d71 95ae eb3f
000006c0: d7b3 5780 7e5d c03f fe90 eccc c4bc ef3f
000006d0: bf28 0ddb 4c55 c7bf 994c b30f 9c51 eebf
000006e0: 6ff3 cace 8642 ecbf d8df 0362 cf48 d6bf
000006f0: ab56 7566 8438 ea3f 256f b768 5622 e23f
00000700: 17a7 569c 9422 ed3f 630b e618 7d53 dabf
00000710: a77d d7c5 ed4d ecbf 711e b0d7 c7da dd3f
00000720: c533 8d37 7b33 ebbf 9e6d 9a8f b22d c3bf
00000730: 330b 2aed fda2 c23f fb4c c403 92a8 efbf
00000740: 2486 fd58 da89 dc3f 7026 4dd3 e984 ecbf
00000750: 65ad 4783 9beb e93f c68b d544 27bf e2bf
00000760: 8740 45f0 d82d c13f e12c 083f d796 ecbf
00000770: 50eb c2a1 0fe5 cf3f ec53 a023 18c3 eebf
00000780: c7eb 1165 db7a e7bf 717e 2407 c8bd e5bf
00000790: d9d5 2e56 1393 e23f cda3 e2c4 9aec e9bf
000007a0: caa0 5e41 10e2 edbf 9ddf f587 c2d6 d6bf
000007b0: 481a c121 0fe0 dbbf 93f8 ea29 10ce ec3f
000007c0: 34ad f1fe add0 e93f add9 7963 39e8 e23f
000007d0: 5977 8dac 034f efbf 887d e631 67cc bcbf
000007e0: e13b 2bad 954e ee3f 20dc d1e9 1526 d3bf
000007f0: e9b5 0f5a c1ed d43f a64c 4348 c939 ee3f

fc1.bias f8 [1024]
0.999958943551105 0.00379059795939094 0.22353353744535845 0.02228266095401738 0.22447313348987563 0.026202262286382488 0.047206756263408485 -0.26250468777137725
0.21405995365763042 0.2348707945572829 -0.018451023414452955 -0.28559022191180217 0.037390444053160936 -0.011659608600063834 0.006937850746754857 -0.3191447924091875
-0.3278379069448772 -0.34522976166426206 0.1257356254047839 -0.5075728303072484 0.14529619770222646 0.48152847343034877 -0.013267634774172359 0.02141772414151101
-0.010808279503739412 0.5673495655850667 0.08244794663742762 0.015692727103265202 0.193645870896178 -0.2816946652478306 -0.21302276657024374 0.023688951906173587
0.3694784731388515 0.01235962910303545 -0.002369777710757314 -0.21258006123161963 0.1730850042435879 -0.006943802783956325 -0.5084428200458697 0.07398951304214554
-0.08730185203105471 0.06927855927130865 0.08964632325862205 0.23751579212580132 0.04900950594942713 0.10622368432273145 0.00915961449780336 -0.011116280865598592
0.09848137609774944 0.07558304407709884 0.013643202149558756 -0.18862459140239748 -0.16386987736630873 0.07747335072169653 0.12286652367704103 0.02706589941215927
-0.010222879936755892 -0.16347627491299727 -0.0023175671153453925 0.028598257470207868 -0.17362727555379945 0.0768571105180526 -0.13379694612577966 0.011101229625198826
0.16285839510449215 0.012659847327349582 0.1993003020887919 0.0037691044774048857 -0.2256976796226663 0.1924887149271475 0.030694148848572685 -0.03152022631509812
0.001425836521732252 0.3837513194468518 -0.2242232021576397 -0.02387857848568455 -0.1591410628660247 0.00013471863017104749 0.581999357839562 0.01881803401219806
0.08037594759971449 -0.026637316384933333 -0.1121778070504725 0.04397051179612708 -0.02161919363514576 -0.14688111635317283 -0.060233720319389755 0.0022896882342390867
0.018017039025097135 -0.171550909381991 -0.09908870943795964 -0.005621388262949018 -0.04356688375621644 -0.000979667177003424 0.052918466528528586 -0.00517448436320306
0.21449161298649908 0.05955298523688435 -0.0865203203739198 -0.09237218383355265 0.0267074761364877 0.012950693008165265 0.12496048685602841 0.08389116958032647
-0.11876254433415234 0.01805481968266857 0.029310817310543174 -0.02064391768098953 0.0002837543494522125 -0.2628415200180584 0.3144175453114196 -0.08628905119459394
-0.042857618422794355 -0.0059249589660181476 -0.5049672948155768 0.005667253022405122 -0.08294101383929992 -0.02609684528325934 0.4287191558713439 -0.11740283144887403
-0.0028362842024612185 -0.08221419621714464 0.02418169154425789 -0.004267072301922664 -0.009801375851073728 0.17345816962695826 0.11616688750973198 0.029686536346049702
0.09066967652403454 0.40627173462371846 -0.03934999852203493 -0.012672619840624918 0.09182604209389475 0.0500733791556745 0.026331371456089665 0.01939751561705813
0.004824160415708261 -0.003217805546595244 0.09972646016353129 -0.13663898230024035 0.1701535757553035 -0.08862768027793361 0.015193408601404773 0.061306438378052414
-0.005397217576688199 -0.0031558612291220835 0.05157921120326558 0.00675412445963043 -0.014025125974755692 -0.07254670029071385 -0.027183691837581615 -0.05628457362455449
0.2292730845891082 -0.047046477280312395 -0.002511291598209735 -0.07892625650991092 -0.015562557298680245 -0.09824762023751259 0.3342499192610666 -0.021754284226287796
-0.009659372054880575 -0.14907220705048316 -0.08058095454312446 0.007555363127817967 -0.5252002355695312 -0.005042553634538284 -0.0338034130095669 0.10045257573664432
0.06702966002427092 0.040871965084238834 0.0015807005739034824 0.004077326944173396 -0.09968082754570479 0.059374787780671026 -0.011996089577311762 -0.35107642827290175
-0.03446958904338362 0.012662011484309954 0.40023404735915763 -0.05222848007092024 -0.14480678775106384 -0.0029064159650450737 -0.04889759033244348 -0.26361400705053184
-0.0046393937383746656 0.22337426624299783 0.005723976093880391 0.024595898788800506 -0.0009451369916851068 0.16111006661897162 0.12908230801352813 -0.03462447514980922
0.013410805368729815 -0.0005926576690708784 -0.003767750587409221 -0.005169704842886433 -0.05842495626727642 -0.00020003234585447716 0.05200566504560342 0.17142587447128682
0.05522622629825645 0.03757014002651334 -0.4144322629899394 -0.0020012690371074416 0.013011332260971167 -0.017503075087953287 0.039002475407075576 -0.1282720255820114
0.00866840900952031 0.0186252213534504 0.016310353353407234 -0.044333746874647445 0.0011445839352875239 0.00433465768619482 0.29062631179735915 0.06233270568457699
0.0035618046192529553 -0.0021601058018172184 -0.015134359104184548 -0.0010898609815088813 0.33771735686798143 0.029175889017244307 0.02305796165806236 0.13484894130377942
-0.0018948782150149267 -0.025260550666087397 -0.5480916972066237 -0.2927081158382054 0.16287001321135214 -0.05291533445689846 -0.030229547847994587 0.02402371828994289
-0.006821958503898118 0.007529605699174131 -0.01203758664827669 0.007743735773969002 -0.053762957000534295 -0.017246600763566017 0.006835114660214815 0.039631159284927234
-0.0021938405321008493 -0.08275418052427608 0.06867094814722148 0.006792052840536983 0.041995491481664135 -0.012036984439549904 -0.0418858693732479 0.06197253356577342
0.042153847124361675 0.017354032678023365 0.019635781703806417 -0.004416299308664164 0.03026800432532067 -0.03634813080077929 -0.5546813057789661 0.27860536974941474
00000000: 6fa1 fce5 a9ff ef3f cd60 92c8 750d 6f3f
00000010: 6989 7138 bf9c cc3f f2ed 4210 44d1 963f
00000020: 5cb7 951f 89bb cc3f 0ba8 670e c4d4 9a3f
00000030: 0969 9ae4 7b2b a83f 9c95 4176 e0cc d0bf
00000040: d0e0 2b0a 5166 cb3f 3d5c b406 3f10 ce3f
00000050: a83b 9238 d3e4 92bf e6c9 ca35 1c47 d2bf
00000060: 1f51 c81c d724 a33f a8b2 f82c fee0 87bf
00000070: 4b4d fd20 dd6a 7c3f cd83 8547 de6c d4bf
00000080: e1e8 2dd8 4bfb d4bf 5f0c fd91 3e18 d6bf
00000090: a81f 87df 1a18 c03f d03f 5060 093e e0bf
000000a0: 889e aed8 1099 c23f 4a79 5ecd 5cd1 de3f
000000b0: 3c4d 9acb 0f2c 8bbf 445c f822 87ee 953f
000000c0: 7eea f4b7 a622 86bf 2ece b246 ba27 e23f
000000d0: 591b 6e02 4f1b b53f 0339 c616 c111 903f
000000e0: 3394 404d 63c9 c83f 4a9d ac0f 4907 d2bf
000000f0: 6f7f dc7b 5444 cbbf 3ea8 daa6 ea41 983f
00000100: be45 ad09 89a5 d73f ff49 4e56 0150 893f
00000110: 181b 87b8 c869 63bf fbbf 62cd d235 cbbf
00000120: d9bd 5340 a627 c63f eb17 dfdd 1a71 7cbf
00000130: ee74 7fe0 2945 e0bf b252 c30a faf0 b23f
00000140: 4386 5a07 6a59 b6bf 675f 625a 3dbc b13f
00000150: 9538 9aba 0ff3 b63f 785f bbdf ea66 ce3f
00000160: 84e7 7d22 c617 a93f e90c 3ab2 7931 bb3f
00000170: 4d3e b2a5 46c2 823f cccb 2af6 21c4 86bf
00000180: 61db 9a51 1336 b93f e279 710e 6959 b33f
00000190: 954e 5c98 f7f0 8b3f 6bb7 a5c1 d924 c8bf
000001a0: e73d 0b2a b0f9 c4bf 0446 a923 4bd5 b33f
000001b0: 6352 f734 2e74 bf3f f489 3fc3 29b7 9b3f
000001c0: 9491 feb7 bbef 84bf 5a2c 3663 caec c4bf
000001d0: 4027 ef5e 4afc 62bf 6a80 3a92 dc48 9d3f
000001e0: 2d3c 1927 6b39 c6bf 2bdd 2358 e8ac b33f
000001f0: 5d1b f521 4220 c1bf df23 7cd1 3dbc 863f
00000200: df29 6d3c 8bd8 c43f 7951 f2f1 67ed 893f
00000210: b4f2 c61b ac82 c93f 39b2 e68e 62e0 6e3f
00000220: 8c97 615c a9e3 ccbf 7907 bb5f 78a3 c83f
00000230: 9fc5 ee75 496e 9f3f b329 5f4a 6b23 a0bf
00000240: 75f2 bc4e 645c 573f 888c b4b1 618f d83f
00000250: 2cbf 228c 58b3 ccbf 8516 af46 a073 98bf
00000260: ace9 3afe bb5e c4bf 2ec6 b338 68a8 213f
00000270: 6fd8 061e bd9f e23f 202f a1e2 0845 933f
00000280: 8b66 53a2 8493 b43f f1ed e70a d046 9bbf
00000290: 3668 9e4c afb7 bcbf fd34 4e8c 4d83 a63f
000002a0: 43ef 8386 5723 96bf 3d84 911b 00cd c2bf
000002b0: ccc0 c645 f4d6 aebf 85e3 b002 d3c1 623f
000002c0: c9c0 8805 0f73 923f e385 b254 61f5 c5bf
000002d0: a65a 70ae e05d b9bf 14b2 f5eb 7306 77bf
000002e0: c2d9 d709 664e a6bf e8ce 1d9f 050d 50bf
000002f0: 6d62 3016 2118 ab3f c263 d111 d731 75bf
00000300: ef8a 850f 7674 cb3f 2074 f197 ba7d ae3f
00000310: 9207 721a 3226 b6bf ab0d a014 b4a5 b7bf
00000320: 1b79 4262 3459 9b3f 63e1 7197 e485 8a3f
00000330: d5c0 5614 69fd bf3f 164c c545 e479 b53f
00000340: c8a9 e7db 3867 bebf ebf8 4970 f67c 923f
00000350: bb3d 12a7 a703 9e3f e964 34dd ad23 95bf
00000360: de9b a7a6 9b98 323f 1a8b 203d 65d2 d0bf
00000370: 5dac 99c4 6a1f d43f ef36 e20c 0a17 b6bf
00000380: 724c 050b 6ff1 a5bf cfb8 d30f c544 78bf
00000390: 2e0a 192c b128 e0bf 06ee 3aa6 8b36 773f
000003a0: 24d7 ef4d 9f3b b5bf 10dc 14a4 21b9 9abf
000003b0: a8b6 6878 2270 db3f e4dc 87a9 1c0e bebf
000003c0: 5612 897c 1e3c 67bf 1702 0554 fd0b b5bf
000003d0: 07d1 60d9 15c3 983f e065 c87f 597a 71bf
000003e0: e9aa e365 be12 84bf 8cca e296 e033 c63f
000003f0: 347f bbf6 1cbd bd3f 8881 f3ba 2566 9e3f
00000400: 56dd 68bf 2036 b73f 3ee0 5f29 5b00 da3f
00000410: 43e4 7fd9 ae25 a4bf 2b37 293e 1af4 89bf
00000420: bee2 b657 e981 b73f a866 bfcb 37a3 a93f
00000430: e209 0d6d 9cf6 9a3f 18b0 cb3c f1dc 933f
00000440: 393f 75b3 7fc2 733f 1dea cc32 3a5c 6abf
00000450: 22be f25c ac87 b93f f24b 2bdc 627d c1bf
00000460: 724f 95a5 97c7 c53f d466 50bc 4db0 b6bf
00000470: 1d5f 76c8 b81d 8f3f 2467 bcb7 8e63 af3f
00000480: 774a b38f 641b 76bf 6c26 a218 52da 69bf
00000490: 5f02 8b22 9768 aa3f 8ff5 ac7a 36aa 7b3f
000004a0: 0023 128b 34b9 8cbf 9f6b 2ea9 6b92 b2bf
000004b0: bd33 b5ad 0ad6 9bbf 5b39 f9e5 54d1 acbf
000004c0: bfe5 1408 d258 cd3f ad34 9fd2 7916 a8bf
000004d0: 0af8 1e69 8f92 64bf 707a 81da 8234 b4bf
000004e0: 2ca2 1e15 43df 8fbf 3b77 d48b c126 b9bf
000004f0: d8ae fac5 5964 d53f 65fd 324d c146 96bf
00000500: 92d8 9af8 4ac8 83bf 6b1e 034f cc14 c3bf
00000510: 6374 7114 f4a0 b4bf c8b1 b158 5ff2 7e3f
00000520: 9bec 73b9 70ce e0bf 5bbe 2d2f 80a7 74bf
00000530: 0f11 bd52 ae4e a1bf 5e7d 968f 42b7 b93f
00000540: d98e aa15 db28 b13f be59 b892 2bed a43f
00000550: 3680 4251 f0e5 593f fdce 151e 63b3 703f
00000560: 2cd6 58c6 ae84 b9bf 0a29 7347 5f66 ae3f
00000570: 2cc6 50e3 6791 88bf d407 7544 0978 d6bf
00000580: 93b8 4b7b ffa5 a1bf a041 d069 8aee 893f
00000590: 9fcf 0944 6f9d d93f 7916 a6fb b0bd aabf
000005a0: cd97 d060 0789 c2bf 4f11 9730 32cf 67bf
000005b0: 747f a9de 1a09 a9bf ca2b c348 0ddf d0bf
000005c0: 28c9 12c6 c100 73bf d80d 2428 8797 cc3f
000005d0: 5b55 0522 0672 773f 198d a7d3 aa2f 993f
000005e0: f378 193c 62f8 4ebf a3a9 9731 419f c43f
000005f0: c784 b4e1 c485 c03f 7ab6 d198 4cba a1bf
00000600: ec12 c6d3 1f77 8b3f ff8e 37a7 926b 43bf
00000610: 4552 adb1 8bdd 6ebf cac6 ae13 d42c 75bf
00000620: 7459 e038 e0e9 adbf a088 65c4 f837 2abf
00000630: cdba 278d 7ca0 aa3f a66c 4576 48f1 c53f
00000640: 4e3e aaa7 9c46 ac3f dba5 70b5 643c a33f
00000650: 6abd fce5 0e86 dabf 5f72 1322 f764 60bf
00000660: bb5b 4e74 afa5 8a3f 0f2a 547c 53ec 91bf
00000670: 1041 ace8 21f8 a33f aae6 6ebd 376b c0bf
00000680: 5c49 a229 bec0 813f 0f15 6072 7d12 933f
00000690: 7cd3 f448 a9b3 903f 041b dfb1 e9b2 a6bf
000006a0: 981c 74a4 bbc0 523f a665 06d0 37c1 713f
000006b0: 61b6 211a 9f99 d23f f7dc c588 12ea af3f
000006c0: 3e84 574b a52d 6d3f be61 caf8 11b2 61bf
000006d0: 67e8 2f4b c3fe 8ebf 2a04 7551 35db 51bf
000006e0: d887 c242 299d d53f 1aa6 a4c4 48e0 9d3f
000006f0: 3569 ef9c 819c 973f f764 66e8 ba42 c13f
00000700: c736 a8fd b10b 5fbf 2f8d f5db e6dd 99bf
00000710: 4ac5 5699 f789 e1bf b720 33d2 babb d2bf
00000720: caf4 1eb2 ecd8 c43f 2208 e6fd b717 abbf
00000730: c01f 859d 7ef4 9ebf 24d4 8871 ac99 983f
00000740: 8ddc b38a 57f1 7bbf 61f7 ac23 5dd7 7e3f
00000750: 7b21 d187 29a7 88bf 6076 5e3e e5b7 7f3f
00000760: c86a 1b7c d186 abbf e89a fcc8 17a9 91bf
00000770: 0e6a e11e 23ff 7b3f 620a 100a 894a a43f
00000780: 5aff d02a d1f8 61bf 0884 f5c2 602f b5bf
00000790: d545 7a54 6b94 b13f 133b 2acd fbd1 7b3f
000007a0: ee83 fcdc 6e80 a53f b426 15b4 d8a6 88bf
000007b0: 10c9 3e8e 1072 a5bf d79c d429 ddba af3f
000007c0: 8374 9965 3095 a53f 5c2a 396b 41c5 913f
000007d0: bf39 ff00 671b 943f 82d8 9951 d316 72bf
000007e0: af0e c562 93fe 9e3f 75c2 1ee2 389c a2bf
000007f0: 58be 8002 f3bf e1bf 0e14 e49d abd4 d13f

fc2.weight f8 [1, 1024]
-0.000399636242276652 0.01885992164910682 9.732696363275059e-05 -0.003066492036794937 5.076225142500793e-05 -0.0008313880897558115 0.0004196346726468692 3.30366165056916e-05
-0.00012408062017902336 8.173079285007048e-06 -0.0028442170602512107 6.284823866361274e-05 -0.00039193722983532284 0.0060244479745328065 0.001224509808249114 -9.673381842948672e-05
-4.575270801224482e-05 3.623683960407452e-05 0.0002611138574179336 -0.00011008579915075432 6.734196900739812e-05 3.469199469889918e-05 0.00033534701449098616 -0.0008218879660055829
0.0006036454949619498 4.19137684364822e-05 0.0004838628609741938 -0.0040288847187307745 -0.00011723709628884813 4.101076835721957e-05 -5.306698373331601e-05 -0.0045230331027782105
8.304759718456567e-05 0.0043762524035791395 0.013381517436675447 -5.852226342692718e-05 6.661087665817338e-05 0.0079740095892841 -5.672234651397608e-06 8.878360243233247e-05
-0.00040133975744265326 -0.00015232971169357152 -0.0001123017519239854 4.341284281945319e-05 -0.000460815092569147 0.0012066017852930056 0.01628368179494825 0.0009617927206670292
-0.00010820716290241118 0.00041103304629882913 0.008049514866411605 0.00022756060155642048 9.43010189147539e-05 0.00029346841569829265 0.0003845496201436025 -0.0014632224823561467
0.0055423620772016464 -5.608335548798864e-07 0.012114979178478272 -0.00119570161704912 0.0006364828221520904 -0.0004247612455762348 -4.3892989625278784e-05 -0.0031336844668192394
6.958734368862553e-05 -0.003467892213789455 -0.0001508200943151512 0.01560375920289402 2.4255164910589952e-05 4.142212259282349e-06 -0.0022183421490084287 -0.002270208236978322
0.02166885555248942 -2.7399209515482003e-05 0.00021855858650777018 -0.001832011718559943 -0.0008873605929431822 0.020368877465314787 -1.802698886074911e-05 -0.0018173118792520573
-3.608875800033215e-05 -0.0010316376227972315 -0.00012296347994767117 -0.0010698503170923736 -0.013148439920924236 -0.0002970020477158001 -0.00020616532204980974 0.02209660006950493
-0.0027796162767457808 5.495652803904522e-05 0.0001935038554226533 0.01567861782090641 -0.0008972905398216649 0.017998987802974088 -7.776633171728111e-05 0.009496419024067337
-0.00012167488818322608 0.00034047029039149877 -0.0001488649814811641 0.0011610992159070545 -0.0029357954759372173 -0.0009162928633105796 -4.2678244926423124e-05 0.0002618141895462578
0.00018375081658792943 -0.004106886332497179 -0.0004892260060689104 -0.001578345558209974 0.019388437153783057 1.9659916079947196e-05 2.6539426460411154e-06 0.00028654586809259274
-0.00013021367439725804 0.0071649755656274785 9.4215497381723e-05 0.010939042823775242 -4.955841928990196e-05 -0.001193489570389219 -2.8104557887554906e-05 -5.722253636316894e-05
0.015486122632934404 -0.0005897751625975854 -0.0022149536219488184 0.012450960820996443 0.008260110629679527 -0.0002881525703074138 -9.39236909759867e-05 0.001496692483155281
-0.00036763572453654865 -7.708923966811353e-05 0.0002464410910970548 0.007844571720850383 -3.700701726151693e-05 -0.0011135626640681 0.0012504178348822562 -0.0013492580379471759
0.016591868657962146 0.01409666010715892 2.6487501829605776e-05 -0.00015249496461917082 -0.00028172185278016557 0.0002671388878894754 0.0017714413889786942 0.0006951967756520189
0.013140225641709193 0.012379453123436052 -0.00037170846059881305 0.011475938904182834 -0.002790807601722295 0.00011284921084640092 -0.0026377169077818736 0.0001665763284366711
-5.777728653916063e-05 -0.0009695878062888915 0.02260952873653529 -0.000195289099033443 0.001218743653419018 -0.00015370950623050261 -3.557185275913588e-05 -0.004494312294484488
0.001286051573444458 -0.0001577303516577443 0.0002498860686263433 0.009802211248823285 2.1341379678114735e-05 0.018686761733175173 0.001433074617381623 -0.0002762655080372802
-0.00015195135107746446 0.0008989371070011372 0.01619540415752689 0.013170756366408635 0.0003495776823357368 0.0003927486779472013 0.00468880015704095 4.4416547194529295e-05
-0.0004352101675637696 0.006201803373556653 -1.4978613829060512e-05 0.00018861636983937078 0.00010109297431612181 0.02174677915080004 0.0011012909458452762 -6.930384460797909e-05
0.00968278190855487 -2.272878795535005e-05 0.016053464200426852 -0.003223238891784417 0.013754480477004512 -0.00048800329877182557 -3.8705932632991766e-05 0.0002562482047531778
-0.005997597008125067 0.019526755231263376 0.014115501474278721 0.013350559688294612 0.000719574804886233 0.017829533532688957 0.0006068744023786386 -0.00016802961013162641
-0.00012613417410611017 1.424680218656215e-05 -0.00011509528197240259 0.03223058145704716 0.006856412385783848 0.0009738495075929625 -0.0006891782725895359 -0.00030706903344590776
0.005254348320350786 -0.004237739633627528 0.013346699883319085 0.0007029816902553311 0.014938127135400922 0.006226907813851416 1.5758222985951478e-05 0.000460877060782132
0.019915937928369418 0.012287146326439008 -0.002501348985546967 0.015548311552363536 -9.910578180139938e-05 0.00031271493808561674 -0.0026084696243500035 7.687070660481084e-06
0.01056910862411935 -0.0017145919543308217 7.401662292348329e-06 7.686277315193228e-05 3.7319985824441495e-05 -5.9280867794378614e-05 -0.0006390511578692222 -0.001297342662798685
0.011478317172904408 0.009811381939357216 0.007301282286308375 0.00712841316043699 0.0008972400436525952 -0.004571290825470181 0.013117796025569596 0.0006500343382293127
0.021721209031680157 0.0006441196534009057 -0.000583895627472844 0.016146242400572174 0.0014208193226277156 -0.004893376849312648 0.0003449197644479372 0.00032763218471280767
0.00022880280932327114 -0.004453938600914134 -0.0027113471908674224 0.012827237434759626 0.0009618965868622787 -0.0006547697793841956 -0.00013974158100116786 -0.00011685453512991217
00000000: 018e 4397 c830 3abf 8e8c c0ea 0350 933f
00000010: ac63 d780 8083 193f 8b08 5e60 e61e 69bf
00000020: 9a13 8dad 319d 0a3f 54c4 f053 303e 4bbf
00000030: e242 fe31 4d80 3b3f ad4e ec7f 1952 013f
00000040: ca44 5669 7443 20bf c2da ac76 e323 e13e
00000050: 5248 3568 c14c 67bf a795 c884 ac79 103f
00000060: c0ef 8f95 9daf 39bf e3e2 6e70 17ad 783f
00000070: e9b8 1f65 f70f 543f 584a a658 b25b 19bf
00000080: 8591 b113 d3fc 07bf 4aff fc53 a0ff 023f
00000090: db8a 677a c31c 313f b587 e0a0 bbdb 1cbf
000000a0: 4607 d837 3ea7 113f cd59 7fdc 4730 023f
000000b0: 9ed6 c575 30fa 353f 4e18 adf7 7eee 4abf
000000c0: 20f4 61d4 bec7 433f 041e 141e 92f9 053f
000000d0: d2dc e329 dfb5 3f3f 9a6a b381 9780 70bf
000000e0: 251d 4efa a5bb 1ebf 3ae0 6145 5f80 053f
000000f0: e284 53ad 87d2 0bbf 5e20 1574 be86 72bf
00000100: 339b 0ddb 3ac5 153f 4016 3d4f d5ec 713f
00000110: ab4b 17de c467 8b3f 9231 f9a8 b9ae 0ebf
00000120: 9724 b025 2e76 113f 5152 3b73 ad54 803f
00000130: b391 19fd 83ca d7be 38b7 ebac 2a46 173f
00000140: 2d3b ff21 5d4d 3abf f693 8642 56f7 23bf
00000150: 887a 3d68 7170 1dbf 4364 cceb c5c2 063f
00000160: c7d1 88c0 3133 3ebf 9f98 41cd dac4 533f
00000170: 2b33 1263 abac 903f 821d f123 1a84 4f3f
00000180: 8687 47e7 a85d 1cbf de45 ce7d fdef 3a3f
00000190: 499a cc98 437c 803f 70b6 deae aad3 2d3f
000001a0: 3349 3b2b 6fb8 183f 73fd 713f 953b 333f
000001b0: 1b03 ce0a ac33 393f 19ed 572d 33f9 57bf
000001c0: b4a5 d37d 96b3 763f 03c4 9807 86d1 a2be
000001d0: 0802 e8fa bccf 883f def2 d2d5 2297 53bf
000001e0: 02ff ea73 34db 443f f128 8aa8 4fd6 3bbf
000001f0: 924a c4a3 3703 07bf ad8f a109 d0ab 69bf
00000200: fb72 2076 ed3d 123f 78ee 9d74 b268 6cbf
00000210: 56b6 cdbe aec4 23bf 3aca c41b ddf4 8f3f
00000220: 9124 a53d f26e f93e ee92 cda2 aa5f d13e
00000230: 400d 675f 332c 62bf 01fa 40c4 f898 62bf
00000240: 1d3e c247 5c30 963f c02b 4457 ebba fcbe
00000250: 8460 6ef6 9ba5 2c3f c4d3 b19a 0304 5ebf
00000260: 6c51 fc5c b813 4dbf be6e 473a 94db 943f
00000270: bce1 db3d 15e7 f2be 2a1e a2c5 5bc6 5dbf
00000280: aa47 6d48 c0eb 02bf fcab 7a76 00e7 50bf
00000290: 5d10 fd3f f81d 20bf afdd e707 4787 51bf
000002a0: df5c a1bb 91ed 8abf 6dd2 ef14 de76 33bf
000002b0: ba07 ada1 c205 2bbf 52f2 9aba 7da0 963f
000002c0: 8732 2120 47c5 66bf 321c cfec 23d0 0c3f
000002d0: e706 1d76 e95c 293f a22b 263b 0e0e 903f
000002e0: 5f7f 03c3 0467 4dbf 0d46 e69f 536e 923f
000002f0: bafa e367 cf62 14bf e08f 19c9 db72 833f
00000300: b894 76a9 76e5 1fbf 0e9e 32c3 2450 363f
00000310: c4e2 3674 1483 23bf be0c 39ca 0006 533f
00000320: ae15 d231 cf0c 68bf 2b3e d4f0 6b06 4ebf
00000330: a4bb 6554 2d60 06bf 5c0d b961 8328 313f
00000340: 8c4d e77e a715 283f 478f c8e7 61d2 70bf
00000350: 353f 24d9 ec07 40bf 44a1 79a3 0fdc 59bf
00000360: 6af4 fbfd 8fda 933f 11c9 4b25 6b9d f43e
00000370: ff2f 3e66 4c43 c63e b2e5 db21 71c7 323f
00000380: 1ac1 30f2 3e11 21bf 9f36 b27b 0559 7d3f
00000390: a236 8deb b1b2 183f 0ad8 6b79 3567 863f
000003a0: 6189 1b52 9efb 09bf d76d 11ab db8d 53bf
000003b0: 08ce 0d83 4278 fdbe 602e d160 4700 0ebf
000003c0: 989c 0032 30b7 8f3f e056 8684 6453 43bf
000003d0: 4227 ca2b 1825 62bf 1d5a 3dac e37f 893f
000003e0: e563 2048 adea 803f 1c65 a0dd 65e2 32bf
000003f0: c82d 68b9 1c9f 18bf 62c9 1b51 9585 583f
00000400: 20ee e969 e717 38bf d2e5 900d 5f35 14bf
00000410: 9717 396d 9826 303f 75fb ef97 d010 803f
00000420: d487 4e6e ff66 03bf 2b9b 59ce 9e3e 52bf
00000430: 9b04 42ed a17c 543f 31f6 65c9 321b 56bf
00000440: a2d8 0f75 75fd 903f b904 25b1 b5de 8c3f
00000450: b4c9 0944 2fc6 fb3e ca58 8dc5 e1fc 23bf
00000460: 122e ee24 8276 32bf 5d33 77c9 d881 313f
00000470: 7cc4 46b5 f605 5d3f d2fc 35b5 bbc7 463f
00000480: e146 253b 43e9 8a3f 90ce 7512 665a 893f
00000490: 6734 92ae 3b5c 38bf 325e 4672 b280 873f
000004a0: 8d56 1f6c bfdc 66bf f739 0bae 2e95 1d3f
000004b0: 9b66 5c7b b19b 65bf 6584 0ec4 5fd5 253f
000004c0: 001f f872 bc4a 0ebf 070d 95f5 7dc5 4fbf
000004d0: b76c 01ca f326 973f 1591 5496 d098 29bf
000004e0: 3098 8d08 c8f7 533f d3df cc9a a225 24bf
000004f0: 1476 d78d 5fa6 02bf fb46 2ac5 a068 72bf
00000500: cefe ba5c 1712 553f b4da 6667 8dac 24bf
00000510: d9ea 127e 6460 303f b7fb ef85 2e13 843f
00000520: 07ee bd71 c860 f63e 3d6c 0c5a 9f22 933f
00000530: f907 5227 c07a 573f 41c0 7052 f71a 32bf
00000540: 325d bb2a a4ea 23bf aabe e4bc d474 4d3f
00000550: 2cee ce2c 8795 903f c2c4 dbfe 44f9 8a3f
00000560: 4104 8ab6 f0e8 363f 5554 32ba 3abd 393f
00000570: 58c0 4f35 9034 733f df2e d9f0 7c49 073f
00000580: b440 c36f 9d85 3cbf d47e a6ea 0f67 793f
00000590: be2a 5602 9569 efbe 1c92 a747 eab8 283f
000005a0: 20f7 fc12 3c80 1a3f e2ec fba4 c944 963f
000005b0: 265d 2126 260b 523f 98f5 fbfb e62a 12bf
000005c0: bf66 0dfd 90d4 833f 294c 466a 36d5 f7be
000005d0: fed1 e9be 5170 903f c8bc 1334 9f67 6abf
000005e0: 24e0 931e 4f2b 8c3f dd85 6435 56fb 3fbf
000005f0: 107c f3b7 054b 04bf 520c b9a8 21cb 303f
00000600: 745e 12b0 ef90 78bf 280a 765c d2fe 933f
00000610: abde 9689 96e8 8c3f 97c7 f4c9 8957 8b3f
00000620: b176 8320 3b94 473f f00d b4bd e741 923f
00000630: 09e9 01db d4e2 433f 1400 4d5c 2306 26bf
00000640: d1de 2d4e 5c88 20bf b43e 3595 b1e0 ed3e
00000650: edc0 52e3 e92b 1ebf 8002 94da 8680 a03f
00000660: 97f2 6f2f 7815 7c3f dbb4 a6e4 3de9 4f3f
00000670: 9c50 2912 3f95 46bf 23c0 cd74 c31f 34bf
00000680: 97c6 2963 9585 753f 1e92 2a92 975b 71bf
00000690: d62a 11bc 8355 8b3f 8651 46af 0909 473f
000006a0: 588e 147c e197 8e3f abb3 a6d6 6281 793f
000006b0: 618d 7fd6 1086 f03e 4e20 4ee7 3b34 3e3f
000006c0: 9c3a 49f8 d764 943f bdd6 10dd 002a 893f
000006d0: c781 d782 b57d 64bf 66dc 000d cbd7 8f3f
000006e0: d0c2 e15d e0fa 19bf 24b9 9a6e 7c7e 343f
000006f0: de8b 5577 5b5e 65bf 003a 64f2 f61e e03e
00000700: 1a93 1bbf 41a5 853f f562 ab17 8517 5cbf
00000710: 00f8 5670 790b df3e 226d 4b63 2c26 143f
00000720: a536 e6f2 0091 033f 497b 8e1b 8b14 0fbf
00000730: 1b14 69e9 bff0 44bf 0540 bd13 7341 55bf
00000740: 5446 f7a6 f181 873f 63ff 7664 fd17 843f
00000750: 3389 370a f3e7 7d3f f8de 57d6 ae32 7d3f
00000760: b97d 7352 9866 4d3f adcd 8889 58b9 72bf
00000770: b442 67c7 80dd 8a3f 7a1c ab1c e24c 453f
00000780: dabd aea9 153e 963f a8f2 4b6c 441b 453f
00000790: b32f e84f 1222 43bf a346 41fc a388 903f
000007a0: ecab 8c21 5947 573f da8b 8ed8 130b 74bf
000007b0: 3007 a91b cb9a 363f eab2 b984 c178 353f
000007c0: 6933 a32a 59fd 2d3f f6af 110a 4b3e 72bf
000007d0: 217d 6970 1b36 66bf 2a18 3eaa 2a45 8a3f
000007e0: 488f fc30 f984 4f3f 0081 f964 9b74 45bf
000007f0: c1a0 630a f350 22bf 00e8 88a0 f9a1 1ebf
