L2minimization/data-non-smooth/model_OGA_2D_cone2d_relu1_neuron_1024_N_4096_randomized_trial1.pt (torch, 34550 bytes, 3 tensors)

fc1.weight f8 [1024, 2]
-0.0018736912404864227 0.028976474960989193 0.0035386754817578964 -0.9997631319140823 -0.049152369084246486 0.9746727816821603 0.9989725986239871 -0.02867917739754266
-0.9738704205741971 -0.07087650348312452 0.6881504211841943 0.724634549758401 -0.7286019522506536 0.6842581806562578 -0.6991861103120721 -0.6805488905023165
-0.9141968942541397 -0.3868609972289922 0.6749173359216484 -0.6869185834284367 0.030549122119946096 0.9386207558147742 0.47128396225485514 -0.8819402078715859
-0.9240961990273615 0.382094790191049 0.34528093818365235 0.938390423300193 0.9205819893786219 0.3869121107544474 0.9057859531104218 0.17304245384763814
0.9266496638290495 0.036317380257466836 -0.5220084753088543 -0.8527096212241322 -0.29867806528596136 0.9543420591320995 -0.7968500405236841 -0.6035427273589751
0.7247598665566318 -0.6837934751357658 0.9165146943007658 -0.28754282885018767 0.9923244163500836 -0.026983214118516955 0.4965130955807552 -0.8160599329274698
-0.920776539509191 0.2369880178488595 0.4319124084756306 0.8186351236916678 0.9470042081899697 0.24005350256372832 -0.40408300241698664 0.8990878323376683
-0.8469081425840477 0.5315105855221273 -0.6412916555976487 0.7670251821549566 0.01609769197841189 -0.9950897188442314 -0.23283610449860567 -0.9722950734653469
0.652950004891633 0.7526774233584231 -0.3994610516498561 -0.8849988656957696 -0.9723075285493082 0.23358443499965073 0.9730873231259366 0.2300236561262719
0.8971852004329378 0.43989818927977586 -0.5552874617171583 -0.8263932961085495 -0.7950566448035807 -0.6016032977907005 0.7010186457214537 0.6767922769043159
0.717119421771814 -0.5753969999766662 -0.9997166443597808 0.0035750692729609184 0.8323858944085785 -0.5528612126906836 -0.6152006466820532 0.7748956676861896
-0.1834567842618577 0.9829505521113103 -0.12797834014199258 -0.977546277066821 0.49112916877833684 -0.8671238160889966 -0.25036444458522655 0.891037549135658
0.14020596926129492 0.9895605051112217 0.6451510003708634 0.7513165742214709 0.5908542346255597 -0.8066786374386984 -0.6887090890848518 0.7005048468925227
-0.9768904768325504 0.15991139539933688 0.8792338628849616 0.4755802913256869 0.8243083134295662 0.2712405867418163 0.9731467051406968 0.21875561462412582
0.2362273740656186 -0.9660208077761094 -0.9077638258042753 -0.39044071659811397 -0.7901363969395712 -0.5619616848388724 -0.36919055620775076 -0.9281572960650711
-0.6155590311543178 -0.7880259750879542 -0.466669118435495 -0.8729606648560172 0.7170911886084643 0.6969272216417444 0.3901760412551674 0.8720299023836794
-0.7372539757116181 0.6752917240103562 0.9135416753439022 -0.399780204773402 -0.040657862750761886 -0.9265155901816677 0.1100521303679335 0.9935842363138655
0.22929354817595868 -0.8545109508173413 -0.13645863905466019 0.9771039931204775 0.3517002860625891 -0.8850011231333211 -0.9868118583539254 -0.10901585803180594
-0.9607989671440081 -0.07349382740675917 -0.4536482575607657 -0.891043956182375 0.767965274128404 0.6281056686713866 0.9910723241279741 -0.13241464863934424
-0.9403645172438418 -0.34010346961374033 0.995522987232278 0.09424711914198562 0.800746654683269 0.5987818716346909 0.03129547914800356 -0.9993632736660526
0.7907069406536674 -0.6121456821600397 -0.8530685672625197 -0.5216234749621558 -0.8741781201318872 0.47158156813902746 0.6790825537256903 -0.7339458774798149
0.3684992697834092 -0.9296168737803144 0.5021456365248921 -0.850358221125514 -0.1522652949607655 0.9877844822233185 -0.5248063065253089 0.8512086514587468
0.24321740428909255 0.9674003111191652 0.9835586426684789 0.15728726919941677 -0.6153165069119279 -0.7861690971440778 -0.8890225959213275 0.457752934671732
0.5449532672747857 0.8378571295158782 -0.9508542501893766 0.3080318158604889 0.9570578289021203 -0.2428881463236212 -0.4104238099771053 0.9085602219044877
-0.8133312072875999 -0.4748820230430763 0.3308125823786824 0.9320541245811746 -0.9736244507850164 0.08885736051215862 -0.654963974434797 0.748131297602172
0.6673272591970522 0.7444676629152034 -0.7457261893502974 -0.6659691730708347 -0.9506621287705646 0.3101898426775589 -0.9032059382089505 -0.42915231379441104
-0.991565099288316 0.12819962821821038 -0.8702819865625574 0.4834499507793624 -0.03917435381795633 0.9936452089284499 0.24311483464759398 0.9699319208068141
0.5830303471417387 -0.811533137489637 0.9706091987509131 0.23836634637451912 -0.7710744132057522 0.6313358649093834 0.45444998896419997 0.890198726351833
-0.07721137461076764 -0.9968821837946008 -0.26713077397277835 -0.9494716126550669 0.11198518149680378 -0.9937065537406043 -0.23381558512109488 0.9721258182165597
-0.20640319288486808 -0.9733050924301211 0.8580531207488181 0.4445587595547345 -0.7857661828550032 -0.6008454127902845 0.9122978421182952 0.3357640962425335
0.8383692097676951 0.5445414046446734 -0.762265319738783 -0.6471840548544867 0.41520409340606135 -0.9097199711726964 0.5672128161062807 0.8234976336102358
-0.17291297174904344 -0.9849193533598551 0.6825366586120356 -0.7305385845121738 0.6343775873296557 -0.7705353889897427 0.30784449882676485 0.9500567260416739
00000000: 10b8 71a6 d4b2 5ebf 5c45 3e51 02ac 9d3f
00000010: f2cb e3ee 23fd 6c3f 1a29 6a40 0ffe efbf
00000020: b2bb 79d3 7f2a a9bf 0c0a 34f9 8430 ef3f
00000030: c915 1662 95f7 ef3f 5e98 fe03 135e 9dbf
00000040: dd0d dd4c f229 efbf 34cd 8368 f624 b2bf
00000050: 27df 3608 5405 e63f d472 98cb 3430 e73f
00000060: 67fc 960a b550 e7bf 000d 7e69 71e5 e53f
00000070: 1573 b38c bb5f e6bf 4a2b 8177 0ec7 e5bf
00000080: 41a4 5dd8 1941 edbf ef92 cca0 54c2 d8bf
00000090: 7f2e a93d ec98 e53f 81df 5aae 3cfb e5bf
000000a0: 41eb b4e1 4448 9f3f bd47 3265 2e09 ee3f
000000b0: c2e3 4035 8429 de3f b8bf baab da38 ecbf
000000c0: 0ac6 2531 3292 edbf 21ec f5b4 3d74 d83f
000000d0: 4095 5b38 1519 d63f 8e86 5e5a 4b07 ee3f
000000e0: 9f5e 355c 6875 ed3f b677 8703 2bc3 d83f
000000f0: 6a22 b9d2 32fc ec3f 5b2f 0c50 4126 c63f
00000100: 5dd8 1f32 1da7 ed3f 08e5 f610 3198 a23f
00000110: 9af6 351e 4bb4 e0bf dd8c 04b0 6549 ebbf
00000120: 71e3 9b9a 8a1d d3bf e66d a55b f889 ee3f
00000130: 29b2 fba7 cb7f e9bf aada 77d6 3850 e3bf
00000140: c30c 8a9a 3b31 e73f 47a4 9dda a2e1 e5bf
00000150: 4268 ca9f 1654 ed3f ae18 8709 1a67 d2bf
00000160: 63de 6722 1fc1 ef3f d150 b8d8 7ca1 9bbf
00000170: 3286 e3dc dec6 df3f 62fb 6fb8 291d eabf
00000180: 7fb6 835c 0077 edbf 2134 1a95 9f55 ce3f
00000190: 5eec 48f1 73a4 db3f a69a 7349 4232 ea3f
000001a0: 9e35 ebc4 db4d ee3f 6a96 66bb 12ba ce3f
000001b0: 5107 10f4 7edc d9bf ece5 83d8 53c5 ec3f
000001c0: b8aa e31a df19 ebbf 7d73 c97c 2202 e13f
000001d0: c6aa ff13 7685 e4bf 230c 1265 788b e83f
000001e0: 347b 5ad2 e97b 903f a8b2 e064 c6d7 efbf
000001f0: 7324 13cf 92cd cdbf 030f d38e 0a1d efbf
00000200: e4d7 9d68 f7e4 e43f 1762 b8f6 ee15 e83f
00000210: 5a29 3716 c590 d9bf 3722 2524 e951 ecbf
00000220: 81c3 98ad 241d efbf 37cd 9642 18e6 cd3f
00000230: 734c 9f06 8823 ef3f 2a31 2f48 6a71 cd3f
00000240: cd11 cabc bdb5 ec3f 2aae 21bc 4a27 dc3f
00000250: 8d87 fe35 eac4 e1bf 876f 8d5a d071 eabf
00000260: 86c3 fca1 1a71 e9bf 69a8 258f 5540 e3bf
00000270: b950 a8a7 be6e e63f 45a9 ef46 48a8 e53f
00000280: 8ec3 fa6d a4f2 e63f aeb8 23f8 a669 e2bf
00000290: 0f59 99c2 adfd efbf 0135 77b3 7649 6d3f
000002a0: a65e 44be e7a2 ea3f e677 77ff 09b1 e1bf
000002b0: 6e47 3f44 b9af e3bf cec6 d0ff f1cb e83f
000002c0: 1f27 510c 837b c7bf 31e7 5cb7 5474 ef3f
000002d0: e3cb c020 9861 c0bf 7d83 4a21 0f48 efbf
000002e0: 8def 8009 a96e df3f 2feb f571 7abf ebbf
000002f0: bec8 6497 f805 d0bf eb75 a12d 6183 ec3f
00000300: f832 57ea 44f2 c13f c4b5 dbca 7aaa ef3f
00000310: a662 f2b5 13a5 e43f cc2a 670e c90a e83f
00000320: bd6f cd23 47e8 e23f 2bcb c5b7 4fd0 e9bf
00000330: f979 c2a4 e709 e6bf cff8 0224 896a e63f
00000340: f8a0 38d1 af42 efbf 6dba bf02 fa77 c43f
00000350: 960d d40d af22 ec3f 2e6c 7751 e86f de3f
00000360: 6907 00d4 bb60 ea3f 5ada 597a 015c d13f
00000370: 2843 198f 0424 ef3f 8741 5019 2f00 cc3f
00000380: b611 04d7 b23c ce3f b0ec 1478 a4e9 eebf
00000390: 4c47 0ab9 660c edbf 7e34 340f fbfc d8bf
000003a0: ee82 0720 cc48 e9bf d49d 3f12 97fb e1bf
000003b0: b2e0 396d d1a0 d7bf ab95 04ee 76b3 edbf
000003c0: 7216 72da a8b2 e3bf 3dd7 ec3f 8237 e9bf
000003d0: 55f3 6e26 e8dd ddbf 4708 4834 4bef ebbf
000003e0: 0457 6a38 69f2 e63f 0697 1451 3a4d e63f
000003f0: 8dea 37ee a4f8 d83f 39e7 fb40 abe7 eb3f
00000400: 48e0 50a6 9597 e7bf 3849 bc63 fd9b e53f
00000410: d152 64c0 bb3b ed3f a7c1 45b6 ff95 d9bf
00000420: 80f7 ad7d 1bd1 a4bf 940f e205 04a6 edbf
00000430: 2910 c95c 602c bc3f 0741 192b 71cb ef3f
00000440: d3bd 4cb1 7d59 cd3f f5b2 7a59 2758 ebbf
00000450: 258b ff07 7a77 c1bf 6cca e797 6f44 ef3f
00000460: 947d a8ea 4182 d63f fffc 18e0 ed51 ecbf
00000470: 4aec 5d76 f693 efbf c2f2 fd98 76e8 bbbf
00000480: 4140 bd79 ddbe eebf 827e 2bd1 7dd0 b2bf
00000490: 8d18 87b3 9208 ddbf 9941 639d 6e83 ecbf
000004a0: a20b 1be9 2b93 e83f b206 2c0f 7119 e43f
000004b0: 2736 834e ddb6 ef3f 8f6a b594 f6f2 c0bf
000004c0: 3532 fc53 7717 eebf 37d1 cf57 41c4 d5bf
000004d0: 0486 1206 53db ef3f d300 7546 9420 b83f
000004e0: 9bdf c772 b79f e93f 347a 8399 3829 e33f
000004f0: 3f1a e806 f605 a03f a303 27b0 c8fa efbf
00000500: a37c 5aa4 784d e93f ba7a a88a b296 e3bf
00000510: 4d6b b473 564c ebbf 083a b9b6 23b1 e0bf
00000520: 000c 9b64 44f9 ebbf d96c 2375 642e de3f
00000530: ef26 f155 0bbb e53f 1cea 9910 7c7c e7bf
00000540: b674 14f6 7d95 d73f 5b47 d6e2 6bbf edbf
00000550: 3183 d6b9 9311 e03f 5dcd b371 2236 ebbf
00000560: 510d 16df 6d7d c3bf 7fa7 d433 ee9b ef3f
00000570: 1758 6898 36cb e0bf 75cd 02ed 193d eb3f
00000580: 44ad 9e76 bf21 cf3f 8db4 4c7f f1f4 ee3f
00000590: 51b2 7ef9 4f79 ef3f 42f2 a43e fd21 c43f
000005a0: a305 3c3e acb0 e3bf 5882 2b18 4c28 e9bf
000005b0: 5363 dc83 df72 ecbf 0d0a 04f7 d24b dd3f
000005c0: c664 99d5 4170 e13f 5db7 3fc1 b9cf ea3f
000005d0: 626e 7ae4 656d eebf 0ce4 cf13 cbb6 d33f
000005e0: ea7d 70bd 37a0 ee3f d8e3 8572 f516 cfbf
000005f0: 1b7d 563a 6244 dabf 44d7 f0e2 ec12 ed3f
00000600: ddb9 032b cf06 eabf c769 9b91 7764 debf
00000610: e6fd 9a89 082c d53f a0b2 e52b 63d3 ed3f
00000620: b7a4 d676 ee27 efbf 369a 6821 5bbf b63f
00000630: 262e 4802 77f5 e4bf 8717 0a0c b1f0 e73f
00000640: 8561 3fb2 be5a e53f accf 24d9 add2 e73f
00000650: a7f7 602b fddc e7bf 0178 4f95 9e4f e5bf
00000660: aab0 13fc d26b eebf fc7e 767f 26da d33f
00000670: 5122 c523 10e7 ecbf 7ffb 2f44 3b77 dbbf
00000680: c28b 29bb e6ba efbf c33d 476d d868 c03f
00000690: e9b0 d29b 59d9 ebbf 3569 f60f d8f0 de3f
000006a0: 83e8 fa30 a90e a4bf cb97 8509 f1cb ef3f
000006b0: 40ef fd0b 631e cf3f 7bc6 e6aa ae09 ef3f
000006c0: d393 3142 2fa8 e23f a56c a457 14f8 e9bf
000006d0: 389f ba05 3b0f ef3f f7a1 12d7 c982 ce3f
000006e0: fb08 703f a4ac e8bf 527c 9245 e733 e43f
000006f0: 0434 1168 b515 dd3f 3ae7 130a 827c ec3f
00000700: 8f1b d5e8 1fc4 b3bf a59c 2b77 75e6 efbf
00000710: d3f7 7dac ab18 d1bf 3eaf 9a4a 1262 eebf
00000720: 6e57 2a94 0fab bc3f 5b60 c4af 71cc efbf
00000730: 4bf2 b149 abed cdbf b2cb 9a9a a71b ef3f
00000740: a480 9d79 6b6b cabf 6790 a0b8 5025 efbf
00000750: e919 7bd1 2b75 eb3f c106 5c95 a673 dc3f
00000760: a347 351f ff24 e9bf 3a59 bc28 203a e3bf
00000770: 9c80 833e 8b31 ed3f 6517 22b1 287d d53f
00000780: a29e 3daa ebd3 ea3f 6b89 8818 e26c e13f
00000790: d6e5 643d 7a64 e8bf 52f7 c255 bbb5 e4bf
000007a0: 0a0a 9630 b492 da3f ac8d 960e 6d1c edbf
000007b0: 9f8d e17d 9b26 e23f 2e0f 96b5 175a ea3f
000007c0: 29b0 5b23 0322 c6bf f318 7c97 7584 efbf
000007d0: f6e9 611e 57d7 e53f f744 1e74 9260 e7bf
000007e0: 1fae dc39 d24c e43f 03e4 03d5 39a8 e8bf
000007f0: cdb9 ad69 b9b3 d33f c833 f65c dd66 ee3f

fc1.bias f8 [1024]
0.9995783376904336 0.021474585937340664 0.21816739733829588 0.03508920036476326 0.21576126896327574 0.03679357444521339 0.030494874676320092 0.21907074378551966
-0.1207584670285069 0.26949851467697367 -0.343595442186596 -0.008537954133641197 0.007055937360911243 0.014299901590624631 -0.053177244975997184 0.38679208408941484
-0.3741676742006775 0.0198356642823506 0.004758937753244698 0.027680122281035606 0.08455542082306673 -0.27806462685427213 -0.12068205695670065 -0.2958393682173305
-0.3098503569233831 0.37853428598095007 0.2134416678565243 -0.16839832807966446 -0.015591520219781383 -0.020429938839410175 -0.09765918166499658 0.02072772435483789
-0.08445701556733623 -0.23918167975827936 -0.007508771685838728 0.013790547266214126 0.03934843316427704 -0.0934342282387062 -0.07719069659632716 0.22477782869653926
-0.3932658481682735 0.023534015163439455 -0.03844739642443443 -0.1451374125549917 0.012321542613172486 0.1674061547473649 0.08299654900269095 0.3786419560981734
0.033351055568371264 0.13893736725801095 -0.012682638727375623 0.18701002671513925 -0.14182151421878622 -0.027770503397728186 -0.4969349540079256 -0.0716342888861662
0.10488291894133898 0.153365196128511 0.24471113379739864 0.0471419873169081 -0.01010652022392438 0.1419845467393484 -0.008524960693093829 -0.2955105855619329
-0.02092039150048997 0.07494928472769385 -0.3740532038986647 -0.026055593450778146 0.466085296590788 -0.16323855688950412 0.30509002087294385 0.11965742312811821
-0.26732751835176405 -0.015618148512009202 -0.1253499370392963 -0.015556644024175418 -0.0066486589213092025 0.007173731634093323 0.0162808235421267 -0.017135933950831437
0.007758725084527289 -0.013526637315945972 -0.1158595653116987 -0.013051212808762215 -0.004555892010259405 -0.15729162559800386 -0.03312244902361222 -0.0047087485646766175
-0.07058280454486077 0.08873055493982548 0.057651947212290486 0.010053593423313537 0.03195883298790783 0.03150548070555807 -0.1582582083578448 0.07791417956152057
-0.33612410125221714 0.14777734667792494 0.21014232871172644 0.10640372991895078 -0.021029217915213925 -0.01942964323997921 -0.004876312242857189 0.006879298582911883
-0.01906591718393374 0.09426244722136595 -0.1055204661498568 0.011280344599215082 0.0385950912424068 -0.03315521401187567 -0.08282074002643015 -0.031959898811057284
-0.016257775482010593 0.16475680974967613 0.0025698595485577347 -0.01736852645632397 -0.10037389609119209 0.25712322197026405 -0.14682062460822784 -0.2344677353938846
-0.02473311021882138 0.01021672479985203 0.003890355819060447 -0.011012206097083733 0.005913677207914717 0.021379574122682397 0.061970081557402024 0.05122481669146134
0.0031412398048622655 -0.1197986104334497 -0.44131329216077314 0.1656648710591761 -0.0028742639771074385 -0.08486705558189736 0.013173167495056943 -0.12583356067822163
-0.4782832310510823 0.07247161955573479 -0.011428249452753109 -0.020806445147384712 -0.013096260173324489 -0.49887546549568745 0.008623061134366488 -0.03277866970527815
-0.03791058483713233 -0.01985517266566383 -0.36349093358272494 -0.09033389283475651 -0.09481236015047757 -0.08521268283848701 -0.0945985400692605 0.20742478840086837
0.05447490309719492 0.1852724187186849 -0.502523271583004 0.028959517693300556 -0.2573756836840903 -0.22992815672682393 0.18392965950546267 -0.08119572137859869
-0.012540602285905342 0.016084548468758113 0.062407796326883376 0.05172615389175534 -0.13586284244334518 -0.016480383758447063 -0.005709765823004283 -0.02880380613559332
-0.023638571578964873 -0.08989576986772449 0.01949683444961481 -0.07341896552982145 0.00502810867157119 0.06854468112086454 -0.005262124595449175 -0.0008813581626475419
-0.05128960934033321 -0.011082817778394483 -0.06331060708855547 -0.08706789830647226 0.0032262051262058624 0.002915687067146654 -0.07461267289070099 0.07015325014219713
0.008364042028134426 -0.00644031233828867 0.5633378304771607 -0.014594850427523762 -0.36686958955678944 -0.08806155324291401 0.4201019433617396 0.2129082246844984
-0.07720683005232025 0.04854968360725654 0.001880193795471129 0.11537626083251923 -0.007010808228994687 0.06370887100489066 -0.02167637096147 0.012889462869357611
0.008830590699649468 0.17785959288887 0.33754073034140486 4.764438431277637e-06 0.03732804679135287 -0.003912131934104308 0.021116123615404953 0.016847714634534793
-0.018242722456298006 -0.04704496004460337 -0.04636563129596805 0.003357012112277575 -0.007748489565128335 0.0694021288467303 0.07681684748429699 -0.010688810194357782
0.05611581050300297 0.005208627928864571 0.0012222079244636904 -0.009590610475311909 -0.04543705751787756 0.013571965149690626 0.008101961389983328 0.044803128356645336
-0.19636364229910933 0.0027848175597091243 -0.15488984681334317 0.005109030432101541 -0.1869321034844807 0.3821016477138484 -0.0013779123980340242 0.057914885579690156
0.009810977181283499 -0.015490722376374647 0.0010553391460520875 0.0019315267498526182 -0.04616265627861209 0.047194297401309995 -0.4965928196767275 -0.5435378695560072
-0.1249799513020947 -0.15730314602215473 -0.20065398398994458 -0.00426138217558908 -0.04625258788885879 -0.00039002487332750286 -0.05939703610272754 0.0018245393858507596
0.013434346115293792 -0.02244298395943395 0.03795659443379705 -0.11106861406402745 0.048822154102195946 -0.04041087930293105 -0.05635463555623895 -0.049947632121505825
00000000: 6174 c5b5 8bfc ef3f c71f 2f11 6ffd 953f
00000010: a28a 4fc6 e8ec cb3f 90d6 0430 36f7 a13f
00000020: d069 f8b4 109e cb3f 74e8 e37d 9bd6 a23f
00000030: 49be b865 0c3a 9f3f 9edb 0898 820a cc3f
00000040: 803f 9ae2 06ea bebf 63ec b6b2 763f d13f
00000050: eabf cfbc 77fd d5bf 71da 3ace 587c 81bf
00000060: 6fe5 52c3 afe6 7c3f ed8d 574d 4449 8d3f
00000070: 5067 2040 0c3a abbf 8901 e195 33c1 d83f
00000080: 0163 faf8 5cf2 d7bf 1b6c 8ce5 cc4f 943f
00000090: 35e0 38a0 1b7e 733f 6e0a c98f 2d58 9c3f
000000a0: 6d74 228f 6ca5 b53f e0dd a093 cfcb d1bf
000000b0: 60d1 d7ef 04e5 bebf 1237 d73e 08ef d2bf
000000c0: 6df3 6897 96d4 d3bf 2efc acde e739 d83f
000000d0: 6013 867b 0e52 cb3f 7bd0 e68f 138e c5bf
000000e0: 7fd5 826b 72ee 8fbf 6cbc b2fc 95eb 94bf
000000f0: a3c0 672f 3100 b9bf 92eb e508 a639 953f
00000100: 7a8b c797 f99e b5bf a29c 2e5a 819d cebf
00000110: 6d51 2e8d 84c1 7ebf 93c6 04ec 373e 8c3f
00000120: 5ec7 2d53 7a25 a43f f2bb 9c3a 4eeb b7bf
00000130: 80ca 6ffd c4c2 b3bf 1b0b 8f17 85c5 cc3f
00000140: 4a0d 2185 442b d9bf 62d5 e105 4d19 983f
00000150: 14c2 848c 60af a3bf 95c4 2cdc dc93 c2bf
00000160: a690 7a74 093c 893f 81ff e49b 906d c53f
00000170: 41bd a507 433f b53f a672 9578 ab3b d83f
00000180: 310e e8b9 6313 a13f 3f62 481c b3c8 c13f
00000190: bd0d 7df4 5af9 89bf 7dff 61ce f1ef c73f
000001a0: 692d b816 3527 c2bf f0fa 8bef de6f 9cbf
000001b0: f102 ed43 c8cd dfbf 09ce 09f0 9f56 b2bf
000001c0: 0317 c362 9bd9 ba3f e9b8 db82 78a1 c33f
000001d0: 813e 50c6 b152 cf3f 7fd1 969b fe22 a83f
000001e0: 1c77 b42e bab2 84bf 9235 64b4 8c2c c23f
000001f0: bf1e 03db 8875 81bf 580f 273b a5e9 d2bf
00000200: e1a8 41b5 276c 95bf f497 c356 e02f b33f
00000210: ba5c 6dd9 7cf0 d7bf 66f0 fe46 51ae 9abf
00000220: d03f 806c 57d4 dd3f 22b1 a443 00e5 c4bf
00000230: 5b0e 7f4b 9886 d33f 2f14 0f6f dea1 be3f
00000240: 1011 29e1 e41b d1bf db4a aa68 68fc 8fbf
00000250: 10d9 117c 770b c0bf ef05 8e6a 29dc 8fbf
00000260: a689 11ca 9f3b 7bbf a1ae 23ec 3362 7d3f
00000270: a759 a992 ebab 903f 79f6 9e0f 158c 91bf
00000280: 387b f2e7 9cc7 7f3f 10bb 2c87 dab3 8bbf
00000290: 1f49 f1f3 f8a8 bdbf 4781 7e21 98ba 8abf
000002a0: 7ac0 02f3 32a9 72bf ae65 f0c9 2122 c4bf
000002b0: 48c2 a3f6 6cf5 a0bf f92a 7211 7b49 73bf
000002c0: 781d 2ef5 b611 b2bf f65a 9faf 0bb7 b63f
000002d0: deae a757 8e84 ad3f a8ec ae77 fa96 843f
000002e0: 34b6 007d e85c a03f f6dd 8c82 7c21 a03f
000002f0: 4139 9c12 ce41 c4bf df84 1c05 2ff2 b33f
00000300: 80a4 91a9 0e83 d5bf bb21 893b 5eea c23f
00000310: 1c3c a99e f1e5 ca3f 9a9f 2c5c 463d bb3f
00000320: 9940 d3ec ae88 95bf 0396 2749 5de5 93bf
00000330: d301 bb19 2ff9 73bf 56ac eda6 772d 7c3f
00000340: 2fcc 170b 0486 93bf 6c83 0e70 9521 b83f
00000350: 821c 2ca7 6303 bbbf ea41 2139 261a 873f
00000360: 3234 585d bcc2 a33f 0aeb be5f b8f9 a0bf
00000370: b912 d871 bd33 b5bf 8b9a 5a40 0c5d a0bf
00000380: 06f8 00d8 e0a5 90bf 0986 d54a c016 c53f
00000390: 407e ecd6 620d 653f cf40 7014 0ec9 91bf
000003a0: 1972 1589 1ab2 b9bf 3ae2 59f5 b474 d03f
000003b0: 730a 89aa 04cb c2bf f6f0 bdeb 0903 cebf
000003c0: 58a3 12ee a253 99bf 41cc 1997 81ec 843f
000003d0: 8ac6 67e0 aade 6f3f b4ac 5948 918d 86bf
000003e0: 1d42 50a3 f038 783f 1627 a3ee 86e4 953f
000003f0: 602e 3de3 8aba af3f 68e9 dda0 233a aa3f
00000400: 2386 6247 a8bb 693f 35fc ea29 1fab bebf
00000410: 23b8 471b 7a3e dcbf b6c9 a5a9 8134 c53f
00000420: 0013 04b9 c48b 67bf 8268 3bec d8b9 b5bf
00000430: caa5 9b9c 88fa 8a3f ad14 ed69 501b c0bf
00000440: 2cbc e544 319c debf f949 e103 808d b23f
00000450: fd69 33ad b167 87bf 9dee d0e5 484e 95bf
00000460: 9e99 2749 36d2 8abf 132b 455c 93ed dfbf
00000470: f612 82ac f7a8 813f e8f6 c7a4 5dc8 a0bf
00000480: 586e 1824 0469 a3bf 1f97 0515 ea54 94bf
00000490: 0757 087a 6f43 d7bf fc15 723b 1f20 b7bf
000004a0: 0156 1a72 9f45 b8bf a6e7 fe95 7fd0 b5bf
000004b0: 28c9 d823 9c37 b8bf 96dd 473d e58c ca3f
000004c0: 5dac 826e 22e4 ab3f 5fb0 9fb1 01b7 c73f
000004d0: 97b1 1daf ab14 e0bf 6b46 9a55 90a7 9d3f
000004e0: 1f5d 0ddc d778 d0bf 6a1f c92c 496e cdbf
000004f0: 7f91 2bd0 018b c73f fb6d e527 3ec9 b4bf
00000500: 7256 8525 e3ae 89bf 6eb4 93c6 7778 903f
00000510: b991 7a28 eaf3 af3f 493b a0b6 d97b aa3f
00000520: 0e94 8420 f463 c1bf 3e7e 12d5 3be0 90bf
00000530: e256 a497 1f63 77bf 8529 69b5 be7e 9dbf
00000540: 4059 6caf b534 98bf 3e70 a1bf 6803 b7bf
00000550: 60b3 5869 faf6 933f f352 dbd7 95cb b2bf
00000560: 5fd2 e1a4 5a98 743f b096 baeb 248c b13f
00000570: 070a b8d0 bc8d 75bf 517b 083e 5ee1 4cbf
00000580: df91 7bb5 a142 aabf 40f0 3e9f 96b2 86bf
00000590: a56c efba 1f35 b0bf 0bfc c1ef 144a b6bf
000005a0: 0353 3bb0 d76d 6a3f 4a15 2993 a3e2 673f
000005b0: dbc5 eeed d019 b3bf c39f 113b 90f5 b13f
000005c0: af20 c9b7 2a21 813f 7652 e72d 2861 7abf
000005d0: c9f7 cf0e dd06 e23f 12b6 35aa e7e3 8dbf
000005e0: 4fc6 4296 ca7a d7bf 6a99 36b3 338b b6bf
000005f0: bf61 ee42 f3e2 da3f 27e0 08a3 9340 cb3f
00000600: 6b40 1aaa d3c3 b3bf 810c a60e 81db a83f
00000610: 61f0 25b7 1ace 5e3f ecab 0273 4c89 bd3f
00000620: 7b32 fe80 5db7 7cbf c95b 6e7d 394f b03f
00000630: 3c7d 80a1 5432 96bf 642a e56b ca65 8a3f
00000640: 5b29 13d2 c515 823f b868 5e67 1ac4 c63f
00000650: 3098 786f 449a d53f 32ed 1edd c6fb d33e
00000660: a784 6268 a91c a33f 6110 6feb 2a06 70bf
00000670: c5c5 6211 779f 953f d67d 78fd 8640 913f
00000680: c5f5 5b61 38ae 92bf f498 aae9 4616 a8bf
00000690: f12e 266c 3cbd a7bf 0f17 8127 2a80 6b3f
000006a0: 25f4 6854 e1bc 7fbf 5c63 ab81 56c4 b13f
000006b0: 8214 bad7 44aa b33f d54b bed1 03e4 85bf
000006c0: b140 cc25 36bb ac3f 0aba c869 a455 753f
000006d0: c67f 20c4 4f06 543f 259b b8f2 3da4 83bf
000006e0: a6aa 21a8 8643 a7bf 08d8 ae53 9ecb 8b3f
000006f0: 88a1 a0d9 c297 803f 8ebe 1986 6ff0 a63f
00000700: b128 e69e 7122 c9bf a751 048b 2fd0 663f
00000710: 6cdb 4535 6ed3 c3bf 061d ece9 34ed 743f
00000720: 12e8 8423 64ed c7bf b16f 2b78 5a74 d83f
00000730: df7c ec2b 6293 56bf 305f 0817 05a7 ad3f
00000740: 6754 1511 c717 843f 55ca fb8f 99b9 8fbf
00000750: b736 95c7 694a 513f 96b1 340e 69a5 5f3f
00000760: b6b8 06b6 a1a2 a7bf 02eb cad7 d929 a83f
00000770: 7828 fc3f 2dc8 dfbf 972d bc87 a964 e1bf
00000780: 0788 7fa3 affe bfbf 768d dc6d 8222 c4bf
00000790: ff42 869d 07af c9bf 4152 4711 6274 71bf
000007a0: 3210 ad50 6bae a7bf 786f 5813 888f 39bf
000007b0: 75c2 14cf 4969 aebf 1901 853f ace4 5d3f
000007c0: b2a9 aa69 7783 8b3f 308d 8528 4bfb 96bf
000007d0: ae79 85f7 0b6f a33f f75c 0421 fe6e bcbf
000007e0: 53df 60a6 37ff a83f 4c73 041a bcb0 a4bf
000007f0: bb53 62c9 83da acbf 88f2 f26c bc92 a9bf

fc2.weight f8 [1, 1024]
0.00064638941530407 -0.002645313021907736 -0.00014572559125722624 -0.0016208760068208274 0.0003049609396957554 0.00037514436409879923 0.001289863626313403 4.3323274688105905e-05
-1.0617855820073196e-06 3.337561775235292e-05 -2.9481969130607197e-05 0.0007605286067158681 0.009109160312387723 0.0005836027936850375 0.00019041101487312292 -8.060701517941307e-05
-7.064650181027951e-05 0.0006527821081293841 0.011353121323164087 -0.001378640467323923 0.00010770260122649385 -0.00020014675471999446 -7.737285099294864e-05 -0.00014517256667125546
-1.5950560275275852e-05 -8.622558930217305e-05 -0.0002522000824962619 -2.073527460991054e-06 -0.002613123672439203 -0.0010803398358564308 -0.00019584198388150164 -0.0021807883281525125
-7.698854163638275e-05 -0.00012526812129906427 0.005150836813632986 -0.0007478775784996441 0.0005224728108902305 -0.0001230239765437804 -0.0001616629747729217 0.00012275193199157044
4.843484519163628e-06 -0.0020615460183835374 -0.0003727034741704326 0.00019199985574604064 0.0031755042859403196 -0.00012302728025305042 -0.00022113930224849015 4.280749868719245e-05
-0.0009381884807617005 -2.316705612976943e-05 -0.001583674018870912 -0.0001887960395031929 0.00033219196768794694 -0.00031243901407462837 -7.185894235071806e-05 -0.0007475972751801288
9.021546311976808e-05 -0.0001446973663155545 -2.1915203047473938e-05 0.0006322967538652628 0.010912468620155727 8.274785696767151e-05 0.0017710956608144362 2.200253166938822e-05
-0.0008521392254150516 -0.0006239687883267548 7.622448802861529e-05 -0.0012473661928772708 -4.537057004563077e-05 -6.850374758582595e-06 -2.809109163110588e-05 -0.00018323741367457224
-4.145695515743309e-05 -0.0034349523709032805 7.828587235839324e-06 -0.001111011511696636 0.007314432198786588 0.013808955020581111 0.00015852422823308155 0.003949409803406396
0.0016475945334820652 0.0008737351377169346 0.0006802603632245079 0.00033564745816425047 0.015642898881608202 -0.00020814908825061556 -0.0008022146446674933 0.017870003012254193
1.74023143808948e-05 -0.00013979079157067174 0.0002964637093096857 0.002244065471516627 0.0003253954791312377 0.0016157243560555787 9.650118195713369e-05 0.00024048218399055216
-5.050727289862313e-05 0.0001381178143960518 0.0001355277399985681 3.4558159053900025e-05 0.0003397775787610981 -5.606865001430153e-05 0.01758872634328625 0.002144537956075912
-0.0006041284717066375 0.0004020124151710635 -0.00014327527928082552 -2.66450679384342e-05 -0.000801693237594012 0.0010024686613098151 -0.0006399063650618212 -0.0012335258309513618
-0.0005201893399698913 0.00015197256020611067 0.018111379268107415 -0.0031335413842104713 0.00023925384431565486 2.7284025875119276e-05 -6.500073644094972e-05 6.981586842906346e-05
-0.0010070191759212928 -0.0006893750554000468 0.014236456180448855 0.0018757754905700211 0.015114684546951182 -0.002040196920462139 7.29763457937736e-05 0.0006486871939019959
0.017908771964878684 0.0004536192218039183 9.26702620481391e-05 5.621187920912035e-05 0.018595173980306506 -0.000102785140944496 0.0022561444384993187 8.34148746360758e-05
-5.46043530671638e-06 0.000484133134201 0.008077746404189814 -0.003666664777190677 0.002313558019267617 1.6061755949656958e-05 0.005570670619650131 0.0010507599400229153
0.00029752783429755797 -0.003144192239791156 -8.167472113452105e-07 0.00035124254538074413 -0.0003286591730512449 -8.640502157384142e-05 0.00015580349752091602 1.2085351496868333e-05
1.7781753030081943e-05 0.00011058818216303079 8.44343935694647e-05 0.0012898040391048477 -6.742425473686502e-05 2.1131442930409145e-05 5.009218087452568e-05 0.0003010485520753593
-0.0037590153674889387 1.9144086315400704e-05 -0.00019464796121592946 -0.00012775885238213878 3.927852744599778e-05 -0.0015791031139745426 0.013227355340363059 0.0012143890423051756
-0.0009542384670246116 -4.731407980040214e-05 -0.0008859829798187173 -0.0005258721710508423 0.012274564723790465 7.879435106046413e-06 0.0159082214624745 0.010260227830731793
0.0022151988216900648 0.007478187167010937 0.0007230439072511219 0.0008146749261056762 0.013291407290720703 0.017407838523633017 0.0002982887083909125 8.439958372162167e-05
0.0006766463380456401 0.014145074185345368 -1.4789035435714998e-05 -0.004655756623395581 -0.00012985182378893808 0.0008629771063536942 5.037697476395782e-06 0.00018360106945267823
0.0002844162726456303 -7.66959680125136e-05 0.016582822798486083 0.00012150231015090064 0.013437198531574742 -0.00018508124577222893 -0.0013148336423018175 -0.005784051609719679
0.0064803729592994 4.015801797637509e-05 -9.754566927224397e-06 0.01773181345798169 -0.0015775243377476394 0.011152630730601734 -0.0025237258055051987 -0.002390904198176571
-0.00126125011314723 -0.00012260903106075068 -9.745468027887068e-05 0.014083871274041718 0.013320774067029785 0.00033558131980536475 0.0002178215464149298 0.002290106297187831
8.428030549210119e-05 0.012502273863224842 0.021294308815076286 0.006315236146976681 -0.0012765062981691974 0.00123418585446457 0.0074922794244910345 0.0009894960648823697
9.048255891402409e-05 0.018275961512775878 0.00013173137119512824 0.009027054158240141 -3.019090835199783e-06 -5.617446813344901e-05 0.01770469211446164 -0.0015370430667370134
0.004453271902502883 -0.002473416124561372 0.019573760409760617 0.007857089141201609 3.213230705403211e-05 0.0013284055350238281 1.0272084626935777e-05 0.00010507114470953744
-0.00014824729406722476 -0.00022640037991057885 -0.00021091625977267284 0.011411499480647302 -0.004374869328514057 0.021554426990881143 0.0007081002440907128 0.02416946163798396
0.0012855639841506327 -0.001757702454291188 0.00022733852101892163 6.893082293213916e-06 -0.000661168403002404 -0.0003126217192072426 -0.00012664229019651533 0.0001912961950259196
00000000: 245d 19b3 4e2e 453f 003c 569d 9fab 65bf
00000010: 758c 1a4c bd19 23bf 39b0 2b5c 728e 5abf
00000020: c485 3643 65fc 333f e7d7 6bc6 e095 383f
00000030: 321f d885 1422 553f 65e9 2e62 c0b6 063f
00000040: c59b f797 55d0 b1be dc60 6c7e 997f 013f
00000050: 44c0 e67d 01ea febe 7d91 2bbf c6eb 483f
00000060: bbf7 15cd d2a7 823f 8662 d474 9d1f 433f
00000070: b3ba d129 22f5 283f f85c e1f9 7121 15bf
00000080: 73f3 cea8 0185 12bf f86c 25e7 ee63 453f
00000090: e8f6 5226 4e40 873f a017 16ee 6f96 56bf
000000a0: 229e 8f99 cc3b 1c3f 320c 2788 cf3b 2abf
000000b0: ee1b 5d75 6748 14bf b5a2 2dda 2e07 23bf
000000c0: 3d15 e027 b2b9 f0be 5ac4 3258 809a 16bf
000000d0: 930f 3b1b 3787 30bf 5f4b e5c6 dd64 c1be
000000e0: 6f3c d516 1e68 65bf 1952 de10 46b3 51bf
000000f0: 5807 f8d4 5dab 29bf 2ab3 90d1 71dd 61bf
00000100: 525a f012 9d2e 14bf c67b eaf7 4c6b 20bf
00000110: c0db 953a 0b19 753f f84d dbde a681 48bf
00000120: a9a3 62d1 d11e 413f 9806 69e9 ff1f 20bf
00000130: f45d 1661 8230 25bf d807 1d11 df16 203f
00000140: 67b8 0ee3 a650 d43e 750e 4d17 60e3 60bf
00000150: 651a 903b ed6c 38bf d821 d933 722a 293f
00000160: 7934 cee1 8303 6a3f 6401 584a 1c20 20bf
00000170: b268 5c24 34fc 2cbf c626 8074 8671 063f
00000180: 7d4d d26b 18be 4ebf 0c4d 89f9 db4a f8be
00000190: 80bd 9607 69f2 59bf 5c73 6ca1 f1be 28bf
000001a0: 8e6e 20a3 41c5 353f 0628 f258 db79 34bf
000001b0: a37b b23a 5fd6 12bf 6923 7aec 4c7f 48bf
000001c0: a24f d2da 41a6 173f 2687 8be9 3cf7 22bf
000001d0: 365a 3649 d1fa f6be 6039 8af0 16b8 443f
000001e0: c8d0 bcbe 4659 863f 0054 a35b 1db1 153f
000001f0: 9705 3e7c 8304 5d3f de76 9376 4212 f73e
00000200: 13f8 690d 43ec 4bbf 8b39 11c5 3a72 44bf
00000210: 6f8b a2bb 56fb 133f 8672 4a40 d56f 54bf
00000220: 7c8b 97ea 88c9 07bf 3f67 e8ac 88bb dcbe
00000230: 6647 2a1e a574 fdbe 6224 f565 6d04 28bf
00000240: 2c77 fb21 42bc 05bf d546 1503 9e23 6cbf
00000250: a953 3cd6 f06a e03e 3505 ed86 eb33 52bf
00000260: 0952 52f1 bcf5 7d3f 8484 a491 de47 8c3f
00000270: 73f6 73c0 30c7 243f 6e2a 1b9f 412d 703f
00000280: fb1d db28 83fe 5a3f f713 c2eb 6ba1 4c3f
00000290: 7fe6 a301 704a 463f f6c5 15db 3aff 353f
000002a0: 43cf 712c b104 903f 625f af0d 5348 2bbf
000002b0: 6c5d e4d4 7649 4abf 6876 119a 834c 923f
000002c0: 9b2e 31f0 653f f23e 2070 93c1 9952 22bf
000002d0: 9c7f 99ef d56d 333f 8e8a ed79 2562 623f
000002e0: c737 eef0 3a53 353f 5be5 30d1 d678 5a3f
000002f0: 6cbd 9fae 154c 193f 0023 243b 3e85 2f3f
00000300: 9ade b6ae f87a 0abf 29e9 dcfd 761a 223f
00000310: 567d 076c 8ec3 213f 93e0 b64d 511e 023f
00000320: 4b95 b496 8544 363f 9ec9 2725 6865 0dbf
00000330: 65da b071 c702 923f ba32 5d0c 6c91 613f
00000340: 5cef a703 cccb 43bf 6fab fd2c a658 3a3f
00000350: f290 1547 85c7 22bf 37cb 5620 7bf0 fbbe
00000360: b66e 521e 1745 4abf efd5 6587 a86c 503f
00000370: 6a63 8974 ecf7 44bf bdc1 9246 c835 54bf
00000380: 0e94 f819 aa0b 41bf f858 195a 5aeb 233f
00000390: 9261 9116 ca8b 923f 9dd0 8138 83ab 69bf
000003a0: 245e a1df 065c 2f3f a95a 3cfb ff9b fc3e
000003b0: 3791 1f26 200a 11bf 616b 907c 434d 123f
000003c0: 5068 549b be7f 50bf 54d1 a7a8 e596 46bf
000003d0: eed0 a5cd 0028 8d3f 6da7 be98 92bb 5e3f
000003e0: f84f 8c9e 72f4 8e3f 7207 a061 9ab6 60bf
000003f0: c0ec 0213 5c21 133f 5508 3e24 9541 453f
00000400: b54a 9a57 ad56 923f 89c3 f4b8 77ba 3d3f
00000410: d414 affa fe4a 183f b0fe 7976 a178 0d3f
00000420: 7b75 6f00 9d0a 933f ca36 8646 cbf1 1abf
00000430: 194f 8252 7a7b 623f 020c 5ea2 e0dd 153f
00000440: 326f 3207 19e7 d6be 5815 72fa 67ba 3f3f
00000450: 4e0f 0dc5 108b 803f e9b0 b5a9 8d09 6ebf
00000460: 5303 f700 e2f3 623f 7aca dd76 8bd7 f03e
00000470: 1a0c 0d82 45d1 763f 2f9c 03e5 3437 513f
00000480: 53ad 6551 b07f 333f 50a1 f35a d9c1 69bf
00000490: 2172 951c ce67 abbe 24d6 d03e df04 373f
000004a0: b657 5866 fc89 35bf 15b9 acf7 8aa6 16bf
000004b0: f546 58da e56b 243f 19e0 e30f 4658 e93e
000004c0: 6f45 80c3 40a5 f23e 6240 bb80 72fd 1c3f
000004d0: 7b2c 0ed6 4b22 163f 3616 a38a d421 553f
000004e0: 702b 4fe0 c3ac 11bf 0831 6bb3 6d28 f63e
000004f0: 3c58 a83a 4243 0a3f 4030 88af c1ba 333f
00000500: 4e5e 3102 3acb 6ebf 2163 1c98 f312 f43e
00000510: 930f 5c41 4d83 29bf 70af 7d2f e0be 20bf
00000520: 8cba 30ed df97 043f 5c6d d10e 3ddf 59bf
00000530: 1ba2 cb94 f116 8b3f 9c21 2a4e 84e5 533f
00000540: 1315 1581 bb44 4fbf 083c 2f67 63ce 08bf
00000550: 6a41 29f6 2908 4dbf b2a8 65e3 553b 41bf
00000560: e392 7d30 6823 893f 15f6 9e50 3d86 e03e
00000570: dfe7 acab 3e4a 903f 0c2a dc77 5003 853f
00000580: e015 c9cf 9b25 623f 4805 0d95 72a1 7e3f
00000590: 4825 b5f7 54b1 473f e12c 0e15 fdb1 4a3f
000005a0: a03b 0d7d 8638 8b3f dbb9 9c44 5cd3 913f
000005b0: 3e62 4f3f 748c 333f e7ba b9ce f51f 163f
000005c0: a55f 49f2 1e2c 463f b654 34b8 17f8 8c3f
000005d0: 06e9 9a8d cd03 efbe 0f4c f826 ea11 73bf
000005e0: b5a7 49ac 1a05 21bf 215e 7839 2d47 4c3f
000005f0: 5d01 f6bc 2f21 d53e 007d 782d a110 283f
00000600: 750f e796 b6a3 323f 727e 88b2 fa1a 14bf
00000610: 3923 6166 16fb 903f 0910 40cb e1d9 1f3f
00000620: b19b f141 f684 8b3f 7aa2 9ecb 4b42 28bf
00000630: a152 93df cf8a 55bf 44b1 0888 04b1 77bf
00000640: 9e32 d1de 298b 7a3f 972b b5fd ea0d 053f
00000650: 7b37 5578 f174 e4be 5f6c 9adb 4928 923f
00000660: a100 1ddc 9dd8 59bf 5bb5 04c2 30d7 863f
00000670: 0915 8ff9 a2ac 64bf 1f65 d9ea 1696 63bf
00000680: 721b 3cff 10aa 54bf 8aae a48e 1312 20bf
00000690: b35b 97a8 128c 19bf 2846 2f34 01d8 8c3f
000006a0: f468 cd07 ec47 8b3f 0abf 30cb 1efe 353f
000006b0: 6171 20d6 e08c 2c3f e23b d374 b3c2 623f
000006c0: 8139 869f f417 163f a50b f2ca ca9a 893f
000006d0: 7584 cedf 2cce 953f de08 7c4b 01de 793f
000006e0: 8e0b 7133 0eea 54bf 4c82 74f8 8c38 543f
000006f0: 7565 9c71 39b0 7e3f 4083 3e4f 3f36 503f
00000700: 952e 8c86 2eb8 173f be55 0004 efb6 923f
00000710: 4a6c bedc 2b44 213f cb63 1cb3 c67c 823f
00000720: 353a 43bd 7253 c9be b5c4 2c07 9c73 0dbf
00000730: b32d 78c6 2d21 923f df44 116d d32e 59bf
00000740: 7c33 e712 983d 723f 8b15 a92b 2143 64bf
00000750: 5255 47d3 240b 943f 2bca 39a7 6017 803f
00000760: f48b dda9 b9d8 003f de48 0a95 bcc3 553f
00000770: 515f a48f c88a e53e ea50 6885 348b 1b3f
00000780: cffa 398f 5a6e 23bf 4b3a 7d74 bcac 2dbf
00000790: d2d2 36e0 2ca5 2bbf e6a6 8a88 e95e 873f
000007a0: 853a 0b0b 62eb 71bf 3817 0a1c 5d12 963f
000007b0: 221f 01b2 f933 473f 8432 301d e1bf 983f
000007c0: e1b6 34d1 0b10 553f 0178 aaa3 56cc 5cbf
000007d0: ce78 9a06 37cc 2d3f 039c 7c08 64e9 dc3e
000007e0: 2e76 8255 48aa 45bf 961a 5d0f ec7c 34bf
000007f0: ed4b 47fd 6899 20bf 0284 8fcd d512 293f
