L2minimization/data-revision-4d/sin-product-4d_model_randDict_relu_1_size_64_num_neurons_512.pt (torch, 26348 bytes, 3 tensors)

fc1.weight f8 [512, 4]
00000000: b7c8 5307 94d3 c53f 5a67 ed72 4983 dc3f
00000010: 16aa 067c 1d40 b93f d7ca 02ca cf2c d33f
00000020: 8893 b870 2609 ac3f d183 f203 6291 ec3f
00000030: 16e9 d477 7919 c4bf a101 dcf2 2883 d33f
00000040: 284c d774 b2c9 96bf e59d a654 5170 e2bf
00000050: 93f1 f41e 7456 e33f d606 7383 152b df3f
00000060: 5e9e 3bc5 58a3 af3f d91c 412f 74f1 d53f
00000070: 73c4 1e57 c3a9 da3f 3cd8 50da 31d8 eabf
00000080: 7469 3fc0 2d54 cf3f 6eb8 9bdf 037b d5bf
00000090: 5214 9854 0d5c e6bf 77e3 3378 9792 b6bf
000000a0: 2b99 6027 5332 e4bf 82d8 0c05 763c c8bf
000000b0: 3d21 eacb 07c7 dbbf 84f6 fc31 bd59 e23f
000000c0: bd1f b13c 688c ea3f 4a6c 9b6f 4846 b6bf
000000d0: 01bd 26fb 7330 c8bf 4bd1 3c0b 5c78 d93f
000000e0: e85d c2f3 056d e7bf 9721 5faa 7d27 e43f
000000f0: 3126 8c14 5941 ad3f a69c 09c5 82dd c8bf
00000100: e37b 028a 66f9 b1bf 27d3 28ed d1cb b83f
00000110: e976 33f7 c779 ed3f 552a c8dc 5c66 bb3f
00000120: 05fb a2f6 4e51 debf 5b97 d611 d898 cdbf
00000130: 0c39 0c67 4530 c1bf ec23 c3c4 3f5c d9bf
00000140: b541 a280 ea49 ea3f 04ec c535 84fa e0bf
00000150: d11d 0aea 9afd c03f e568 af81 d73f c0bf
00000160: 8226 d5c9 e80e d83f cba2 1564 8fa5 e33f
00000170: cb4c c7fd e680 963f 3558 5a9b 7948 ce3f
00000180: d36c 88c9 0a93 9abf 3700 99bc 21cf e0bf
00000190: bdfa be39 fbba d63f ea51 5b99 0c6d e5bf
000001a0: 9741 b236 3602 e33f 93d0 4907 61bd adbf
000001b0: eaef 93e3 0f61 dcbf 8edc 7f95 4326 e5bf
000001c0: 1d70 cbf9 02b1 98bf 7fe9 319f a4ec d43f
000001d0: 8006 7cb1 9a20 d73f 2778 a1a5 641c e43f
000001e0: 362d 447e 8492 c3bf 046c bda9 aa30 dc3f
000001f0: 2e4c 80ba 6f6c e3bf 9189 899b 8432 e43f
00000200: 0e85 b213 7afd e83f 73fb c819 b470 da3f
00000210: 8870 e0cf 4051 d8bf c30b 81f1 88a7 60bf
00000220: 747e f0f7 e687 90bf 9180 4391 a8e7 e2bf
00000230: d3fb 747b f553 e4bf 6cb7 a9cf 938c d53f
00000240: 86e8 6d87 298c debf 3632 152b 0f70 d43f
00000250: 64e8 a2a4 6495 dbbf 81ac 34f9 bebc d7bf
00000260: 920d e63b 931e b63f 9213 6b44 50d4 e53f
00000270: 82d9 fe1c afe2 d7bf 259a 3d11 72a5 e33f
00000280: f681 26d2 0636 df3f 727e ef83 dcfd df3f
00000290: 4542 8535 3cd1 cfbf e5a8 5afe 2d62 e5bf
000002a0: 483c 4630 226d e2bf 587b d0d2 4d7f e2bf
000002b0: 333f 44fb bb0b d43f b736 0327 e330 a93f
000002c0: 3b81 a134 b36e e1bf bc82 75c5 5ecf b2bf
000002d0: accd 30ec 4050 e1bf 8fc7 87b1 575a cebf
000002e0: c94c 0ae6 ca08 df3f df9e d992 4ab2 cf3f
000002f0: af0d 7bdb d22b e9bf 1f49 9caa 31c2 d13f
00000300: f4c3 bc38 dddc c13f ba22 6589 a7f9 e4bf
00000310: c170 f78b 4f8b bebf 6ca0 3756 63d8 e53f
00000320: 2c24 813c 7556 e73f b1b2 d6c9 56c0 cabf
00000330: ac7d 126b 4398 a8bf 5255 bba9 532f e1bf
00000340: 30b9 e66f b2a8 ddbf 5801 92af 2bd0 cd3f
00000350: 0cd3 74b9 90c4 d53f 4687 cce2 1ce8 e83f
00000360: 8ad9 92dd f7c9 d0bf dc49 96e3 a644 e13f
00000370: 5275 abe8 ef20 a53f 5eba f7a2 f01e e5bf
00000380: 9f24 835f 5787 df3f 388a 48e1 98e8 dfbf
00000390: 17dc ff12 1488 e0bf 0219 56cc eee4 d5bf
000003a0: 8fb7 4ad6 6d3a e0bf 4138 be73 02e4 dbbf
000003b0: 74e2 e02c 943f e2bf fca0 2ff3 4973 d43f
000003c0: 0929 0d4f 6489 e33f 3370 8be8 ebe0 d63f
000003d0: 2f61 71ee df17 d03f fc57 6599 ea68 cc3f
000003e0: 74cc 7de2 3d50 e53f 57f5 c0ab 3951 e2bf
000003f0: 339b faea 8e40 c83f 2302 2437 b1c9 ccbf
00000400: 0293 381b 3f8e e8bf 2a99 f936 8508 cb3f
00000410: 19d0 1b88 8cf0 d2bf 7029 ab57 bd31 dfbf
00000420: 9fee bfb5 0d15 e43f 9229 f875 1f79 cd3f
00000430: 5113 96ab 2352 e2bf b2c5 4255 ddb1 d2bf
00000440: 72c3 925b 5c9f e13f 0e1d 97f0 7440 dbbf
00000450: 8cdb 70db ecc8 d83f 3f9b a48e 8eee debf
00000460: 0ab8 0feb 3686 d43f 5b51 067a 33d0 aabf
00000470: 52e2 7bc9 0059 e5bf 93e9 ac88 6de6 e23f
00000480: 0b92 fdfa 8fff e0bf 5314 7656 5e91 e33f
00000490: f9dc adcb 636b e13f 6511 b771 2d4e c8bf
000004a0: 8e6a 81ba a512 e13f 2450 aa53 919b d3bf
000004b0: a464 f219 56ce e63f 035a 381d 4763 d2bf
000004c0: b4b0 f928 f69c df3f 0cec 244d 810c de3f
000004d0: 327c 022b 5956 dabf 8209 6de0 0a52 c33f
000004e0: c89e 90e4 8fdd d73f 6a7a 49b5 efe4 dbbf
000004f0: ba34 b755 0697 df3f 0231 acef 0894 e03f
00000500: e55c 81ed 6ac6 e73f 0f45 5bfb 19a9 df3f
00000510: 9573 fb09 e454 acbf 18e3 7867 0b7d cb3f
00000520: 9cf6 9e69 9246 d8bf 566f 979a c80e d83f
00000530: 0881 3851 da8a e43f 78fb 962f 508e e1bf
00000540: 942a 6e9c 42c5 dc3f cea7 4aa1 9de6 eabf
00000550: 15bc 1c94 a71f bd3f 40f6 06fe 8c5b c1bf
00000560: d305 8c2f 2599 bebf 0d41 6762 ec64 e63f
00000570: e0de 59e8 e242 e3bf d0f0 593f baae cbbf
00000580: 10fb f521 f826 d13f 075c 3db6 d247 e03f
00000590: 1dc1 bac1 5541 d23f e05b 239d 105c adbf
000005a0: fc7b 31c5 e1b1 e63f ce0e e4cb 1acd 9c3f
000005b0: cdf4 e45f 0cce d7bf 15cb 095f 9dd3 db3f
000005c0: c957 af50 d992 dcbf 290b 3661 5138 cfbf
000005d0: f1ad 85e8 f7fb ddbf e80d b0af ee26 e53f
000005e0: 945b b10f dda7 b5bf 6b6c e412 a330 e9bf
000005f0: 8413 8d74 4eae ddbf 0bc8 e6d9 bda9 b9bf
00000600: c190 2d69 a4fd d73f ccd2 bc11 e77b be3f
00000610: 6533 0eb3 965d e13f 4072 c9f4 c417 d33f
00000620: 5fd0 8311 3888 c9bf 2142 b3b5 d22c e23f
00000630: ea7b 149b 8917 e6bf 1e81 e8fa 5f37 d4bf
00000640: 6b02 e26e 561a e33f efc6 4a27 6857 bb3f
00000650: a85a 188a 95b4 cf3f ba21 dc52 f3f8 e13f
00000660: 2d6e 4fa1 0b2a c6bf dc41 f6f2 49e4 c4bf
00000670: 5c1c 4e71 e2f5 d3bf de24 f54e 81ad ec3f
00000680: 91c5 0cf7 36d1 e0bf ae55 b4f9 bae2 a1bf
00000690: ba75 c270 2a90 debf 11dc fe2b 85fe ac3f
000006a0: 2945 00a3 c2ed d6bf b9e4 63c1 3ab0 d33f
000006b0: 6cb7 28d0 dbd2 e43f b700 3c02 b504 a2bf
000006c0: 4f5e 1363 93d6 c1bf 9a63 9abc 7f9f debf
000006d0: ddd5 514e aed7 e73f fc7e e019 b72d dc3f
000006e0: 0734 343d 4265 d0bf 99f7 219d 1acc cbbf
000006f0: 78ae c3b6 8c2c d53f 9643 bcfb 3602 e4bf
00000700: bd35 dfa3 0a48 d23f 225a 78d7 8e16 df3f
00000710: ae08 11b3 eed0 e8bf ad4e 3ca4 6350 cd3f
00000720: 68a2 dac2 5e58 e83f 3850 7231 ae1b d7bf
00000730: caa6 f70c 5937 dabf bc85 ac7a 89fe c9bf
00000740: bcaa ba20 b190 ba3f fcc6 75b3 8ea1 e7bf
00000750: 0258 3409 e752 d1bf 1a73 3009 defd e13f
00000760: b557 5e9f 66ed abbf 18cf d5d3 0909 d53f
00000770: a403 83fa f7e3 cf3f e4fa d334 9c08 e13f
00000780: 6afe a9db c174 c43f b29d 30f5 204b e3bf
00000790: a350 53d0 9d3e d83f c64e 7f33 226a e1bf
000007a0: 1f48 cbd0 cfec bc3f 7cdf 7f96 0aa3 eabf
000007b0: 2e80 6547 de3b e13f df2d 8c84 8387 a83f
000007c0: 5a8f f518 6a0e e03f 90be a0e1 d236 c93f
000007d0: 2cb7 d8d1 fb00 e73f 2a0a 64f4 704d dbbf
000007e0: d261 5360 a0f7 e6bf 6c44 e9c8 f495 e1bf
000007f0: 52d9 fd4d e70b d1bf 00fa e33e 4e98 b73f
0.1705193553712598 0.4455131170594676 0.09863456991175953 0.2996100876581926 0.05475731016148361 0.8927469327064675 -0.15702741957813576 0.3048803683923556
-0.022253788358124776 -0.5762106564843036 0.6043034176469056 0.4870046409306331 0.06179311187389368 0.34286217322046536 0.41661151416616987 -0.8388909591656168
0.24475643050284257 -0.33563324772592906 -0.6987368252017723 -0.08817431149135567 -0.6311431664551369 -0.18934512373533968 -0.43402285493404574 0.5734544731455604
0.8296395478619086 -0.08700993275435667 -0.188978669769746 0.3979711637250786 -0.732058502285267 0.6298206641741214 0.05713919044326266 -0.19425997372602416
-0.07021180028321754 0.09686004676843805 0.9211158588547878 0.10703068151648527 -0.47371267400369305 -0.23122692938812403 -0.1342856171763248 -0.39625543799462437
0.8215229523066713 -0.5305806207901473 0.1327394144793588 -0.12694829780850295 0.3759099932691258 0.6139599756980599 0.021976098288928363 0.23658676229087097
-0.025951546240418132 -0.5252846416042364 0.3551624359060204 -0.6695616717575466 0.5940199917113657 -0.05808547224015217 -0.44342419838335323 -0.660920898429042
-0.024112745758302013 0.32694354578384116 0.3613650067564791 0.628465960977114 -0.15290886082980543 0.44047037674107536 -0.606986870060046 0.631166747840597
0.7809419998849607 0.4131288768584717 -0.37995930004559186 -0.0020330118823337086 -0.0161434258299082 -0.590778621404768 -0.6352488909977815 0.3367051628073259
-0.4773048231651348 0.3193395539026683 -0.43099323346871743 -0.3708951409959767 0.08640403950089695 0.6821671806616101 -0.37321069556801245 0.6139459931117172
0.48767252466680533 0.49986946949318345 -0.24857285130794274 -0.6682348220686235 -0.5758219664438764 -0.5780400388210678 0.3132162050032889 0.04920110560634099
-0.5447631862589682 -0.07347671814705853 -0.5410465825174717 -0.2371320359084703 0.48491165604464165 0.24762851877607425 -0.786599568055342 0.27747766171627747
0.13955273886088515 -0.6554753955361641 -0.11931321303513 0.6826645549708821 0.7293039495208453 -0.20899472098735353 -0.0480366771891981 -0.5370271983216901
-0.46342144897325266 0.23291536400575796 0.3401223956200716 0.7783340863863735 -0.2623271621518134 0.5396303601322034 0.04126691546637552 -0.6600268538439413
0.49263557746287207 -0.4985716056855014 -0.5166111346324013 -0.34209794954985295 -0.507132452524944 -0.4357916002562697 -0.5702610851795513 0.3195366740096828
0.6105214637730408 0.3574781199401997 0.2514571980041351 0.22195179452927494 0.6660451339397597 -0.5724151949467949 0.18947016213970755 -0.2249051589242451
-0.7673640758190177 0.21119752106023643 -0.29593194286212704 -0.4874108654154474 0.6275700139808186 0.23025887737487644 -0.5725267745298003 -0.2921059925675663
0.550703219274608 -0.4258091306223414 0.3872635024048854 -0.4833103554723727 0.32069180445876155 -0.052369698186484036 -0.6671146331055502 0.5906284017030877
-0.5311965849073784 0.6114951790519946 0.5443591096981485 -0.1898857884645039 0.5335262911497283 -0.3063700978320887 0.7126875407003763 -0.28730943540122683
0.4939551735067298 0.469513249717864 -0.4115202827469516 0.15094123800561127 0.3728980762557339 -0.43584816650210334 0.49359281893414286 0.5180706673723139
0.7429709090019087 0.4946961359647312 -0.05533516523221419 0.21475355675081498 -0.37930736841722434 0.3759023198779138 0.6419498049108663 -0.5486222199905191
0.4495398070945751 -0.8406513357378971 0.1137642609216843 -0.13560640720054273 -0.11952431116880939 0.699819748109833 -0.6019148386103232 -0.21626976102186868
0.26800349537363477 0.5087674674385888 0.2852377311601389 -0.05734302442731809 0.7092141009742359 0.028126162237653678 -0.3719511925190318 0.4347909381969413
-0.4464629447878648 -0.2439061855949032 -0.46850393016094843 0.6610024863625172 -0.08459264405369843 -0.7871871346463996 -0.4637638223833209 -0.1002463013635692
0.3748560931328591 0.11907810385748546 0.5426743981530363 0.29832576661081944 -0.1994695745012249 0.5679715679962706 -0.690373232737213 -0.31587981703525425
0.596965042656007 0.1068024726798986 0.2476984905522006 0.5616394632680148 -0.17315812469938532 -0.1632168232286081 -0.31188260140374324 0.8961798231258873
-0.5255389046853215 -0.03493294046544847 -0.4775491810958915 0.056629335041570646 -0.3582617370421582 0.30763119588625504 0.650739580689089 -0.03519216205859393
-0.1393608316200123 -0.4784850446536041 0.7450782327347799 0.44029023673100176 -0.256180343408062 -0.21716625854963637 0.330844095688668 -0.6252703587252764
0.2856470680534036 0.4857518295479243 -0.775504445781072 0.22901578444781504 0.7607873731368047 -0.3610644801021894 -0.4096281649241119 -0.20308035364091193
0.10377032326747843 -0.7384713654593891 -0.2706849660766012 0.5622396640279448 -0.054545599893728015 0.3286766594603576 0.24914455158252935 0.5323010474965852
0.15981314874442215 -0.602920988928352 0.3788218054226126 -0.544205761509567 0.11298846099387604 -0.8324025096362528 0.5385581392729415 0.04790888779652013
0.501759575603937 0.19698558823573764 0.7188700769963581 -0.4266016375187599 -0.7177278405534315 -0.5495551990553742 -0.26635153404585765 0.09216774974263586

fc1.bias f8 [512]
00000000: 1f3f 39fd 2a40 ea3f 6e13 fe7f f25e d2bf
00000010: 961f 9ff1 4955 d0bf 5349 380d 32a1 a23f
00000020: aab5 26d0 2d6c e23f 23b3 3f92 6a36 cc3f
00000030: 5f9a 731e c93a d5bf af0e 2595 a0cd c43f
00000040: 0521 93ac a0b2 d6bf b2db cfa1 32ab e73f
00000050: e514 fb99 ce67 b9bf c65d 0cec 57de e4bf
00000060: c702 6701 3cb3 d83f 63aa c229 3403 ba3f
00000070: 813d 80d9 9162 e3bf 37af 2177 e616 c0bf
00000080: ce56 ecf5 5c89 d1bf 91e8 93cf 3d69 d73f
00000090: ef3f ee9f d4d8 e23f 0027 73b4 f5ce babf
000000a0: 3cf0 ce53 5f26 b0bf f9ae 92ff aff1 de3f
000000b0: 069a 4099 a1e6 e23f a05f 08d7 f99e b6bf
000000c0: 3d18 bf28 a901 d13f 5836 cac2 8267 d73f
000000d0: 8556 40bd eff4 b8bf 9c75 9c06 71cf dc3f
000000e0: 6b36 773d 699c d63f e280 72d6 86ae d63f
000000f0: 985f e7b8 0de8 e3bf c1da 7324 4123 d8bf
00000100: 427c 6554 890b ca3f 5465 50da daf2 d73f
00000110: 6e2e b0de 3b3d d73f 6f9b 21d2 cb4a d43f
00000120: cc58 3393 2d7a bb3f e6e9 806b f78a c6bf
00000130: 7f67 a8fb c5c0 e2bf 2132 a9ae 1b84 d9bf
00000140: 8d22 69b6 661f d9bf f89a 2bf3 7957 a5bf
00000150: 6ba7 1154 fc52 cf3f 8c36 8214 97dd d2bf
00000160: 13ef 8d75 f777 e8bf 203e 000c 144c dabf
00000170: bd1d 267c faa1 d23f 5ef6 b2eb 34a0 d83f
00000180: 5b42 8294 00bf e5bf 067a 8999 01ac cf3f
00000190: 5bfe 8da2 432c e0bf fb45 3049 5988 cabf
000001a0: fdbf 8d05 2b6e e63f 5660 4352 6dfe e2bf
000001b0: ae2c fe3f 6046 aa3f 788c 5469 cde6 e33f
000001c0: 26a6 3ea9 23a5 c53f 697c 96b6 e24d d23f
000001d0: 2774 6979 53e2 cd3f e93d cc45 c897 e7bf
000001e0: bb36 54ff ae7c da3f 78fc e0c2 0ae5 a63f
000001f0: ba5e ea1a dc71 babf 7d8f 6504 df94 d43f
00000200: eb61 bded d42e d1bf 7ccc f7ca 3139 e1bf
00000210: 9316 b5fe efb1 d6bf 5d2d 349e 1b77 b53f
00000220: 16d4 8bad 425c dcbf bdd9 e660 315e cbbf
00000230: bb54 127d fa1b c93f 1b71 8d55 7df0 d5bf
00000240: 389f a02e 3109 d7bf a70b 9dd7 5c26 babf
00000250: d1f7 470b 6a6a d4bf cfee 96b8 070d babf
00000260: 0211 6af7 2be5 e7bf 8520 e789 a7cc e5bf
00000270: 3851 811e 3d0d dbbf ea97 84a7 e000 ca3f
00000280: 843a f6aa 3ea9 d2bf 1580 c45a 042f cabf
00000290: 0e15 24fa 9700 e53f 5cce ef6a 95b1 c33f
000002a0: 12b1 4d40 f94b e13f 3e66 dbee c566 b0bf
000002b0: 1708 1ca8 fff8 d5bf a138 dbe1 a81f d33f
000002c0: 8722 99b0 0358 a23f e83f af94 fb3e e1bf
000002d0: 77f7 3e2f 37a8 e1bf 4175 5854 a509 c83f
000002e0: d988 576f 3f34 c33f b201 8837 8f57 cf3f
000002f0: 4cb7 c401 aa4a ccbf b3b8 9804 ad3f c2bf
00000300: 3024 f771 f727 9e3f 431a 04bc 04d0 d33f
00000310: 2820 3f03 293d cd3f 1cb0 bb99 09b0 e53f
00000320: 2ef5 4a10 cc05 c0bf 3069 4e0b 422e e13f
00000330: f06e 77b3 0629 bfbf 4299 4206 5b7e e1bf
00000340: 7aad 69d1 0c07 df3f 72c4 9e3c ea80 df3f
00000350: 0050 f9a7 725f d6bf 04e7 85d1 7eac a33f
00000360: 487d 76be 3986 d73f f68b 3d86 ea88 c7bf
00000370: 548f 66d7 dc8d d8bf b745 0c65 ab23 e1bf
00000380: 2066 c1ec ffd7 c43f 8237 29cc 526d 97bf
00000390: c8f6 b1cd 7472 dfbf 9b31 3f26 b9e0 b5bf
000003a0: 6e1d 8c7e ce24 db3f f71a e1bc 2398 e23f
000003b0: c29a 46c4 b876 dc3f 3fd0 c502 58ce e9bf
000003c0: 30b1 68a4 3b38 d1bf 6239 b14e a89a de3f
000003d0: 36fa 5aa2 0ca6 d7bf 3f7e 8021 9ac6 bc3f
000003e0: 2b36 d8f6 9c7b d5bf 40fa 39e1 a9a2 aa3f
000003f0: 2ab8 d4e2 6689 ddbf 9b78 91d7 f534 e5bf
00000400: 07ba df64 11a3 b9bf ca1f 0e90 488a dfbf
00000410: 49c1 dd93 8f71 dabf 1480 7729 1bc6 d9bf
00000420: ab52 f74b 6108 993f d13b c118 c6f1 e3bf
00000430: 75f6 5f92 d438 dd3f 9dcd 4e26 f50b c93f
00000440: 2d27 4831 9992 c0bf 0fb1 13a3 26ec d43f
00000450: 48db 0fba 4d64 99bf b323 b2fb 7def e13f
00000460: 083d 9ec5 e3ff ccbf 3d02 45a9 8c5d 78bf
00000470: dbab 8192 ea9b c7bf e548 407d 9cd4 dcbf
00000480: dae2 c4d9 8d27 7a3f a8f4 a78d 186b d5bf
00000490: 5c60 5198 d342 d13f 3df1 e3d5 5998 e93f
000004a0: 6d1f 118a d416 d13f 45f5 db9c ac01 d4bf
000004b0: 1393 ba5f f27d e23f 700a f4a6 94e9 e43f
000004c0: f112 f42c c81c e13f f229 ad96 d269 d43f
000004d0: 791f 44f4 041a e6bf c938 fc00 69ce c63f
000004e0: 82ec e92a 7b5e e2bf 6eed ae60 558b 853f
000004f0: 00b6 602e 905d e63f 1190 b0e7 4d91 903f
00000500: d771 f3e6 ef6a e9bf 62de 7e40 cc46 e63f
00000510: 6a86 7302 1111 d8bf 69b2 f092 aa64 d23f
00000520: 8f76 c176 c98b df3f 88fd 70e6 c338 75bf
00000530: 5705 f015 5906 dcbf edaf c456 c3c0 7a3f
00000540: 1aba 431a 52d0 d6bf 4828 0d1b 4dba e2bf
00000550: bbed e034 d3ff c03f 0c13 a8f8 3a94 d03f
00000560: 2953 6e30 ac35 b73f d7b4 e0f9 a9c6 e0bf
00000570: 74b6 4609 5eb4 b4bf 7ba3 576c abc5 d03f
00000580: e25e 923a 5a67 e53f 279c 77f3 fbdf b9bf
00000590: 4364 65d9 a1b1 d2bf 8e6b 7975 7487 d7bf
000005a0: a7d1 00a4 9d6c c9bf 83c5 7517 4d0c e0bf
000005b0: 8f95 d049 0d3b d4bf d312 5d15 78bc e5bf
000005c0: a609 bcb8 4062 bcbf 1324 4ecb 8133 e3bf
000005d0: 08d8 e0e5 80d4 ddbf cc8f fb84 b50b e1bf
000005e0: d4c2 ecc5 16b8 e23f ed6d 9376 7349 d33f
000005f0: 50f1 275a 2eb8 ad3f daf8 350f 55f9 d7bf
00000600: 821e 6245 b5f4 cebf d988 b304 2476 d73f
00000610: 5b44 8a94 b3ee d7bf 91d3 4e97 076e cbbf
00000620: 9045 bcbf 4851 ad3f 2522 4cb7 a422 c83f
00000630: 2b60 e229 3388 d73f e071 4661 b73e e1bf
00000640: beec c4c4 c5dc c8bf d38a 64ce 07a2 df3f
00000650: 0aaf 2118 36c8 cabf 1d63 f44c d0bb dcbf
00000660: ca8f f91b ea6c d8bf 0ba4 6149 7de2 cd3f
00000670: 17f7 8629 071b 98bf 6ef8 e0ad 0f8d c4bf
00000680: fc9a 3ad3 3dec bbbf 537a 1811 aa3c dcbf
00000690: b10a fda0 0da5 c63f 7ca5 7a2f 2ec8 e63f
000006a0: 2632 219f 0fd8 e63f 4ba4 ef4d d392 ccbf
000006b0: a659 8f07 cde5 c73f 5700 952a 3778 c93f
000006c0: 6655 047e f85f e2bf 3902 3e4f 25c1 e0bf
000006d0: 9aca 0181 f043 debf aa2f f7f7 32a6 c0bf
000006e0: aa0e 9191 f997 d93f 96e0 069b 0040 d2bf
000006f0: ab12 ffb7 356a d23f 5023 d079 1b0f a6bf
00000700: e440 be3f e567 dbbf 552c 8722 86b8 da3f
00000710: 93cc 3c58 122e ce3f 9d8e ef9b e42b c5bf
00000720: 4680 9aea 39c4 d3bf 816f fd7a 3246 c2bf
00000730: b7b4 63de 8968 e6bf f58b 7790 e132 e73f
00000740: 1c6d ee8f ef76 d2bf ee7c 99fc d8f2 dc3f
00000750: 6e7c b593 da64 c63f fce8 2419 0212 e83f
00000760: e8db 8afd 7d10 e23f 8532 2636 b6f5 e33f
00000770: 461c 709c 6351 e0bf 913a 43e9 5246 d2bf
00000780: 5255 1434 1af4 e0bf 3bc5 220f 91f0 e0bf
00000790: 12f6 d719 d39a d2bf 7181 5e50 f3ba d63f
000007a0: 1eba 1c5f 9bc5 d0bf 754c 038b bf75 d4bf
000007b0: 484d 7907 be6d e9bf 5dd5 0ffd 34f4 c33f
000007c0: 917a 7ad0 8b55 db3f e59f 848c 9a9c c6bf
000007d0: d24d c343 0146 bdbf 8c31 4aa1 aa4b c73f
000007e0: c264 4d55 ae65 c0bf ab93 3c89 9abb bb3f
000007f0: e390 031c 2340 b6bf 00f1 523e a126 e3bf
0.8203329988263909 -0.2870451211859323 -0.2552056178651524 0.03638607417464592 0.5757054391339598 0.2204106535058595 -0.33171298955713796 0.16252524645289187
-0.3546525655078912 0.7396481666936465 -0.09924021968170711 -0.6521415338819956 0.38593959938956995 0.10161138553181952 -0.6057824371400075 -0.1256988603303115
-0.2740089799493547 0.365798428261436 0.5889685748716128 -0.10472045569909127 -0.06308551593878148 0.4835014339284807 0.5906532281122174 -0.08836328029462814
0.26572636584421955 0.36569279692125667 -0.09748743410485801 0.45016122480031995 0.3532965755701755 0.3544022649966917 -0.6220768557932272 -0.37715176162548053
0.20347706433219243 0.37419768638354367 0.36311241862197263 0.31706519623406043 0.10733303874744421 -0.17611592053601938 -0.5860319056694009 -0.3986882405922945
-0.3925415784220057 -0.04168301671398028 0.24472002129487733 -0.29477478983685823 -0.7646443649277636 -0.4108934514233358 0.29113638042369044 0.38477824227797963
-0.6795657063067425 0.24743671414303509 -0.505403344621253 -0.20728603433285273 0.7009482487173951 -0.5935579878523736 0.05131817608988719 0.6219241196853451
0.16910215152647473 0.28600375967830033 0.23346942356411768 -0.7372781146277109 0.4138600820013882 0.04471620205776444 -0.10329986245266812 0.3215863745629049
-0.2684833833386892 -0.5382317508905454 -0.3546104419113842 0.08384869205854302 -0.4431311316287191 -0.21381203872233626 0.19616633517276746 -0.3428033194993689
-0.35993604234180365 -0.10214786781311479 -0.31899500943825126 -0.10176132446843698 -0.7467250664053895 -0.6812322324194758 -0.4226830289747059 0.20315178088748037
-0.2915798825787663 -0.20455984527598106 0.6563224683347089 0.15385692330856926 0.5405241256644635 -0.06406819421263152 -0.3433226720518418 0.29880735451014045
0.03582774668445148 -0.5389383224483 -0.5517841265461659 0.18779436701235322 0.15003197609536903 0.24485960208404617 -0.22102856718395925 -0.1425682327694112
0.029449335413833377 0.30957144127788555 0.22842896135830526 0.6777389528847411 -0.12517691417262128 0.5368967266870524 -0.12171975976474037 -0.5466742632168364
0.48480530214757034 0.49224334640445655 -0.34957567599963113 0.038425410343689875 0.3675674781788598 -0.18386584810932022 -0.38365860972611654 -0.5356041883080057
0.16284178791356485 -0.02287797328090547 -0.4913608559362328 -0.0854602545143223 0.4241214977086746 0.581071728615682 0.44474620025213707 -0.8064384512094945
-0.269057188563937 0.4781895416716876 -0.3695098481656801 0.11240542714994549 -0.3356697474090164 0.052022274726358564 -0.46151134635408886 -0.6627148828809085
-0.10014446938269127 -0.4928151518620295 -0.41318120422422006 -0.4027164368581009 0.024446029912570093 -0.6232634051792677 0.4565936498109758 0.195677417473786
-0.12947382837619995 0.3269135086582233 -0.024796690446204722 0.5604848781523429 -0.2265591349537106 -0.005948590715263932 -0.18444568780554857 -0.4504767630725282
0.006385377983229213 -0.3346616156921507 0.2697037684897674 0.7998475244089956 0.26701844676107706 -0.31260218923837996 0.5778743619635826 0.6535132656866391
0.5347634199138992 0.31895889963621393 -0.6906761904547088 0.17817413852794164 -0.5740333402785753 0.01051966382316635 0.6989212899986228 0.016179291979042946
-0.7943038473854881 0.6961423167876541 -0.3760416530550176 0.28739418363219343 0.49290691945302795 -0.005181088671690211 -0.4378874506220049 0.006531489413003283
-0.3564648872842625 -0.585241844973333 0.13280716020549996 0.2590472629820375 0.09066272909542462 -0.5242509727883328 -0.08087718702764751 0.2620647962599418
0.6688662666301435 -0.10107397741340717 -0.2920918105133447 -0.3676425120553909 -0.19862719066590026 -0.5015016039089207 -0.3161042424056512 -0.6792564790017316
-0.11087421903724834 -0.6000374766164235 -0.46609518479397183 -0.5326793286626468 0.5849717965812382 0.3013580949752555 0.0580458149961226 -0.3745930336516615
-0.24184289825301525 0.3665857358847809 -0.3739441824519127 -0.21429533851701568 0.0572607740451857 0.1885572333342377 0.3676879796053096 -0.5389058017640842
-0.1942374430453579 0.4942645564607748 -0.20923496416377702 -0.4489632369527941 -0.38164761287611937 0.2334744079883254 -0.023540603551501862 -0.1605548476235898
-0.10907350928264842 -0.44120265645498086 0.17691202507747542 0.7119360854459695 0.7138746364594837 -0.22323075585817018 0.1867004668153644 0.1989811857147312
-0.5742151700275542 -0.5235773608874928 -0.4728966960748636 -0.13007199390119456 0.3999008103894349 -0.2851563943800185 0.2877325341071734 -0.043084009761577335
-0.4282162783138246 0.4175124489963243 0.23578099544974815 -0.1654020081906439 -0.30885169897556286 -0.1427672482049012 -0.700261053423353 0.724961073076314
-0.28850926452442294 0.45232224147726086 0.1749528142199525 0.7521982661340014 0.5645132019043304 0.6237441117860533 -0.5099351935795162 -0.2855422285037231
-0.5297976510216051 -0.5293660445806049 -0.2906997444514171 0.35516054962683713 -0.2620609692411636 -0.3196867806956967 -0.794646277043662 0.1558901057866632
0.4270963226244158 -0.17665416585191376 -0.11434944061630084 0.18199665904502316 -0.12810305752899437 0.1083313546228754 -0.08691615518506839 -0.5984655587449481

fc2.weight f8 [1, 512]
00000000: 57f7 b80d 53ac f5bf 23b2 cff8 f7b1 76bf
00000010: f915 de57 7fda b9bf 6f14 d9a1 a5ec 513f
00000020: ea77 0cad efe6 87bf e140 9f28 48e8 c0bf
00000030: ba17 b65f 0b7f 71bf ba2d c3bc ead4 8dbf
00000040: c3ee 8fc1 8e05 b33f f565 94e7 c8fb ccbf
00000050: c400 d77e b606 a83f a997 21bb afcb a3bf
00000060: 7dc5 0b5f 2f9c 763f 2d76 4241 c7f3 883f
00000070: 0c3a d906 9e14 97bf 61e9 3454 2f1f 9cbf
00000080: 43b7 7d73 2e50 adbf 852e 2afd 277d b3bf
00000090: e98f 7b45 83b3 ccbf be2b f6c0 bc27 bd3f
000000a0: 7c02 05b8 4938 b3bf dac0 c88b 09e0 acbf
000000b0: 440d 05a5 8cee afbf d9ed 59ed 7fd2 a6bf
000000c0: 7486 8609 13a4 773f fe01 2565 89a4 8cbf
000000d0: 941c c008 ed2c ae3f 73c5 66a5 fdde 9c3f
000000e0: ec52 56f7 cb18 cbbf bb8c bac1 4b3a bc3f
000000f0: 737b 4421 d97e a2bf 6000 c84c 6f43 ae3f
00000100: 5439 e437 f283 c63f f6bd 035c ab5f b53f
00000110: 366e f899 1b02 bb3f 456f 3710 00c0 c73f
00000120: 348b 14ba ab3c c13f 04ff 64e8 85a3 7bbf
00000130: 8575 31fb 1a4d b83f 59f4 9285 63b5 b7bf
00000140: 3715 893e 463d a33f ffbb 41f2 5e08 c1bf
00000150: d472 46a4 754b a53f 6608 48ed 8548 b13f
00000160: f181 8a81 84e5 cc3f f2a8 29c9 fa60 993f
00000170: 9295 4286 0e4a 78bf 372a 94ad 3088 883f
00000180: b8f8 7d45 152c 8abf 1c71 14a4 1e62 a3bf
00000190: 08e4 48ee 4a60 a6bf a6bb 1e18 6ce5 a43f
000001a0: 5647 8ce1 910f 92bf 7232 9988 39d4 b73f
000001b0: 4767 c4a4 7e75 763f b978 46e7 cbd1 a6bf
000001c0: f255 7cf6 1ee9 7c3f 6702 a0bb 2174 593f
000001d0: 91c4 2398 6a4c aabf 7262 7cee abba a23f
000001e0: 1102 a650 fed7 afbf 1bae d2c0 7c15 993f
000001f0: 8249 930d 90bd c13f 74ad 4c58 4ccd c03f
00000200: a76e d032 44f1 a43f 116e 96e1 1062 adbf
00000210: 582d ad6c 97ab 713f ce7c 4810 afe8 b2bf
00000220: aaa8 5dbf 943d bd3f 6628 c19f 57ec b1bf
00000230: 330e bdaa b8db 9cbf 59f4 2401 570f 90bf
00000240: 53a5 cb69 3a13 a2bf 948f db7f 3357 b3bf
00000250: eb9c 014b 2b05 9c3f 1aa2 db6e 8d53 733f
00000260: f59d 934f cd7c ce3f da37 551a 7ee9 dd3f
00000270: 4b55 31d3 3950 963f f27d 192c 47cc aabf
00000280: 4e5e ef8a f304 993f 3c6c 348b e88a a7bf
00000290: cf20 b71a fbaf 9cbf 8bf7 6ae9 ab63 c33f
000002a0: f655 cfbc 443e c73f 1e35 758e 42e7 b0bf
000002b0: dae2 2a39 c7fa b1bf 93f2 5197 d0ec ab3f
000002c0: 96d2 c000 c996 9e3f f5ad cd11 e3f4 bebf
000002d0: a618 7629 bcee b33f 5c05 ce53 f7ec a6bf
000002e0: c13d 6c12 c31e 9abf ced0 d443 d8e0 b3bf
000002f0: f998 ef24 e4ca 99bf 606e b593 7b04 9fbf
00000300: fb0c 87a4 9f36 aa3f cbf2 13b0 33a7 ca3f
00000310: 93f6 4617 75a6 bcbf ff6a ce19 fb49 90bf
00000320: 13f0 fb43 5b64 b8bf 6a65 c71e 7567 b2bf
00000330: b4a0 7de9 014c 93bf 6fe5 a7ac 32d5 90bf
00000340: a42a 54c3 84ef d03f 189e 658a b1bd 80bf
00000350: 0f89 6d6d 62cb 62bf 921a 3501 80c4 a73f
00000360: 289f 2b2e 85b4 afbf 1f31 1d02 33af c1bf
00000370: 3074 0613 0a3f babf 4710 9c80 3330 c33f
00000380: 14c0 f3f5 9912 90bf 5595 7eee 2d06 a0bf
00000390: 7931 0ac9 3a39 753f 4f7b 4d81 0553 af3f
000003a0: 58c3 414f d580 bc3f 451b 375e 7ae2 babf
000003b0: 92a8 c0fe b388 afbf 3bda 92bf aba7 e03f
000003c0: 9510 2cb6 af8a c23f f7ee a7e0 0bc9 ce3f
000003d0: 4370 9162 3c86 8fbf 97ba ae54 48ba 743f
000003e0: efa2 40c4 a6d3 c33f 43ed 4247 3c7d 97bf
000003f0: 07ca 7b1f f7f8 b2bf 78be 4adb 411e a2bf
00000400: 451c 1218 e1c2 c23f febf 28f6 d586 c83f
00000410: 734c 2448 6bde b2bf ff19 bd8c 52ee ae3f
00000420: 9a40 b3ac 0f60 a33f 68d9 dc1a 4290 bc3f
00000430: 4ff8 2d60 d97f ca3f d008 3a67 e604 a9bf
00000440: 4cf7 c8da 2e8d 943f 8ea7 4e4e 2aee b23f
00000450: c3c1 b9e7 06f7 87bf ac76 1c21 361f 91bf
00000460: 282c d56c 7911 bf3f 583a 3d11 5468 98bf
00000470: 6603 ff95 64ed b53f 554a a5bf 9eab a83f
00000480: c68b 6d63 defa a0bf 98f5 ae9e 1da3 c3bf
00000490: 33c1 2c99 e4f8 ab3f 5df5 9402 de6a c33f
000004a0: 1969 73c1 95b2 a63f 643e 29dd 2944 ab3f
000004b0: 1aeb f22c 7a26 883f 1466 0269 7302 cd3f
000004c0: 5315 2d99 708f b83f ae58 c059 1aee b23f
000004d0: 8631 7909 5b82 d3bf f783 67c5 e23c 9abf
000004e0: 9db7 ecbd 539a 9a3f 2966 4350 f656 7ebf
000004f0: a059 8f1d f3df adbf e0ce 0191 97be a03f
00000500: dfcb 4216 c0f8 ce3f 17aa fbc2 e783 d23f
00000510: d0ee bc07 9623 96bf 4639 0771 0f6d d03f
00000520: a638 6b7e ee0e b9bf b984 c6ca 3a9f a5bf
00000530: 6c9d 6bf9 4199 c5bf 57ba 3c58 7209 b0bf
00000540: 81a2 10d0 58a7 a3bf 7c5b 9b4c 3a23 c03f
00000550: 92ee b12f 9597 c03f 74df 4994 4b55 a3bf
00000560: e550 1619 86ee 6f3f 6186 ac2a c58e aabf
00000570: ddd9 d75e f1cb b5bf 74ec 8dad 41d3 b03f
00000580: aeaf cd4e 9728 b83f 9f98 8aa0 adba b13f
00000590: 2d14 74ae 4ec2 94bf a656 8029 f89a bfbf
000005a0: 3db7 81a9 23d1 9e3f f5a4 00f3 57db ab3f
000005b0: 3abe 53ef cbbd acbf 700c bc95 89a9 953f
000005c0: 27b2 8221 3c3d 8d3f d81e 93b4 c7c0 d23f
000005d0: 1f6a 72c0 a89b bcbf dd6f c16d c60a b7bf
000005e0: da5f d60d a3ed c1bf eff9 4520 d190 c73f
000005f0: f269 142e b4a7 b93f 0f46 3d95 007a b93f
00000600: 2f69 7fbd 033a c33f 9b01 081d a7fa babf
00000610: fb17 06f3 cb20 b23f 5cfa 03d8 3b13 c93f
00000620: 832c e539 046b b0bf 8611 0712 2c3b a3bf
00000630: 7c14 cf9a bad5 c53f 4a9f 7722 15b3 a83f
00000640: 68d3 8ccf a7f2 a23f 2842 b8f9 2325 c2bf
00000650: 8fc3 70e9 5681 b6bf c928 a20e cb9a aabf
00000660: a069 8843 f856 b0bf abfd c81e 670b b1bf
00000670: cb5e d8d6 ca4f a6bf d404 d5e3 da92 b7bf
00000680: 8d60 275b 0860 c33f d3a9 002c fe5d a0bf
00000690: 5e29 42e8 6259 c4bf 6ed0 ad1e c9a0 923f
000006a0: a11a 0075 c33d b9bf fe2d eabc 4ae8 98bf
000006b0: 3d53 e806 eeb9 b2bf 4c9c 084d cff2 95bf
000006c0: 5880 0b69 0524 b3bf c21d d2c2 359d cc3f
000006d0: 96ca fefd 2ad9 b33f 886d 8ada cfcc a2bf
000006e0: 1eb0 832e d61f ce3f c585 9ed9 7ec5 c43f
000006f0: 7622 e679 fa50 92bf 574e 1fcf 3516 bd3f
00000700: 3f12 bb9c 0afa a23f b222 5b20 fa41 833f
00000710: a543 311f 66cd b1bf ee33 c4a1 795c a3bf
00000720: 9f64 2c35 fff8 96bf 3671 55bd 746c ae3f
00000730: bef4 563c dc80 babf 325e 29e6 3a7d d7bf
00000740: e89a 6739 715d b4bf a2d4 5320 ac04 90bf
00000750: 98bd 6af8 1e54 b73f 0a79 4740 1da6 d23f
00000760: 5b1b 8e5c 1571 b43f 1139 ef1e 70a9 c6bf
00000770: 9178 dfe2 bccd b5bf 09e1 8081 78bf a8bf
00000780: 9d05 f3f3 c3d1 56bf 8926 d699 13cc a6bf
00000790: 3a79 7b60 5b4b ce3f 4ae3 f16f 170c b53f
000007a0: 1f37 f6fb b3e3 acbf 82fe 1bef f74b a2bf
000007b0: 181a 0da4 9f9c d13f dfb2 5ca3 0111 a6bf
000007c0: 3949 7324 c59e b6bf 65ef 27aa 753e b23f
000007d0: d0b5 cdbb 15c1 99bf 806b 537f 1bc3 babf
000007e0: fbd2 1480 5452 c03f b358 4fb2 bbc2 b8bf
000007f0: 5611 eb8e 4c63 c23f 70a4 6df4 46d5 b9bf
-1.3545713935886476 -0.005540817871388745 -0.10099025626376336 0.001094018697942258 -0.011670944660689703 -0.13208868010997946 -0.004271549634159594 -0.014566263089725296
0.07430355287209083 -0.2264338618049774 0.04692621515596465 -0.03866337928120284 0.005520043415104478 0.012183720282617017 -0.022539586227418737 -0.027462710871284716
-0.0572523609142608 -0.07612848215847563 -0.22422829525669322 0.11388759337402996 -0.07507763617196334 -0.05639676886892327 -0.06236686243439718 -0.04457473537783203
0.0057717078820204056 -0.013985703849017202 0.058936507528465715 0.02819439241438233 -0.21169423653613906 0.11026452521996337 -0.03612402468774336 0.05910823642989338
0.17590167740895402 0.08349104877901667 0.10550091275256865 0.18554688255141563 0.1346640261263815 -0.006747744633969214 0.09492653496405097 -0.0926115227802752
0.037576861509061414 -0.1330679591078194 0.04159133558571218 0.06751286547663113 0.2257543213390956 0.02478401043701068 -0.0059300010072197585 0.01197851209373822
-0.012779394324521895 -0.03785796883514278 -0.04370340498685016 0.040812852806417596 -0.017637519255976862 0.09308204255030164 0.005483145429275477 -0.044569370252462055
0.007058258961270424 0.0015535668776466506 -0.05136426074194234 0.036580441343350936 -0.0621947740028227 0.024496030110340166 0.1385974947248308 0.1312652045392998
0.04090321655550371 -0.057388808763075734 0.004314033033391361 -0.073862973666553 0.11422090217607442 -0.0700125470185938 -0.028181920453120134 -0.015683516926618377
-0.035302949347008415 -0.07554933425450222 0.027363468602200774 0.0047183537223891795 0.2381836546476134 0.46737625667162563 0.021790412440471568 -0.052339767583131094
0.02443295035831588 -0.045981661789675304 -0.028015063767981737 0.1514792337165399 0.18158778399690306 -0.06602874734854366 -0.07023282190028671 0.05454112860841067
0.029872074767086497 -0.12092417893079939 0.0778615571235571 -0.04477665803916395 -0.025507972716750652 -0.07764960914647931 -0.025188030962362416 -0.030290537729668165
0.051197995027473873 0.2082275972133146 -0.11191493814745916 -0.015907214593975812 -0.09528131875771377 -0.07189113618314527 -0.01884463298429813 -0.016438285625530676
0.26461905551028964 -0.0081743116722484 -0.002294246903532422 0.046421051165954755 -0.06192413509944422 -0.13815915683006438 -0.10252440418703723 0.14990848331228987
-0.015695958744743235 -0.031297145236104974 0.005181531553386847 0.06118027881051679 0.11134083924276916 -0.10501828003098719 -0.061589836929060074 0.5204676381752685
0.14485737223742903 0.2405104491189076 -0.015392753370342521 0.005060465376046117 0.15489658911362578 -0.022938672875836074 -0.07411140936509507 -0.035387094515837825
0.1465722434552125 0.19161486167422476 -0.07370634566568572 0.060412006073011774 0.0378422640147857 0.11157620578601313 0.20702664562480996 -0.04886550912944332
0.0200698205028325 0.07394661342428163 -0.011701635309891217 -0.016720624705263518 0.12136038691566908 -0.023835481216617133 0.08565357839598917 0.04818435754227283
-0.03316397632331518 -0.15341539619650457 0.05463327760515071 0.1516988289458067 0.044331245293238015 0.05325442146988449 0.01179213952706486 0.2266372931233468
0.09593871822024384 0.07394566241450448 -0.3048312752260006 -0.025622885988813206 0.02597933623035652 -0.007407152330608771 -0.05834922538604137 0.03270410199266194
0.24196625792464396 0.28930086175265174 -0.021620125028887938 0.2566565135756672 -0.09788408838650983 -0.042230450871337984 -0.16873955420235676 -0.06264414457539523
-0.03838613071304043 0.12607506504602017 0.12962593869075484 -0.03776012597239645 0.0038979167081355398 -0.05187050004884664 -0.08514317098147424 0.06572351920287806
0.09436937021172184 0.06925473374812662 -0.020272473714630635 -0.12345839513030885 0.030094678135746056 0.054407833493607706 -0.05613553329919481 0.021154546512672956
0.014276952526722187 0.29301636347052584 -0.11175017069255276 -0.09000816516476058 -0.1400646035733633 0.18410696101996346 0.10021520733827297 0.09951785701311898
0.15020796540086098 -0.10538715800067282 0.07081293757627798 0.19589946792253243 -0.06413294232804571 -0.03756082267821896 0.17058498915699605 0.04824129148238272
0.037007564626413025 -0.14175843900058394 -0.08791106414061133 -0.05196222833281323 -0.06382705353499896 -0.06658024312581882 -0.04357751724836375 -0.09208458006198167
0.15136818362112017 -0.03196710860386855 -0.15897785511726686 0.01819147348165056 -0.09859868627982361 -0.024323623447839886 -0.0731495634903014 -0.021434058262596076
-0.07476838888715187 0.22354766857846015 0.0775324697595273 -0.03671884100659911 0.23534657736979708 0.16227708459795856 -0.017887033167001985 0.11362015062996399
0.03706391490189675 0.009403184997965528 -0.0695403886941351 -0.03781490420997345 -0.02243422281307927 0.059421203720122426 -0.10352875207077525 -0.3670184371635258
-0.0795508160732471 -0.015642823670493862 0.0911273342596729 0.2913888099409553 0.07985051641126743 -0.17704583654853726 -0.0851705602540014 -0.04833580571033919
-0.001392785415916676 -0.04452573063742899 0.23667471133280477 0.082215752439777 -0.05642473650651269 -0.0357358435994657 0.2751845457136439 -0.04309849852720559
-0.08836013927365095 0.07126555828284394 -0.025150622928256372 -0.10453960283795816 0.12751251462909594 -0.09672139266271777 0.14365536669186935 -0.10091060130584295
