L2minimization/data-revision-4d/sin-product-4d_model_randDict_relu_1_size_512_num_neurons_512.pt (torch, 26353 bytes, 3 tensors)

fc1.weight f8 [512, 4]
0	0x3fdd03091d085894	0.4533102782746792
1	0x3fdd7957ae9ea67b	0.4605311589499263
2	0x3fd2c0a167c00f9d	0.29300723201617435
3	0x3fd49a2fc9a57dc6	0.3219108075336091
4	0x3fe8d1e70832349a	0.775622859962499
5	0x3fd079150f3e10b3	0.25739027489204175
6	0x3f981d8a289cd2e2	0.023550184944911907
7	0x3fc9c0590fd28ac3	0.20118249199466307
8	0xbfe5cfb354ab7783	-0.6816040662485964
9	0xbfb56842c91d84bd	-0.08362214479486148
10	0x3fd8f81d951bcb95	0.39014377175697607
11	0x3fe3823d2cbdeb83	0.6096483110298866
12	0xbfdb0f812f597dce	-0.422821327438183
13	0x3fe93abd00b2523f	0.7884202016453584
14	0xbfc2c8d33d5ea20f	-0.14675369736257024
15	0xbfd8676021281e94	-0.3813095401569424
16	0x3fcced5db67d7865	0.22599383745813664
17	0xbfe9e771de24f888	-0.8095025385625982
18	0x3fc1d0a7234676ea	0.13918008062767423
19	0xbfd259a04e4bee21	-0.2867203487982995
20	0xbfc98c262d148dc2	-0.1995895118826479
21	0x3fb0c7b75669389f	0.06554742679256485
22	0xbfe9bf81f46cfe54	-0.8046273969593565
23	0x3fe17389c4440f29	0.5453537782018191
24	0x3fb4bf09b604ab34	0.08104000753216384
25	0x3fc642fb4df0d1c2	0.17391911798189424
26	0x3fe791abd06b1d30	0.7365321226761008
27	0xbfe465bedb413f4f	-0.6374201090165829
28	0x3fdbd5513c695e21	0.43489485644883713
29	0x3faf741a355358ef	0.061432665833921145
30	0xbfd1035a954c0b47	-0.2658297021845794
31	0xbfe9d9339b45d036	-0.8077638657255253
32	0xbfa1ea38a4abf1e9	-0.034990091420670506
33	0xbfc046425c6d5054	-0.1271441413215394
34	0x3fe1c709b238db27	0.5555466156864427
35	0x3fe6901ffc6d7cc4	0.7050933771351073
36	0xbfa7f0ab3707431b	-0.04675803229077343
37	0xbfdf6d6aaf4f917a	-0.491053267671553
38	0xbfe42c18533445d3	-0.6303826928216786
39	0xbfb2d00fcadcf916	-0.07348726942743541
40	0x3fa53e25f8abff42	0.041489779096080884
41	0x3fe19b0f7f1136c1	0.5501782876760545
42	0x3fb38369b44b4456	0.07622395183285965
43	0x3fe580475fe69fea	0.6719090340675369
44	0xbfe07700787459f9	-0.5145265915514862
45	0xbfa516ecbd0e3f88	-0.04119052703674614
46	0x3fea28c83da804f9	0.8174782947754969
47	0xbfd04f02cd9c0156	-0.2548224456695797
48	0x3fe3ea28e564a9c8	0.6223339538894885
49	0x3fe29b5aae708ea4	0.5814641387009556
50	0xbfc1786755b94a54	-0.13648692785007432
51	0xbfda1bd53c3b806e	-0.40794878847191895
52	0xbfe1c06fdd7fee62	-0.5547408414999604
53	0x3fd6444f7f698fb1	0.34791934435474575
54	0xbfe35cd68b1fa4e6	-0.6050827710397726
55	0x3fd5d0b327c371d9	0.34086302645826333
56	0x3fe544e686494979	0.6646607039240698
57	0xbfe15ba0cdb7c9b3	-0.542435075562301
58	0xbfcd4d4b68da932b	-0.22892134303870057
59	0x3fdc382c3e75f37a	0.4409285173385836
60	0xbfe03eec26fc7e83	-0.5076809655619886
61	0x3fd2e319d271c19f	0.29511113692481133
62	0xbfd1e3668f5f8831	-0.2795044326904899
63	0xbfe0db23832ea2c3	-0.5267503320838717
64	0x3fe1d80583625fa4	0.5576198164080677
65	0x3fcbbcf8b7e93572	0.21670445423152845
66	0x3fe0b6b03d111d12	0.5223008339607154
67	0xbf9928141fff2d6e	-0.024566950276307002
68	0x3fdbd1eb5f0788fb	0.4346874645253959
69	0x3fdecf8e933a5fe8	0.48141826989876657
70	0xbfe1d0e3b4125b2a	-0.5567492024445972
71	0x3fd7dde534974030	0.3729184163648851
72	0xbfe1a5a903fe0f35	-0.5514721944786972
73	0x3fe4f7085b9f7c86	0.6551553525458906
74	0xbfa0f902ff3d0f02	-0.03314980855659934
75	0x3fdd25bcf44b0825	0.45542835098979345
76	0xbfa4193643becd6c	-0.03925485207528365
77	0xbfe9cfdb1ee9bfcf	-0.8066230396052506
78	0x3fd82da29de04744	0.37778535287462867
79	0x3fdca50c99d91ada	0.4475738050863761
80	0x3fe116b01c99364e	0.5340195234836729
81	0x3fd8aa79719f9d18	0.3854049310306933
82	0x3fd8f37be6f0c251	0.38986108353404797
83	0xbfe48fee46151409	-0.6425696724696773
84	0xbfdf21084f69e666	-0.48639114146462814
85	0x3fdeee077cf50383	0.4832781524929077
86	0xbfe0687ef321308f	-0.5127558468461916
87	0x3fcafdbdf67260fa	0.21086859258208063
88	0x3fe79908e5339fbf	0.7374309994311189
89	0xbfe26d9c3b4b65ab	-0.5758801611038299
90	0x3fd4ad4b899e47ee	0.3230770915916982
91	0xbf8f88ee219345cc	-0.015397892379413934
92	0xbf9b42c1e6376690	-0.02662184684400032
93	0x3fdbefc08c371775	0.4365083092965201
94	0x3fe035126e2138d3	0.5064785147640357
95	0xbfe0e38f685bbe19	-0.5277783430337336
96	0x3fdc5ec36faa9d40	0.44328390030792164
97	0x3fe46fa7c532be13	0.6386298038032144
98	0xbfd0c105e4c2c14a	-0.2617811902992072
99	0x3fe0e17b1efeb260	0.5275245290154764
100	0xbfe1589b985aa00d	-0.5420663810409693
101	0x3fd7dea3190896a9	0.37296369023020276
102	0x3fe568e8fcf6e37d	0.6690564099036319
103	0xbfd1d41d582dc29c	-0.2785714493866551
104	0xbfe5868d229161e0	-0.6726747203020373
105	0x3fb3754b645fcc77	0.07600852203886342
106	0x3fe2c9b23e3eb26d	0.58712112576684
107	0x3fbfe008f84edd02	0.1245122534008836
108	0xbfd83b70fdbf44d0	-0.3786280134200526
109	0xbfe20745311f2a93	-0.563387485447793
110	0xbfd4f31626ed8026	-0.32733682443177015
111	0xbfd9665da3646bc8	-0.39687291103626565
112	0xbfe4ed34f2d66265	-0.6539559119147041
113	0x3fc2691cd16bef77	0.14383278108277484
114	0x3fe2cb4191edd611	0.5873115396668159
115	0x3fd6502128d6dced	0.34864071834768035
116	0xbfe2001f5c5e46f7	-0.562514954001215
117	0xbfd323bf44994a45	-0.29905683230495966
118	0xbfa8c9fc403973e7	-0.04841602596273003
119	0xbfdc08ed7edc9d7e	-0.4380449046024849
120	0xbfe390c6771e77cf	-0.6114227606337809
121	0xbfd6d3fc9669ed83	-0.3566886395344328
122	0x3f808decce16958e	0.008083200492204037
123	0x3fdaeb6a88e33889	0.4206186615746295
124	0x3fb539e31ffb56d1	0.08291453867726807
125	0xbfe2cfeaf20f5735	-0.5878805854542636
126	0x3fe718f2c36bb764	0.721795446091829
127	0xbfc8b15ee11f62a2	-0.19291292183222192
128	0x3fd744b5bde42040	0.36356872123770145
129	0xbfe559829b1df57c	-0.6671765355710444
130	0xbfcefa3a6f3e973c	-0.24201136047229876
131	0xbfe269f4db6e7577	-0.5754341398020831
132	0x3fe4fe7255091abc	0.6560603772021163
133	0xbfb14c16418b2ae2	-0.06756724453149901
134	0x3fa0da2f3732b254	0.032914615142861564
135	0xbfe775f34e5ceea2	-0.7331482439544355
136	0x3fe1def6dfe0bc42	0.5584673283209514
137	0xbfe32d8ef14a061b	-0.5993113243750402
138	0xbfced46146057674	-0.24085632246981314
139	0x3fd7d63acb9a8f15	0.3724505413358526
140	0x3fcdbb416377f3fd	0.23227708203185662
141	0xbfa23b236aa71dce	-0.035607439774647184
142	0xbfe23b09fd7e47ce	-0.569706912139958
143	0xbfe7dc104afc8f1a	-0.7456132378178808
144	0x3fd16142a4a6b472	0.2715612991258417
145	0x3fe142f92e46b4ee	0.5394254592735288
146	0x3fadf1c52b753779	0.058485185198704444
147	0x3fc8237cefb8c7e0	0.1885830088154412
148	0xbfc072f2fdf4a748	-0.128507970811649
149	0x3fdca01c51215d7a	0.44727237627872507
150	0xbfe1ee981102f3a6	-0.5603752453094912
151	0x3fe559baf0815206	0.6672033974996914
152	0xbfe43e4bd55fab5e	-0.6326045196013685
153	0x3fe280ce78276d6c	0.57822345225888
154	0x3fde784b7699dd6a	0.47609221059925366
155	0x3fa3eb2b5822820a	0.03890357447494715
156	0x3fa67227fe4d3b4e	0.043839692871748256
157	0xbfe7699a891718cf	-0.7316410710853009
158	0x3faa7cb57c85cb66	0.051732703638569785
159	0x3fe5aa50bb999716	0.6770404495298148
160	0x3fb06a996152825d	0.06412657381088978
161	0x3fdb43c3f2fb6750	0.4260110733863387
162	0xbfe8ca30c15321b3	-0.7746814514039698
163	0xbfd69bfe051d31af	-0.3532710123006621
164	0x3fd68d18b921c8c4	0.3523618514947311
165	0xbfd540eddc3f0008	-0.3320879603234066
166	0xbfd13008cfc38d27	-0.2685567883438175
167	0x3fea7bb07d3b115e	0.8275988050377625
168	0xbf68e56c5a391504	-0.0030390850313631885
169	0x3fe904ba3d0df9a1	0.7818270866844622
170	0xbfd70832a72a34a8	-0.35987535786336844
171	0xbfd7a4a47c89c0e5	-0.3694239822571162
172	0x3fdd38fa3e71071a	0.45660263154796754
173	0x3fdb983ab29c3754	0.4311663383713171
174	0x3fe357dcd855f95b	0.6044754243192004
175	0xbfdf56bf9a81ca03	-0.4896697052819549
176	0x3f66f82457e2199f	0.0028038701848942106
177	0xbfd37e03ec17193b	-0.304566364819397
178	0xbfdb880d468fe134	-0.43017894640753984
179	0xbfe2069cb33ad596	-0.5633071423132374
180	0xbf854f3cd02db183	-0.010405039885619477
181	0x3fc7859f8c9bdefc	0.18376535764377155
182	0xbfe2987ec51440f1	-0.5811151360703929
183	0xbfdac78643ddbe24	-0.4184280073886575
184	0x3faced320467f972	0.056497157132969
185	0x3fe2ec5a3d4686d1	0.5913516232287411
186	0xbfe607bd3d3a079f	-0.6884447284539766
187	0xbfda10ad183b4534	-0.40726783148155055
188	0x3fce8894900ac6ac	0.23854310067468043
189	0xbfe3698add9e5fc8	-0.6066335991372336
190	0xbfd4eaa1d84cd6b1	-0.3268208133989488
191	0xbfc443e8dfe480e5	-0.15832243854766329
192	0x3fdad06aaa38b143	0.4189707434004683
193	0xbfeac5ff4611995c	-0.8366695755510523
194	0x3fb9f3e6fb2bd454	0.10137790329084001
195	0xbfd429d0fad43140	-0.31505226607329817
196	0xbfe2701fbb93e78d	-0.576187006342694
197	0xbfd8f7fb25e781e6	-0.3901355619582588
198	0x3fe219f199c31a2c	0.5656669619718904
199	0x3fd71f98e1a6da1f	0.3613035396223569
200	0xbfdbf58745bdef01	-0.4368608647416608
201	0x3fddf0d03fe01c16	0.4678230880530817
202	0xbfd4f5108aab2291	-0.3274575571236165
203	0xbfe3e46050b9f488	-0.6216279579818016
204	0x3fb5dd53c3efc0e6	0.08540843518835892
205	0xbfe612357c33773c	-0.689722769336846
206	0xbfdeb7aedbf3b067	-0.4799611232726932
207	0x3fdc236bdd69eb1b	0.4396619474643317
208	0x3fc0314dd1c5e251	0.12650463812657844
209	0x3f73fc9683070509	0.004879558502979061
210	0xbfcd05291d1f2554	-0.22671998903232782
211	0xbfea34a2b74213d0	-0.8189252452144675
212	0x3fe8d1e966e8ae72	0.7756239900531468
213	0xbfd875f9377942a3	-0.3822005311713303
214	0x3fb0f11722a80b48	0.06617874713996941
215	0xbfdfde40455e2428	-0.49794012808030397
216	0xbfd39da9e1e16fff	-0.30649802263883424
217	0x3fa6450c2123d113	0.04349553970851807
218	0xbfe28346d3cf1bfb	-0.5785249840636192
219	0xbfd74cfa479b83c2	-0.3640733432094373
220	0x3fe3942cb1c6cc8b	0.6118377182196054
221	0x3fdccd1322ca2832	0.4500167693846634
222	0xbfe36dbd4274c049	-0.6071459100694564
223	0xbfcca878c47445f7	-0.2238913497208583
224	0x3fbc3f2ee13a9401	0.1103390979647685
225	0xbfe6ee56afa230a9	-0.7165940695135947
226	0x3fe336bdfc0394b8	0.6004323885105327
227	0xbfd1b69ad4377b2a	-0.27677031254090656
228	0x3fe59065d8efe7b7	0.6738766896298704
229	0xbfc632193f12de8c	-0.17340388850947297
230	0x3fc540f23877cb75	0.16604449994300877
231	0xbfe659e0245225c7	-0.6984711369888651
232	0xbfe71d2cfb3d5f3c	-0.7223114878679335
233	0x3fc2fc140172cd7d	0.14831781454777718
234	0x3fd4fe38f512ee4d	0.32801650937083054
235	0xbfdc56fcc1d5ce7c	-0.4428092854425143
236	0xbfdf0786c7748eac	-0.484834379940575
237	0xbfe6ff329682b7b8	-0.7186520518932786
238	0x3fc15733ab1a99fb	0.13547368864711004
239	0xbfcb2452fff3fbb7	-0.2120460271616744
240	0xbfec5a31c6cf437a	-0.8860100634575325
241	0xbf98c0c095c8f05c	-0.024172791616578912
242	0x3fb33c0fb058ff25	0.0751352124725569
243	0x3fb8ca823fbdf2e7	0.09684003883553381
244	0x3fc3649f6e112e49	0.15150826334353187
245	0xbfaa8a97bf987651	-0.05183862890065128
246	0xbfdcd8a32f8e18dc	-0.4507225002675008
247	0x3fe7380c1c53fe6e	0.7255917123110984
248	0x3fe62bf386228bcc	0.6928651447127492
249	0x3fe2a1aaad90540f	0.5822347059171323
250	0x3fce53faf708f76b	0.23693787634141059
251	0xbfc12c0833e54949	-0.13415625127761135
252	0xbfc779f8b0026aee	-0.18340977281771792
253	0xbfd9c5ea9ff23d41	-0.40270486469031047
254	0x3fe6ea1c570a3e3c	0.716077966690086
255	0xbfe08d686ee9b448	-0.5172617117183416

fc1.bias f8 [512]
0	0x3fe40f27ec50f4f6	0.626850091509964
1	0xbfe1441de08b913f	-0.5395650277755876
2	0x3fb13fc9ca928a36	0.06737958140960462
3	0x3fc723dc8b57eb50	0.18078190616491918
4	0x3fdc0c187c4726f4	0.43823825966374774
5	0x3fbae35482504698	0.10503128224834268
6	0xbfbeb8827757dcd1	-0.12000289357807793
7	0x3fd28af7d799c437	0.28973194174529077
8	0xbfdae97e4f0bb9d9	-0.420501305764359
9	0x3fe3095d003767c7	0.5948929790713401
10	0xbfdf3e30384a7d4d	-0.4881706762043521
11	0xbf9371300b32e515	-0.01898646419860935
12	0xbfd326de971a8e15	-0.29924740558837587
13	0x3fd3151fd47a3e20	0.29816432714230423
14	0xbfc0c568806f3361	-0.13102442046365595
15	0x3fe183ceac970af9	0.547339760866037
16	0xbfe36e38aea41374	-0.6072047625499253
17	0xbfd718e8b7f536a7	-0.3608953281844642
18	0xbfcedcd355b5a922	-0.24111406025924348
19	0x3fb1b044ffece94f	0.06909590957812849
20	0xbfa3260e721137af	-0.037399722503877235
21	0x3fde3000284f57fb	0.4716797250415536
22	0x3fc21354c3cd5fd7	0.1412149387422221
23	0xbfe0bd9bd1c8cd05	-0.5231455895758762
24	0xbfcc49a44c39bb5f	-0.2209973690218829
25	0x3fca2d52e27bfcf0	0.20450817164235202
26	0xbfdb445ee070c932	-0.42604801099800504
27	0x3fe0c49f610fa71d	0.5240017791486228
28	0xbfd2ad736b74bd3f	-0.29183660024405705
29	0x3fe43c8599fa7f33	0.6323879248993535
30	0x3fe2283178ca7d3f	0.567406402511473
31	0x3fd32087589860d7	0.29886039401891423
32	0x3fc7408a544322ea	0.1816571151196265
33	0x3fc4cf2ab1fc36a9	0.1625722283428577
34	0xbfd74550450b3bd2	-0.36360556356970364
35	0x3fd039bc957d5049	0.253523965822073
36	0xbfe8b5d9aff52b85	-0.7721985279725777
37	0xbfc3ef03693504c4	-0.15573160779061912
38	0xbfc8b7dcf2f11bc2	-0.19311105596918138
39	0xbfa53af4cc2307a5	-0.04146542541413049
40	0x3fd324b8e339ba4e	0.29911634626379147
41	0x3fb79fde80a50046	0.09228315964446762
42	0x3fd66c5079469723	0.35036098330816595
43	0xbf958b6aa4c8d507	-0.021039644534728754
44	0x3fe45c78f570a0f1	0.6362881463765274
45	0x3fe58bbfa8b32ef5	0.6733091635628329
46	0xbfb5dad4f52ffc28	-0.08537035928746717
47	0x3fe54dc649a262fa	0.6657439649744383
48	0x3fbf42f17ca454c4	0.12211522381797396
49	0xbfd05a36ab7c164f	-0.25550619837335814
50	0x3fd3e567ba69e998	0.3108767815062037
51	0x3fd38d1b4e7c46f3	0.3054874674281642
52	0x3fe0609c158e3b35	0.5117931767470966
53	0x3f645e6855f20c62	0.0024864232833024394
54	0x3fe526f244289fd2	0.661004193422736
55	0xbfb0f44168611eda	-0.06622704313587793
56	0x3fc8afd6cac677ea	0.19286618138443085
57	0xbf942f95dd1edae9	-0.01971277391541096
58	0x3fd9001bae610354	0.39063159970469497
59	0x3fdb8a099e0f6084	0.43030014453461995
60	0x3fdc93c14b7f7e44	0.44651825306752735
61	0xbfdfa9186a63c56b	-0.4946957625353067
62	0xbfd4ea6a41e343c8	-0.32680756029463653
63	0xbfc3c5d07c526af7	-0.15447431631476835
64	0xbfd720a6fac0c5ab	-0.3613679360160755
65	0xbfcbab75afe1bcb3	-0.21617003524759112
66	0xbfa6f333eaaf0089	-0.04482424011030257
67	0xbfd77042f9638e88	-0.3662269053877272
68	0xbfd30a9131607bb8	-0.29751996824228
69	0x3fbd5ff9fe57a06a	0.114745735736166
70	0xbfe54cd8e30a93a5	-0.6656307634735766
71	0xbfcd44ea84c79559	-0.22866565211658488
72	0xbfcde47167ff60a4	-0.2335340268898608
73	0x3fb4ff75fc15dcf9	0.08202302364758286
74	0xbfe2e9118568c2c5	-0.5909507375382296
75	0xbfe3ae6191b262af	-0.6150367589608176
76	0xbfda1f9f32f82387	-0.4081800458666795
77	0xbfd1f08135cf2080	-0.280304243610324
78	0x3fdb8b1271a7f6a8	0.4303632841036724
79	0xbfc991ebcfc18594	-0.19976565975507
80	0xbfd00546feebde28	-0.2503221024958031
81	0x3fe6bae97c244732	0.7103164124148178
82	0x3fcdf249a3a8e3d9	0.2339565323943862
83	0x3fe442a98ff03a37	0.6331374942108771
84	0x3fd71f155e79ea0a	0.3612721846217545
85	0xbfcd2405a460c184	-0.22766180540339687
86	0xbfd9c42eedaf6454	-0.4025990792411609
87	0x3fc4179dadb148fc	0.1569707010372169
88	0x3fe3e06690f5c26e	0.6211426573991738
89	0xbfd6f841fafcd269	-0.358902449708046
90	0xbfdbd458b2a2eac5	-0.43483560032806806
91	0x3fe517a537ac676d	0.659136399018491
92	0x3fc3620369c11c62	0.15142862952982045
93	0x3fb41cb50929d850	0.07856303666798792
94	0xbfd076b0b7ec82fb	-0.2572442813998774
95	0x3fe10e192d518c62	0.5329709897163293
96	0x3fd3cddd3b6b543f	0.3094399528757243
97	0x3fd2122837d7b7ba	0.282358221563182
98	0xbfdfbf3cd4ee1d27	-0.49604721826513515
99	0xbfdaa38f654a0e8c	-0.4162329186585587
100	0x3fd3be4849c93d7c	0.30848891454385075
101	0xbfd15ec0a14a9423	-0.2714082312689376
102	0xbfe1de203e32656d	-0.5583649840147423
103	0x3fe8b290aaf94891	0.7717974986392325
104	0xbf9c06b45486b932	-0.02736932531268472
105	0xbfac9c16735a5c1e	-0.055878354626820434
106	0xbf646a9d63b75dc9	-0.0024922441495893494
107	0xbfda97d505f88873	-0.4155170973118693
108	0x3fd423dd7113f754	0.3146890262868187
109	0xbfdfeccc936bfd14	-0.4988280715624154
110	0x3fccfa6eedbdd75b	0.22639261826014487
111	0xbfd1c65061d4051b	-0.2777291255334419
112	0xbfe8eff512dc29d9	-0.7792916649207725
113	0x3fe60b64e50c8daf	0.6888908837903979
114	0xbfe3387466209fe9	-0.6006414408375323
115	0x3f9b5fddba90851b	0.026732887756343176
116	0xbfa61ed68dcc0026	-0.04320402604025757
117	0x3fe41c4e6f2815f1	0.6284553690936133
118	0xbfbca0a266438d8d	-0.1118260860126183
119	0xbfd618356ef41b96	-0.34522758326823444
120	0xbfe24b7d3a4a6e84	-0.571714986657256
121	0x3fe67b4ee08ed618	0.7025522600076242
122	0xbf6ad990dd5807f8	-0.0032775716197201953
123	0x3fdba87735b3cdfd	0.432157328075135
124	0x3fe37e2311ad8152	0.6091475816029208
125	0x3fcb90ebd91103b9	0.21536014651249305
126	0xbfe3eff4734e333e	-0.6230413677272748
127	0xbfe6bffbfcf25878	-0.7109355869640828
128	0xbfdb1e37e500d9c9	-0.4237193809853151
129	0xbfd4c4e7d5e33899	-0.32451816451510634
130	0x3fe97e9dc9fa0869	0.7967060990197413
131	0xbfc82d06f2e234c2	-0.1888741193728603
132	0xbfd85a47717f5d45	-0.3805101974844159
133	0x3fe28150d690b146	0.5782856169439945
134	0xbfdef31c1bcc1e2b	-0.48358824457725075
135	0x3fc7cca6037733fc	0.1859328762933784
136	0xbfcf46a43da947bb	-0.24434330950549374
137	0xbfe27da451dde552	-0.5778371428452067
138	0xbf881b75dc94457a	-0.011771126550714984
139	0x3fc69d7bceaea2c9	0.17668101875212575
140	0xbfdb3d99be125a2e	-0.42563479959190686
141	0x3fd0d82548f27629	0.26319248317472216
142	0xbfd4c814bf262250	-0.3247119776429246
143	0xbfe8a36f93db293a	-0.7699506652655039
144	0x3fa0f23b9a8f289d	0.03309808980664395
145	0xbfdd69b2e6f75579	-0.45957634501731764
146	0xbfe1c596c864aed0	-0.5553697503978245
147	0xbfcb18a4f0741341	-0.21168958416833486
148	0xbfd50759e067243e	-0.3285736743387736
149	0xbfd00ddf5b6a974e	-0.25084670951251986
150	0x3fc47312ae16eeb2	0.1597617483183647
151	0xbfd29e3cb1a40c85	-0.29090802524314824
152	0x3fd711d243e38740	0.36046272878421703
153	0x3fd5fc698a8623c2	0.34353102233631827
154	0x3fb2eb969632acc9	0.07390729109708895
155	0xbf8e4ead17b920f1	-0.014798500334237437
156	0x3fcc6e721def6f52	0.22212053739246557
157	0x3fd1da0fccd550c3	0.2789344311070289
158	0xbfe3d0f2ef6d4719	-0.6192564655595759
159	0x3fe3c296e27ab319	0.6175035880492913
160	0xbfdcbe927ee57c3d	-0.4491316069815559
161	0x3fc7db80bf42fcfc	0.18638619746159424
162	0xbfa4b5577e7b758b	-0.04044602793667725
163	0xbfd44aec72e39ff9	-0.317072975346036
164	0x3fe2f56bd5864d07	0.5924586458590121
165	0x3fe02a1254ca60e0	0.505135694128537
166	0x3fe25ca6c858c61c	0.5738099968932064
167	0xbfcfc843a21404cc	-0.24829907812094232
168	0xbfd7217b401d1559	-0.361418545351929
169	0xbfe5c682b3843f03	-0.6804822450812654
170	0x3fe28aff41a0db1a	0.579467418842657
171	0x3fd6a70c195acfdb	0.3539457557301355
172	0x3fdf2b45d335811e	0.487016159304419
173	0xbfdf75e95ae0a680	-0.49157174944648574
174	0xbfd0c88492a88e20	-0.26223863908873746
175	0xbfcc1f522fadb913	-0.21970584228569887
176	0xbf82f675b667257c	-0.009259147290225249
177	0x3fc4bc0007301cab	0.1619873080346442
178	0xbfe679c9eafa0bf7	-0.7023667897595932
179	0x3fc3245f5f454663	0.14954750205884002
180	0x3fcd3315f5af5553	0.22812151428540037
181	0x3fddd5d4f52f8316	0.46617626136689816
182	0x3fbd9cd90e30f2d5	0.11567455860581373
183	0x3fb6b30e6030392d	0.08866968010281502
184	0xbfe9cc57f10cc22e	-0.806194277573075
185	0x3fe30c8752b3a911	0.5952793708104612
186	0xbfc1522260d011fb	-0.13531903960405586
187	0xbfdaef3ae6d01563	-0.42085144558253357
188	0x3fa98008c870f698	0.04980494925301321
189	0x3fb3d6ca61fb2cb9	0.07749619381063412
190	0xbfcfd7fbfb41ecc0	-0.24877881782945188
191	0x3fdc4683b5eb41c6	0.441803863196608
192	0x3fe00b75b290c085	0.501398895989056
193	0xbfd9160bd5e8e09b	-0.39197059526078143
194	0xbfd86588f4851606	-0.38119720343488017
195	0x3fdec2a061430004	0.4806290578671908
196	0xbfd98a6ed4b5867a	-0.3990742757069722
197	0x3f99c5b4d5a5af5f	0.02516825250624721
198	0xbfcc7b8bf4a2db57	-0.22252034611821145
199	0xbfcb970a107f10fd	-0.21554685407148347
200	0x3fe36123870548ad	0.6056077611085776
201	0x3fe31f13f7fb5c3d	0.5975437014957447
202	0x3fb56f33e1f2bb31	0.08372806803047862
203	0xbfe0976488feea35	-0.5184805560778104
204	0xbfbe208a94e49e33	-0.1176840413578411
205	0xbfc15984ffbc1d0f	-0.13554441916515045
206	0xbfe08c1899eb98c3	-0.5171015745406965
207	0xbf9ddb4c27f82372	-0.029156866015941536
208	0x3fe730d76ff745d3	0.7247121035417713
209	0xbfe69164ed0d8fa5	-0.7052483205738908
210	0x3fcf988860ecad56	0.2468424294723756
211	0x3fc2271f2cae2ca2	0.141818901840769
212	0xbfdc0c2d0cfa9f6d	-0.43824316279869074
213	0xbfd9f4518946df4d	-0.40553701787893176
214	0xbfb2b8954df12718	-0.0731290164268582
215	0xbfe16e0f2ff0512f	-0.5446849762252323
216	0xbfe28d4db7ae4aec	-0.57974897265589
217	0xbfe6acbffa211990	-0.7085876355493372
218	0xbfe7d80bed4f3bee	-0.7451228747321446
219	0xbfd3357e70c01d0f	-0.30014000902925003
220	0xbfd5f51c5b447e1d	-0.34308537400099387
221	0x3fb163e1a0ecd418	0.0679303186305592
222	0x3fc62a82b16c8a9e	0.17317231810837524
223	0x3fe1eb0acdecf482	0.559941675375413
224	0x3fb7e99e22e9cc8d	0.09340847351431787
225	0xbfd8f5411e381202	-0.38996913863255156
226	0x3f9ef2d36d9a8ee4	0.03022318226307065
227	0xbfc3b7db8657db39	-0.15404838618970887
228	0xbfc7acb9f406f313	-0.18495869079006208
229	0xbfdb0b119a620c0a	-0.4225505836149642
230	0xbfe2c24abcd99f74	-0.5862172783354098
231	0xbfe0895ddef22f59	-0.5167683939375635
232	0x3fc1fc72eac8e666	0.14051662887668498
233	0xbfe5283955499eda	-0.661160151078515
234	0xbfe60cbb9e3e7321	-0.6890543070508991
235	0xbfd0a930cb5f113a	-0.2603265749023823
236	0xbfe82448f3808e7a	-0.7544293170835339
237	0xbfc8cd948e62a400	-0.19377381279380756
238	0xbfbe1cbf3fbdf33e	-0.11762614542199132
239	0x3fcb80448840a271	0.21485191967919406
240	0xbfc7567f706d9fb5	-0.18232720365199176
241	0x3fe2dabb12f933d0	0.5892005320143827
242	0x3fd99e5e07e34c5f	0.40029097338010006
243	0xbf57524a4c102500	-0.0014234281118226666
244	0x3fc9cf9f3e98bc3e	0.20164862209773732
245	0xbfc448d2ed49ca7d	-0.15847241007175575
246	0xbfe86d9be184e474	-0.7633799938840995
247	0xbfb1fbb5f0fd062d	-0.07024705060487042
248	0xbfe70000a552f75c	-0.7187503079401085
249	0x3fe3ea16b253d5a7	0.6223252757032939
250	0x3fba09e5a8bd60d9	0.10171351785300277
251	0xbfdcb7714655c319	-0.4486964403977694
252	0xbfcddfda1ad64375	-0.23339392004393358
253	0x3fca7a932227fdc3	0.2068656842020414
254	0x3fd292863c2d1216	0.29019313694542015
255	0xbfa548d3818c8f6a	-0.0415712447777697

fc2.weight f8 [1, 512]
0	0xbffe1dd9225aed8d	-1.8822871534347059
1	0x3fa14f8ad54b1b16	0.03380998471907597
2	0xbf9354ca1d09c665	-0.018878133795118397
3	0xbf85b039c696d548	-0.010590030072175197
4	0x3fa68d7b45ae56b3	0.04404816842649719
5	0x3f9b64b012b5b94a	0.02675128091998972
6	0xbf778c1433b7b037	-0.005748824037691994
7	0x3f95188debb66e25	0.020601480018383484
8	0x3f829902ca8566b9	0.009080907636121226
9	0x3f4439f648683cb8	0.000617261176388959
10	0xbf838284d602851e	-0.009526288777410626
11	0x3f9883bfe35fc225	0.02394008469849686
12	0xbfbd560921f13e30	-0.11459405020399838
13	0xbfb4a94ce4869215	-0.08070831851234346
14	0xbfa1e2894c70eb8f	-0.03493145998114421
15	0xbfbb90d4683a38f5	-0.10767867607703237
16	0xbfa5e75949676573	-0.042780676088748935
17	0xbfbc6597c107586a	-0.11092518293966838
18	0xbfb1babe2034af7e	-0.06925571714663012
19	0xbf9304e897d2f0ef	-0.018573412195778734
20	0x3f9ea6f1a99cf5dd	0.029933715798724825
21	0x3fc9504fe7c0f595	0.1977634317026228
22	0x3f915948ca69cf9f	0.016942155222252727
23	0x3fad02a1572fbfa5	0.05666069211281347
24	0x3fce1bbc4632637d	0.23522141864375704
25	0x3fb49deb0ea2337a	0.08053464038148475
26	0xbf9056ab2ea84baa	-0.01595561477922628
27	0x3fc06877651207c3	0.12818806109504352
28	0xbfb05a1e2b9a6284	-0.06387508930709812
29	0xbfa509312e098e20	-0.04108575522402824
30	0x3fbd84be9b6957fc	0.11530677122331662
31	0xbf74f38d04758fc0	-0.005115080689709062
32	0x3fc77cc2555720a4	0.18349484602936628
33	0x3f79f486903c9470	0.006336713446022477
34	0x3fb797503f9c84e7	0.09215261033070342
35	0xbf66a6ce0243f3bd	-0.0027650855646456905
36	0x3fbef1931199eb66	0.12087363414495442
37	0xbfaa0a6fe3c496c4	-0.05086087851877388
38	0xbfb12195ffef50ff	-0.06691873072060515
39	0xbf78ebe3e3453fd5	-0.006084337412474346
40	0x3f92637aa4351298	0.017957607529086234
41	0x3f97fca0e7a2a199	0.02342463887967625
42	0x3fb818450f833bcb	0.09412032726980539
43	0x3fd09a2824584fc7	0.2594089846545526
44	0xbfa8284af5f64c4f	-0.04718240978686394
45	0x3fa0698ec7181032	0.03205534153315205
46	0xbf8b89dcc33e913b	-0.013446545322786654
47	0x3fa043381aae9716	0.03176284146984025
48	0xbfa82082128a2a84	-0.04712301708521685
49	0x3fb87f28eaf6e47f	0.09569030510364661
50	0xbfbaad85d1eed02b	-0.10421024680437145
51	0xbfac060f5e377a20	-0.05473373437029161
52	0x3fa24c7af82eb422	0.03573974875994447
53	0xbf9734f9486b63b3	-0.022663016362318888
54	0xbf9ef015e6678ad9	-0.03021272867943989
55	0xbfad4b1cc59a5d11	-0.05721368705888542
56	0xbf8b38e941f3b4fd	-0.01329214317817184
57	0x3f84b0266ba8013f	0.010101604614647484
58	0xbf7afd49f88151fc	-0.006589211414468551
59	0xbf9961bbf1ae4328	-0.02478688871957782
60	0x3facab8b04eac940	0.0559962695600853
61	0x3faebede4c9b342b	0.060049959994650536
62	0x3fa146ad74670c39	0.03374235196999859
63	0x3fa17a24166fb590	0.03413498662835501
64	0x3fc819e18c5fb996	0.1882898269099768
65	0xbfbd11caf0600c1c	-0.11355274551901612
66	0x3fb4867dc87c09cc	0.0801771749939128
67	0xbfb37cb27aedcad5	-0.0761214780921294
68	0xbf82d31fec4d48ea	-0.009191750906812197
69	0x3fad2e08c889f79d	0.056991838912821204
70	0xbfa6cd9d11f7d64b	-0.044537456935284846
71	0x3fa5091827ae4793	0.041085009425969286
72	0xbf68332fe2ecb823	-0.0029540953904847607
73	0xbfb6481ba56672b1	-0.08703778064814106
74	0x3f640ebdfbbd86c0	0.002448435841800073
75	0xbf860c00c8ba7cb0	-0.010765081525560966
76	0x3fb3a051785cfe77	0.0766650122504816
77	0xbfb09ed9ed4f0c16	-0.06492387813254683
78	0xbfb9d69069e6eaf9	-0.10093023858545881
79	0xbf83a9459ded3b66	-0.00960020435527804
80	0x3fb00823b3368cff	0.06262419820136599
81	0x3fb1bab2c0401bc0	0.06925503915418485
82	0xbfb8c3185a0a3411	-0.09672691534269996
83	0xbf969b4e4e83ee4f	-0.02207681993694016
84	0x3fbb6a12286826c5	0.10708726393218189
85	0x3f9973aa4a2820de	0.024855290199440876
86	0xbfc1bd40ba508cf5	-0.1385880384196764
87	0xbfb99b4bfd0b6b93	-0.10002589156958512
88	0xbfaed7cc00d29bdc	-0.060240149593759645
89	0xbfc076275de23647	-0.12860576709901947
90	0x3fad3dc70b982ba0	0.05711195007832903
91	0xbfc16d36d8b28df7	-0.13614545422488764
92	0x3fac2f3d34b2436f	0.05504790561929595
93	0xbfa21b01b5e126f3	-0.03536229462822673
94	0x3fb44e915e23aaed	0.0793238501388875
95	0xbf9285c445250a54	-0.01808840438867272
96	0x3fbe8e584a51e766	0.11935951055957403
97	0xbf77fdd0a4796869	-0.005857291230848196
98	0x3fbbe7e84eeaaddb	0.10900737692525501
99	0xbf99605c7f6a9efa	-0.02478165176094558
100	0x3fb167019d8eac75	0.06797800156225427
101	0xbf9d4ce722f5b6a6	-0.028613673695352525
102	0xbfb4d16a45f3d4b9	-0.08132042129348606
103	0x3fd5b51e6c800a76	0.33917961688727105
104	0xbf7bb74fe7b4aa9c	-0.006766616944598038
105	0xbfb54e6c3109318f	-0.0832278842655738
106	0xbfbb4560351555ca	-0.10652734085063922
107	0x3fc1bbc3e6dafa09	0.13854264042124978
108	0xbfb67ffee508d45d	-0.08789055911695827
109	0xbfb0c2b85942fa7f	-0.06547119311560755
110	0xbfaea749205ded23	-0.05987003822425609
111	0xbfaeeacee892e569	-0.06038519467387966
112	0x3fa22665d26ac15f	0.035449201522512956
113	0xbfa9d0b3984f4d31	-0.050420391409398475
114	0xbfa76781fac33933	-0.04571157632891456
115	0xbfadb9ff412d2501	-0.058059670168015394
116	0xbfaf63cb4eacbcd5	-0.06130824408898553
117	0x3fbb8b4c1eef389e	0.10759425883518012
118	0x3f85994acb0ba91d	0.010546287843187724
119	0xbfb24c66efc62b58	-0.07147830346927486
120	0xbfb24b326b363a38	-0.07145991437412469
121	0xbfbf3879cbb06a1b	-0.12195550177458651
122	0x3fb6e0a582ebb962	0.08936533399876148
123	0x3f9b4417bac7c96f	0.02662694051282116
124	0xbfb2cc58b999e969	-0.07343058139114124
125	0x3fc3046f592afb5c	0.14857284406567828
126	0xbfc381c69a52af23	-0.15239794287969585
127	0x3fbe818f525dcf6e	0.1191644264306981
128	0x3fd015f81aad4deb	0.25134089093373174
129	0xbf5844760521ea9d	-0.0014811661281145868
130	0x3fd6b1d376d872bd	0.3546036396599382
131	0x3fa193900a5a4a1c	0.0343289387357297
132	0xbfc891ea0eca309a	-0.1919529506889191
133	0xbfa51b1cf8f1b2c0	-0.041222482098282054
134	0x3fdcbf63ddf34025	0.44918152499031044
135	0x3fb13399ea49a734	0.06719362230219589
136	0xbfb64a114ad56882	-0.08706768109314747
137	0x3fd784165e781ed5	0.36743697381505785
138	0xbf8d6a7ac87bd926	-0.014363250010756955
139	0x3fc0be89598c3ded	0.13081471321537155
140	0x3fb1c28b70dae78f	0.06937476639987337
141	0x3fca167015b42c17	0.2038097482657981
142	0x3f982b47fc99d871	0.0236026046681776
143	0x3fc49f9cb60c9de1	0.16112097634434888
144	0xbfc907ead51384af	-0.19555411724198765
145	0xbf99147e478d4411	-0.024492238156486993
146	0xbfc3e38bac5c4fe1	-0.15538164058727857
147	0xbfbbba644a52ea0f	-0.10831286253498028
148	0xbfb5466575674599	-0.08310541263860784
149	0xbfb24bd7c7c51941	-0.07146977069087247
150	0xbfba3ad1d745c262	-0.10246001725841716
151	0xbf9c445a34d44614	-0.027604493593633775
152	0x3fca4a52ed3375d0	0.20539318639832382
153	0xbfad95e2561abb6d	-0.05778415013388991
154	0xbfb19c8564e33a9d	-0.06879457200123303
155	0x3fc36cb7d4577ad4	0.15175531261680553
156	0x3f31b7c293d198c3	0.00027035236764162365
157	0xbfb1de7168bc5c2f	-0.06980046088243406
158	0x3fda010c6cc439bb	0.4063139974759015
159	0x3fce2e8bcdb15fc5	0.23579547446820306
160	0x3fb9f9d61521fed6	0.10146844879090663
161	0xbfb6683b7177f0d2	-0.08752795715548992
162	0x3fbb7f85c008d3a7	0.1074145883402041
163	0x3f8ec51a6da2165b	0.015024382086504298
164	0x3fb47d793c554001	0.08003957484220338
165	0x3fa500a5eebbf297	0.041020570175509245
166	0x3f99c23ed2a889b7	0.025155049903455153
167	0x3fb1fbab934cf8dc	0.07024643274505443
168	0xbfb15b7e32275a5c	-0.0678023216672527
169	0xbfc079e39324638a	-0.12871975598025315
170	0xbf8718c5b43bab06	-0.01127771812703805
171	0xbfa6d04bec85e6cd	-0.04455792677158641
172	0xbfc459dc434889b8	-0.1589923218280782
173	0x3fb9c794eb8da500	0.10070162535489047
174	0x3fc5cec9d3f326bd	0.170373180857771
175	0xbf98bfa42b950b2b	-0.024168553504988182
176	0xbf97bc3b56f7656f	-0.023178984816558165
177	0xbf7af453e0181c72	-0.006580665243297467
178	0xbfaf1f1a6d3849ec	-0.06078417380571807
179	0x3fbee2aee64c71b1	0.12064641115688947
180	0xbfa7390d949560d8	-0.045357155215869305
181	0xbfa25eb3ef0bdb39	-0.03587877553029845
182	0xbf9717e09ff84bb4	-0.02255202270869079
183	0x3f956328ba96cf85	0.020886074436659924
184	0x3fd0dd42cc1ba2b5	0.26350469524781356
185	0xbfb004843903c398	-0.06256891624413041
186	0x3f8ea7cd4f91a43f	0.014968494406462194
187	0x3fa31b9ea02bfedc	0.037320096065739355
188	0xbf8c5367f698021b	-0.013830959523148547
189	0x3fc438216ce081e6	0.15796296898135082
190	0x3fb40ae6b2f7a5c7	0.07829133862801206
191	0x3fc4716236fc66ac	0.15971019444332535
192	0x3fced85f39f95ceb	0.24097814875378928
193	0x3fab826b12752880	0.05372938728631116
194	0xbfaf0624a74a7a65	-0.06059374372602092
195	0xbfaa7a4c0e4e5094	-0.0517143027747419
196	0xbfafafbd47a15653	-0.06188766002075554
197	0x3fc07b61209c1c3c	0.12876524059558558
198	0x3fa672f8a7ff501c	0.04384591150997627
199	0x3fa7347ad61bc9d9	0.0453222643244719
200	0xbfc67cc0301889af	-0.1756820902674696
201	0xbfa3c2b4ffc3682d	-0.03859487173186014
202	0x3fc1ff357d1f9fee	0.14060085877940715
203	0x3fc84e7d8757332c	0.1898953352778333
204	0xbf968d858dbc2025	-0.022024237418946897
205	0xbfa05e1874a4ae10	-0.0319678919207399
206	0x3fc6c66dfaea4109	0.17793059112273849
207	0x3f900f0595f3e0d6	0.015682303693183318
208	0xbfba5c0e4ab1ca83	-0.10296716044994451
209	0xbfc1e8027fdec06e	-0.13989287608774553
210	0xbfb7b735cc579a10	-0.09263931502173528
211	0x3f9a65588c81c12c	0.025777228904588487
212	0x3f9898989414c5c2	0.024019607580333398
213	0xbf84f68e7d9fc54e	-0.010235894402259273
214	0x3fbc543323b532d8	0.11065978643200525
215	0xbf9f45a936270a87	-0.030539173059660498
216	0x3fccb68b8e32fd7e	0.224320835526651
217	0x3fd49fe21ba177ca	0.32225849817575336
218	0x3fc857639691026e	0.19016690112950435
219	0x3fa1714afd04c427	0.03406748140913179
220	0xbfa3e4ac3fc0db8f	-0.038854010374442464
221	0xbfb0005cdf8622df	-0.06250553567054905
222	0xbfb9001e1b14c9a1	-0.09765804444467686
223	0xbf81b9d916e12548	-0.00865525818894021
224	0xbfc4e0c5e90f769e	-0.1631095302572491
225	0xbfc7dc33317cd306	-0.18640746990572427
226	0xbfac93f708e59f8d	-0.05581638320546665
227	0x3fc9aa6080da8a0e	0.20051199237521228
228	0xbfba8ce2529b65de	-0.1037122203519156
229	0xbf90ab8a463724dd	-0.016279373679741183
230	0xbfba6a3bf052b273	-0.10318350426923377
231	0xbfba80b5a064c95d	-0.10352645078527219
232	0x3fd006036882124d	0.2503670235239824
233	0x3fd2c05519c5e392	0.2929890395822038
234	0xbfbaec0a69e8328b	-0.10516419492359767
235	0xbfb2ad6e4f122c97	-0.07295884542888796
236	0x3fd28ca5b8171bba	0.289834432387973
237	0xbfadcc738edebed3	-0.05820046538371817
238	0xbf99fc10c3e1fd9b	-0.025375616031394804
239	0x3f981f0664ccd4d7	0.0235558508895409
240	0xbfa52b443923b40d	-0.04134572217467545
241	0x3f9d2e4919fcedca	0.02849687787168679
242	0xbfb34dcbba249b18	-0.07540581984049444
243	0xbf9d34621de6036a	-0.02852013881193064
244	0xbfb8ac9d3cefdc52	-0.09638388383597032
245	0x3fa10e8eaf00afaf	0.03331418882620995
246	0x3fe29979d50da279	0.5812348519512646
247	0xbfa6db2a9e00ccea	-0.04464085749386888
248	0xbfb46fa35657760d	-0.07982846124601668
249	0x3fcc7b8017ed111f	0.22251893203986925
250	0x3fc1093f1ca9a442	0.13309468173545907
251	0x3f8d9156639b6de6	0.014437365450638628
252	0xbfa87b742ba368d1	-0.04781687767690957
253	0xbfab1c0a94896e34	-0.052948313362062654
254	0x3fad3f9f7b2127df	0.057126029758890466
255	0xbfb2837cc9c17385	-0.07231883931804191
