L2minimization/plot-figure-data/1d/data2/model_OGA_1D_sine1d_neuron_512_N_512_randomized.pt (torch, 14699 bytes, 3 tensors)

weight f8 [512, 1]
1.0 1.0 1.0 1.0 1.0 1.0 1.0 1.0
1.0 1.0 1.0 1.0 1.0 1.0 1.0 1.0
1.0 1.0 1.0 1.0 1.0 1.0 1.0 1.0
1.0 1.0 1.0 1.0 1.0 1.0 1.0 1.0
1.0 1.0 1.0 1.0 1.0 1.0 1.0 1.0
1.0 1.0 1.0 1.0 1.0 1.0 1.0 1.0
1.0 1.0 1.0 1.0 1.0 1.0 1.0 1.0
1.0 1.0 1.0 1.0 1.0 1.0 1.0 1.0
1.0 1.0 1.0 1.0 1.0 1.0 1.0 1.0
1.0 1.0 1.0 1.0 1.0 1.0 1.0 1.0
1.0 1.0 1.0 1.0 1.0 1.0 1.0 1.0
1.0 1.0 1.0 1.0 1.0 1.0 1.0 1.0
1.0 1.0 1.0 1.0 1.0 1.0 1.0 1.0
1.0 1.0 1.0 1.0 1.0 1.0 1.0 1.0
1.0 1.0 1.0 1.0 1.0 1.0 1.0 1.0
1.0 1.0 1.0 1.0 1.0 1.0 1.0 1.0
1.0 1.0 1.0 1.0 1.0 1.0 1.0 1.0
1.0 1.0 1.0 1.0 1.0 1.0 1.0 1.0
1.0 1.0 1.0 1.0 1.0 1.0 1.0 1.0
1.0 1.0 1.0 1.0 1.0 1.0 1.0 1.0
1.0 1.0 1.0 1.0 1.0 1.0 1.0 1.0
1.0 1.0 1.0 1.0 1.0 1.0 1.0 1.0
1.0 1.0 1.0 1.0 1.0 1.0 1.0 1.0
1.0 1.0 1.0 1.0 1.0 1.0 1.0 1.0
1.0 1.0 1.0 1.0 1.0 1.0 1.0 1.0
1.0 1.0 1.0 1.0 1.0 1.0 1.0 1.0
1.0 1.0 1.0 1.0 1.0 1.0 1.0 1.0
1.0 1.0 1.0 1.0 1.0 1.0 1.0 1.0
1.0 1.0 1.0 1.0 1.0 1.0 1.0 1.0
1.0 1.0 1.0 1.0 1.0 1.0 1.0 1.0
1.0 1.0 1.0 1.0 1.0 1.0 1.0 1.0
1.0 1.0 1.0 1.0 1.0 1.0 1.0 1.0
00000000: 0000 0000 0000 f03f 0000 0000 0000 f03f
00000010: 0000 0000 0000 f03f 0000 0000 0000 f03f
00000020: 0000 0000 0000 f03f 0000 0000 0000 f03f
00000030: 0000 0000 0000 f03f 0000 0000 0000 f03f
00000040: 0000 0000 0000 f03f 0000 0000 0000 f03f
00000050: 0000 0000 0000 f03f 0000 0000 0000 f03f
00000060: 0000 0000 0000 f03f 0000 0000 0000 f03f
00000070: 0000 0000 0000 f03f 0000 0000 0000 f03f
00000080: 0000 0000 0000 f03f 0000 0000 0000 f03f
00000090: 0000 0000 0000 f03f 0000 0000 0000 f03f
000000a0: 0000 0000 0000 f03f 0000 0000 0000 f03f
000000b0: 0000 0000 0000 f03f 0000 0000 0000 f03f
000000c0: 0000 0000 0000 f03f 0000 0000 0000 f03f
000000d0: 0000 0000 0000 f03f 0000 0000 0000 f03f
000000e0: 0000 0000 0000 f03f 0000 0000 0000 f03f
000000f0: 0000 0000 0000 f03f 0000 0000 0000 f03f
00000100: 0000 0000 0000 f03f 0000 0000 0000 f03f
00000110: 0000 0000 0000 f03f 0000 0000 0000 f03f
00000120: 0000 0000 0000 f03f 0000 0000 0000 f03f
00000130: 0000 0000 0000 f03f 0000 0000 0000 f03f
00000140: 0000 0000 0000 f03f 0000 0000 0000 f03f
00000150: 0000 0000 0000 f03f 0000 0000 0000 f03f
00000160: 0000 0000 0000 f03f 0000 0000 0000 f03f
00000170: 0000 0000 0000 f03f 0000 0000 0000 f03f
00000180: 0000 0000 0000 f03f 0000 0000 0000 f03f
00000190: 0000 0000 0000 f03f 0000 0000 0000 f03f
000001a0: 0000 0000 0000 f03f 0000 0000 0000 f03f
000001b0: 0000 0000 0000 f03f 0000 0000 0000 f03f
000001c0: 0000 0000 0000 f03f 0000 0000 0000 f03f
000001d0: 0000 0000 0000 f03f 0000 0000 0000 f03f
000001e0: 0000 0000 0000 f03f 0000 0000 0000 f03f
000001f0: 0000 0000 0000 f03f 0000 0000 0000 f03f
00000200: 0000 0000 0000 f03f 0000 0000 0000 f03f
00000210: 0000 0000 0000 f03f 0000 0000 0000 f03f
00000220: 0000 0000 0000 f03f 0000 0000 0000 f03f
00000230: 0000 0000 0000 f03f 0000 0000 0000 f03f
00000240: 0000 0000 0000 f03f 0000 0000 0000 f03f
00000250: 0000 0000 0000 f03f 0000 0000 0000 f03f
00000260: 0000 0000 0000 f03f 0000 0000 0000 f03f
00000270: 0000 0000 0000 f03f 0000 0000 0000 f03f
00000280: 0000 0000 0000 f03f 0000 0000 0000 f03f
00000290: 0000 0000 0000 f03f 0000 0000 0000 f03f
000002a0: 0000 0000 0000 f03f 0000 0000 0000 f03f
000002b0: 0000 0000 0000 f03f 0000 0000 0000 f03f
000002c0: 0000 0000 0000 f03f 0000 0000 0000 f03f
000002d0: 0000 0000 0000 f03f 0000 0000 0000 f03f
000002e0: 0000 0000 0000 f03f 0000 0000 0000 f03f
000002f0: 0000 0000 0000 f03f 0000 0000 0000 f03f
00000300: 0000 0000 0000 f03f 0000 0000 0000 f03f
00000310: 0000 0000 0000 f03f 0000 0000 0000 f03f
00000320: 0000 0000 0000 f03f 0000 0000 0000 f03f
00000330: 0000 0000 0000 f03f 0000 0000 0000 f03f
00000340: 0000 0000 0000 f03f 0000 0000 0000 f03f
00000350: 0000 0000 0000 f03f 0000 0000 0000 f03f
00000360: 0000 0000 0000 f03f 0000 0000 0000 f03f
00000370: 0000 0000 0000 f03f 0000 0000 0000 f03f
00000380: 0000 0000 0000 f03f 0000 0000 0000 f03f
00000390: 0000 0000 0000 f03f 0000 0000 0000 f03f
000003a0: 0000 0000 0000 f03f 0000 0000 0000 f03f
000003b0: 0000 0000 0000 f03f 0000 0000 0000 f03f
000003c0: 0000 0000 0000 f03f 0000 0000 0000 f03f
000003d0: 0000 0000 0000 f03f 0000 0000 0000 f03f
000003e0: 0000 0000 0000 f03f 0000 0000 0000 f03f
000003f0: 0000 0000 0000 f03f 0000 0000 0000 f03f
00000400: 0000 0000 0000 f03f 0000 0000 0000 f03f
00000410: 0000 0000 0000 f03f 0000 0000 0000 f03f
00000420: 0000 0000 0000 f03f 0000 0000 0000 f03f
00000430: 0000 0000 0000 f03f 0000 0000 0000 f03f
00000440: 0000 0000 0000 f03f 0000 0000 0000 f03f
00000450: 0000 0000 0000 f03f 0000 0000 0000 f03f
00000460: 0000 0000 0000 f03f 0000 0000 0000 f03f
00000470: 0000 0000 0000 f03f 0000 0000 0000 f03f
00000480: 0000 0000 0000 f03f 0000 0000 0000 f03f
00000490: 0000 0000 0000 f03f 0000 0000 0000 f03f
000004a0: 0000 0000 0000 f03f 0000 0000 0000 f03f
000004b0: 0000 0000 0000 f03f 0000 0000 0000 f03f
000004c0: 0000 0000 0000 f03f 0000 0000 0000 f03f
000004d0: 0000 0000 0000 f03f 0000 0000 0000 f03f
000004e0: 0000 0000 0000 f03f 0000 0000 0000 f03f
000004f0: 0000 0000 0000 f03f 0000 0000 0000 f03f
00000500: 0000 0000 0000 f03f 0000 0000 0000 f03f
00000510: 0000 0000 0000 f03f 0000 0000 0000 f03f
00000520: 0000 0000 0000 f03f 0000 0000 0000 f03f
00000530: 0000 0000 0000 f03f 0000 0000 0000 f03f
00000540: 0000 0000 0000 f03f 0000 0000 0000 f03f
00000550: 0000 0000 0000 f03f 0000 0000 0000 f03f
00000560: 0000 0000 0000 f03f 0000 0000 0000 f03f
00000570: 0000 0000 0000 f03f 0000 0000 0000 f03f
00000580: 0000 0000 0000 f03f 0000 0000 0000 f03f
00000590: 0000 0000 0000 f03f 0000 0000 0000 f03f
000005a0: 0000 0000 0000 f03f 0000 0000 0000 f03f
000005b0: 0000 0000 0000 f03f 0000 0000 0000 f03f
000005c0: 0000 0000 0000 f03f 0000 0000 0000 f03f
000005d0: 0000 0000 0000 f03f 0000 0000 0000 f03f
000005e0: 0000 0000 0000 f03f 0000 0000 0000 f03f
000005f0: 0000 0000 0000 f03f 0000 0000 0000 f03f
00000600: 0000 0000 0000 f03f 0000 0000 0000 f03f
00000610: 0000 0000 0000 f03f 0000 0000 0000 f03f
00000620: 0000 0000 0000 f03f 0000 0000 0000 f03f
00000630: 0000 0000 0000 f03f 0000 0000 0000 f03f
00000640: 0000 0000 0000 f03f 0000 0000 0000 f03f
00000650: 0000 0000 0000 f03f 0000 0000 0000 f03f
00000660: 0000 0000 0000 f03f 0000 0000 0000 f03f
00000670: 0000 0000 0000 f03f 0000 0000 0000 f03f
00000680: 0000 0000 0000 f03f 0000 0000 0000 f03f
00000690: 0000 0000 0000 f03f 0000 0000 0000 f03f
000006a0: 0000 0000 0000 f03f 0000 0000 0000 f03f
000006b0: 0000 0000 0000 f03f 0000 0000 0000 f03f
000006c0: 0000 0000 0000 f03f 0000 0000 0000 f03f
000006d0: 0000 0000 0000 f03f 0000 0000 0000 f03f
000006e0: 0000 0000 0000 f03f 0000 0000 0000 f03f
000006f0: 0000 0000 0000 f03f 0000 0000 0000 f03f
00000700: 0000 0000 0000 f03f 0000 0000 0000 f03f
00000710: 0000 0000 0000 f03f 0000 0000 0000 f03f
00000720: 0000 0000 0000 f03f 0000 0000 0000 f03f
00000730: 0000 0000 0000 f03f 0000 0000 0000 f03f
00000740: 0000 0000 0000 f03f 0000 0000 0000 f03f
00000750: 0000 0000 0000 f03f 0000 0000 0000 f03f
00000760: 0000 0000 0000 f03f 0000 0000 0000 f03f
00000770: 0000 0000 0000 f03f 0000 0000 0000 f03f
00000780: 0000 0000 0000 f03f 0000 0000 0000 f03f
00000790: 0000 0000 0000 f03f 0000 0000 0000 f03f
000007a0: 0000 0000 0000 f03f 0000 0000 0000 f03f
000007b0: 0000 0000 0000 f03f 0000 0000 0000 f03f
000007c0: 0000 0000 0000 f03f 0000 0000 0000 f03f
000007d0: 0000 0000 0000 f03f 0000 0000 0000 f03f
000007e0: 0000 0000 0000 f03f 0000 0000 0000 f03f
000007f0: 0000 0000 0000 f03f 0000 0000 0000 f03f

bias f8 [512]
-0.0018235983718669635 -0.3088451838348779 -0.6530543696853021 -0.14571975936919546 -0.807740705211404 -0.44093282114508925 -0.2269447194912545 -0.5431490204687206
-0.726685619942147 -0.8947903821123142 -0.06613723427439244 -0.37514079907324105 -0.6004540079843929 -0.2694952597272522 -0.18625073288379457 -0.85385698669999
-0.7677889806718646 -0.9416452146210104 -0.6894592319010185 -0.10959232877819858 -0.026727465077216572 -0.3437818320803493 -0.40756125905540996 -0.48467271552319513
-0.6278361636319755 -0.5720453563503888 -0.8310523281039628 -0.24835762154467322 -0.01160407753538717 -0.20634378240646312 -0.1638968610699706 -0.28815601468144836
-0.7475018507364082 -0.7877422086120722 -0.8729151459542663 -0.9181803439927041 -0.969273967714651 -0.7101417300170253 -0.6735963457247333 -0.5143592764751884
-0.08704371235596875 -0.1286323962240652 -0.3250540155843219 -0.044097619330189075 -0.4612681973650523 -0.3601332199735854 -0.39153246904431205 -0.42381359800494833
-0.0037988831330394435 -0.6142494108777992 -0.5844369845755262 -0.6415064610093885 -0.5593041807123768 -0.8189434329146981 -0.8425922433233378 -0.1749989715757363
-0.6982197786311221 -0.6626719411815871 -0.2988076835337078 -0.7366142412084487 -0.7557694553859998 -0.5281993469662234 -0.23753271668686637 -0.25690830764117367
-0.21763033519969333 -0.19850714980450768 -0.9540532108828007 -0.7777495804205397 -0.7980394611233957 -0.09791076440764701 -0.2785669972683754 -0.9063965366860126
-0.929693583158917 -0.8850651231679112 -0.866045591558122 -0.15399310732778337 -0.3334095528767139 -0.11821711526940404 -0.07841591860563235 -0.05491577232694811
-0.0004732686249345752 -0.718401286699341 -0.1366245920767667 -0.3174134985083913 -0.9839110718805165 -0.6840452947266377 -0.35203040984391587 -0.4732650241453974
-0.4506310381873938 -0.38432383169965023 -0.40008180268187865 -0.3651203764638693 -0.5928996355029935 -0.4148521772595316 -0.4293794999501054 -0.26176641618035157
-0.19238157357901364 -0.6065910385777471 -0.7612640776148725 -0.5514527658499548 -0.034409521665317966 -0.6208150282713477 -0.6345761913395533 -0.704897429714922
-0.878926707745249 -0.210388443933896 -0.8601932792698768 -0.6472258704096683 -0.8252935266207313 -0.8140244131456977 -0.1806090328064267 -0.8377511674534946
-0.848607624773879 -0.17012072488918994 -0.7419940534194995 -0.9609973584966891 -0.10390519635940287 -0.5375825795512976 -0.7322051090626792 -0.24297966514646396
-0.23244492549452678 -0.07303884129758131 -0.6798588973643128 -0.668128283056947 -0.33847179619087175 -0.7722418776301052 -0.2932572537499821 -0.30340093944402713
-0.5780598947814025 -0.5659274505504592 -0.12377805824501376 -0.7826596304472715 -0.6581250060354316 -0.7936901484255117 -0.8027025692927809 -0.15915940191886901
-0.4347995211256138 -0.900108614473378 -0.9117645066543915 -0.2835524911072984 -0.09322755559512763 -0.3708226067595972 -0.9240536772276323 -0.4938444176321817
-0.2222848138310286 -0.9767765962687058 -0.9352574292078848 -0.9473681915973563 -0.25264325845727653 -0.2744820000470437 -0.8904012484035483 -0.019841494832717688
-0.06058837618574897 -0.6941963386458376 -0.380076651189151 -0.31315861938703315 -0.522320769843407 -0.5062387417186938 -0.7510986779978652 -0.050113538434464866
-0.20255731523408393 -0.11398653697793226 -0.1412060081510288 -0.14967894004394466 -0.7142319353072522 -0.3293680494815353 -0.7238056878125609 -0.26515271844752697
-0.32108160739504776 -0.13262547663913593 -0.46654181290988284 -0.21409384823021793 -0.00015741339011654532 -0.3472360644693584 -0.41946652486097125 -0.3553964353014527
-0.45565781318002263 -0.08275142481961861 -0.9906391363501611 -0.4450580018511475 -0.39568914676356326 -0.4784595306742008 -0.6101315843117926 -0.5894752310643508
-0.03844597557307372 -0.7016512735803271 -0.5334940742898141 -0.38763735484912065 -0.5966599434053709 -0.8339827435323779 -0.7641490739116025 -0.402940898390136
-0.6382605183076802 -0.4107756308222431 -0.8104187420120695 -0.8691896164198522 -0.6773481921425426 -0.16646634117411918 -0.5468827419032712 -0.8220180142664885
-0.6310042476102957 -0.6246373498473384 -0.5550583506484347 -0.6182582892277524 -0.8280159351784547 -0.7902618161930987 -0.8571095400285627 -0.06984848928445475
-0.19591373815765512 -0.8456943244823816 -0.18910562031820122 -0.7211119765977877 -0.8633389838392318 -0.7290304555590937 -0.6035485117323951 -0.7449768882735017
-0.3063767262739997 -0.09021500719694886 -0.9646968909565453 -0.18355677216638444 -0.7591568184279034 -0.1777035029410362 -0.7392545148303797 -0.7748424465099608
-0.903696281093517 -0.7077676420555926 -0.3681505638252517 -0.8753443429037602 -0.8812514759284427 -0.2297926215137266 -0.6441836414982909 -0.9156239439229564
-0.2956143207773988 -0.6498448163726674 -0.5627698355302769 -0.5812573436611673 -0.030335809211426423 -0.6860688264179258 -0.29080059726984986 -0.8512906478086886
-0.6710414736463332 -0.6662290308504318 -0.24545762354649103 -0.23944375028994125 -0.2355059112097586 -0.34124686902345946 -0.9384115238826619 -0.12078941681578859
-0.33610479742481403 -0.100868367512009 -0.10602134981585698 -0.8054758427904203 -0.9205734835544099 -0.7859169731152702 -0.8164506976271384 -0.4375316316140201
00000000: 00b6 90d7 b9e0 5dbf 2244 0697 1ec4 d3bf
00000010: 51dd 0947 d2e5 e4bf 5893 6ff0 f1a6 c2bf
00000020: 99fd 1009 03d9 e9bf 7646 a34b 3e38 dcbf
00000030: 9c7f 1b4a 860c cdbf 1890 f80d 7a61 e1bf
00000040: 0e00 8433 0241 e7bf d453 7e70 1fa2 ecbf
00000050: d0a3 41aa 5eee b0bf 5a8d da8d 4e02 d8bf
00000060: 6171 e152 eb36 e3bf 2028 bd0b 693f d1bf
00000070: 58c4 4b63 10d7 c7bf 53cd 2ae3 cb52 ebbf
00000080: eddf 4632 ba91 e8bf b26d 2725 f521 eebf
00000090: bf15 9ece 0c10 e6bf 00ae fe2b 3e0e bcbf
000000a0: a081 a5d1 715e 9bbf be9e 6f83 8500 d6bf
000000b0: ca9c b0d1 7b15 dabf 70e1 9bb5 e004 dfbf
000000c0: 3d74 c1dd 3b17 e4bf 9350 2b10 324e e2bf
000000d0: ec13 4f0d fb97 eabf 6894 1fbb 2eca cfbf
000000e0: 002e 1eec e0c3 87bf f097 951a 7969 cabf
000000f0: cc35 1b85 92fa c4bf 08f6 ccec 2571 d2bf
00000100: 5898 5300 89eb e7bf 785d f525 2f35 e9bf
00000110: 00d0 81be ebee ebbf 10eb a8be bb61 edbf
00000120: d15a 06d7 4a04 efbf e555 3e26 7bb9 e6bf
00000130: 89f8 72ec 198e e5bf 715d db95 a175 e0bf
00000140: 582d e429 7f48 b6bf 5086 7ebf 0677 c0bf
00000150: 8e8f 975b afcd d4bf b090 b591 f693 a6bf
00000160: 9889 970b 6b85 ddbf a057 7f34 6c0c d7bf
00000170: 5884 7733 de0e d9bf 8a01 c211 c31f dbbf
00000180: 00d9 2ada d51e 6fbf 56d6 6961 eea7 e3bf
00000190: 4864 ea30 b5b3 e2bf 1fa8 c68e 3887 e4bf
000001a0: 999f 95e1 d1e5 e1bf 2a90 b4db c834 eabf
000001b0: fdfb 1d02 84f6 eabf 902e e0c5 5d66 c6bf
000001c0: 4f83 5401 d157 e6bf 8e41 6bc9 9b34 e5bf
000001d0: de87 2443 aa1f d3bf b442 7807 5892 e7bf
000001e0: ef5a c66c 432f e8bf aea1 1f51 02e7 e0bf
000001f0: 4837 f3d8 7867 cebf 5aee d88a 2f71 d0bf
00000200: f86c 2692 4fdb cbbf 405d 37aa ae68 c9bf
00000210: 5d55 6c99 9a87 eebf 3c49 8c16 53e3 e8bf
00000220: 8928 4e0d 8a89 e9bf f8a4 0e0b ae10 b9bf
00000230: 56ce c0ab 0ad4 d1bf 55c5 484f 3301 edbf
00000240: d0fe dec1 0cc0 edbf b6c3 da17 7452 ecbf
00000250: 96c9 923e a5b6 ebbf b020 e4cf 0bb6 c3bf
00000260: d2e2 7105 9556 d5bf 70d8 e813 7a43 bebf
00000270: 10a1 e5cd 1013 b4bf d08e 5b8c eb1d acbf
00000280: 0058 2d44 2104 3fbf 4ae5 f8b1 24fd e6bf
00000290: 6447 6625 ea7c c1bf 52c2 d9b4 8050 d4bf
000002a0: 9fc5 7c12 337c efbf c5ac 3af5 b2e3 e5bf
000002b0: ba88 5e8e aa87 d6bf 72e3 4262 f949 debf
000002c0: daf3 e490 23d7 dcbf 484c 0efc c298 d8bf
000002d0: c493 8fb4 f09a d9bf 64fe 00db 215e d7bf
000002e0: 3176 09a8 08f9 e2bf e642 8025 f08c dabf
000002f0: 42f2 7627 f47a dbbf 16e3 2bed c7c0 d0bf
00000300: 1cfc 6f9b f59f c8bf 809e 179c 3169 e3bf
00000310: 2837 9f7b 465c e8bf 5ca8 5345 80a5 e1bf
00000320: 6074 72f4 1f9e a1bf db4d 697a b7dd e3bf
00000330: b2f4 93ba 724e e4bf 1e1f f50d 858e e6bf
00000340: f018 2be7 2a20 ecbf 4482 132f 02ee cabf
00000350: ec7f 560e b486 ebbf ee1b 5107 13b6 e4bf
00000360: 30f8 4df8 cd68 eabf 5667 13ed 7c0c eabf
00000370: 8805 a260 321e c7bf 29c1 4c89 dbce eabf
00000380: 1648 712d cb27 ebbf 54ac e212 84c6 c5bf
00000390: 5c6c 2850 6abe e7bf 3024 4988 7dc0 eebf
000003a0: 1083 3fec 8799 babf fc4e c261 e033 e1bf
000003b0: 1f6d ac68 396e e7bf f8d3 b229 f519 cfbf
000003c0: 0c61 8f5c c1c0 cdbf 00fa b56a acb2 b2bf
000003d0: 0761 4272 67c1 e5bf 1864 a890 4e61 e5bf
000003e0: e285 d09b 85a9 d5bf e4bb 2099 34b6 e8bf
000003f0: caf0 8a12 bac4 d2bf ac37 1fc6 eb6a d3bf
00000400: f1e3 e676 777f e2bf 6ebb 80e2 131c e2bf
00000410: 78ed 1f38 ebaf bfbf 8c74 9535 8c0b e9bf
00000420: 6e43 332c 5c0f e5bf 80a3 d4e1 e865 e9bf
00000430: a8e2 704c bdaf e9bf ccd5 0bd5 555f c4bf
00000440: 2243 e35e c1d3 dbbf 5d5a c094 b0cd ecbf
00000450: 737e 37c2 2c2d edbf d454 0059 b925 d2bf
00000460: f0f9 5dd6 c2dd b7bf 9898 29be 8ebb d7bf
00000470: 7b1e 6e04 d991 edbf 74b6 c29d 259b dfbf
00000480: a49e e62a d473 ccbf fa1c 0ffe c041 efbf
00000490: ac3e f9fc a0ed edbf 45cd 0519 d750 eebf
000004a0: 8a3f 28a1 4e2b d0bf fabb 62f3 1c91 d1bf
000004b0: f9be 46c2 2a7e ecbf 401f a42d 5451 94bf
000004c0: 5098 788c 7005 afbf fa93 6f3d db36 e6bf
000004d0: 9a28 b504 2d53 d8bf 9694 2e73 ca0a d4bf
000004e0: 9df7 0f0c dab6 e0bf a4cc f496 1b33 e0bf
000004f0: b43a 4218 0009 e8bf 2063 5351 7ba8 a9bf
00000500: 647b 3fea 65ed c9bf d027 81c0 382e bdbf
00000510: c4f1 80d9 0913 c2bf 80c0 31f4 ad28 c3bf
00000520: f2e8 7cee fcda e6bf 56b6 37ba 5d14 d5bf
00000530: 1e0a ba8b 6a29 e7bf 325e 8b1b 43f8 d0bf
00000540: 44f7 c6de 998c d4bf 3808 6422 dff9 c0bf
00000550: 2087 2a31 d2db ddbf a837 365e 6d67 cbbf
00000560: 0000 9ab9 eaa1 24bf 20cf 389d 1d39 d6bf
00000570: 6cdb 821f 8ad8 dabf a405 afb0 d0be d6bf
00000580: d49a 7163 7f29 ddbf c033 4c87 322f b5bf
00000590: 3f5f 98d8 50b3 efbf b685 b18e d47b dcbf
000005a0: 54d3 2e92 f852 d9bf 0422 2db9 149f debf
000005b0: af06 1cac 3286 e3bf 5726 e728 fbdc e2bf
000005c0: c092 7fdf 30af a3bf 162d 275f ed73 e6bf
000005d0: cde7 352a 6212 e1bf 223c 72e8 0ccf d8bf
000005e0: 034c f897 d617 e3bf 22cc 1c94 fcaf eabf
000005f0: 3502 37c2 e873 e8bf 969d 339f c8c9 d9bf
00000600: 30b4 8e52 a16c e4bf fa04 18df 254a dabf
00000610: cd3b 2049 f3ee e9bf 3d79 11be 66d0 ebbf
00000620: e438 a81d d6ac e5bf a822 9de1 c44e c5bf
00000630: 5f15 673c 1080 e1bf f1ea ffb8 f84d eabf
00000640: 20f2 e3d1 2f31 e4bf af8a ae77 07fd e3bf
00000650: e903 edba 09c3 e1bf f4d9 969b c5c8 e3bf
00000660: f310 4546 1b7f eabf 2576 fa25 d349 e9bf
00000670: 9864 70fc 706d ebbf 68d8 2631 97e1 b1bf
00000680: c4b3 1c8d b313 c9bf 8a11 428b ed0f ebbf
00000690: ecd3 60eb 9c34 c8bf adb9 876c 5913 e7bf
000006a0: a671 9e13 79a0 ebbf db41 8dad 3754 e7bf
000006b0: 6015 eef7 4450 e3bf 1c23 6dc5 d9d6 e7bf
000006c0: 468d e620 ad9b d3bf d8f0 84a9 5418 b7bf
000006d0: 7bc2 a603 ccde eebf 20fc b4ce c97e c7bf
000006e0: 3add 753d 034b e8bf 1419 c206 fdbe c6bf
000006f0: 0ebd 9315 f9a7 e7bf 5e03 ea62 82cb e8bf
00000700: 0408 9a76 14eb ecbf 3b77 7953 08a6 e6bf
00000710: e689 e861 c78f d7bf 0c54 b023 d202 ecbf
00000720: b442 954b 3633 ecbf 64bc 2139 d869 cdbf
00000730: a04e 1b03 279d e4bf 25ad d295 ca4c edbf
00000740: aef6 fd53 58eb d2bf a376 395b 87cb e4bf
00000750: 0de4 d8e2 3502 e2bf 9bb4 3200 a999 e2bf
00000760: a0d4 d7b1 5910 9fbf 98a4 889c 46f4 e5bf
00000770: f699 bb1b 7a9c d2bf bc53 77e2 c53d ebbf
00000780: bd42 f2f7 2b79 e5bf 87bf 648b bf51 e5bf
00000790: c4d0 d7c8 276b cfbf ac0a 5dc2 17a6 cebf
000007a0: 508e 54c5 0e25 cebf a25c 941b fdd6 d5bf
000007b0: 6f7f a89a 7707 eebf d03d ed22 0eec bebf
000007c0: 52f8 3db2 bd82 d5bf a03c aa63 82d2 b9bf
000007d0: a80a 2316 3724 bbbf b217 5046 75c6 e9bf
000007e0: a0ca ad85 5675 edbf 3ed8 1c5a 3b26 e9bf
000007f0: b45b a336 5d20 eabf e8da 2fac 8400 dcbf

weight f8 [1, 512]
-0.06139664525522254 -0.09053664529643149 0.04849937854140143 -0.06741418094003726 0.07277703386001827 -0.027099803340158934 -0.07349298868898124 0.021056076853210093
0.0776903236463391 0.06032248295100094 -0.030767271219402634 -0.06116749154430262 0.035478975663336895 -0.06304587693471593 -0.03280244232722791 0.043348613641137894
0.06968186501809842 0.04192738130002721 0.08113209607807281 -0.04862978460332956 -0.025160975727258617 -0.047749261724254234 -0.0443336439362523 -0.010294137473903495
0.05253504722926719 0.047294109200127846 0.0632452517995828 -0.05051778666773054 -0.009573502719510463 -0.07152130787055698 -0.0838038179154409 -0.06447388074256569
0.05559956253269571 0.06316629048973266 0.05750256268970988 0.051489109656568964 0.013993346539566388 0.05281353266402462 0.05017228705349807 0.014443899530359829
-0.03940899417099294 -0.06981700034999845 -0.07809339461927384 -0.030019336737827085 -0.02521446122312962 -0.06418108783524479 -0.051539050228140315 -0.04509493325467509
-0.0015320845898723068 0.05137291838885326 0.04348116576050455 0.055480500663130615 0.026422737807191468 0.07290075621070181 0.06097633166874069 -0.07137751062791142
0.06559241261052697 0.05322168501090034 -0.07903252059216687 0.07000567051953135 0.07585813194315114 0.02146479117419548 -0.07814430309654816 -0.08036764706488861
-0.06699406437509184 -0.06846831739043824 0.027702397611467408 0.07799190113383489 0.08367572594214423 -0.05093020490352597 -0.08151971073594666 0.059692737231934856
0.05002413096746311 0.06493908674961951 0.0504687083410857 -0.07715443675079997 -0.06724912550638651 -0.0344260556864083 -0.04676755531144289 -0.03270811690667122
-1.7700449444903963 0.08775177176182918 -0.07301986593418239 -0.0681724753191555 0.013784402247211886 0.07980209821778494 -0.07275338323649568 -0.015245511175143951
-0.03301029415943457 -0.04893891418844139 -0.05230629226169331 -0.05954923362369079 0.034777182502693196 -0.042578023199088696 -0.05002249427454738 -0.06960507590105706
-0.06666937731132327 0.04858056962055263 0.07726101947237173 0.031247640222911776 -0.019212997911887686 0.0607173492000557 0.05222335272912201 0.06142266584644014
0.05755046637700283 -0.08666261338656425 0.05887175960553241 0.03876340926507749 0.06137784094725268 0.06940867176859311 -0.045857015442577934 0.07687412116705597
0.042088798373554184 -0.06799304771487896 0.043373604518079575 0.02583728448031569 -0.04650448496804506 0.025682532896133238 0.08057893333646865 -0.05836962178034026
-0.052264137903449304 -0.03277345841041415 0.08222855763104646 0.05410907358200362 -0.06902048512219044 0.08093137541723168 -0.09663911751437315 -0.07528948862765783
0.05014085818455128 0.02524361758308112 -0.05236982274579062 0.07208570507456805 0.06774732007995041 0.0797632291223547 0.052016404698263324 -0.03951908110593426
-0.041941065318377685 0.036191717790520696 0.05306105341945334 -0.034756314847735476 -0.040771450178895455 -0.07829301641633701 0.03565561867115388 -0.006830786441161238
-0.06440080015949162 0.02032006563454646 0.04249991737460176 0.024227521298765153 -0.08026450641019381 -0.09362214083681097 0.04593891251832128 -0.014132332089328736
-0.035385755859391604 0.07552860425811367 -0.05763349154986186 -0.08460640803100511 0.01779594687935497 0.005728627645901381 0.09282071127070515 -0.030784224783240693
-0.06917453707122082 -0.05782104331625884 -0.05966758581744676 -0.0662464865816635 0.05649827715488237 -0.07497184083047886 0.055317550675452576 -0.08999808853327042
-0.04761486763196611 -0.054197815188643875 -0.02661199092790619 -0.05396938166611952 2.7382987462543893 -0.06765705425276042 -0.04699883136821258 -0.055129390662101534
-0.03210995432789882 -0.03752418473573494 0.00937512951413105 -0.03116893084293252 -0.04397780218795744 -0.017710863176277368 0.04049680690713586 0.042404216356736184
-0.025232480462844153 0.07258468976166733 0.017914871048421956 -0.05026392799322564 0.05034599252064209 0.042541046076633185 0.06589799741671208 -0.03963262954667861
0.039815636199421967 -0.037361637179237135 0.0733591051200571 0.05334951899821005 0.08586094144252676 -0.08412450949925473 0.018755503588365557 0.06049651466920623
0.05312122046593758 0.04672510648895062 0.026387600835517156 0.06530369360981417 0.0348667566839177 0.055223975916379966 0.046207104988605405 -0.0349545615499047
-0.061598057165281425 0.06435388825704277 -0.054021813308938606 0.0483493181115615 0.041240515272942896 0.08626792392996688 0.04189098730795793 0.05470113203472694
-0.07494894532132056 -0.031681133608713045 0.020742630652012185 -0.06450228320529373 0.07830952432293482 -0.05495892425229425 0.059241877725936275 0.05767298616343617
0.0549800929069224 0.051215272170145286 -0.06655823886725049 0.06579421597715585 0.05508610713564445 -0.05683652079386769 0.04651237654686101 0.043125361722724805
-0.07769347272610849 0.04782721280516163 0.02985606669727969 0.01991291051306265 -0.021147895868998012 0.061280683737541114 -0.08155761345276341 0.029984776622797946
0.05358947567988388 0.06969293525298365 -0.048018436859911445 -0.07879435988243881 -0.07227231058844834 -0.052326269102765555 0.0498910000852134 -0.03626344552570246
-0.07053736440068763 -0.03597399998025169 -0.04006790832127072 0.07672820432139286 0.03560915206121578 0.058100670990618004 0.09538109409104097 -0.03436677487926819
00000000: 581c e98e 616f afbf fa41 a3da 682d b7bf
00000010: 845c 6c19 e9d4 a83f f090 6c46 0e42 b1bf
00000020: 4423 5404 84a1 b23f 60ca 4b04 0dc0 9bbf
00000030: 808b e7be 6fd0 b2bf 60cc dd65 b98f 953f
00000040: a0d4 4657 83e3 b33f dee3 f9a6 96e2 ae3f
00000050: 2caf b29e 7481 9fbf a8b3 856f 5851 afbf
00000060: 5ed7 56e0 4c2a a23f 0d0e 954b c623 b0bf
00000070: 3a7a 0c52 7bcb a0bf 07cd d41b ca31 a63f
00000080: 5484 60b3 abd6 b13f e827 fb76 8177 a53f
00000090: 40ae 4fb3 12c5 b43f d034 f7cc 00e6 a8bf
000000a0: 003e 897f ccc3 99bf f512 075b 9772 a8bf
000000b0: 432e a33d e6b2 a6bf 38da 53be 1715 85bf
000000c0: 64ae 7cab dfe5 aa3f 6ab2 9df8 ee36 a83f
000000d0: 2543 1b40 d730 b03f af5a 35a3 77dd a9bf
000000e0: e02c b5c8 459b 83bf af6c 456e 384f b2bf
000000f0: c90c 3ac1 2a74 b5bf 4a4b 3c39 5c81 b0bf
00000100: 60ea 7fbd 8b77 ac3f 08f0 dc7f aa2b b03f
00000110: 4082 60d4 f970 ad3f 5376 26d4 c75c aa3f
00000120: b404 fe2d 8ba8 8c3f 9a0b 2817 600a ab3f
00000130: 6fdf 1e98 2eb0 a93f b478 e060 c394 8d3f
00000140: 3bed 436a 6a2d a4bf ad43 35e5 86df b1bf
00000150: 2c64 ecbf edfd b3bf e074 2596 63bd 9ebf
00000160: 98c0 5bd9 d1d1 99bf 182a 46f9 2b6e b0bf
00000170: 40be 648e 5363 aabf 8498 16df ae16 a7bf
00000180: 0044 534d 071a 59bf cea9 c218 8d4d aa3f
00000190: 62dc ddd1 2943 a63f 73e4 d3af f067 ac3f
000001a0: f4bb 02eb 8f0e 9b3f 8154 c7bb 9fa9 b23f
000001b0: 0bd0 b12c 4a38 af3f f817 d1e9 cb45 b2bf
000001c0: d127 0713 aaca b03f 16a2 1e69 df3f ab3f
000001d0: 9c88 43ab 793b b4bf f27a 6a41 e4eb b13f
000001e0: 56dc d443 706b b33f 123f 6fc0 ddfa 953f
000001f0: 561b 2bda 4301 b4bf bed7 cc5f f992 b4bf
00000200: 2a63 84e3 8526 b1bf 680b 01c0 2387 b1bf
00000210: 7c54 0c6f 045e 9c3f f601 b9f8 46f7 b33f
00000220: 48fc 63ba c56b b53f d2e1 e018 8613 aabf
00000230: 001c 97cb 79de b4bf 5894 70e4 0b90 ae3f
00000240: f83a 084d c39c a93f 6c5c d215 d99f b03f
00000250: fab7 97d7 08d7 a93f 3403 96a6 64c0 b3bf
00000260: 200a bc1a 3d37 b1bf 0c57 9bbe 4aa0 a1bf
00000270: 682d 27c1 eaf1 a7bf 6415 db48 1ebf a0bf
00000280: 0b95 d0a5 1a52 fcbf ab13 e26d e676 b63f
00000290: 3647 2510 6eb1 b2bf 11af fb57 c073 b1bf
000002a0: 3d02 c626 ff3a 8c3f 8060 ff09 e96d b43f
000002b0: 0d92 ac39 f79f b2bf 84ad 43df 0939 8fbf
000002c0: 8035 b1ab b9e6 a0bf aad8 e177 850e a9bf
000002d0: c829 47ed e3c7 aabf 8ecb d4b5 3c7d aebf
000002e0: 9aff fd9a 50ce a13f 863a 5662 c9cc a5bf
000002f0: 4b72 f261 8c9c a9bf 7b71 a164 a3d1 b1bf
00000300: a862 328b 3e11 b1bf e88e 7b6b 8ddf a83f
00000310: 5fb3 e3cf 60c7 b33f 339c 56a3 61ff 9f3f
00000320: e039 c276 92ac 93bf e464 3a2a 5816 af3f
00000330: fc3b 1ef0 04bd aa3f 4a52 16aa ca72 af3f
00000340: 87e4 ea35 4177 ad3f c2fb 4762 852f b6bf
00000350: 26d5 5374 7024 ae3f a162 262e ccd8 a33f
00000360: 9894 2297 ea6c af3f 500e 4e47 c4c4 b13f
00000370: a26f 3c1b 927a a7bf 3a3d 52bc 05ae b33f
00000380: 52af 15b9 a98c a53f 1470 4a0c fe67 b1bf
00000390: 4e5f d4a9 1035 a63f cf0d 71cf 1675 9a3f
000003a0: 1233 1c94 6fcf a7bf 0a27 789b 854c 9a3f
000003b0: 043c 6d2b d2a0 b43f 26be 4081 9fe2 adbf
000003c0: d00f 1976 5dc2 aabf f45d 19c8 aec7 a0bf
000003d0: a395 d245 ee0c b53f 4833 e73a 2fb4 ab3f
000003e0: bc96 5a96 53ab b1bf a526 a32a ebb7 b43f
000003f0: 8810 3d59 57bd b8bf 306b 6303 2c46 b3bf
00000400: c129 3104 10ac a93f dce9 ce7f 76d9 993f
00000410: 3221 fba7 37d0 aabf 42eb cd71 3574 b23f
00000420: 6691 226c e357 b13f 82fd 80ec 5c6b b43f
00000430: 74af 11ea e4a1 aa3f befe d551 d83b a4bf
00000440: ecbc cd9f 4c79 a5bf e5ba 9788 b887 a23f
00000450: 0177 4182 d12a ab3f 2475 3367 94cb a1bf
00000460: 8af8 41da fedf a4bf 786b 03d9 020b b4bf
00000470: 24f6 3808 7441 a23f 3095 ee45 99fa 7bbf
00000480: 8470 8522 927c b0bf dd6b 6985 c8ce 943f
00000490: abc9 6996 8cc2 a53f 60bb 906e 19cf 983f
000004a0: 9ab5 0ff6 368c b4bf 205b 13e1 9ef7 b7bf
000004b0: b18e c21d 4e85 a73f 8078 1e81 69f1 8cbf
000004c0: 6c16 52f0 141e a2bf e67c 33b5 d755 b33f
000004d0: 50ce b812 2382 adbf 6c73 86fb c3a8 b5bf
000004e0: 0c8a 64c7 1939 923f c8e1 3dc6 e676 773f
000004f0: 4294 4c1f 19c3 b73f 18f9 b45a e685 9fbf
00000500: 4ad4 6f26 6cb5 b1bf 94bb 2044 b89a adbf
00000510: ca35 6ff3 bf8c aebf 85d8 579d 87f5 b0bf
00000520: 6835 5299 57ed ac3f 0ce2 7cc4 5a31 b3bf
00000530: 187f 17fe 9452 ac3f d9f1 f35e 1d0a b7bf
00000540: 42b9 90d6 f960 a8bf f2ef 7fe7 d0bf abbf
00000550: 5602 de7a 2c40 9bbf fe8e 7bf2 dfa1 abbf
00000560: 26b9 4e2c 09e8 0540 54fb 5b03 f951 b1bf
00000570: 5f77 5a17 3b10 a8bf 5f5f e263 eb39 acbf
00000580: 19c3 6d47 b770 a0bf b182 7fb4 5e36 a3bf
00000590: 5e8b 4595 4433 833f ea99 7c8a bfea 9fbf
000005a0: 5062 4b2c 4284 a6bf 2611 81e8 cb22 92bf
000005b0: 0064 845a ffbb a43f dfeb ed64 01b6 a53f
000005c0: 901c 8a19 8bd6 99bf 8177 b704 e994 b23f
000005d0: e763 0fa5 4658 923f 8e7e cc8d 31bc a9bf
000005e0: 30bd b82e f3c6 a93f 8a06 46a3 f0c7 a53f
000005f0: e7d3 c6ef b0de b03f d6d2 835f ba4a a4bf
00000600: 8020 b10e b762 a43f 81a3 9e83 1021 a3bf
00000610: a3be 5a8d a9c7 b23f bf93 b5ce a050 ab3f
00000620: 38da 7f8f fbfa b53f 1662 1711 2f89 b5bf
00000630: 48cf 208a a434 933f 5e6d 0d30 66f9 ae3f
00000640: cee6 3f61 b432 ab3f 9858 8b68 5aec a73f
00000650: 1d0d 6fea 5905 9b3f 42b6 5c2c beb7 b03f
00000660: b09b 5937 0eda a13f c229 0825 5146 ac3f
00000670: 16ad 8929 75a8 a73f 3cdd 6775 90e5 a1bf
00000680: 7e46 0bd2 c789 afbf 4637 6f15 7f79 b03f
00000690: cd71 dd42 bfa8 abbf be67 25e8 3dc1 a83f
000006a0: 1c26 bc10 7a1d a53f 1218 f997 a715 b63f
000006b0: b03b f848 bc72 a53f 9262 496a c901 ac3f
000006c0: ef56 06a5 da2f b3bf 5fcf 7f71 8238 a0bf
000006d0: 7a33 2261 8e3d 953f 3152 e2bc 3883 b0bf
000006e0: a1ac eecd 170c b43f 76ea 927c 9323 acbf
000006f0: e3e6 c58e f354 ae3f 5d86 de4a 5087 ad3f
00000700: 5fbb eec9 5926 ac3f 1b93 0d5e e338 aa3f
00000710: 9cd5 36f3 f509 b1bf d049 e3c5 e3d7 b03f
00000720: 721c 3909 3f34 ac3f 3f61 0e2c ad19 adbf
00000730: ee89 4160 78d0 a73f 295d 7404 8714 a63f
00000740: 60a7 782c b8e3 b3bf ebc8 b6f5 ce7c a83f
00000750: 5f42 35b8 9692 9e3f bfe6 afcd 0c64 943f
00000760: 60d6 8b44 cba7 95bf ecfa 0e89 2e60 af3f
00000770: 44f9 84b2 f5e0 b4bf 1921 e44b 54b4 9e3f
00000780: 2ae7 e86a 1470 ab3f d47e ac6d 65d7 b13f
00000790: 5c33 d65f df95 a8bf 83e8 cdfe dd2b b4bf
000007a0: cb3c 622a 7080 b2bf e840 093d 82ca aabf
000007b0: 8e21 762b 508b a93f 7c76 2551 1f91 a2bf
000007c0: 9b3a 3f99 bc0e b2bf f8cc d722 2f6b a2bf
000007d0: c0cc b7e7 c783 a4bf 83be 3da8 75a4 b33f
000007e0: d719 15df 5c3b a23f 618b 8f03 5fbf ad3f
000007f0: a518 c737 e56a b83f bed4 599c 8598 a1bf
