L2minimization/plot-figure-data/1d/data2/model_OGA_1D_sine1d_neuron_512_N_1024_deterministic.pt (torch, 14719 bytes, 3 tensors)

weight f8 [512, 1]
1.0 1.0 1.0 1.0 1.0 1.0 1.0 1.0
1.0 1.0 1.0 1.0 1.0 1.0 1.0 1.0
1.0 1.0 1.0 1.0 1.0 1.0 1.0 1.0
1.0 1.0 1.0 1.0 1.0 1.0 1.0 1.0
1.0 1.0 1.0 1.0 1.0 1.0 1.0 1.0
1.0 1.0 1.0 1.0 1.0 1.0 1.0 1.0
1.0 1.0 1.0 1.0 1.0 1.0 1.0 1.0
1.0 1.0 1.0 1.0 1.0 1.0 1.0 1.0
1.0 1.0 1.0 1.0 1.0 1.0 1.0 1.0
1.0 1.0 1.0 1.0 1.0 1.0 1.0 1.0
1.0 1.0 1.0 1.0 1.0 1.0 1.0 1.0
1.0 1.0 1.0 1.0 1.0 1.0 1.0 1.0
1.0 1.0 1.0 1.0 1.0 1.0 1.0 1.0
1.0 1.0 1.0 1.0 1.0 1.0 1.0 1.0
1.0 1.0 1.0 1.0 1.0 1.0 1.0 1.0
1.0 1.0 1.0 1.0 1.0 1.0 1.0 1.0
1.0 1.0 1.0 1.0 1.0 1.0 1.0 1.0
1.0 1.0 1.0 1.0 1.0 1.0 1.0 1.0
1.0 1.0 1.0 1.0 1.0 1.0 1.0 1.0
1.0 1.0 1.0 1.0 1.0 1.0 1.0 1.0
1.0 1.0 1.0 1.0 1.0 1.0 1.0 1.0
1.0 1.0 1.0 1.0 1.0 1.0 1.0 1.0
1.0 1.0 1.0 1.0 1.0 1.0 1.0 1.0
1.0 1.0 1.0 1.0 1.0 1.0 1.0 1.0
1.0 1.0 1.0 1.0 1.0 1.0 1.0 1.0
1.0 1.0 1.0 1.0 1.0 1.0 1.0 1.0
1.0 1.0 1.0 1.0 1.0 1.0 1.0 1.0
1.0 1.0 1.0 1.0 1.0 1.0 1.0 1.0
1.0 1.0 1.0 1.0 1.0 1.0 1.0 1.0
1.0 1.0 1.0 1.0 1.0 1.0 1.0 1.0
1.0 1.0 1.0 1.0 1.0 1.0 1.0 1.0
1.0 1.0 1.0 1.0 1.0 1.0 1.0 1.0
00000000: 0000 0000 0000 f03f 0000 0000 0000 f03f
00000010: 0000 0000 0000 f03f 0000 0000 0000 f03f
00000020: 0000 0000 0000 f03f 0000 0000 0000 f03f
00000030: 0000 0000 0000 f03f 0000 0000 0000 f03f
00000040: 0000 0000 0000 f03f 0000 0000 0000 f03f
00000050: 0000 0000 0000 f03f 0000 0000 0000 f03f
00000060: 0000 0000 0000 f03f 0000 0000 0000 f03f
00000070: 0000 0000 0000 f03f 0000 0000 0000 f03f
00000080: 0000 0000 0000 f03f 0000 0000 0000 f03f
00000090: 0000 0000 0000 f03f 0000 0000 0000 f03f
000000a0: 0000 0000 0000 f03f 0000 0000 0000 f03f
000000b0: 0000 0000 0000 f03f 0000 0000 0000 f03f
000000c0: 0000 0000 0000 f03f 0000 0000 0000 f03f
000000d0: 0000 0000 0000 f03f 0000 0000 0000 f03f
000000e0: 0000 0000 0000 f03f 0000 0000 0000 f03f
000000f0: 0000 0000 0000 f03f 0000 0000 0000 f03f
00000100: 0000 0000 0000 f03f 0000 0000 0000 f03f
00000110: 0000 0000 0000 f03f 0000 0000 0000 f03f
00000120: 0000 0000 0000 f03f 0000 0000 0000 f03f
00000130: 0000 0000 0000 f03f 0000 0000 0000 f03f
00000140: 0000 0000 0000 f03f 0000 0000 0000 f03f
00000150: 0000 0000 0000 f03f 0000 0000 0000 f03f
00000160: 0000 0000 0000 f03f 0000 0000 0000 f03f
00000170: 0000 0000 0000 f03f 0000 0000 0000 f03f
00000180: 0000 0000 0000 f03f 0000 0000 0000 f03f
00000190: 0000 0000 0000 f03f 0000 0000 0000 f03f
000001a0: 0000 0000 0000 f03f 0000 0000 0000 f03f
000001b0: 0000 0000 0000 f03f 0000 0000 0000 f03f
000001c0: 0000 0000 0000 f03f 0000 0000 0000 f03f
000001d0: 0000 0000 0000 f03f 0000 0000 0000 f03f
000001e0: 0000 0000 0000 f03f 0000 0000 0000 f03f
000001f0: 0000 0000 0000 f03f 0000 0000 0000 f03f
00000200: 0000 0000 0000 f03f 0000 0000 0000 f03f
00000210: 0000 0000 0000 f03f 0000 0000 0000 f03f
00000220: 0000 0000 0000 f03f 0000 0000 0000 f03f
00000230: 0000 0000 0000 f03f 0000 0000 0000 f03f
00000240: 0000 0000 0000 f03f 0000 0000 0000 f03f
00000250: 0000 0000 0000 f03f 0000 0000 0000 f03f
00000260: 0000 0000 0000 f03f 0000 0000 0000 f03f
00000270: 0000 0000 0000 f03f 0000 0000 0000 f03f
00000280: 0000 0000 0000 f03f 0000 0000 0000 f03f
00000290: 0000 0000 0000 f03f 0000 0000 0000 f03f
000002a0: 0000 0000 0000 f03f 0000 0000 0000 f03f
000002b0: 0000 0000 0000 f03f 0000 0000 0000 f03f
000002c0: 0000 0000 0000 f03f 0000 0000 0000 f03f
000002d0: 0000 0000 0000 f03f 0000 0000 0000 f03f
000002e0: 0000 0000 0000 f03f 0000 0000 0000 f03f
000002f0: 0000 0000 0000 f03f 0000 0000 0000 f03f
00000300: 0000 0000 0000 f03f 0000 0000 0000 f03f
00000310: 0000 0000 0000 f03f 0000 0000 0000 f03f
00000320: 0000 0000 0000 f03f 0000 0000 0000 f03f
00000330: 0000 0000 0000 f03f 0000 0000 0000 f03f
00000340: 0000 0000 0000 f03f 0000 0000 0000 f03f
00000350: 0000 0000 0000 f03f 0000 0000 0000 f03f
00000360: 0000 0000 0000 f03f 0000 0000 0000 f03f
00000370: 0000 0000 0000 f03f 0000 0000 0000 f03f
00000380: 0000 0000 0000 f03f 0000 0000 0000 f03f
00000390: 0000 0000 0000 f03f 0000 0000 0000 f03f
000003a0: 0000 0000 0000 f03f 0000 0000 0000 f03f
000003b0: 0000 0000 0000 f03f 0000 0000 0000 f03f
000003c0: 0000 0000 0000 f03f 0000 0000 0000 f03f
000003d0: 0000 0000 0000 f03f 0000 0000 0000 f03f
000003e0: 0000 0000 0000 f03f 0000 0000 0000 f03f
000003f0: 0000 0000 0000 f03f 0000 0000 0000 f03f
00000400: 0000 0000 0000 f03f 0000 0000 0000 f03f
00000410: 0000 0000 0000 f03f 0000 0000 0000 f03f
00000420: 0000 0000 0000 f03f 0000 0000 0000 f03f
00000430: 0000 0000 0000 f03f 0000 0000 0000 f03f
00000440: 0000 0000 0000 f03f 0000 0000 0000 f03f
00000450: 0000 0000 0000 f03f 0000 0000 0000 f03f
00000460: 0000 0000 0000 f03f 0000 0000 0000 f03f
00000470: 0000 0000 0000 f03f 0000 0000 0000 f03f
00000480: 0000 0000 0000 f03f 0000 0000 0000 f03f
00000490: 0000 0000 0000 f03f 0000 0000 0000 f03f
000004a0: 0000 0000 0000 f03f 0000 0000 0000 f03f
000004b0: 0000 0000 0000 f03f 0000 0000 0000 f03f
000004c0: 0000 0000 0000 f03f 0000 0000 0000 f03f
000004d0: 0000 0000 0000 f03f 0000 0000 0000 f03f
000004e0: 0000 0000 0000 f03f 0000 0000 0000 f03f
000004f0: 0000 0000 0000 f03f 0000 0000 0000 f03f
00000500: 0000 0000 0000 f03f 0000 0000 0000 f03f
00000510: 0000 0000 0000 f03f 0000 0000 0000 f03f
00000520: 0000 0000 0000 f03f 0000 0000 0000 f03f
00000530: 0000 0000 0000 f03f 0000 0000 0000 f03f
00000540: 0000 0000 0000 f03f 0000 0000 0000 f03f
00000550: 0000 0000 0000 f03f 0000 0000 0000 f03f
00000560: 0000 0000 0000 f03f 0000 0000 0000 f03f
00000570: 0000 0000 0000 f03f 0000 0000 0000 f03f
00000580: 0000 0000 0000 f03f 0000 0000 0000 f03f
00000590: 0000 0000 0000 f03f 0000 0000 0000 f03f
000005a0: 0000 0000 0000 f03f 0000 0000 0000 f03f
000005b0: 0000 0000 0000 f03f 0000 0000 0000 f03f
000005c0: 0000 0000 0000 f03f 0000 0000 0000 f03f
000005d0: 0000 0000 0000 f03f 0000 0000 0000 f03f
000005e0: 0000 0000 0000 f03f 0000 0000 0000 f03f
000005f0: 0000 0000 0000 f03f 0000 0000 0000 f03f
00000600: 0000 0000 0000 f03f 0000 0000 0000 f03f
00000610: 0000 0000 0000 f03f 0000 0000 0000 f03f
00000620: 0000 0000 0000 f03f 0000 0000 0000 f03f
00000630: 0000 0000 0000 f03f 0000 0000 0000 f03f
00000640: 0000 0000 0000 f03f 0000 0000 0000 f03f
00000650: 0000 0000 0000 f03f 0000 0000 0000 f03f
00000660: 0000 0000 0000 f03f 0000 0000 0000 f03f
00000670: 0000 0000 0000 f03f 0000 0000 0000 f03f
00000680: 0000 0000 0000 f03f 0000 0000 0000 f03f
00000690: 0000 0000 0000 f03f 0000 0000 0000 f03f
000006a0: 0000 0000 0000 f03f 0000 0000 0000 f03f
000006b0: 0000 0000 0000 f03f 0000 0000 0000 f03f
000006c0: 0000 0000 0000 f03f 0000 0000 0000 f03f
000006d0: 0000 0000 0000 f03f 0000 0000 0000 f03f
000006e0: 0000 0000 0000 f03f 0000 0000 0000 f03f
000006f0: 0000 0000 0000 f03f 0000 0000 0000 f03f
00000700: 0000 0000 0000 f03f 0000 0000 0000 f03f
00000710: 0000 0000 0000 f03f 0000 0000 0000 f03f
00000720: 0000 0000 0000 f03f 0000 0000 0000 f03f
00000730: 0000 0000 0000 f03f 0000 0000 0000 f03f
00000740: 0000 0000 0000 f03f 0000 0000 0000 f03f
00000750: 0000 0000 0000 f03f 0000 0000 0000 f03f
00000760: 0000 0000 0000 f03f 0000 0000 0000 f03f
00000770: 0000 0000 0000 f03f 0000 0000 0000 f03f
00000780: 0000 0000 0000 f03f 0000 0000 0000 f03f
00000790: 0000 0000 0000 f03f 0000 0000 0000 f03f
000007a0: 0000 0000 0000 f03f 0000 0000 0000 f03f
000007b0: 0000 0000 0000 f03f 0000 0000 0000 f03f
000007c0: 0000 0000 0000 f03f 0000 0000 0000 f03f
000007d0: 0000 0000 0000 f03f 0000 0000 0000 f03f
000007e0: 0000 0000 0000 f03f 0000 0000 0000 f03f
000007f0: 0000 0000 0000 f03f 0000 0000 0000 f03f

bias f8 [512]
-0.0 -0.30859375 -0.6533203125 -0.14453125 -0.806640625 -0.4404296875 -0.2255859375 -0.54296875
-0.900390625 -0.7294921875 -0.0673828125 -0.375 -0.5966796875 -0.8544921875 -0.2685546875 -0.185546875
-0.76953125 -0.69140625 -0.9453125 -0.1064453125 -0.3408203125 -0.4072265625 -0.4833984375 -0.625
-0.03125 -0.830078125 -0.5703125 -0.876953125 -0.2470703125 -0.2880859375 -0.2060546875 -0.1650390625
-0.9228515625 -0.7490234375 -0.7880859375 -0.7109375 -0.6728515625 -0.5126953125 -0.1259765625 -0.9697265625
-0.0869140625 -0.32421875 -0.357421875 -0.462890625 -0.390625 -0.423828125 -0.0498046875 -0.6396484375
-0.611328125 -0.583984375 -0.8427734375 -0.818359375 -0.556640625 -0.52734375 -0.865234375 -0.888671875
-0.2578125 -0.236328125 -0.0146484375 -0.298828125 -0.2783203125 -0.759765625 -0.7392578125 -0.9111328125
-0.216796875 -0.1962890625 -0.17578125 -0.1552734375 -0.6630859375 -0.7783203125 -0.796875 -0.720703125
-0.701171875 -0.6826171875 -0.93359375 -0.95703125 -0.1357421875 -0.1162109375 -0.0966796875 -0.451171875
-0.0771484375 -0.9833984375 -0.3662109375 -0.349609375 -0.3330078125 -0.31640625 -0.3828125 -0.3984375
-0.4150390625 -0.431640625 -0.4736328125 -0.05859375 -0.041015625 -0.6318359375 -0.646484375 -0.603515625
-0.6181640625 -0.8359375 -0.8486328125 -0.82421875 -0.8125 -0.4951171875 -0.5908203125 -0.5771484375
-0.5634765625 -0.2119140625 -0.0224609375 -0.75390625 -0.169921875 -0.23046875 -0.2412109375 -0.251953125
-0.2626953125 -0.29296875 -0.53515625 -0.5498046875 -0.87109375 -0.8828125 -0.89453125 -0.8603515625
-0.1494140625 -0.1904296875 -0.201171875 -0.1806640625 -0.7646484375 -0.8017578125 -0.3037109375 -0.16015625
-0.744140625 -0.734375 -0.283203125 -0.2734375 -0.9169921875 -0.9052734375 -0.6962890625 -0.7060546875
-0.7158203125 -0.2216796875 -0.783203125 -0.658203125 -0.66796875 -0.677734375 -0.7255859375 -0.5205078125
-0.7734375 -0.7919921875 -0.6875 -0.927734375 -0.939453125 -0.951171875 -0.962890625 -0.9765625
-0.130859375 -0.12109375 -0.111328125 -0.140625 -0.1015625 -0.091796875 -0.3291015625 -0.08203125
-0.072265625 -0.345703125 -0.45703125 -0.4462890625 -0.0068359375 -0.3369140625 -0.9912109375 -0.50390625
-0.37109375 -0.3623046875 -0.353515625 -0.4033203125 -0.3125 -0.3203125 -0.4677734375 -0.6357421875
-0.37890625 -0.419921875 -0.38671875 -0.39453125 -0.4111328125 -0.0634765625 -0.4365234375 -0.607421875
-0.0546875 -0.427734375 -0.83984375 -0.0361328125 -0.0458984375 -0.650390625 -0.642578125 -0.62890625
-0.6005859375 -0.6220703125 -0.6142578125 -0.2548828125 -0.7568359375 -0.244140625 -0.478515625 -0.4892578125
-0.2958984375 -0.208984375 -0.265625 -0.193359375 -0.02734375 -0.2333984375 -0.1728515625 -0.845703125
-0.8095703125 -0.8154296875 -0.8212890625 -0.8271484375 -0.8330078125 -0.15234375 -0.8515625 -0.857421875
-0.587890625 -0.5810546875 -0.57421875 -0.5673828125 -0.59375 -0.560546875 -0.5390625 -0.53125
-0.8681640625 -0.8740234375 -0.8798828125 -0.8857421875 -0.8916015625 -0.8974609375 -0.5537109375 -0.5458984375
-0.2607421875 -0.25 -0.2392578125 -0.228515625 -0.908203125 -0.9140625 -0.919921875 -0.2705078125
-0.751953125 -0.7470703125 -0.7421875 -0.775390625 -0.76171875 -0.7666015625 -0.275390625 -0.2802734375
-0.8046875 -0.7236328125 -0.71875 -0.7138671875 -0.7373046875 -0.732421875 -0.708984375 -0.7041015625
00000000: 0000 0000 0000 0080 0000 0000 00c0 d3bf
00000010: 0000 0000 00e8 e4bf 0000 0000 0080 c2bf
00000020: 0000 0000 00d0 e9bf 0000 0000 0030 dcbf
00000030: 0000 0000 00e0 ccbf 0000 0000 0060 e1bf
00000040: 0000 0000 00d0 ecbf 0000 0000 0058 e7bf
00000050: 0000 0000 0040 b1bf 0000 0000 0000 d8bf
00000060: 0000 0000 0018 e3bf 0000 0000 0058 ebbf
00000070: 0000 0000 0030 d1bf 0000 0000 00c0 c7bf
00000080: 0000 0000 00a0 e8bf 0000 0000 0020 e6bf
00000090: 0000 0000 0040 eebf 0000 0000 0040 bbbf
000000a0: 0000 0000 00d0 d5bf 0000 0000 0010 dabf
000000b0: 0000 0000 00f0 debf 0000 0000 0000 e4bf
000000c0: 0000 0000 0000 a0bf 0000 0000 0090 eabf
000000d0: 0000 0000 0040 e2bf 0000 0000 0010 ecbf
000000e0: 0000 0000 00a0 cfbf 0000 0000 0070 d2bf
000000f0: 0000 0000 0060 cabf 0000 0000 0020 c5bf
00000100: 0000 0000 0088 edbf 0000 0000 00f8 e7bf
00000110: 0000 0000 0038 e9bf 0000 0000 00c0 e6bf
00000120: 0000 0000 0088 e5bf 0000 0000 0068 e0bf
00000130: 0000 0000 0020 c0bf 0000 0000 0008 efbf
00000140: 0000 0000 0040 b6bf 0000 0000 00c0 d4bf
00000150: 0000 0000 00e0 d6bf 0000 0000 00a0 ddbf
00000160: 0000 0000 0000 d9bf 0000 0000 0020 dbbf
00000170: 0000 0000 0080 a9bf 0000 0000 0078 e4bf
00000180: 0000 0000 0090 e3bf 0000 0000 00b0 e2bf
00000190: 0000 0000 00f8 eabf 0000 0000 0030 eabf
000001a0: 0000 0000 00d0 e1bf 0000 0000 00e0 e0bf
000001b0: 0000 0000 00b0 ebbf 0000 0000 0070 ecbf
000001c0: 0000 0000 0080 d0bf 0000 0000 0040 cebf
000001d0: 0000 0000 0000 8ebf 0000 0000 0020 d3bf
000001e0: 0000 0000 00d0 d1bf 0000 0000 0050 e8bf
000001f0: 0000 0000 00a8 e7bf 0000 0000 0028 edbf
00000200: 0000 0000 00c0 cbbf 0000 0000 0020 c9bf
00000210: 0000 0000 0080 c6bf 0000 0000 00e0 c3bf
00000220: 0000 0000 0038 e5bf 0000 0000 00e8 e8bf
00000230: 0000 0000 0080 e9bf 0000 0000 0010 e7bf
00000240: 0000 0000 0070 e6bf 0000 0000 00d8 e5bf
00000250: 0000 0000 00e0 edbf 0000 0000 00a0 eebf
00000260: 0000 0000 0060 c1bf 0000 0000 00c0 bdbf
00000270: 0000 0000 00c0 b8bf 0000 0000 00e0 dcbf
00000280: 0000 0000 00c0 b3bf 0000 0000 0078 efbf
00000290: 0000 0000 0070 d7bf 0000 0000 0060 d6bf
000002a0: 0000 0000 0050 d5bf 0000 0000 0040 d4bf
000002b0: 0000 0000 0080 d8bf 0000 0000 0080 d9bf
000002c0: 0000 0000 0090 dabf 0000 0000 00a0 dbbf
000002d0: 0000 0000 0050 debf 0000 0000 0000 aebf
000002e0: 0000 0000 0000 a5bf 0000 0000 0038 e4bf
000002f0: 0000 0000 00b0 e4bf 0000 0000 0050 e3bf
00000300: 0000 0000 00c8 e3bf 0000 0000 00c0 eabf
00000310: 0000 0000 0028 ebbf 0000 0000 0060 eabf
00000320: 0000 0000 0000 eabf 0000 0000 00b0 dfbf
00000330: 0000 0000 00e8 e2bf 0000 0000 0078 e2bf
00000340: 0000 0000 0008 e2bf 0000 0000 0020 cbbf
00000350: 0000 0000 0000 97bf 0000 0000 0020 e8bf
00000360: 0000 0000 00c0 c5bf 0000 0000 0080 cdbf
00000370: 0000 0000 00e0 cebf 0000 0000 0020 d0bf
00000380: 0000 0000 00d0 d0bf 0000 0000 00c0 d2bf
00000390: 0000 0000 0020 e1bf 0000 0000 0098 e1bf
000003a0: 0000 0000 00e0 ebbf 0000 0000 0040 ecbf
000003b0: 0000 0000 00a0 ecbf 0000 0000 0088 ebbf
000003c0: 0000 0000 0020 c3bf 0000 0000 0060 c8bf
000003d0: 0000 0000 00c0 c9bf 0000 0000 0020 c7bf
000003e0: 0000 0000 0078 e8bf 0000 0000 00a8 e9bf
000003f0: 0000 0000 0070 d3bf 0000 0000 0080 c4bf
00000400: 0000 0000 00d0 e7bf 0000 0000 0080 e7bf
00000410: 0000 0000 0020 d2bf 0000 0000 0080 d1bf
00000420: 0000 0000 0058 edbf 0000 0000 00f8 ecbf
00000430: 0000 0000 0048 e6bf 0000 0000 0098 e6bf
00000440: 0000 0000 00e8 e6bf 0000 0000 0060 ccbf
00000450: 0000 0000 0010 e9bf 0000 0000 0010 e5bf
00000460: 0000 0000 0060 e5bf 0000 0000 00b0 e5bf
00000470: 0000 0000 0038 e7bf 0000 0000 00a8 e0bf
00000480: 0000 0000 00c0 e8bf 0000 0000 0058 e9bf
00000490: 0000 0000 0000 e6bf 0000 0000 00b0 edbf
000004a0: 0000 0000 0010 eebf 0000 0000 0070 eebf
000004b0: 0000 0000 00d0 eebf 0000 0000 0040 efbf
000004c0: 0000 0000 00c0 c0bf 0000 0000 0000 bfbf
000004d0: 0000 0000 0080 bcbf 0000 0000 0000 c2bf
000004e0: 0000 0000 0000 babf 0000 0000 0080 b7bf
000004f0: 0000 0000 0010 d5bf 0000 0000 0000 b5bf
00000500: 0000 0000 0080 b2bf 0000 0000 0020 d6bf
00000510: 0000 0000 0040 ddbf 0000 0000 0090 dcbf
00000520: 0000 0000 0000 7cbf 0000 0000 0090 d5bf
00000530: 0000 0000 00b8 efbf 0000 0000 0020 e0bf
00000540: 0000 0000 00c0 d7bf 0000 0000 0030 d7bf
00000550: 0000 0000 00a0 d6bf 0000 0000 00d0 d9bf
00000560: 0000 0000 0000 d4bf 0000 0000 0080 d4bf
00000570: 0000 0000 00f0 ddbf 0000 0000 0058 e4bf
00000580: 0000 0000 0040 d8bf 0000 0000 00e0 dabf
00000590: 0000 0000 00c0 d8bf 0000 0000 0040 d9bf
000005a0: 0000 0000 0050 dabf 0000 0000 0040 b0bf
000005b0: 0000 0000 00f0 dbbf 0000 0000 0070 e3bf
000005c0: 0000 0000 0000 acbf 0000 0000 0060 dbbf
000005d0: 0000 0000 00e0 eabf 0000 0000 0080 a2bf
000005e0: 0000 0000 0080 a7bf 0000 0000 00d0 e4bf
000005f0: 0000 0000 0090 e4bf 0000 0000 0020 e4bf
00000600: 0000 0000 0038 e3bf 0000 0000 00e8 e3bf
00000610: 0000 0000 00a8 e3bf 0000 0000 0050 d0bf
00000620: 0000 0000 0038 e8bf 0000 0000 0040 cfbf
00000630: 0000 0000 00a0 debf 0000 0000 0050 dfbf
00000640: 0000 0000 00f0 d2bf 0000 0000 00c0 cabf
00000650: 0000 0000 0000 d1bf 0000 0000 00c0 c8bf
00000660: 0000 0000 0000 9cbf 0000 0000 00e0 cdbf
00000670: 0000 0000 0020 c6bf 0000 0000 0010 ebbf
00000680: 0000 0000 00e8 e9bf 0000 0000 0018 eabf
00000690: 0000 0000 0048 eabf 0000 0000 0078 eabf
000006a0: 0000 0000 00a8 eabf 0000 0000 0080 c3bf
000006b0: 0000 0000 0040 ebbf 0000 0000 0070 ebbf
000006c0: 0000 0000 00d0 e2bf 0000 0000 0098 e2bf
000006d0: 0000 0000 0060 e2bf 0000 0000 0028 e2bf
000006e0: 0000 0000 0000 e3bf 0000 0000 00f0 e1bf
000006f0: 0000 0000 0040 e1bf 0000 0000 0000 e1bf
00000700: 0000 0000 00c8 ebbf 0000 0000 00f8 ebbf
00000710: 0000 0000 0028 ecbf 0000 0000 0058 ecbf
00000720: 0000 0000 0088 ecbf 0000 0000 00b8 ecbf
00000730: 0000 0000 00b8 e1bf 0000 0000 0078 e1bf
00000740: 0000 0000 00b0 d0bf 0000 0000 0000 d0bf
00000750: 0000 0000 00a0 cebf 0000 0000 0040 cdbf
00000760: 0000 0000 0010 edbf 0000 0000 0040 edbf
00000770: 0000 0000 0070 edbf 0000 0000 0050 d1bf
00000780: 0000 0000 0010 e8bf 0000 0000 00e8 e7bf
00000790: 0000 0000 00c0 e7bf 0000 0000 00d0 e8bf
000007a0: 0000 0000 0060 e8bf 0000 0000 0088 e8bf
000007b0: 0000 0000 00a0 d1bf 0000 0000 00f0 d1bf
000007c0: 0000 0000 00c0 e9bf 0000 0000 0028 e7bf
000007d0: 0000 0000 0000 e7bf 0000 0000 00d8 e6bf
000007e0: 0000 0000 0098 e7bf 0000 0000 0070 e7bf
000007f0: 0000 0000 00b0 e6bf 0000 0000 0088 e6bf

weight f8 [1, 512]
6.283118193322785 -0.05178600869753635 0.06929389120410132 -0.06376635318056269 0.053950159545798654 -0.03729704091922172 -0.07903993863099015 0.02792602776063616
0.054558134802790995 0.05497575490003833 -0.04451369219805219 -0.054715803966376125 0.057093090128559995 0.06727304782204893 -0.057163550529541834 -0.07804474733440184
0.05501366511980845 0.05167619620240483 0.03896552397965698 -0.03360877971035479 -0.0678916734029303 -0.0426856937534731 -0.009474502465572406 0.05720879834760086
-0.01398301855834753 0.07438656438268394 0.044903408808047614 0.08278510868358929 -0.08489466985407428 -0.05826846108213014 -0.05202890583721937 -0.0731064741900902
0.04346773994106095 0.07967368777886787 0.07887465546686391 0.05255674131244662 0.07486925600416722 0.013839727390235425 -0.03850482566285105 0.019697437963806137
-0.05335632745597039 -0.07205199320247323 -0.06295904830225921 -0.02164724323050808 -0.04892008335797211 -0.03516240631273138 -0.020486865302501843 0.06205752902387529
0.051965885769105775 0.052759830093970964 0.04812760371414494 0.05272464359956964 0.036672259027336014 0.015746077117540704 0.04357458893036703 0.0744244323958549
-0.059965710079406535 -0.0846126307594989 -0.013920232554752172 -0.049310263180108276 -0.0784364051562368 0.05169856049840378 0.05409126002762353 0.061430061651297246
-0.053046735558719686 -0.0801137858135568 -0.048381440145819875 -0.044920761045063026 0.07206815783104123 0.05273299062584802 0.0807558888131547 0.05277559978423058
0.051655342496568266 0.04881415439306709 0.04702400927322039 0.030893812223967903 -0.04031274197067708 -0.03610582018857859 -0.058623819715224325 -0.02768068907061744
-0.04415561323312001 0.016508435690667095 -0.06028319606265243 -0.06273062655634459 -0.06709891265477609 -0.07043358710612055 -0.05177503236790451 -0.04801901904332655
-0.052549283488414436 -0.028468617770118672 -0.01571940269576163 -0.025103201707453237 -0.02507539455221579 0.04068068253487874 0.05984223128378081 0.03363169867037641
0.05082710092895177 0.04425828171949624 0.04741341178895329 0.051963293101060494 0.05356096256898115 -0.004800312056962261 0.06355063235490642 0.04896238302987246
0.04076501658186628 -0.052733684630470096 -0.016253878160961667 0.08466686658646062 -0.0524492887094966 -0.057264243669356264 -0.057488120239609995 -0.06004979481226128
-0.08463496835502639 -0.0818116216564723 0.01695911674394801 0.025256830896521712 0.04660975415965971 0.0778128414628392 0.07044518690398625 0.04438667168590409
-0.04830698819111623 -0.05346586322978941 -0.05716582630107607 -0.05450757002855718 0.05399807590136351 0.08019139144662527 -0.05113014867472541 -0.050854435786270184
0.0534811694272828 0.05391579804588268 -0.052242716553236444 -0.0837935374871799 0.05707493454453092 0.06754152470735862 0.051101946070795275 0.05213278867426664
0.05295351929596513 -0.055077050250634474 0.05874796144983159 0.07069208011948235 0.0733687602044878 0.053827976644525426 0.07432517281716237 0.02046710183944748
0.0743961410865204 0.07810350712686283 0.06948791749803265 0.052875718460865744 0.042957400150919485 0.034933191782243085 0.027364288206844934 0.013885074484296196
-0.03967354509405378 -0.037332951619617125 -0.034803790791042885 -0.05908665765758559 -0.025669057540856664 -0.022437182241650547 -0.07096665660859373 -0.019920237457325123
-0.043012225739346495 -0.0665849427393637 -0.030185460830277906 -0.039381674758502135 -0.006638060451719264 -0.06612604794257056 0.008508673875816082 0.0030348174849405976
-0.05850476443477149 -0.06168089759132819 -0.061586719609974624 -0.04612613035550641 -0.07034415488557394 -0.06991847161332505 -0.02412947767683476 0.057572260166009505
-0.053182177428508226 -0.03250720522932321 -0.05035660116828592 -0.04758803644914232 -0.042117881942802894 -0.04105796510777089 -0.041188428261225984 0.0477781187439928
-0.03447546577963435 -0.03353602223255992 0.04365231253489566 -0.027993340067488482 -0.01915584376657257 0.04485173457833927 0.042960612346269876 0.05867912649107043
0.04894320289546385 0.038010946810831656 0.03622904853573892 -0.08483751666515006 0.059958535568869514 -0.06039288836423329 -0.01682795620413293 -0.00781393425728152
-0.057508615945992186 -0.08156768088881362 -0.06011767879537156 -0.056511849983483804 -0.01786104443463973 -0.060076793951044156 -0.0748500240848395 0.0478736858715184
0.05392995852545025 0.05315367892550574 0.0522876900203166 0.053620010565168415 0.05194642940630338 -0.06917007003654115 0.0487258060830575 0.047035811313072176
0.053681311878747424 0.05158838261286469 0.04756067514624453 0.04347964551529415 0.06579146838770329 0.039325517286061686 0.01942564755683705 0.015267012168423322
0.0431397426176368 0.07364001507940027 0.0786984270005051 0.07605653265524359 0.0730117997116223 0.07212729389384778 0.03449321843782282 0.029286545083433226
-0.05159101481574448 -0.060044347472712624 -0.06031892837873526 -0.05914425396450889 0.06235972532247441 0.05955995801085792 0.057869136732749446 -0.059942320091289476
0.05341658048352107 0.07966159983405305 0.08430951806763756 0.07985929390407712 0.0843855786049404 0.08392990025703084 -0.05276960998224745 -0.0782192428343051
0.05679273677519944 0.07978491384422208 0.08277218841786496 0.08216884432894188 0.08406280638132181 0.08388302086193787 0.08155204362358803 0.0808516047741877
00000000: 58e5 54bc e921 1940 bf19 7e1b b283 aabf
00000010: 26c1 8894 3ebd b13f 59e6 7ee1 fd52 b0bf
00000020: b4f3 b9f5 5a9f ab3f a3a4 f805 9918 a3bf
00000030: a279 7f1f f63b b4bf c9a8 c1ff a398 9c3f
00000040: dae0 6a39 0bef ab3f 0bb6 bc3a c825 ac3f
00000050: 1a00 6ea8 7fca a6bf 1449 38b9 b503 acbf
00000060: 9e07 dc35 4e3b ad3f 1246 4c74 ce38 b13f
00000070: 6462 1878 8a44 adbf ca03 6d95 bdfa b3bf
00000080: d39b 0b49 c02a ac3f 618e 5769 4d75 aa3f
00000090: ea08 5406 4af3 a33f 5dcb 6d83 2b35 a1bf
000000a0: 45b1 ef44 5961 b1bf 1242 5b35 e6da a5bf
000000b0: 5e50 e231 5e67 83bf 238f e4bb 784a ad3f
000000c0: 557c 42fb 20a3 8cbf ad11 4975 ff0a b33f
000000d0: 8974 9e60 94fd a63f 6c4e 64a6 6731 b53f
000000e0: 63c2 a036 a8bb b5bf b1d4 781d 5dd5 adbf
000000f0: 79f8 0862 88a3 aabf d0b5 c51b 1bb7 b2bf
00000100: f7ad f452 6741 a63f e9a8 5cab 7e65 b43f
00000110: 89a4 b621 2131 b43f c519 3e9a b7e8 aa3f
00000120: 1c85 03ae a12a b33f c182 36c4 0058 8c3f
00000130: bd95 eb8d e7b6 a3bf b267 7aaf 902b 943f
00000140: cd86 ea42 8551 abbf 7f8e 6ada ff71 b2bf
00000150: 7a0b 728d 151e b0bf acf4 e4e6 b12a 96bf
00000160: 1ab9 479c 0d0c a9bf 61dd 5292 ce00 a2bf
00000170: 3620 e341 82fa 94bf 5098 4123 01c6 af3f
00000180: 519f c5c7 459b aa3f 4a9d 9721 5603 ab3f
00000190: 4265 f967 2ea4 a83f 0125 e877 b9fe aa3f
000001a0: 19bd 62d2 b4c6 a23f da5f 0a59 bd1f 903f
000001b0: f0fe c894 684f a63f 0ddf 29c7 7a0d b33f
000001c0: cf4d 5857 d3b3 aebf 4ac9 f061 2ca9 b5bf
000001d0: 445e 9afc 3582 8cbf 9772 6edf 313f a9bf
000001e0: 553b f682 6814 b4bf 4a8d 2ed5 3b78 aa3f
000001f0: beda a281 d9b1 ab3f 1c32 91d3 c273 af3f
00000200: e7bd c414 f128 abbf 6229 074a 5682 b4bf
00000210: 4bc1 51be 73c5 a8bf 1e30 339f daff a6bf
00000220: 36a0 f70c 0f73 b23f a00b 518c d1ff aa3f
00000230: 0b73 69fd 6aac b43f 693a 3346 6705 ab3f
00000240: 0675 5fad 9172 aa3f da75 6639 2bfe a83f
00000250: c31a e9eb 8713 a83f fb52 9aa4 a0a2 9f3f
00000260: 0896 c028 dfa3 a4bf 9576 cf49 767c a2bf
00000270: ed10 e3f8 f003 aebf d1fb 2799 5358 9cbf
00000280: 61ca 8a85 909b a6bf 881f 995d 96e7 903f
00000290: 01c6 2c67 70dd aebf f45f 8445 1d0f b0bf
000002a0: 710d 73f3 642d b1bf 3e27 2981 ef07 b2bf
000002b0: c4fa 89cd 4182 aabf c611 c1e8 f295 a8bf
000002c0: 3a9e 055c bde7 aabf e2d2 2399 e026 9dbf
000002d0: b6bb f641 bf18 90bf 3301 6f59 a7b4 99bf
000002e0: cded 243e 5dad 99bf 2bed 2132 19d4 a43f
000002f0: c927 9114 a4a3 ae3f 00e0 cb8b 2c38 a13f
00000300: b90d 7b80 0206 aa3f b6f1 1f81 05a9 a63f
00000310: bdf8 0c1a 9246 a83f fd4b ecc8 ee9a aa3f
00000320: 93f0 26ad 576c ab3f 5655 b9f4 7da9 73bf
00000330: bfbc 9aaf da44 b03f 23ef b1f3 9811 a93f
00000340: a27c 14fa 26df a43f 4c59 c5d5 e8ff aabf
00000350: 1aba 894c dba4 90bf 392c 0b4f baac b53f
00000360: 0e58 6917 a2da aabf c582 942b bd51 adbf
00000370: 3bdf ac38 156f adbf d549 b3c1 d8be aebf
00000380: 29ce 2e25 a3aa b5bf 8a80 723f 9bf1 b4bf
00000390: 4020 230f bb5d 913f b4fd cd3a eddc 993f
000003a0: 3da7 94d3 3bdd a73f a2ae 4ad9 8aeb b33f
000003b0: 57c9 e91d b208 b23f c7da 898e d9b9 a63f
000003c0: c0f0 e58c b1bb a8bf 3078 0cac e05f abbf
000003d0: 96e9 d2d4 d644 adbf 2b6d 508d 6ae8 abbf
000003e0: 0f29 16c4 a2a5 ab3f f219 af4b 6c87 b43f
000003f0: 6d8d cb18 bb2d aabf e7fb 1db5 9709 aabf
00000400: 26b6 4843 e261 ab3f 858a b0fa d99a ab3f
00000410: 43c7 19ae 8ebf aabf 71a3 1f47 7e73 b5bf
00000420: 1d88 9402 ed38 ad3f f775 bdbf 664a b13f
00000430: 99a4 45c6 082a aa3f 827d cf1c 26b1 aa3f
00000440: 1e26 2b43 b91c ab3f f059 2c23 0f33 acbf
00000450: ba73 447a 3614 ae3f 1f0b 334c e018 b23f
00000460: e957 a089 4bc8 b23f 0f9f 982e 578f ab3f
00000470: 43ee 847a f906 b33f 6b64 2df4 53f5 943f
00000480: 024b ea20 a00b b33f 4512 d068 97fe b33f
00000490: ba06 1fcd f5c9 b13f c776 15b3 8612 ab3f
000004a0: c9ec 8929 83fe a53f 81cf 7f68 c3e2 a13f
000004b0: 6df5 b44b 6205 9c3f f727 8026 c76f 8c3f
000004c0: e603 6445 1750 a4bf 8eef 89fc 4d1d a3bf
000004d0: aede 726e cdd1 a1bf d1de 893c 9b40 aebf
000004e0: 79e4 a04a fd48 9abf 54e5 c4cf c5f9 96bf
000004f0: 0b89 3ded de2a b2bf 4e8d a181 f865 94bf
00000500: 11e0 c1cd b205 a6bf c3ba 78f7 b50b b1bf
00000510: 92ab 52fc efe8 9ebf 0988 4cba d529 a4bf
00000520: b4b9 c8c8 8230 7bbf c5ba 53fd a2ed b0bf
00000530: 314f 3be0 fe6c 813f e2d7 1b3b 79dc 683f
00000540: 71a7 d023 56f4 adbf eca6 e27b a394 afbf
00000550: 9e7e 2f65 4b88 afbf b361 bc1a d89d a7bf
00000560: b4c3 b214 1302 b2bf 552d f74c 2de6 b1bf
00000570: 6f5d f7d5 65b5 98bf b5be 237d 1c7a ad3f
00000580: a82e 92c1 b13a abbf 8848 b0ce c8a4 a0bf
00000590: 259e 4f26 57c8 a9bf 5eb8 7588 755d a8bf
000005a0: 35d1 0a9b 7990 a5bf 7aa1 c1b2 8c05 a5bf
000005b0: 3812 b650 a616 a5bf a990 f0a2 5f76 a83f
000005c0: 3167 13ac c4a6 a1bf b11b 742d a22b a1bf
000005d0: 11dc 768d 9859 a63f 2df7 6140 49aa 9cbf
000005e0: ebd3 04ea 969d 93bf 249d 5d7a cef6 a63f
000005f0: ab33 16f2 eefe a53f 6057 79c2 300b ae3f
00000600: 3253 985f 150f a93f a691 e2ba 2b76 a33f
00000610: ad9c 4025 9d8c a23f 01f9 8c57 e9b7 b5bf
00000620: 2cc9 c49a e2b2 ae3f a0e7 de10 d1eb aebf
00000630: 0699 3806 593b 91bf 4e77 b480 c000 80bf
00000640: 6cd8 73f1 c471 adbf 09f9 d399 9ee1 b4bf
00000650: d1d3 ac90 bec7 aebf 61f2 0707 1fef acbf
00000660: d770 e066 2a4a 92bf 115a 89b2 62c2 aebf
00000670: 3d98 8c05 5f29 b3bf ce75 5056 e682 a83f
00000680: 826b 4820 b59c ab3f d454 4b81 f536 ab3f
00000690: 3bc5 3dbd 73c5 aa3f d1bf 93ff 1474 ab3f
000006a0: f659 e3ee b898 aa3f dd41 ab34 21b5 b1bf
000006b0: 1a29 32bf 96f2 a83f 9a33 a9ee 1315 a83f
000006c0: c9e7 d9ed 1d7c ab3f 0001 5ae0 ca69 aa3f
000006d0: 8258 a870 df59 a83f 004a 0fcf f642 a63f
000006e0: a5bc 14ad b5d7 b03f 6da9 4865 7922 a43f
000006f0: 7b48 d723 51e4 933f 0da2 c4af 4f44 8f3f
00000700: 06b6 668f 6916 a63f 8c66 7170 12da b23f
00000710: 6fbc 3682 9425 b43f f0c3 66e0 7078 b33f
00000720: f8c7 fbbb e6b0 b23f 724d 6c30 ef76 b23f
00000730: 7f9b 3f5a 18a9 a13f c77b 62c5 4afd 9d3f
00000740: 9359 cd32 236a aabf a5f0 68f9 21be aebf
00000750: 78d0 6e61 1fe2 aebf 873a 0cd9 2748 aebf
00000760: c8f4 b129 9ded af3f c493 9d8f a47e ae3f
00000770: d608 6e03 06a1 ad3f c97c e080 c2b0 aebf
00000780: f353 7b04 6b59 ab3f aec7 08de b364 b43f
00000790: ea8e d7fe 4e95 b53f 8a83 999f a871 b43f
000007a0: d5bc 5c14 4b9a b53f 70af c210 6e7c b53f
000007b0: 015f 314a 9e04 abbf 2d27 e421 2d06 b4bf
000007c0: 5c1b 3306 f013 ad3f 1bd4 acbb c86c b43f
000007d0: 92e8 45e2 8e30 b53f 6f96 2473 0409 b53f
000007e0: f1be 37dc 2385 b53f 6fad 4a8f 5b79 b53f
000007f0: d807 4940 98e0 b43f a591 55d6 b0b2 b43f
