nonlinearPDEs/data-revision1/model_CGA_1D_gabor1d-m4_neuron_256_N_512_randomized_trial_0.pt (torch, 7911 bytes, 3 tensors)

fc1.weight f8 [256, 1]
000000 19 16 bc 04 aa 8e ec 3f ba 4e c2 f5 17 97 ec 3f
       0.8924150555109832 0.8934440422039736
000010 d9 c2 35 1f 43 5f da 3f 29 49 fa f8 b7 97 80 3f
       0.41206434295513145 0.008101880346008077
000020 ec 03 c2 21 1b 38 ee 3f 92 20 de a2 97 bd ef 3f
       0.9443488749822087 0.9918935948380911
000030 e1 89 a2 56 83 2b eb 3f ca a1 28 a1 9f f9 ee 3f
       0.8490616504753313 0.96797162510216
000040 c4 b1 fd dd 75 b6 e9 3f 08 62 50 bc 20 fb ef 3f
       0.8035230003129574 0.9994052579887134
000050 56 85 f9 c3 7e 97 ed 3f 1b ec 3d f2 8d a6 e8 3f
       0.9247430637007408 0.7703313571249767
000060 ba 4a ba cf 58 f7 eb 3f 14 fb 08 7a 96 64 ef 3f
       0.8739437157804197 0.9810287841317824
000070 db 03 d1 83 f7 5c ea 3f d9 d7 0a d4 e2 97 ee 3f
       0.8238484930553754 0.9560407773449199
000080 cf 7f 27 13 a8 d9 e7 3f 59 16 00 c9 8e 1e ed 3f
       0.7453194021327308 0.909980194643775
000090 a2 4b db 28 61 a1 eb 3f 26 61 15 3a b5 37 e9 3f
       0.863449649618236 0.7880502829021097
0000a0 5e a4 0b 14 a0 e5 ef 3f 64 50 1f 06 87 ea ed 3f
       0.9967804328454226 0.9348788375450678
0000b0 00 0c fc 56 ea 2b ef 3f 2e 32 f1 f6 48 96 ef 3f
       0.9741107653538847 0.9870953391160293
0000c0 db 72 e4 aa 64 e0 ec 3f ec 6a 82 37 5b 35 ec 3f
       0.9023917520276784 0.8815132221382931
0000d0 67 e5 f8 4f 29 0c ea 3f c9 32 72 29 01 c8 ea 3f
       0.8139845430334106 0.8369146165365119
0000e0 05 97 5f 12 25 ce ee 3f c8 c3 83 cb 1c 64 e7 3f
       0.9626641615729744 0.7309707617661099
0000f0 12 74 39 00 92 79 ee 3f b7 9b ee 67 f7 61 ed 3f
       0.9523401264556262 0.9182087926791301
000100 92 a5 ba 11 48 6e eb 3f a2 14 94 5b fa 3e e8 3f
       0.8572120996733921 0.7576877392426875
000110 cc 1f eb 96 ae 01 e9 3f 35 fc 39 e8 ff ff ef 3f
       0.7814553210855535 0.9999999557184142
000120 bb c7 d1 47 0d c2 ed 3f e8 93 82 93 ca 66 ec 3f
       0.9299379732822141 0.8875477677398722
000130 3b 7a 2e e6 e4 d0 ef 3f 41 54 2c 1f 5c 9a ea 3f
       0.9942497726186227 0.8313427552080911
000140 7c f9 05 0b c2 23 ee 3f ab 96 c7 48 dc 4b ef 3f
       0.9418649878787586 0.9780103131749532
000150 f0 d1 d0 97 4d 81 ef 3f 2d 54 50 2e 78 82 e9 3f
       0.9845340695524651 0.7971764473501303
000160 bd 6b 69 cb 20 cd eb 3f 53 08 90 46 e6 f9 ea 3f
       0.8687900517355654 0.8430053117920216
000170 05 0e 4d c4 96 af ee 3f 5b f4 88 13 37 f3 ef 3f
       0.9589341959003269 0.9984393483679342
000180 66 94 aa 3d 90 a5 ec 3f e5 45 23 3c 1f 91 e7 3f
       0.8952103809757659 0.7364650892797583
000190 e9 00 38 49 bd 55 ee 3f 32 a5 45 8f 3d 43 eb 3f
       0.9479662351659758 0.8519580648691429
0001a0 d1 36 f0 e4 68 37 ea 3f fd f4 68 a8 3f e5 e9 3f
       0.819263884682835 0.8092344559915144
0001b0 3f 02 f9 d0 f0 c3 e8 3f 9c 5c 12 03 51 12 e8 3f
       0.7739185410974371 0.7522358951563493
0001c0 c4 ea 7c 66 cf fc ec 3f b6 33 5d cc db c2 ec 3f
       0.9058606149404445 0.8987864486203907
0001d0 8e 6a d0 a3 15 06 ee 3f 5e b6 30 26 24 e0 ee 3f
       0.9382427405829092 0.9648609872726401
0001e0 59 20 3c d2 c9 84 ed 3f 74 4e 0f 93 58 42 ed 3f
       0.922459517111757 0.914348876215128
0001f0 dd 4b 3f 0c bd aa ef 3f 06 65 4b cc d1 74 e8 3f
       0.9895920981601837 0.764260195744243
000200 11 4f 74 9c 99 db ef 3f dd b0 a8 96 e3 2f e7 3f
       0.9955566459416066 0.7245958273465721
000210 81 7a 2e 05 64 75 ea 3f 03 35 63 eb 8b 6b e9 3f
       0.8268299199297219 0.7943782422459268
000220 f1 ec 0a 73 52 3a ef 3f 55 d0 54 34 82 82 ec 3f
       0.9758693930556587 0.8909312269302158
000230 1f 43 ac 2d 0e 50 ec 3f a2 74 5f a0 8a 89 eb 3f
       0.884772385792619 0.8605397350580868
000240 2a e7 a4 80 2a a9 ed 3f 4b 7f cd d3 eb 17 ec 3f
       0.9269001495915508 0.8779200684329934
000250 4f 99 79 86 13 01 e7 3f c0 11 cb 22 6c cf ed 3f
       0.718881380697704 0.9315701179080449
000260 4f 5a b8 0a 6e 71 ef 3f fc ad 34 8d fc 17 eb 3f
       0.9825964173676968 0.846678043167628
000270 4d 17 4f 98 85 ec e8 3f 0a 92 91 8e ca ed ef 3f
       0.7788722967895666 0.9977772507232328
000280 ad 79 28 74 74 fd ef 3f 8c 6e 1d fa 4b bc ee 3f
       0.9996893185341854 0.9604854474122972
000290 c2 84 13 4e 66 b4 e7 3f 74 d1 59 4b 0b c6 ef 3f
       0.7407714390684748 0.9929253074356397
0002a0 5b 5d 9d b3 2b 59 ef 3f 82 71 1d 04 60 6a ee 3f
       0.9796350963687631 0.950485237156997
0002b0 bd 92 80 bc 26 de ea 3f a8 b0 32 fa 9a 59 eb 3f
       0.8396180802997929 0.8546881567649693
0002c0 b9 01 6e 84 8e bd eb 3f 14 a9 7b ad 04 11 ef 3f
       0.8668892466085288 0.9708274257984919
0002d0 58 d7 16 c8 01 1c e9 3f f7 7c 8b eb c5 86 ee 3f
       0.7846688182823796 0.9539517975316859
0002e0 8b 42 51 cc 56 de eb 3f 22 81 df d8 f7 72 ed 3f
       0.8708909979414597 0.9202841983606371
0002f0 45 a8 32 ee e0 1e ea 3f f2 09 97 82 ee 4c e9 3f
       0.8162693645765634 0.790641074236474
000300 48 ce ba ec be 8a ef 3f 6a 5a 88 bb c5 9e ef 3f
       0.9856867431285048 0.9881313956019089
000310 83 c3 bd 57 ec d0 e9 3f 84 2b bc 8a 41 dd ed 3f
       0.8067533220001767 0.9332587918919306
000320 82 a9 c8 84 2e cc e6 3f ac 7a 2e f5 94 f0 ee 3f
       0.7124245255884463 0.9668679035856562
000330 14 3e 86 78 50 f6 e7 3f af 49 8c 0b b2 f8 ed 3f
       0.7488176683418168 0.9366083360239851
000340 72 a2 70 8f 1a 18 ef 3f 0c dd 3f 24 0d 8e e8 3f
       0.9716923524438938 0.7673402507779499
000350 b9 f6 3a 21 94 a4 ee 3f 2c 37 40 99 29 44 ea 3f
       0.9575901650457218 0.8208206170254235
000360 9a 9c 48 a2 91 b4 ef 3f 66 c3 6d 76 a8 10 ed 3f
       0.9907920999147735 0.9082834542333387
000370 4a 5f 2d 73 a4 4d ed 3f 8a f4 c4 6e 0d b4 ec 3f
       0.9157278298907638 0.896979061457061
000380 bd 75 90 d8 b0 13 ee 3f 89 cc 70 19 ea b6 ed 3f
       0.9399036626597802 0.9285784241568688
000390 da 82 3d fd e2 d3 ec 3f ab 00 12 0e 21 e9 ec 3f
       0.9008650728320291 0.903458144646739
0003a0 83 41 bf 90 d6 b0 ea 3f 8e a3 df 3d d0 f4 e9 3f
       0.8340866877643268 0.8111344536274474
0003b0 66 d0 e5 94 0b ff ef 3f 26 0b f8 9b 76 a1 e9 3f
       0.9998834522398397 0.8009598776119204
0003c0 85 f8 0e 8d 28 86 ea 3f 78 9b fc f5 b6 f8 ef 3f
       0.8288767581032209 0.9991106800488145
0003d0 62 43 a4 62 b4 43 ee 3f c6 a6 56 b4 f7 ab eb 3f
       0.9457647253603734 0.8647421381221754
0003e0 96 e0 3c 5c f0 5a e8 3f 79 0a b0 6a e5 d8 e8 3f
       0.761100940849263 0.7764765819304805
0003f0 c7 71 87 56 0a 7b ec 3f 5b ea bc e3 60 42 ef 3f
       0.8900195779820529 0.9768528411871772
000400 1b 37 f0 3f 69 7b ef 3f 80 88 41 af e4 df ef 3f
       0.9838148354335517 0.9960807249992882
000410 eb 91 81 1c 47 0b eb 3f ea 93 fd 74 58 eb ef 3f
       0.8451266819725424 0.9974787030192804
000420 b8 ce d7 04 6a 26 ec 3f ff 3c 1b d1 13 04 ef 3f
       0.8796892256345563 0.9692477306470265
000430 2f 4b f1 f8 a5 82 eb 3f 31 d0 85 96 2c 5f ee 3f
       0.8596982824477432 0.9491179408928528
000440 9d ab 95 77 d1 d6 ef 3f 44 86 c4 f4 cb ca ef 3f
       0.9949729285848324 0.9935054569834354
000450 6e 64 72 20 5d 26 e8 3f cc ae 3f 1a f9 93 eb 3f
       0.7546830781676712 0.8618131172820198
000460 c3 80 08 b3 0f 8f ee 3f a2 f5 13 71 2e 43 ec 3f
       0.954963540720222 0.8832008560709037
000470 8f 44 82 af a9 c2 ee 3f 17 a3 e3 bb 0f 8d ec 3f
       0.9612625530154605 0.8922194165907936
000480 a5 ce f8 fc 94 84 e7 3f 98 6a 24 77 3a da ee 3f
       0.7349343243463023 0.9641392065999126
000490 1c 69 0c fc 94 4c e7 3f 66 6c 6f 0b 62 6a ef 3f
       0.7280983851262905 0.9817362044663127
0004a0 5a e3 0c 0b 23 28 ea 3f c0 b6 e2 d3 f9 ea e6 3f
       0.817399522383407 0.7161835802450796
0004b0 b2 4c 8d 27 d2 21 ef 3f 7c da 0c 24 37 5a ec 3f
       0.9728785297869733 0.8860126213174477
0004c0 8e 46 b5 bf e6 ea ee 3f f0 c6 2b 09 36 58 e9 3f
       0.9661744827555638 0.7920179537888696
0004d0 d6 95 3e c9 f9 55 ed 3f a7 35 c2 cb 20 0a ec 3f
       0.9167450838619355 0.8762363414440885
0004e0 5a bc 0e 59 7e 6f ec 3f 0c bd 6d 26 8a 52 ef 3f
       0.8886100520520686 0.9788256407318001
0004f0 4b eb 47 de 7b 36 eb 3f ad 55 2e ce b9 e8 eb 3f
       0.8504008618759625 0.8721589114162974
000500 f3 74 c5 68 24 32 ef 3f ac 3b ae 5d 47 50 eb 3f
       0.9748708769144784 0.8535496549319439
000510 35 28 0e 21 a6 f0 ea 3f 06 fc ab 00 2a a4 ef 3f
       0.8418760915385578 0.9887895596619962
000520 70 4e e9 6c 50 8c ed 3f 6b f4 91 c2 c6 c2 e7 3f
       0.9233781935858598 0.7425264167974438
000530 4d a9 37 ff 18 9e e7 3f cd c3 0b 9a 35 ba e8 3f
       0.7380490288462994 0.7727306374273383
000540 c0 93 56 9b 5d 6a ea 3f c4 b0 9d 2e 14 50 ea 3f
       0.8254840883206427 0.8222752485721903
000550 82 88 f3 af b2 ff ef 3f 75 8d 2a 45 bd f0 ef 3f
       0.9999631344364988 0.9981371260550264
000560 e8 98 e4 dc 84 f6 ef 3f 6b 20 d7 a8 a5 5e ef 3f
       0.9988426508250798 0.9803036019957408
000570 8d b8 86 2e 98 a1 ed 3f 23 ed 97 b2 53 f3 ec 3f
       0.9259758862224473 0.9047029960778769
000580 73 54 2d a0 d8 00 ea 3f f4 a5 32 be a1 06 ed 3f
       0.812603295179214 0.9070595469285636
000590 71 50 7b 80 b9 c5 e9 3f db dd 18 3b 3d 90 ef 3f
       0.8053863057525757 0.9863573221436427
0005a0 88 9d 02 f0 91 b5 ee 3f 5a f0 66 26 6f 4d ee 3f
       0.9596643150043045 0.9469524145165551
0005b0 96 f9 fd f7 c1 7a eb 3f ae b2 15 50 a8 39 ed 3f
       0.858735069617796 0.9132882656245636
0005c0 1d e7 51 0c 43 61 eb 3f da 9f 74 1a a1 7e ed 3f
       0.8556227913497626 0.9217076794347989
0005d0 7c 85 78 84 8c 1d eb 3f 12 38 db 3d 52 75 ef 3f
       0.8473570430107169 0.9830714424258551
0005e0 66 bb 13 70 62 29 e9 3f f9 c4 58 d3 ac 12 e9 3f
       0.78630182161383 0.78352967528022
0005f0 f9 32 07 ef 93 71 e7 3f e4 15 6f d8 c7 cd ec 3f
       0.732614485599327 0.9001197077965881
000600 18 a5 5f b2 66 17 ea 3f 7b 28 2a ef 4c c1 ef 3f
       0.8153565868243815 0.9923462554154548
000610 9d 8a 27 9b 2e 67 ed 3f 1f 26 01 5c 4b e9 ef 3f
       0.9188454656944774 0.9972283169710784
000620 d0 5c 2b 17 66 b1 eb 3f 73 12 77 c4 ea d3 ee 3f
       0.8654051258589792 0.9633687817773321
000630 75 c2 73 51 29 85 ef 3f 27 e4 a7 2a f9 2d ed 3f
       0.9850050536025053 0.9118619759675582
000640 fa 81 14 a3 b4 70 ee 3f cb e6 0d 75 cc 80 ee 3f
       0.9512580094488492 0.9532224928109029
000650 5a 8f 5e f0 31 30 ee 3f c4 3e e4 31 61 b1 ed 3f
       0.9433831877436021 0.9279027914471603
000660 2e 2e 30 69 f6 e2 ef 3f a0 9c eb d8 85 1b ee 3f
       0.9964553884942171 0.9408597218251948
000670 bd b6 19 f8 58 f1 ed 3f 5a f0 d3 12 de c9 ee 3f
       0.9357113691055116 0.962142025731292
000680 2d 57 13 2d 97 a7 ea 3f 21 43 37 2f 03 9d ee 3f
       0.8329578285581413 0.9566665575203822
000690 4f 85 22 54 da bc ea 3f 99 55 b2 7c 19 1c e7 3f
       0.8355533259638522 0.7221801219445069
0006a0 0a e8 96 38 ad b5 e6 3f 01 8a 1a f5 d5 05 e8 3f
       0.7096773247969861 0.750712374418356
0006b0 21 b0 17 d9 28 ba ef 3f 46 b7 70 a0 08 ec e7 3f
       0.9914745559776784 0.7475627072906057
0006c0 24 e6 60 b3 a8 90 ea 3f 9d 94 b1 45 05 bd ec 3f
       0.8301585677610928 0.8980738030628747
0006d0 78 32 c5 81 52 d5 eb 3f b7 39 20 c0 19 dc e9 3f
       0.869790318925495 0.8081177475412947
0006e0 9b df 9b b5 28 9e ec 3f cf 98 b5 5d 8f 00 eb 3f
       0.8943065211342288 0.8438183622609133
0006f0 a2 eb 11 8f 1d cf e8 3f cf 25 a8 38 99 a9 ee 3f
       0.7752826494537326 0.9582029444292689
000700 b1 20 f1 d9 aa ad ec 3f 62 e2 d0 49 02 43 e9 3f
       0.8961996323278268 0.7894298021047457
000710 e7 d3 fd d8 e8 c7 ed 3f a5 9c 7d 7f f3 94 e9 3f
       0.9306530225863953 0.7994325151493241
000720 f1 4b 33 15 d0 d3 ed 3f 6b 3f 04 20 42 e5 ee 3f
       0.9321060575551866 0.9654856324504925
000730 bb 26 3f a0 41 45 ef 3f 54 6c d9 5b e8 e1 ed 3f
       0.9772041444604932 0.9338266176158734
000740 65 41 d6 bd 48 fe ef 3f 84 8f 94 d4 a0 98 e8 3f
       0.9997905452492374 0.7686313774070048
000750 c3 2b bc 50 0d 9b ef 3f 0b 6b cc 1e aa c7 eb 3f
       0.9876772477012924 0.8681231118710867
000760 ea f5 65 39 b4 fd ed 3f 28 78 a5 86 4c 0e ee 3f
       0.9372197266636111 0.9392454747974215
000770 d1 e2 5a 24 9b 7e ea 3f af 58 16 5a 7d f6 e8 3f
       0.8279548368510296 0.7800890693204304
000780 b9 09 75 f1 85 db ec 3f 79 bf 83 7c 02 5f ec 3f
       0.9017972675285854 0.8865978652884073
000790 da 3f 0f a7 3e 76 ec 3f bb 3a 8b eb 52 7f e8 3f
       0.8894341719515027 0.76554246906911
0007a0 57 73 f4 cc 54 aa e7 3f 3c 57 8a 70 5c 5a ed 3f
       0.7395423892045113 0.9172804067663729
0007b0 3f d1 89 8d 99 6a e8 3f 21 c5 68 90 97 e3 e8 3f
       0.7630126728459244 0.7777822323315925
0007c0 03 f5 b2 a8 22 ce e7 3f a7 8d 39 c6 ba af e8 3f
       0.7439130110648481 0.7714513656214209
0007d0 fd 0c 95 95 25 a9 e9 3f 54 7b 4b c7 19 27 ef 3f
       0.8018978044059676 0.9735230343320418
0007e0 86 19 4d 33 f6 e4 ea 3f 9a e1 e4 29 d6 d4 ef 3f
       0.8404494287467947 0.9947310274356369
0007f0 8d 37 2a b7 0d bd ed 3f 45 34 66 58 c7 22 eb 3f
       0.929327829116788 0.8479954458758888

fc1.bias f8 [256]
000000 53 c3 17 b4 b6 e0 dc 3f 5e 62 44 75 46 bf dc bf
       0.45121543490590915 -0.4491745133578088
000010 6f d9 41 01 2e 28 ed 3f d7 8e 7b 2b bb ff ef 3f
       0.9111547493510396 0.9999671792288279
000020 fc b6 a9 cf 71 0d d5 bf e4 48 52 b4 de 43 c0 bf
       -0.3289455917318802 -0.12707122616536204
000030 f1 55 4a 59 c8 e7 e0 bf 16 a2 be 5e 5c 11 d0 bf
       -0.5282937759354224 -0.2510596204033687
000040 cc 54 be 72 7b 0c e3 bf ea 8c b6 45 db a7 a1 bf
       -0.595273708446848 -0.03448376871099319
000050 c6 33 2d 86 9e 5b d8 bf ed 03 ef f1 93 67 e4 bf
       -0.38059199431591784 -0.6376437878863023
000060 65 43 bc 94 11 1b df bf 70 65 06 66 79 d0 c8 bf
       -0.4860271408552335 -0.19386212808312164
000070 a1 de 98 e1 4e 23 e2 bf 38 57 6d 7d 57 c4 d2 bf
       -0.5668100744432715 -0.2932337498544828
000080 7f aa 1e 1f ab 55 e5 bf df 04 92 59 a7 89 da bf
       -0.6667075736816769 -0.41465171572788323
000090 66 d2 3d f0 54 24 e0 bf 16 86 db 94 15 b3 e3 bf
       -0.5044350330559382 -0.61561087678655
0000a0 95 96 99 83 a6 86 b4 bf d2 36 ec 6f c7 b7 d6 bf
       -0.0801796027459097 -0.35496698312713904
0000b0 1c bd b1 38 e7 ef cc bf e6 19 a4 90 42 7f c4 bf
       -0.22607126491809815 -0.160133667588709
0000c0 d6 92 2e 44 23 94 db bf 7c 36 5d cb db 37 de bf
       -0.4309166112746373 -0.4721593366601622
0000d0 cb 35 80 5a 9f 96 e2 bf 1e 23 db 79 c1 83 e1 bf
       -0.5808865325540692 -0.5473334674835291
0000e0 d0 a7 d0 10 20 53 d1 bf 8d 33 07 f1 4a d6 e5 bf
       -0.2706985630235268 -0.6824087817745849
0000f0 74 35 34 ce be 85 d3 bf 85 cb 94 10 a6 59 d9 bf
       -0.3050381673536642 -0.3960967218328551
000100 41 8d 05 c1 94 7a e0 bf 52 95 48 98 3d e2 e4 bf
       -0.5149635095553223 -0.652617261341826
000110 b2 fc 5f 7b 7d f7 e3 bf 9b 22 6e 93 d3 80 33 3f
       -0.6239612016360268 0.0002975956480715609
000120 d7 76 fa 73 aa 88 d7 bf b0 f6 6f b8 5d 7c dd bf
       -0.36771642042172686 -0.46071570407353146
000130 d2 9c b9 3f fb 69 bb bf f2 2c 28 48 c9 c8 e1 bf
       -0.10708589845454533 -0.5557600411715653
000140 30 41 65 d8 e2 80 d5 bf 13 0e 9d ff fa b1 ca bf
       -0.3359915841329153 -0.2085565326798223
000150 31 e5 ba 48 bb 6c c6 bf 5f c2 ba f6 e3 51 e3 bf
       -0.17519322444221921 -0.6037463969169713
000160 63 bd ac 0d 0a b1 df bf dd 82 4e 0b 85 36 e1 bf
       -0.4951806195776582 -0.5379052372773817
000170 59 4e fe c1 f8 26 d2 bf 89 cd 14 6c f4 97 ac bf
       -0.2836286444155341 -0.055846822923196156
000180 c9 53 56 77 6d 85 dc bf c5 d4 79 0e b0 a5 e5 bf
       -0.4456437745478153 -0.676475551865814
000190 df ce fb 40 30 60 d4 bf f5 5b 55 ce 69 c1 e0 bf
       -0.31837087961251415 -0.523610022540082
0001a0 e9 1b 2d ef 6d 59 e2 bf a8 db f4 12 af cc e2 bf
       -0.5734166785631462 -0.5874858255618749
0001b0 bb 8c 80 3c df 43 e4 bf 2e 8f 89 a3 a8 15 e5 bf
       -0.6332851583178106 -0.658893889817113
0001c0 23 dc 92 1b de 1b db bf e3 2e a4 30 87 0e dc bf
       -0.4235759038232933 -0.4383867239964571
0001d0 84 f6 74 98 7f 24 d6 bf 99 7e b8 f8 12 d1 d0 bf
       -0.345977686771086 -0.2627608708298595
0001e0 52 f9 88 dc c2 b5 d8 bf 3d f5 9e 44 54 ea d9 bf
       -0.3860938218748703 -0.4049273176313653
0001f0 a5 72 13 8a 58 6b c2 bf 5a 9e 69 24 16 a3 e4 bf
       -0.14390093557348851 -0.644908019178682
000200 25 f7 e2 31 2b 1b b8 bf 3c 60 e7 c2 b6 0d e6 bf
       -0.09416456191953822 -0.6891740614619333
000210 99 cf 16 65 9b ff e1 bf 4e 09 2d 3c 03 70 e3 bf
       -0.5624520277401529 -0.6074234175978661
000220 a6 b4 87 ea 0e f3 cb bf 8a 3a 72 df 99 10 dd bf
       -0.2183550496260171 -0.45413824864309815
000230 0b 0d f7 e1 53 d3 dd bf b3 84 59 3e de 4c e0 bf
       -0.46602341715716084 -0.5093833177344521
000240 3e 3c fa f1 0b 05 d8 bf c2 0e 35 09 c7 a4 de bf
       -0.3753080237447114 -0.478807219497167
000250 2e 38 51 11 87 3e e6 bf 3c 0e 55 53 98 44 d7 bf
       -0.6951327646472742 -0.3635617078582276
000260 96 0f bc 70 c3 c6 c7 bf a8 1a 3c 2b 02 07 e1 bf
       -0.18575327877635733 -0.5321055263928729
000270 57 fd 27 21 e1 11 e4 bf 41 92 96 ec 27 0f b1 bf
       -0.6271825454313483 -0.06663751150205945
000280 09 bd c7 f3 fe 85 99 bf a0 65 6a 82 29 d0 d1 bf
       -0.024925216321148223 -0.2783302091207478
000290 2a aa 5a dc 08 7f e5 bf e9 da ce f5 c8 65 be bf
       -0.671757154826371 -0.11874061585590891
0002a0 6d df 7f 4d 5c b3 c9 bf 2e 48 7e a5 a6 e3 d3 bf
       -0.20078614982753198 -0.31076971208051674
0002b0 4c 27 02 2b b5 61 e1 bf 78 24 cb 27 cf 9c e0 bf
       -0.543177207947545 -0.5191417481629648
0002c0 dd b7 bb d7 6f e7 df bf 09 9b b1 7e 16 b1 ce bf
       -0.4985007864732987 -0.23977929292888003
0002d0 ba e3 a3 62 58 d6 e3 bf 12 52 5d 31 8b 32 d3 bf
       -0.6199151922766 -0.2999599439692996
0002e0 0f 4c 52 a7 58 74 df bf 08 cb 14 c1 3f 0a d9 bf
       -0.491476214790226 -0.3912505517538851
0002f0 9f 8f a2 df 48 7c e2 bf 9e b5 3b 0b cc 97 e3 bf
       -0.577671467578046 -0.6122799128913134
000300 a2 d0 ea f1 43 94 c5 bf 06 99 87 9e 86 a9 c3 bf
       -0.1685872012363961 -0.15361101856905907
000310 29 57 61 bf 8e e8 e2 bf c9 87 fd c5 35 fd d6 bf
       -0.5908883798499335 -0.35920471510882784
000320 7f 27 84 c6 b9 74 e6 bf 2c 6e 8c 3f 76 56 d0 bf
       -0.7017487408895561 -0.25527721601403885
000330 5d 1c 4d 21 76 35 e5 bf bf f7 76 56 98 6c d6 bf
       -0.6627760553755128 -0.35037811702556704
000340 b0 f0 70 09 6f 3d ce bf 87 2b 25 14 0a 85 e4 bf
       -0.23624980889315372 -0.6412401574574326
000350 f9 10 ab ab c8 70 d2 bf bb 5e bb fc 27 47 e2 bf
       -0.28813378109431614 -0.571186059586544
000360 c4 56 44 11 87 54 c1 bf 5a bf 62 5b 55 c6 da bf
       -0.13539207785713903 -0.4183553116263191
000370 26 fb a7 b3 13 b7 d9 bf 28 1d e9 ac ec 4a dc bf
       -0.4017991308646053 -0.4420730293827142
000380 50 1a 28 1f 26 da d5 bf e2 e4 87 39 b2 c0 d7 bf
       -0.34143975298539875 -0.3711362420868466
000390 81 26 20 09 48 c8 db bf 78 c6 a7 c5 6e 6f db bf
       -0.434099205886561 -0.42867631246836124
0003a0 d5 19 57 11 fb a6 e1 bf 88 c3 0c be 2b b7 e2 bf
       -0.551633390300419 -0.5848597251807499
0003b0 3d 8d c9 e6 50 44 8f bf 15 24 8f b4 b2 28 e3 bf
       -0.015267021220273786 -0.5987180258317745
0003c0 5f 48 a9 5b dc e6 e1 bf 85 a1 ad 6b 97 96 a5 bf
       -0.559431246782207 -0.042164546865765686
0003d0 43 3d 9a bc 61 ca d4 bf c2 6c 2a 8c 27 12 e0 bf
       -0.3248524038144362 -0.5022161233531721
0003e0 36 dc 14 f2 9a c1 e4 bf 0a 2a d1 2b 28 2a e4 bf
       -0.6486334541467673 -0.6301461082269395
0003f0 41 eb 72 c2 d4 2d dd bf 93 e9 49 80 7b 61 cb bf
       -0.45592230786467175 -0.2139124275598304
000400 e1 e0 1a 99 a2 ef c6 bf 6f b2 a1 88 94 a4 b6 bf
       -0.17918808437185077 -0.08844879470570687
000410 42 80 a7 51 2a 1b e1 bf a2 9f c8 75 db 2a b2 bf
       -0.5345660776911318 -0.07096644998148219
000420 14 01 7c 23 65 6f de bf f5 80 db cd c7 7f cf bf
       -0.47554901566765406 -0.24608705093033448
000430 5a d9 28 ce 7d 58 e0 bf ce 77 20 bb a9 27 d4 bf
       -0.5108021761468919 -0.31492083810905747
000440 9d df f7 c2 0d a3 b9 bf 41 e8 8f ba fa 20 bd bf
       -0.10014425287215407 -0.11378447584857644
000450 e0 35 34 70 af fe e4 bf ea 89 3c e3 31 3b e0 bf
       -0.6560895148738233 -0.507225936719178
000460 98 70 0c 27 83 fd d2 bf 6f 9b 8e 53 03 04 de bf
       -0.2967231637319485 -0.46899493369931283
000470 9a 49 c8 53 fe a3 d1 bf f3 41 12 c1 0c e7 dc bf
       -0.2756343668162572 -0.45160216192837693
000480 00 49 a2 11 4f b3 e5 bf 1b 68 c2 e0 43 fc d0 bf
       -0.6781382889187455 -0.26539704274330383
000490 f5 6d ee 51 64 ef e5 bf 11 b8 98 cb 05 5a c8 bf
       -0.6854726410123805 -0.19024727288473334
0004a0 7c a4 6a db 2c 6f e2 bf ea 47 07 6d 4b 55 e6 bf
       -0.576071194217675 -0.6979119424306621
0004b0 74 71 5c 39 c8 9b cd bf 0c 7c 7a b1 9f ac dd bf
       -0.2313165931781317 -0.4636611207187691
0004c0 09 60 31 f1 41 81 d0 bf 26 4a 5f ad 32 89 e3 bf
       -0.2578892569922578 -0.6104977976013444
0004d0 56 4f 3c 03 f6 90 d9 bf e7 d1 5d e9 25 d7 de bf
       -0.39947271648383287 -0.48188159742065156
0004e0 09 4e fe 02 be 5a dd bf 4c ec 81 b6 78 33 ca bf
       -0.45866346638033 -0.204695786585804
0004f0 cd ee a8 bc 19 d6 e0 bf 03 62 a1 a7 6c 4f df bf
       -0.5261353192103911 -0.48922268266827035
000500 6c d1 63 dc bf 83 cc bf b9 b7 ef 50 20 ac e0 bf
       -0.2227706743357304 -0.52101150329485
000510 a3 ee 71 d7 fb 44 e1 bf 9e d0 a1 ac c7 1c c3 bf
       -0.5396708686743817 -0.14931579522420163
000520 c9 f7 5b ce ad 91 d8 bf d4 24 30 9a 23 6f e5 bf
       -0.38389153625746225 -0.6698167811856828
000530 27 3c cf 33 87 97 e5 bf a9 e2 7e dc bd 4f e4 bf
       -0.6747470867065929 -0.634734087615546
000540 08 4d 6f d5 c5 0f e2 bf 08 38 68 35 fc 35 e2 bf
       -0.5644253891609035 -0.5690899890048522
000550 7b e3 44 7a da 95 81 bf 19 10 a7 b4 c3 3c af bf
       -0.008586603981358234 -0.06101047115546993
000560 34 e6 47 97 38 a0 a8 bf e1 b3 bc 4d 90 47 c9 bf
       -0.04809738966646329 -0.19749645038373756
000570 3c da 1b 6c 50 2a d8 bf 22 1a 36 20 49 44 db bf
       -0.3775826507329929 -0.426042825180419
000580 6c 82 df 3f 70 a6 e2 bf 99 86 b6 d6 b3 f1 da bf
       -0.5828171966096085 -0.42100234954896504
000590 fc d5 40 71 cf f7 e2 bf d5 39 d6 9e 37 12 c5 bf
       -0.592750283429893 -0.16461844688133334
0005a0 8a 94 09 b5 55 fe d1 bf 0a 95 13 73 63 91 d4 bf
       -0.2811483638709623 -0.3213738082689167
0005b0 1a 7b 6d 44 be 65 e0 bf 43 b6 a2 f6 6d 11 da bf
       -0.5124198280790069 -0.4073138149786681
0005c0 21 39 42 a1 2d 90 e0 bf ea 32 28 95 1c d3 d8 bf
       -0.5175998830398251 -0.38788523260227115
0005d0 46 65 41 29 25 fe e0 bf 7f f6 8d fa d6 73 c7 bf
       -0.5310235791941202 -0.18322264894588966
0005e0 1d a9 c6 c9 5d c5 e3 bf 96 10 11 8d 22 e2 e3 bf
       -0.617842573255334 -0.6213543658455076
0005f0 1a 23 ac 8e d5 c7 e5 bf 5a 69 2a ad 91 e1 db bf
       -0.6806438242502708 -0.4356426421233174
000600 05 1e 91 3a d5 86 e2 bf bb 08 1a 41 cf 9c bf bf
       -0.578959097278983 -0.12348647441288822
000610 d8 08 1c f7 69 41 d9 bf 90 e3 c0 61 05 0c b3 bf
       -0.3946175492457207 -0.07440217625197776
000620 38 45 59 dc c9 08 e0 bf f5 69 4d 0e dd 29 d1 bf
       -0.5010728172002592 -0.2681801452323776
000630 34 01 a2 b2 50 15 c6 bf 48 15 d7 f3 94 45 da bf
       -0.17252548906618304 -0.41049693882481053
000640 09 50 34 4d c3 bc d3 bf a3 1a 03 5f 62 58 d3 bf
       -0.3083961729000753 -0.302269547257689
000650 4f 17 5f 51 a7 3a d5 bf 0b d0 43 bd 51 dc d7 bf
       -0.3317049307482777 -0.3728222225465749
000660 ab c2 5f b5 13 89 b5 bf 21 86 de fd d6 ae d5 bf
       -0.08412287881925333 -0.3387963751975765
000670 a8 b4 1f 1f ba 93 d6 bf 3f 90 53 8d 6f 71 d1 bf
       -0.3527665428108073 -0.2725485687390154
000680 f6 a2 98 b2 ee b4 e1 bf dc 68 87 3e c9 a2 d2 bf
       -0.5533364761550661 -0.2911856756815163
000690 b6 96 88 ed c2 94 e1 bf bf a6 31 9f 72 22 e6 bf
       -0.5494093550994055 -0.691705046582875
0006a0 2e 7a 2c e9 7b 8b e6 bf 64 1d 71 d5 df 23 e5 bf
       -0.7045268587278934 -0.6606291931902146
0006b0 1b be bf 51 af ad c0 bf 06 6a e4 fa 0d 41 e5 bf
       -0.13030044070863842 -0.6641912365187757
0006c0 72 c3 ed 9b 43 d7 e1 bf 63 eb 25 c9 6a 26 dc bf
       -0.5575273557170546 -0.4398447956406725
0006d0 ac 18 01 e0 37 94 df bf 52 eb b8 82 42 d9 e2 bf
       -0.4934215247670959 -0.5890209725542752
0006e0 de 3e f5 ae 19 a3 dc bf 6e a7 8b 5c 10 2c e1 bf
       -0.4474548538755537 -0.5366288955240017
0006f0 77 93 ce 81 2f 36 e4 bf 29 2c 91 b6 49 4f d2 bf
       -0.6316144500056983 -0.2860893519288675
000700 43 2b 1c 35 c7 64 dc bf 61 7f 45 90 95 a4 e3 bf
       -0.44365101038481586 -0.6138408487131352
000710 05 8a 9a 1b f4 6a d7 bf cf 7a f7 70 64 39 e3 bf
       -0.3659029264037204 -0.600755901945229
000720 1d 5b ac dd 0b 2e d7 bf 87 73 d9 f9 50 ab d0 bf
       -0.36218544624118626 -0.26045631789548235
000730 04 6a 1a b1 b4 2c cb bf ef be 6e 57 fb e4 d6 bf
       -0.212301813579714 -0.3577259401163095
000740 de e2 7b e7 17 f5 94 bf 6a 35 cb 46 5b 78 e4 bf
       -0.020466207030923715 -0.6396919615450944
000750 24 ee 22 ca 56 08 c4 bf 7d 90 f3 4f 2e c4 df bf
       -0.15650448675101913 -0.4963489323402042
000760 b3 78 4d 26 bf 51 d6 bf 23 4a 3f d0 be f7 d5 bf
       -0.34873942127695584 -0.34324617706912103
000770 e5 30 5a e6 07 f2 e1 bf 8c d8 34 e6 79 05 e4 bf
       -0.5607947825497176 -0.6256684776515313
000780 b2 3e 74 9d 7f a8 db bf c5 4a 68 c9 45 9a dd bf
       -0.4321593320500866 -0.46254105251970784
000790 08 d3 db 65 86 40 dd bf c5 65 bd e7 9c 96 e4 bf
       -0.45706329295289594 -0.6433853651207576
0007a0 fd d2 95 f4 1d 8a e5 bf 62 a9 04 d4 cb 7c d9 bf
       -0.6731099869781186 -0.3982419558039024
0007b0 38 10 70 80 2c af e4 bf 7b d3 9e 04 f3 1c e4 bf
       -0.6463835247564083 -0.6285338487856359
0007c0 c3 4b 8c 52 85 62 e5 bf c8 fa 98 43 79 5c e4 bf
       -0.6682764637247306 -0.6362882919564408
0007d0 28 b7 e9 fe 66 1e e3 bf e4 5d 00 fa 66 42 cd bf
       -0.5974612215775084 -0.22858893591977314
0007e0 4b 3f 61 ab 29 57 e1 bf d5 e2 d6 7d b2 3e ba bf
       -0.5418899867308736 -0.10251918384791321
0007f0 5f 5b 43 bd e2 a1 d7 bf 1a cb 60 ed c9 f5 e0 bf
       -0.3692557190201366 -0.5300035129824636

fc2.weight f8 [1, 256]
000000 aa 1d 66 9b 98 c9 da bf 62 0f e5 c1 02 d4 78 40
       -0.4185544507567679 397.2506731937084
000010 58 8a f9 f9 e0 df d3 3f ee 55 20 50 60 a7 c8 bf
       0.31053947841261254 -0.1926079169503931
000020 e4 34 98 f2 78 34 27 40 f7 fa 9a c3 25 9e 20 40
       11.602485257224949 8.308881867092607
000030 6c d2 b4 df 4e 59 72 c0 36 76 75 ab 4b 6c 52 40
       -293.58175631173685 73.69211851569057
000040 60 7d c1 c9 ae 01 5f 40 e3 26 19 68 f0 0f f6 bf
       124.02629321952327 -1.3788913790071369
000050 11 c2 cb 2c 02 50 79 c0 2a c7 0c 68 b5 03 56 c0
       -405.0005310019779 -88.0579471707139
000060 15 f6 0e 19 09 2d 5f c0 35 29 8a 40 91 d5 50 c0
       -124.70368029080448 -67.33699048511774
000070 a0 a5 46 db 0b 53 75 40 0f 06 0c ce 3c a6 64 40
       341.1903946647308 165.1949224696004
000080 a1 8a bc a9 4a 48 50 40 79 33 73 15 93 7e 5f 40
       65.12955706989534 125.97772728204826
000090 bf 25 cf f0 c1 7a 7e c0 a1 a1 ec 0f a1 c6 60 c0
       -487.6723487941453 -134.20716091363013
0000a0 ef bb f1 c9 5b 08 32 40 de 95 a8 17 bd ee 6e c0
       18.032650586621397 -247.46058257033195
0000b0 10 dc 66 e4 a4 32 41 c0 a4 3e 25 9d 8a 89 3e c0
       -34.39565711042826 -30.53727132949156
0000c0 01 d9 5c c2 82 2e 68 40 d6 42 d4 87 45 56 72 40
       193.45346181997596 293.39197523989185
0000d0 57 79 bf df 01 ba 70 40 7c 2c df 0e 10 b7 1a 40
       267.62545752329373 6.67877219426293
0000e0 fe a3 87 be 62 f8 52 40 be ac 80 7a 38 0a 3f 40
       75.88102687116768 31.039924293913593
0000f0 68 32 6b 75 22 26 67 40 ad 7c dd 09 23 7a 55 c0
       185.1917063802423 -85.90838858251182
000100 a9 cc d3 81 f9 17 81 c0 21 d6 8b e6 ec 6d 30 40
       -546.9968296572525 16.429396065845257
000110 29 d0 1a ee b1 d6 67 c0 19 73 92 3f 45 7c 39 c0
       -190.7092199824995 -25.485431645635888
000120 0e 15 2b f6 41 a5 62 c0 1b 32 6a 9a 2c 2c 75 40
       -149.16430195250035 338.76088944895463
000130 0f af 23 74 a4 b7 3f 40 e1 5e f6 9d cf 80 66 40
       31.71735311385333 180.02534387702238
000140 a2 2d cd 5f 4d 87 55 c0 00 c2 ad cc d6 f3 53 c0
       -86.1140975478834 -79.80998532265221
000150 10 ac ae 4e 43 35 44 c0 45 33 69 b4 4f c8 45 c0
       -40.416116557397004 -43.56493239533169
000160 78 ef d8 4a a0 35 63 c0 ea e5 fe e7 08 ba 58 c0
       -153.67581694002342 -98.90679359333413
000170 ea 43 4c 72 42 4d 62 40 0e 86 b6 90 ea 61 20 40
       146.4143611421162 8.191242716103286
000180 17 a3 af 05 33 9b 78 40 0a c7 a4 4c 6b 9c 3d 40
       393.69995659454565 29.61101225874794
000190 87 05 d0 4a 0d e8 54 40 bf df cd bf 71 89 7d c0
       83.62581129374131 -472.5902708093599
0001a0 a8 88 62 26 26 fb 77 40 21 6c 7e 79 e4 53 6d 40
       383.6968139504411 234.62163996402617
0001b0 a2 89 43 9c 2e a3 58 c0 90 44 f0 9b 85 51 44 40
       -98.54971987338516 40.63688992721393
0001c0 54 f2 33 0d 6e b9 6c 40 6f 6c 59 ee 2a 8e 77 40
       229.79468403001613 376.88548121386606
0001d0 76 97 15 fb 8d 21 67 c0 1f 68 75 6f a5 7a 53 40
       -185.04858164040678 77.91634737458706
0001e0 5d bb c1 e0 3c b3 60 c0 b4 c2 74 ec 4e 54 56 c0
       -133.6011813911272 -89.31731711771391
0001f0 d6 1a 3e 12 2d 50 0b c0 84 58 fa 3a f8 4d 37 c0
       -3.4141484666064157 -23.304568945045062
000200 fe 9c 7c b1 04 54 3b 40 47 9a dd fd 71 a1 31 40
       27.32819661419216 17.630645624735077
000210 04 94 96 1d 0b 3b 6c 40 9e 67 ac d0 02 d0 5c c0
       225.84510688218882 -115.2501718219414
000220 32 65 6a a1 50 f2 53 c0 d9 ad fc 1e 72 51 7a 40
       -79.78617129697957 421.09036158278246
000230 05 21 0c 94 5a 1b 77 40 a9 de 83 f0 3f f5 74 c0
       369.7096138452328 -335.3281102324641
000240 e8 0a c0 0d 3a 48 72 c0 a0 85 f0 34 be 27 5a 40
       -292.51417326943056 104.62098430145716
000250 af c2 b2 ab d7 cc fa bf 16 c3 bf 77 3e 12 63 c0
       -1.6750103671039758 -152.5701254601815
000260 69 17 1c 56 f7 7b 50 c0 1a e9 db 94 6a f7 71 c0
       -65.93697121375375 -287.4635208692795
000270 bf 8f ba 7f ce 78 5d c0 94 b1 dd 71 b1 65 29 40
       -117.88760369509599 12.698619421303
000280 2c c2 cb fe 81 53 0f c0 b1 f1 87 51 1c d0 61 40
       -3.915775290101257 142.50345684577545
000290 f0 3b 61 f5 9a 13 46 40 3e 3c 22 1c dd 64 32 40
       44.15316645858536 18.393998869283898
0002a0 6f 59 17 a6 44 29 52 c0 07 cb 37 84 6b 06 63 40
       -72.64481498985491 152.20062456986508
0002b0 d8 93 6d 05 e5 6d 4d c0 6e 8c 9b 8c fb 39 6d c0
       -58.85855167246308 -233.8119566953714
0002c0 a0 57 33 94 e5 c1 76 c0 08 17 3a c9 09 97 2d 40
       -364.11854953818874 14.794996536580143
0002d0 4b 3b 92 85 f4 64 59 c0 11 21 c6 aa d6 f0 63 40
       -101.57742442398482 159.52620447823622
0002e0 c4 67 d0 ec 61 60 64 c0 47 4b 80 54 1f 9e 75 c0
       -163.01195374206702 -345.88264894595017
0002f0 6e e8 14 c9 4f dd 5e 40 a8 5c 6a fd fe 01 53 c0
       123.45799471895018 -76.03118834864529
000300 8a f5 d8 5f 8c 5c 45 c0 cc 58 bd ba d5 e1 2c c0
       -42.72303388684948 -14.441083751309996
000310 0b 60 6a d1 3e 19 63 40 a9 8f 0c 88 77 7c 6e c0
       152.78891821648025 -243.88959124043802
000320 72 0a bd ee 90 87 32 c0 68 4e f2 ab ca 07 53 40
       -18.529555245544948 76.12174509680483
000330 ee 5b 15 ec 71 bd 43 40 39 c5 82 3e d4 85 63 c0
       39.480039129666565 -156.18215871373266
000340 58 18 eb 0b c0 48 34 c0 9f 09 7f be 32 6e 4e c0
       -20.284180397888434 -60.86092358782775
000350 15 57 d3 13 19 3c 65 40 7a 6b 87 17 30 03 73 40
       169.87806121137024 304.19924118898746
000360 c5 48 d8 c3 6a 2f 22 40 a3 fd c5 53 06 18 66 40
       9.09261142745198 176.75077236814568
000370 e7 24 24 0c bb e6 62 c0 5f b3 81 1c 70 b5 77 40
       -151.21033293780712 379.3398709360535
000380 33 31 76 e3 29 84 58 c0 a2 bf b5 38 92 2f 67 c0
       -98.06505667249876 -185.48659930703894
000390 09 d7 27 a7 06 60 68 40 c3 8c c5 76 a0 12 74 40
       195.00081212788817 321.1641757694999
0003a0 a2 6c 2f 68 e5 d1 53 40 ec 87 0a ce a0 c2 71 40
       79.27962689048084 284.16425899614
0003b0 3b fa 1e d3 df fe 11 c0 77 93 1f c0 64 e7 3c 40
       -4.498900698438372 28.903881080349915
0003c0 74 11 ba 66 1d 6f 67 40 d3 b1 cf 9f 6f bd f7 3f
       187.47233902303162 1.4837490313176331
0003d0 41 80 8c 9f 94 ea 44 40 be 29 d8 b6 27 54 67 c0
       41.83266062126541 -186.62984792918536
0003e0 8f 7e fd 7f ea eb 34 c0 2d 68 64 d7 61 ab 5b c0
       -20.92154693545177 -110.677846763662
0003f0 1e d8 15 01 48 8f 6b 40 fd 8d 6d 1e f2 a2 4d c0
       220.47753958002517 -59.27301388120029
000400 49 5a d4 2b b5 0d 51 c0 55 a9 53 19 6f 9a 35 40
       -68.21418281304899 21.603257735181007
000410 16 a9 6c 78 fe 35 70 c0 0d ee 92 6b 7e 24 1a 40
       -259.37462656445985 6.5356385048321615
000420 03 d5 31 bf 77 97 69 40 ed 0e 4e 95 14 fb 47 40
       204.7333675359042 47.96156565009537
000430 af 53 13 1e 48 c3 6d c0 22 21 94 9a 45 a8 63 40
       -238.10255340361388 157.25849656039742
000440 e1 d6 3b 56 68 4c 39 40 4e e5 4f d3 ec 77 3c 40
       25.29846705399439 28.46845741940097
000450 3e a4 2a 3a 85 da 47 40 13 7c 5e c3 d6 5c 7e c0
       47.70719077188595 -485.8024324122245
000460 f8 e8 92 96 da f8 6a 40 e9 88 2c e5 7a aa 75 40
       215.77668312734 346.65500371357354
000470 41 34 6d 56 06 40 62 40 8b 72 61 7d 55 41 7e 40
       146.00077363327912 484.08337152543453
000480 e6 26 54 b8 8d 1b 47 40 6f 74 e8 b1 6b 06 59 40
       46.215262452211206 100.10032317829767
000490 cd db 13 f3 62 72 41 40 9d ac 0d b0 87 d6 53 c0
       34.89364469976099 -79.35203172049883
0004a0 1c 03 d5 90 02 bb 76 40 df 4c 45 07 42 20 2b c0
       363.68812640388364 -13.563003756722933
0004b0 f0 41 be e6 eb 05 3e c0 dc 50 53 12 2c ee 6e 40
       -30.023130818795778 247.44287983200672
0004c0 a5 c8 44 4d fd 35 4d 40 b1 03 a4 b4 d1 cd 5e c0
       58.42179265841086 -123.21592441575082
0004d0 45 11 bf 0a 9f f1 50 c0 3d 0c 53 64 a5 e1 fa bf
       -67.77533215197498 -1.6800893706247415
0004e0 e0 c4 55 6b d6 19 74 40 54 b9 0d 57 9c 09 54 c0
       321.61484845641644 -80.1501672395728
0004f0 d5 e8 04 69 7a bb 78 c0 33 fa d1 cc 2a 08 66 c0
       -395.71738531034254 -176.25522461901855
000500 e0 c2 04 ba 7c 74 4c c0 61 82 5e f0 ab e8 7c c0
       -56.91005635483248 -462.5419772807855
000510 e8 96 8a dc c4 1c 61 c0 89 03 5a c1 37 18 2c c0
       -136.89903094356782 -14.047300379026426
000520 7c 8a 9e 9e 90 b0 76 c0 a4 bb 7e 67 70 f0 4a 40
       -363.0353075211531 53.87843030632146
000530 41 ad 8c 15 a9 a2 46 40 0c db 11 06 f9 46 56 c0
       45.27078503960593 -89.1089492010471
000540 42 f0 94 62 dd e6 72 40 d8 61 54 46 bc 37 74 40
       302.4290490930472 323.48346550905035
000550 ee 7f d0 55 ad 91 15 c0 f6 d5 f7 cc 0a 99 20 40
       -5.392262783861936 8.298910527470962
000560 29 de 37 8c 3a 41 14 40 35 2c a1 61 b7 55 51 c0
       5.063699904355908 -69.33931771029968
000570 85 59 20 a8 e6 e6 73 c0 77 bf 6e 71 e6 c4 70 40
       -318.4313126815471 268.30626052151587
000580 32 49 3b 99 45 46 6c 40 53 49 89 8a 91 bf 66 40
       226.19599591807633 181.98651625455622
000590 05 dd f0 e3 a7 82 61 40 52 f6 b4 25 4d 71 42 c0
       140.08299443286538 -36.885166848526424
0005a0 f7 36 5b 5b c7 32 62 40 2b b1 36 3a 67 89 52 40
       145.58683555426953 74.14692550030729
0005b0 b6 cd 2b f4 21 44 7b c0 22 6c a7 fe c9 2b 45 c0
       -436.2582895003392 -42.3421018903248
0005c0 42 b3 05 6a ff 3e 7c c0 3e 47 01 db f8 a2 73 c0
       -451.93735697008754 -314.1857557344373
0005d0 41 98 83 e0 46 a1 3b c0 23 e4 02 80 48 02 46 c0
       -27.629987747314093 -44.01783752576036
0005e0 a9 4c c6 11 83 00 66 c0 f1 dd 68 c5 5a f2 65 c0
       -176.0159996865307 -175.5735804603751
0005f0 18 cd 88 00 4b 3c 41 40 47 1f 1e 18 ed 86 78 40
       34.47103888206237 392.43288432852245
000600 01 f2 a0 86 9a be 6f 40 d5 5b d1 e1 64 cd 31 40
       253.95636302408823 17.80232058869645
000610 18 48 19 e1 36 a8 6d c0 50 e5 07 eb 29 9c 2f 40
       -237.25669913232628 15.805007309640729
000620 24 b9 38 fd 79 7a 74 c0 a8 b9 d0 7c d9 df 5c 40
       -327.65478250653746 115.49764938720057
000630 fa d5 8d 54 2b d4 43 c0 5b 54 34 ce f0 9e 30 40
       -39.65757233548716 16.620861900115738
000640 03 c8 20 b0 a4 ca 5e 40 5a ab f6 30 68 2c 5e 40
       123.16630175782488 120.69385933007052
000650 66 a7 d0 8a 09 22 48 c0 74 1f 31 a9 bd bc 71 c0
       -48.26591620624713 -283.7963039320814
000660 15 c2 12 a7 aa 8c 29 40 eb c0 0c 00 1d 71 56 c0
       12.774739476241885 -89.76739503140895
000670 4c a3 ff c3 3a 6b 66 c0 22 0c 42 1a e4 15 5f 40
       -179.3509235375335 124.34204727601949
000680 3b e0 9d aa 0d a8 62 40 ee 9e a2 43 16 be 61 40
       149.25166827044617 141.94021779786948
000690 0d 7e 40 a9 ca 27 55 40 c2 99 e5 47 b6 ab 02 40
       84.62174445436558 2.3338437668746517
0006a0 ce fa d8 18 92 a9 2a c0 7a be d0 ff 66 d5 46 40
       -13.331192757117062 45.66720578854161
0006b0 d8 5c 47 be bd f8 25 40 b4 07 08 a1 0d 1b 4b 40
       10.985822626315368 54.211353424950545
0006c0 d4 68 d1 54 21 4b 65 40 cb a3 7f 96 a6 17 71 40
       170.34781876468935 273.47817087039283
0006d0 92 42 a5 30 04 e5 68 c0 36 be e7 25 0b a2 5d 40
       -199.1567614772544 118.53193042403367
0006e0 6d f4 9a c9 f8 b1 71 40 a6 d0 ee 0f 15 b6 61 c0
       283.12323914078917 -141.69007107394754
0006f0 40 5f 34 fa 89 2f 5a c0 97 4e 83 35 21 82 5b 40
       -104.74279646982632 110.03327691863011
000700 1e 18 e8 7e 80 98 71 40 2f ed 76 a5 17 72 5a c0
       281.53137102758217 -105.78269325841823
000710 fd f6 67 f3 79 44 72 c0 35 70 3a de 93 bd 3a 40
       -292.27977314578294 26.740537537829557
000720 b1 15 41 c1 19 81 71 c0 b3 ae a0 81 e8 91 52 40
       -280.0687878172276 74.27981606189387
000730 c8 50 5a ec ae cc 44 c0 5c 8c b5 be c4 d1 66 c0
       -41.59908823404254 -182.55526671847008
000740 b8 49 ac 60 ab a8 fb bf 7b e5 89 2b 58 c1 52 c0
       -1.728679063443094 -75.02100647417494
000750 aa a5 21 95 50 96 2e c0 f6 7c df 6a 2b 78 67 c0
       -15.293583546025577 -187.75529998445535
000760 9b bc f8 13 b5 d0 61 c0 32 cd d6 ac ed 81 5a c0
       -142.5221042497768 -106.03013154007638
000770 f2 38 a0 55 ec 20 64 40 e4 da f9 59 98 6c 58 c0
       161.028849423346 -97.69679879569918
000780 6a b2 8e 0a 91 26 70 40 f9 65 63 8f dc 4f 67 40
       258.41041045895565 186.49567384160744
000790 ad d5 cc 2d a6 29 6c 40 c1 84 f9 c6 6d 09 4d c0
       225.30153551108143 -58.073662635646095
0007a0 ee fb f2 97 ea 02 40 40 56 4a 1a ac 2d 4c 63 c0
       32.02278422703226 -154.38057522902335
0007b0 6e c0 bb c0 a2 e8 3c c0 8e d2 40 b8 83 2b 5a c0
       -28.908733411634266 -104.67991453485794
0007c0 83 a3 07 c4 28 4a 3c 40 b9 ff 27 5e df 29 51 c0
       28.289684535851404 -68.65425828844208
0007d0 8a 9d 15 ca 13 03 4a 40 bf c6 75 d8 04 1b 36 c0
       52.02404142432631 -22.105542687181465
0007e0 90 21 6b 49 41 9b 4e c0 5e 15 0e ae 24 e7 19 40
       -61.21292989474307 6.475725860223376
0007f0 e3 71 d5 90 c6 59 6e c0 f6 27 1b ea 8e 11 6d c0
       -242.80548898399783 -232.5486956148522
