generalElliptic/data-revision1/model_OGA_3D_cosine_tanh_neuron_512_N_512_rand_trial_2.pt (torch, 22222 bytes, 3 tensors)

fc1.weight f8 [512, 3]
0	0xbff3edc831d0fff0	-1.2455522485688526
1	0xbfed0d0b90b20394	-0.9078424287873639
2	0xbff27c57d0d0e2c6	-1.1553571850655984
3	0xbfbf734ac46f6120	-0.122852967222006
4	0x3fbe82d74d45e7c8	0.11918397556828986
5	0xbfd8fa2558ad8e86	-0.39026769313770904
6	0x3ff2cc322e13e5de	1.1748525428687269
7	0xbfff8f05ba4454f4	-1.9724175716449368
8	0xbffc384a0176c71a	-1.763742452353148
9	0xbff96b482c7edaea	-1.5886918771845395
10	0xbff099d76902020d	-1.037558946787729
11	0xbff7d26c4eb849c4	-1.4888728213305606
12	0xbffa17bd6f5eb602	-1.6307958937062499
13	0xbffc2a2634cf3974	-1.7602903426046312
14	0x3ffbd546d4c01996	1.7395695028841138
15	0xc007c63e33c227a4	-2.9717983287454945
16	0x3fad7e374f6aba70	0.057603577084013646
17	0x3ff05f75f1a41b8a	1.023305839453061
18	0xbfefa122a448b592	-0.9884198387787129
19	0xc002652e3a39580b	-2.2994045780897117
20	0x3fee46edbf18c2c5	0.9461582882268763
21	0xc003b096bb73ca36	-2.4612249989234227
22	0xc000b13114c565cd	-2.0865193960896478
23	0x3fd1d3e20b3d5c12	0.2785573110354004
24	0xc0005352468bc98e	-2.040684271946879
25	0xbff9038b9ecf701e	-1.5633655742194672
26	0x3ffd53ef32d74c7c	1.8329917894341454
27	0xbffabb384831778a	-1.670707971577459
28	0xbfdd6dde2e08a390	-0.4598308038280772
29	0x3ffd89b72a8bf424	1.8461219465236889
30	0xbfc91ca4827853d0	-0.19618660326582793
31	0xbfc9681db5b3063c	-0.19848986980473338
32	0xc002394023098c32	-2.2779543626106937
33	0xc00015985c99950e	-2.010544513165434
34	0x4000c78a7b6b59eb	2.097432102407074
35	0xbff89001f76e57ac	-1.5351581254267144
36	0x3fe7679847c4dcb7	0.7313958551157133
37	0xbfca0fb37ac374a9	-0.2036041593009135
38	0xc0067bacdf4e6cc0	-2.810388321476779
39	0x40019950d9f19e86	2.1998612429486597
40	0xbfef224abfc2d6c4	-0.9729360337575703
41	0x3fe2e00516de16c3	0.5898461767798938
42	0x3ff11913b3a48d26	1.0686223046585126
43	0xc00042367a80c195	-2.0323304720443027
44	0x3fc23d1c898f52b8	0.14248997418203202
45	0xbffe8c440c7c15a0	-1.909244583862666
46	0x3fe4c7d4415de011	0.6493932034200062
47	0xbff4eb9eba46390d	-1.3075244213428647
48	0x4001fdea9d3e0400	2.248982647376124
49	0xbfd06536e814777a	-0.25617764152581624
50	0xbfea70377e4d02ac	-0.8261983362973147
51	0xbffa5e55eb82d87a	-1.648031158414169
52	0x3ffcee09c83de740	1.8081147977777192
53	0xbfca54314e1bfda1	-0.20569435419018325
54	0xbfd5455bbe8ba2db	-0.3323582993312308
55	0xbffd66d9ab30d336	-1.837609928811799
56	0xbfe6644ebb4641a2	-0.6997445733741652
57	0x3ffd9a675f7bbae0	1.8501962404076764
58	0xbfd4b9b1e134ce6e	-0.3238339137344387
59	0xc00005c1e989abe1	-2.002811264528177
60	0xbfd3192eb4b419ae	-0.2984120144541532
61	0xc0073fea40ebf1bc	-2.9062085220341185
62	0xbfe5d691380919be	-0.6824422926372831
63	0xbff783660191435a	-1.46957970249442
64	0xbff3d4407cf3166c	-1.239319313129637
65	0xc0011ca9285f52be	-2.13899451771644
66	0xbff6dee59cab8d96	-1.4294181938101693
67	0x3ff2b2bdc607bcae	1.1686380134158685
68	0xbff43dd150a38b16	-1.265092196460221
69	0xc005ad3eb0df6627	-2.709592229669187
70	0x3ffbb5703a467638	1.7317964817406288
71	0x3fec39dd49cc55b3	0.8820635262842899
72	0xc0004728bbf944a6	-2.0347456632085423
73	0x3fa7ee8610d23190	0.046741666367867585
74	0xbffab869de3a306c	-1.6700228386644325
75	0x3fe9cf4a1f53c06f	0.8065538989885804
76	0xc00407ff6ac94672	-2.503905138270789
77	0xbfdad817b9c22dba	-0.41943925037841334
78	0xc000190183c6d05f	-2.0122099204109385
79	0x3ff029acc58b581c	1.0101745335173353
80	0x3fea23329c49ea73	0.8167965939058618
81	0xbfe70e40272949c8	-0.7204895748966971
82	0xbff72d3c26393d96	-1.4485436909779756
83	0xc000f1a62a60fe87	-2.117992716870336
84	0xbffbf61a6900b9ae	-1.7475837804482626
85	0xbff627d87ed2be9a	-1.384727950480658
86	0x3f99d7ead4d255d0	0.025237721671677538
87	0xbfc9264ef2304467	-0.196481579071164
88	0x3ff8e026f9fbe9f0	1.5547246708871363
89	0xbffe3f513769f06c	-1.8904583134272128
90	0xc006a26a092bdcd3	-2.829303809786873
91	0xbff135fc6b886c5a	-1.0756801796440159
92	0xbff23840f582accc	-1.1387338247539445
93	0xbfd7e5ba5b3520eb	-0.37339648158059785
94	0x3fd20e742c0b3b24	0.28213218976172727
95	0xc0052d56743231ce	-2.647137553960625
96	0x3ff4227917089fe8	1.258416261649467
97	0xbfffae60191d8616	-1.98007211504626
98	0xbfed33633fd3aaf5	-0.9125229117028925
99	0xc0018902e7a61e42	-2.1919000718660593
100	0x3fee6427ab41010b	0.9497259468844573
101	0xc004e974c627106d	-2.6139922600432812
102	0x3ffb821bcfa23f64	1.7192648039526484
103	0xbff3631927d6d1da	-1.2116939121452703
104	0xbffc69f698d3620a	-1.7758699388269883
105	0xc00bb8016061a5d7	-3.4648463754462955
106	0xbfe351715e2eb535	-0.6036917533398652
107	0x3fdcc27603c1a640	0.4493689572032942
108	0xbfe4117da7161b08	-0.6271351111798547
109	0xc00290ce4acc71e7	-2.320705971111454
110	0xbffff97ba1bc735a	-1.998408920079973
111	0xc00056904c959420	-2.042267416300561
112	0x3fdbda9ec7618440	0.4352185198859537
113	0xbfd6bde2706e2d65	-0.3553396318390781
114	0x3fe474c3d904e2a7	0.6392535437253927
115	0xc00413b801a76369	-2.5096283082206594
116	0x3fe22dc9e608035a	0.5680894367979861
117	0x40002024da6a8ad1	2.015695291878139
118	0xbff67c8e8d2932de	-1.4054093851183818
119	0xbff8366a506c9bc8	-1.513284982831225
120	0x3fdd3027655e7704	0.4560640802318263
121	0xc00166fca5c7bf6f	-2.175286574514693
122	0xbfff3302f5915cee	-1.949953994035066
123	0xbfe318e64f966ca7	-0.5967895082898352
124	0xc0017b2b29152fbf	-2.185140915831624
125	0x3ff74efbdba7e082	1.456783159284925
126	0xbfe07140b5781dce	-0.513824800903359
127	0xbffd305f7f2d7fee	-1.8243098228340346
128	0xc000048b092e6977	-2.0022183148659525
129	0xbff6a7acebcd7b3e	-1.4159363947907901
130	0x3fcdee50689a0598	0.23383526904585206
131	0xc00265226ad233ef	-2.2993820519827675
132	0xc0035b96856ac7e5	-2.4197206900798727
133	0xbff59d34855b5c5a	-1.3508801659825367
134	0x3fe32ceba5f036cb	0.5992334595664145
135	0xbfe128756ae2d82f	-0.5361888015384063
136	0x3ff81767bba7a976	1.5057141618986782
137	0xc0013ec06927f20e	-2.1556404319110305
138	0xbfefce044f4fc9a7	-0.9938985394531316
139	0xbffb69ce875cbdfa	-1.713331726797945
140	0x3ff33ef909927ab6	1.2028742193139528
141	0xbfe3c89722202efd	-0.6182361284749899
142	0xbff14bfd2945bdfa	-1.081051980228834
143	0x3ffbb4a787cc70c2	1.7316050820000304
144	0xc004e8069fd4b068	-2.613293884924179
145	0xbfd6d307c743d6d4	-0.35663027247879353
146	0xbfd916a5cb16c568	-0.39200730164437525
147	0xbfe1c5cbec4246cd	-0.5553950895720959
148	0x3ff66ba0baa0a9f6	1.4012763300075881
149	0xc0025e3dd1608c6f	-2.2960163457478795
150	0xbfc69957ce489db5	-0.17655465671962892
151	0xbff243d7091b1c2e	-1.1415624957751436
152	0xc00171cd00c47213	-2.180566793437046
153	0xbfeee4a4ff642589	-0.9654107082471209
154	0xbfff1c2a6c7bcb2a	-1.9443763959540754
155	0xbfdfb54a91c04341	-0.4954401419973245
156	0xbfc94617865ee0a4	-0.19745153485360334
157	0xbff4651f93b16ffc	-1.274688317228537
158	0x3ffc490fa678945a	1.7678371908925983
159	0xbfe4981fa397135e	-0.6435697741622837
160	0xbff941182b346ad8	-1.5783921897588495
161	0xc00a49d92ab84c4e	-3.286058744191485
162	0xbff566e50b1111d9	-1.3376207763950474
163	0xbff28657633410a0	-1.1577981829769115
164	0xbff33fe8db2f8fd0	-1.2031029283470964
165	0xc0054dbd2bff4c01	-2.6629584729466846
166	0xbff2e76803e0f31c	-1.1814956809532253
167	0xbff53f3ab27583d4	-1.3279368372970923
168	0xbff8994610b97fb0	-1.5374203351311557
169	0xbffaca41f89d6740	-1.6743793212430802
170	0xbff4e78066e0a08a	-1.306518937935865
171	0x400257a7f5e66f23	2.2928008280704417
172	0xbffa944936e06532	-1.661202635156155
173	0xbfdb89328f8bcd27	-0.4302488710229277
174	0x3feadddb37c23d81	0.8395820702589135
175	0xc00214fc2d6710f6	-2.2602466151312184
176	0x3febbb5837e17321	0.8666192141932677
177	0xbff4091eb4b7c458	-1.2522265490809072
178	0xc00395c601d9b61d	-2.4481315750661126
179	0xbfe124f7b40bac68	-0.5357626453891386
180	0xbff5c1e1f97a5205	-1.3598346467234717
181	0xbfb711b8e9c441a4	-0.09011417109673531
182	0x4001a0ef969e4aa4	2.2035819785172226
183	0x3fe167417d9f63ef	0.5438544705931444
184	0xbff2b8215241a094	-1.1699536526812482
185	0xc00646ebe957a3fd	-2.7846296529646666
186	0x3ff94ad213e29b9e	1.5807667519345396
187	0xbffebd66531cdaf8	-1.9212401625242688
188	0xbfff178c084885b6	-1.9432487796369577
189	0x3ff9b481b66d347e	1.6065690160787933
190	0xc005d5c392bf1849	-2.729376932579758
191	0x3fe8462e0fc6ef29	0.7585668857713915
192	0xc00072c5f2722b91	-2.056041616543958
193	0x3ff4845489aa9e0e	1.282307183990159
194	0xbff971b94f8b6bd0	-1.5902646167003134
195	0xbffa1dd86df2d750	-1.6322864813677889
196	0xbff575a18c12fb68	-1.3412185165068085
197	0x3feefae69821dd79	0.9681275340398506
198	0xc004d08624cd9ec2	-2.6018183589220323
199	0x3fea3ecd763fde81	0.8201663312492685
200	0x3ffc7c763b54b568	1.7803861920941362
201	0x3fe2483d4413fd23	0.5713182763719583
202	0xbff52cca6abb1224	-1.323435227314925
203	0xc000e10cd1dd686d	-2.109887733048757
204	0x3fe61795d04a3341	0.6903790538941409
205	0xc0046040bb538826	-2.546998466002168
206	0xbfe6ecc6faef6c80	-0.7164034749106492
207	0x3fe4944121a514ed	0.6430974633337009
208	0xc0025ff6692f0245	-2.2968567101927726
209	0xbffa6898b98eae56	-1.6505362747510808
210	0xbffc1a3ffffeeff8	-1.7564086913907868
211	0xc003141dcc1c5009	-2.3848224588527995
212	0xbff88be317d9c282	-1.5341521197953232
213	0xbff551be5652a7a4	-1.3324569103228692
214	0x3febdd784d9bb75d	0.8707849040781458
215	0xbfef9d7f7ff8a03b	-0.9879758357465173
216	0x3fdd71e01e070fb6	0.4600754063833351
217	0xbfd50cca656f7a9b	-0.32890567689711653
218	0xc0008f72e01da933	-2.070043326287441
219	0xbfe011c75b28b9aa	-0.5021702557040062
220	0xc00440d24b42fe00	-2.5316511039561647
221	0x40005c320e122bbb	2.0450173472686095
222	0x40008835204e76df	2.066507580179731
223	0xbff48f9b6d44860c	-1.2850603359478354
224	0x3fdd3a3f5b24c5f4	0.456680144317118
225	0xbfdd2ccf17524b8c	-0.4558599212406811
226	0xc00e6ef52c413773	-3.804178567638638
227	0x3febab8d76897367	0.8646914782690204
228	0x3ff15b79504b0c8e	1.0848324905826163
229	0x3ff8d93aa438072e	1.5530344404982759
230	0xc00112d3383e3ec9	-2.134191932105612
231	0xbff5b3ba7881bdb0	-1.356379004220667
232	0x3fe77431971c6a75	0.732933802736922
233	0xbffffb374f2ca156	-1.998832043909791
234	0x3ff74f1bab643b1a	1.456813497064735
235	0x3fe7080e45cfe601	0.7197333682553905
236	0xc0080a88b923ed8f	-3.0051435913171143
237	0x3fd103b227419664	0.2658505805360163
238	0xc0097aa979c5f4c8	-3.1848935617004805
239	0xbfe2e8773bc0b8b6	-0.5908771674201236
240	0xc0001cdd3856c03a	-2.014093818805148
241	0xbfeb2cce9e0f8f28	-0.8492196166157315
242	0x3ffa47458beaffbe	1.642400309137869
243	0xc0053175c81f350e	-2.649150432064409
244	0x3fe4f8e1b7945693	0.6553810678039603
245	0xbff16a96cddec5a8	-1.0885227243237328
246	0xbfdb8ffbd8617313	-0.43066307192729986
247	0xc003f34a9e1dacda	-2.4937946656042245
248	0xbfb574b62d1b4768	-0.08381212807878813
249	0xbfe3acec74685920	-0.6148588441454059
250	0xc0015189758c30fa	-2.1648129638107294
251	0x3fe6bfba1112fbe7	0.71090415320202
252	0xc004525a8e56a02e	-2.5402117843805376
253	0xbff1c66283e8da92	-1.1109337952345055
254	0x3ff744a0a94dc7d4	1.4542547810965418
255	0x3ff628c89162984c	1.3849569014651193

fc1.bias f8 [512]
0	0x3ffc6162e7fc65ac	1.7737759649229288
1	0x400bf236e095c5ef	3.4932687326151988
2	0x3ff0a223e1e51acc	1.0395850013753032
3	0x3ff0efc8c8b094de	1.0585410918659401
4	0x3ff28baff28fa2f3	1.1591033434908098
5	0x3fe99270bb78ddde	0.7991260205807824
6	0x3ff1fe92bebd874d	1.124651665763355
7	0x3fe98d83041e2e78	0.7985243874004047
8	0x3fdd912a9ecedac0	0.4619852591380713
9	0x3ff2f1931a3df088	1.183978178508399
10	0x3ff644be7b0bb982	1.3917832190014399
11	0x3ff140af07e88618	1.0782919224660699
12	0x3fe22d606fd616a3	0.5680391487409974
13	0xbfef6010134fbe9f	-0.9804764153650075
14	0x3ff2096fe2e732b8	1.127303968754104
15	0x3fc1577410bf5622	0.13548136537308247
16	0x3fc194a7ff1e7e46	0.13734912831295015
17	0x3fe78a02f4a97586	0.7355971125177099
18	0x4001d15f09ff68c2	2.227232053858729
19	0x3fb3a905924199b0	0.07679781742772351
20	0x4002b1815d3e0811	2.336672523932983
21	0x3ff12762226ec8c2	1.0721150727300004
22	0x3fd63a91989f8c52	0.34732475189793377
23	0x3fc620733dad659f	0.1728653002890441
24	0x3ff63de39c7702f8	1.3901096450719574
25	0xbfc52f8231f0e988	-0.16551234663513648
26	0x3fe841acb94a2480	0.7580169314325218
27	0x3ff615bd9b0512d0	1.380307775064626
28	0x3ff241a12b4e56f4	1.1410228435174163
29	0x3fec2077ec4658e6	0.8789634337179251
30	0x3fea53f1e01b2618	0.8227471711226739
31	0x3fbefc9feba12dec	0.12104224684406234
32	0x3ff44356f519c2f9	1.2664403509372149
33	0x3fe1b89400d8ae22	0.5537815109759701
34	0x3ffd86471dd14fe0	1.8452826657057741
35	0xbfcd3c06aa8fd590	-0.22839434936728908
36	0x3fe9e0b4ac225ccd	0.8086799013134623
37	0x4000d07b5b646d4f	2.1017977848074803
38	0x3fc7bd9c323a92f4	0.18547394230440484
39	0x3feec70d5e88b7c5	0.961798367153954
40	0x3ff6eace0c6836f6	1.4323254093791866
41	0x3fed114a98a6fbbb	0.9083607655992333
42	0x40017ea059477698	2.1868292784627776
43	0x3ffa4d5fef7d0a3c	1.643890319349011
44	0x3fffd5bcc025ad0a	1.9896819597004787
45	0xbfe48747f5ab45ff	-0.6415138052199721
46	0xbfd4063ae6ccac24	-0.312880254163874
47	0xbffed24337d03520	-1.9263336353499838
48	0x3feb921b1a6f29c0	0.8615851894658633
49	0x3fea130159ca51c4	0.8148199800221438
50	0x3fcd7dae77ef76ec	0.23039799553128348
51	0x3ffc4711fd854906	1.76735114127638
52	0x3ffad4d6f91d44de	1.6769628268269154
53	0x3fe80b19f3e02dd5	0.7513551486203435
54	0x40047cbd49375059	2.5609079093938303
55	0x400077d9205cf8e1	2.058519604527746
56	0x3ffe984bae07990c	1.9121815488848055
57	0x3ffae91528af5472	1.6819049443486418
58	0x3fdf32e93bdf5c72	0.48748236510204557
59	0x3ff3228d1cd14b78	1.1959353566823818
60	0x3fc13c66d75e046e	0.13465581432322743
61	0x3fd0af1f3f2c63fc	0.2606886021545163
62	0x3fd94a0d70e0b9fe	0.39514480612970704
63	0xbfcb7f0a6ca96c8c	-0.21481447511437002
64	0xbf9074fc2e82b1e0	-0.016071262682702314
65	0x3ff9128cf1e07fbc	1.5670289467161487
66	0xbfe1c81380c631cb	-0.5556733622666398
67	0x3ffcce2576b6bd38	1.8003286969431667
68	0x3ff242aa8eb735e0	1.1412759375410744
69	0x3fdcb2bb4a02bd0c	0.448408911014625
70	0x3fed7b8adcc00745	0.9213308631444553
71	0x3ff3570300479d50	1.2087430964400774
72	0x3ffd5619c38a6cda	1.8335206640538702
73	0x3fd3ec3351d32ed8	0.31129153242794194
74	0xbfcc90016d9e7a74	-0.22314470150464027
75	0x3fffd7de512e6204	1.990202252496716
76	0x3fd57988050180d4	0.3355426834950894
77	0x3ffd1b5b4e93bb36	1.8191788739602095
78	0x3feb9f7e5534a387	0.8632194198772688
79	0x3ff1d3e6cddd7c27	1.1142337838753151
80	0xbfd95a122cb935c4	-0.39612249724890725
81	0xbfb893cb49078700	-0.09600515873855997
82	0x40012e616b18fa01	2.1476467482564208
83	0x3fd3230105f7f9f0	0.29901147444607457
84	0x3fdf4bba5e25086b	0.48899707025350975
85	0x4003eb3a8196d3bc	2.489857685485246
86	0x3ff4542aadecd4d9	1.2705485147428617
87	0x3fe6cacf5e000a3b	0.7122570835056828
88	0x4009419bd513e638	3.1570355078408987
89	0x40029e4c458e629f	2.327293914230111
90	0x3fe9035d4cae9817	0.7816606996245835
91	0x3fd5f5a848f9eceb	0.34311873556698796
92	0x3ffb1a88df90866c	1.6939781887998846
93	0x3ffacb255ff6b926	1.674596190317581
94	0x3fef19ece6714fb8	0.9719147206146692
95	0x3f98e3eb33556b90	0.024306941040190433
96	0x3ff88e2db0b124cc	1.5347115423231115
97	0x400849badc86ada3	3.036000941143088
98	0x3fe8b2273cdf4002	0.7717472256572366
99	0x3ff3fb2464dca9f8	1.2488140048905034
100	0xbf6f15808f1d3e80	-0.0037944327276944745
101	0x3ffc561b95b5eb84	1.7710224006720816
102	0x3ffb0346e731423a	1.6883000403360158
103	0x3fe9f63244b47f76	0.8113032667060753
104	0x3ffc05a2d1b3d746	1.75137597956696
105	0x3fe378c06dff77e9	0.6084901951214735
106	0x3ff13d2d5eb57d8d	1.0774358462875597
107	0x3ff2b27d99e42d6a	1.1685768138293846
108	0x3ff8fa48ac88a41a	1.5611044635391012
109	0x3fc2e45747900576	0.1475934123446156
110	0x3ff22e5eedc94272	1.1363209999582549
111	0x3ff9d2ed450c6240	1.6139958092882267
112	0x3fdfb264d7d7133c	0.4952633006872025
113	0x3ff455663844cfee	1.2708494375228798
114	0xbff696ac5fcdc666	-1.4117854826294205
115	0x3ff714f9901b02aa	1.4426208142396413
116	0x3fd5beb6553e17c2	0.33976515125720763
117	0x3ffbe7ceb329e700	1.7440936087209025
118	0x3ff8edf92b511c32	1.5580989543975758
119	0x3ffd78e797474e14	1.8420177373235491
120	0x3fec8c3942f4d21a	0.8921171481839025
121	0x3faae7a88d69c998	0.052548663389546835
122	0x3fd4398395d709fe	0.31601037628948336
123	0x3ff14168edae03bb	1.0784692081799523
124	0x3ff442bdbe92d331	1.266294235637542
125	0x3ffe84aec7dc9f8c	1.9073932463743146
126	0x3fe2486f4246d5db	0.5713421148745356
127	0xbfb68456ac1aa2b8	-0.08795682622679635
128	0x3ff8f3efbf5ca3ae	1.5595548129151484
129	0x40024b23e40e8a87	2.286689550107727
130	0x3fae07b412fcec48	0.05865252239024038
131	0x3fe684c4da285470	0.7037071476830885
132	0x3ffa2727cdf04964	1.6345594448544825
133	0x3fffe350d41555b4	1.9929970058923177
134	0x4000faabbd03bd57	2.1223978773847807
135	0x3ffdce96fa35353a	1.8629369519943126
136	0x3ff5eb74ac02b3b5	1.3699843138849535
137	0x3fdc67e15bdb7577	0.4438403508227888
138	0x3fef4bf16792310d	0.9780203841087612
139	0x3fb17c4bb5fe90c0	0.06830285256598057
140	0x3fe690aa476856f4	0.7051593203238711
141	0x3ff7908afc17c9de	1.4727887961749881
142	0x3ff436939f5ecb1c	1.2633243775750946
143	0x3ff8e5f7278d287e	1.5561439080215957
144	0x3ffd0ded3ff76c7e	1.8159000872317672
145	0xbff3c8187c95601e	-1.2363514772932898
146	0x3ff72f7c5a8c9a04	1.4490932023123841
147	0x40065bacfda1c9b8	2.7947635474203842
148	0x3fed07b94af243d2	0.9071928466602179
149	0x3ff5e748443a09da	1.3689654030900926
150	0x3fe91103684bf8d3	0.783326820091839
151	0x4001a799f2669f58	2.2068365991180308
152	0x3fd6eb90f2d6b3ea	0.3581278201552879
153	0x3ff4e025a090c702	1.3047233841029429
154	0xbff67052b08be1c0	-1.4024226089805865
155	0x3ff7fe75c259b000	1.4996240226564623
156	0x3fdd608f613f6e8c	0.4590185594258649
157	0x3ffac040ce9fd4da	1.6719368048919052
158	0x4003deff8a00ae77	2.483885839601324
159	0x3fee7adc39ffacd2	0.9524975903308592
160	0x3fd03e69428d0c44	0.2538092756187249
161	0x3ffb1c95111a78fc	1.6944780986883066
162	0x3ff13beb02338272	1.0771284185394987
163	0x3ff75c1df19e2b46	1.4599894941518001
164	0x3fe74fc7d101a69c	0.7284888345868299
165	0x3ffc54e443e5329e	1.7707255031738565
166	0x3ff9d86c1da06124	1.6153374821934188
167	0xbff92bea9a0f45b2	-1.5732217805819855
168	0x3ff34a1abf092c22	1.2055919134461495
169	0xbfb725bd9ca33bc8	-0.09041962694321548
170	0xbfe2f9ca0f1e1f18	-0.5929918570772967
171	0xbfd6f2311ea96a32	-0.35853221887888076
172	0x3ffe423ca3cf8854	1.8911711119512988
173	0x3febe57a805335b9	0.8717625147198113
174	0x3fee17d647bd5346	0.9404097939646838
175	0x3fec98e9d1d7f02d	0.8936661814218546
176	0x400038fad756852f	2.027822191551102
177	0x40076189db2d5714	2.922626221009418
178	0x3ff81512b3d575ce	1.505144789195913
179	0x3fe364ac26eb72b9	0.6060391197348373
180	0x3fe93dda04f77edf	0.7888002488143363
181	0x3fe42b0d67dc7b6e	0.6302554157772258
182	0x3ffc7f83b9ef2284	1.7811314833690242
183	0x3ff4b96fc85ca02a	1.2952726198800613
184	0xbfd65c27a9f2f844	-0.349374690977019
185	0xbfd53ab3cb5a6b92	-0.3317079053755886
186	0x3fdd4b7c8c2a0db6	0.457732331160709
187	0x3ff09abce736a759	1.0377778083588594
188	0x400015c4bb10b414	2.0106291403267367
189	0xbff04ac6d1980b8c	-1.0182560145628683
190	0x4001af36d502945f	2.2105538026249145
191	0x3fd92137f3b0e4b0	0.39265250013302033
192	0x3febb259b68e97cc	0.8655212941709975
193	0xbfe6efa0c19c8ea3	-0.7167514592624297
194	0x3fa708a875a0f458	0.044987930640197404
195	0x4000cc668f120aca	2.0998049905186678
196	0x3ff6f9c3c50e3584	1.4359777162056568
197	0x3fcb7f08917ebc3b	0.2148142538476082
198	0x3ffb58ae6abf3262	1.709150711994106
199	0x3ff00252bb591326	1.00056718046944
200	0x3ffa5fe5c74eba3e	1.6484124932718625
201	0xbff6e4be53b710c6	-1.430845572483166
202	0x3fe9ff69e8d12700	0.8124284312445695
203	0x3ffec5e50bb79310	1.9233141381930103
204	0x3ff89dd9868a2788	1.5385375266509715
205	0x3ff3b72cc9688ec2	1.232220446349786
206	0xbfa960754d1682f0	-0.049564042720936174
207	0x3ff1be76d6392d31	1.1090000503634878
208	0xbfe422fdbbd28f9f	-0.6292713802727014
209	0x4001abe4b12ef765	2.2089322893579486
210	0xbff986155dd86d02	-1.5952352205120524
211	0x3ff4f710d3fff1ca	1.310318782924798
212	0x3fab84dda738efc8	0.053748060858623214
213	0x3fe28ce864ab1beb	0.5797006574802003
214	0x400037ee376328cf	2.027309830392461
215	0x3fe29eaf951c3a54	0.5818708336171974
216	0x3fdd75a01b494f99	0.46030428566631937
217	0x3fc7c37b2b7a831c	0.1856531107232734
218	0x3fc67a54014e9288	0.1756081587201559
219	0xbfd7809a72aeb866	-0.3672243232675839
220	0x3fed5abe174e5507	0.9173269705958383
221	0x3ff2e577e9b2fcec	1.1810225609659097
222	0x40036bc09e4b4ac2	2.4276134840705206
223	0x3ffd0f02012a751c	1.8161640210667604
224	0x3fcfb5467cc2a705	0.24771958438696387
225	0x3ffbac535bce2dc2	1.7295716844699744
226	0x3ffa17800a2886a2	1.6307373425301326
227	0x4003019d410ae64b	2.37578821959031
228	0x4000ca3fb5c37439	2.098754329707415
229	0x40031bf68323b78e	2.388653778579232
230	0x3ff94d03afd933d8	1.581302344234464
231	0x3ff04da5eabf69ee	1.018957058890574
232	0x3ffd9922adfc7ae6	1.849886588701048
233	0x3ffe2a86ef934e82	1.885382591096374
234	0x3ff83808896ba166	1.5136800163255315
235	0x3ff4ec24ad24b81e	1.307652164784947
236	0x3fcf77891de1861d	0.24583543738394634
237	0x3fe92606dc84dc17	0.7858919436465638
238	0x3fe098705dbf6fc9	0.5186082678806027
239	0x3fcdcceacbffe46e	0.2328160759059616
240	0x3fe3bec6d4e25410	0.6170381696598515
241	0x3fe22f4689b15f27	0.5682709397615086
242	0xbfc54c3bd14be04c	-0.16638896674681047
243	0x3fdecb73ebe3e0a9	0.4811677745451655
244	0x3ffc940376e5bcfa	1.786136116450335
245	0x3ff365f19222afcc	1.2123885830323955
246	0x3ff488c2dcc629a4	1.2833889602648947
247	0x3fe5caaf6c96502f	0.6809918518870343
248	0x3fd9783e931acc26	0.39796413770381134
249	0xbfd4017925657f32	-0.31258991863249996
250	0xbfdbb8ac5c5eda7a	-0.4331465627723571
251	0x4000b3ccbec3a72e	2.0877928641756602
252	0x400240c9eaf248b5	2.281635127562448
253	0x3ff28cfc29be74b2	1.1594201689361339
254	0x3fdf6e0c685168c5	0.4910918253641621
255	0x400181d405da23c2	2.1883926827617595

fc2.weight f8 [1, 512]
0	0xc007210469954fd9	-2.8911216973010423
1	0xc0171b52c4b6122a	-5.7766829239013
2	0x4016889a44bb438f	5.633400987558061
3	0xc00408e229f00426	-2.504337623250211
4	0xc02c1a594671550b	-14.051462365469453
5	0xbfd2baea2060babb	-0.2926583591642317
6	0x3fab01b6e5f2903e	0.05274745518661959
7	0x3ffd3db3c9c4aad1	1.8275640374728719
8	0xbfc213fdc80e3528	-0.14123508709273236
9	0xc01828df557e9492	-6.039914451456882
10	0xc022975ca79c8012	-9.295628774503744
11	0xc005b39eb028aced	-2.712705017319982
12	0xc017e59478d11609	-5.974199188005067
13	0x3fffde7ae6316b57	1.9918164245525156
14	0xc0185d96a7735ad1	-6.091395012298293
15	0xbff81173968ab9c9	-1.5042606239836565
16	0xc007b514091b3728	-2.9634171210699556
17	0x402946fcbcb6b4fe	12.638646981528378
18	0x40204fa3a2e60990	8.155545321064693
19	0xbff6020b40e100a4	-1.375499013360277
20	0xbff9105c98b51d71	-1.566494556916805
21	0x4016a18ae94fe992	5.657756467344727
22	0x4031b96510ccd342	17.724198389059218
23	0x3ff3e80856b2ffa3	1.244148577374269
24	0xc00b148d2bf99fbd	-3.385034888797206
25	0xbfdc7b484a708d83	-0.44502455968378046
26	0x4039d3518aacab3d	25.825462977557653
27	0x40148d580e29657c	5.138031216885221
28	0x401a0c02e61655dc	6.5117298079616965
29	0xbffec6f0417dedf0	-1.9235689695623215
30	0x4004aeffbc3df580	2.585448713913763
31	0x400423dd16dc1ec1	2.5175115381169637
32	0x4013e2107af5ab3c	4.970765992397727
33	0xbfced2dea93a0346	-0.24081023467081247
34	0x4025a02a061cd950	10.812820616742698
35	0xbfd7e43e37cf5f7d	-0.3733058495540645
36	0x4010bec278dc26dd	4.186288727223396
37	0xc00304c3bbef28d7	-2.3773264582024285
38	0x3ffb03a70afce745	1.6883917264189716
39	0xc01700abda480b48	-5.750655565879079
40	0xc006bf412caa0458	-2.843386029184824
41	0x4010ad3392fc4a23	4.1691420523152685
42	0xbff762066a8c1f65	-1.4614319002157228
43	0x4001909f0d150766	2.1956158659021865
44	0x400797f920123b19	2.949205637508737
45	0xc002c7a4c5cd4c5e	-2.347482247665126
46	0xc030cfb78923d204	-16.811394282574852
47	0xc0324cf58a6bc32b	-18.300621653851675
48	0xc000dd4ef9090ebf	-2.108060784901539
49	0x4002b34acac8d805	2.3375449984114334
50	0xc03a736276df0ed6	-26.450721196610935
51	0x403965b43e6a3675	25.397281552248803
52	0xc010a6ab1e8cbea2	-4.162762143459675
53	0x400eea7d7c0af696	3.8644971552701675
54	0x40419479ce014173	35.159967184651485
55	0xbfd004ee1f0cadb7	-0.25030091316395037
56	0x404ad7b16dd98048	53.68510220642253
57	0xc009e7b3fbef5268	-3.2381362612161873
58	0x401c48fe6637bc26	7.071282956268112
59	0xbffc52029507adc1	-1.7700219937786275
60	0xbf956bd11bf1d88f	-0.020919101076707632
61	0x40062e24ae251699	2.772530899531216
62	0x3ff2d2ec33c703ac	1.176494791274517
63	0x3ff5e02e93ec516f	1.3672319200751095
64	0xbff9dd2c1bbcfe95	-1.6164971431279913
65	0x3fd2ea2171a702cb	0.29554020022264343
66	0xbfe7fb4e968af0ee	-0.749427122143542
67	0xc01ebc5b8e30a865	-7.683943006248318
68	0x4016e16969a9226b	5.720128680179736
69	0x40167a53f472e1aa	5.619460887443362
70	0x4004dd0f1dbc2e3f	2.607938988023107
71	0x403732e21734ad50	23.198762369499775
72	0xc01a196a62fc75b1	-6.524819895419044
73	0x3fbaf6fd64bef71c	0.10533126554124944
74	0x4003ea15db485d56	2.4892995006045266
75	0xbfb05fa1f3ac7274	-0.06395923804343245
76	0x401ba53cb7abfe86	6.911364431259818
77	0xbff20215ea464704	-1.1255091811512452
78	0x3fede4b848fa16cb	0.9341699052171973
79	0x3fef7f5d7465edbf	0.9842974923516791
80	0xc0039ff4f23deb50	-2.4531039166589963
81	0x3fbf6141152ac052	0.12257773176929845
82	0xc00dfc88baa8fc53	-3.748307665140183
83	0x4005253bffb98e43	2.64318084511777
84	0xbff9cbf8a862b3f6	-1.6122976853905562
85	0xc00955923025d3f0	-3.1667827378791955
86	0xc0113ada7ba23398	-4.307474071288105
87	0x3feaba93cb6f1a81	0.8352755521126057
88	0xbfc86825f3a84690	-0.1906783523304978
89	0xc0217432907764cd	-8.726948275160249
90	0xbfea7c1a952f1501	-0.8276493943928075
91	0xc00dca473568dd31	-3.7237686321856462
92	0xc028c6185c464c42	-12.38690460546616
93	0x4015cc2fde3421ac	5.449401351863724
94	0xbffa6220e7d54a0b	-1.6489571624739507
95	0xbfecbc74766e7879	-0.8980047524562585
96	0xc0174ab32d937e2c	-5.822949134948015
97	0x4037090180aa818c	23.035179177882625
98	0x3f5eb086eeec1309	0.001873142023840648
99	0x400d7a4769329a11	3.684706518036599
100	0x3f73a91e8666eaed	0.0047999565489884434
101	0xbfe12654eeb97ea8	-0.5359291708554865
102	0x4030cb1828a777b4	16.793337384114878
103	0xc007a5af316151b9	-2.955900560171554
104	0x3fefd48fcaaab6f8	0.9946974714600563
105	0x40024d9cb5ed64a8	2.287896558100858
106	0xbffd8d33391f0053	-1.8469726783078115
107	0xc0222fd4d2a7883b	-9.093420584631636
108	0x4008e483986ed6a7	3.1115791233849737
109	0x3fe568ec50dc84b1	0.6690579966854299
110	0xc02a576bb9781ad0	-13.170743747626517
111	0xbff810118b65f666	-1.50392298176248
112	0x3ff1706c5dd06f1f	1.0899470963112845
113	0x400a24536d82066e	3.2677372508340374
114	0xc019acb0ea32abee	-6.418643626539945
115	0xbfc0778033fcba9c	-0.12864687479437442
116	0x40270f0ab45eb9e9	11.529378544390925
117	0x3fe8e1dbec275d85	0.777570687520822
118	0xc01620fefc3ea929	-5.532222691845427
119	0xc016e571726ce5b1	-5.724065578362045
120	0xc02f2c3e02f269de	-15.586410610286233
121	0x4019235c425cfa1d	6.28453162853705
122	0xc00fa5de8f9fc181	-3.9559909077290176
123	0x401f8d067a6a0c85	7.887720024798118
124	0x4023610b9dff47c7	9.689541757023006
125	0x3fe809c6add9221c	0.7511933703872873
126	0x3fec776ff5d94121	0.889579754040856
127	0x4001f058890bff28	2.2423563677583793
128	0x3fe275e4874a1ba2	0.5768911974308717
129	0xc030beb843f2b186	-16.744999167205172
130	0xc010f12935ac8781	-4.235508764891962
131	0xbffa82fa29e619f9	-1.6569768559144207
132	0x4011fee3ec20d13c	4.498916329863558
133	0x401252a4b7691508	4.580706468380647
134	0x401522b358842748	5.283887274805075
135	0xc00d8d723c19b07c	-3.694065541776636
136	0x3fc35e3adcbb792b	0.15131316926903912
137	0xbff86c16cbaba7d3	-1.5263889270668087
138	0x4008d219d91ec39a	3.102588363887162
139	0xbfee79c6627419bd	-0.9523651049537915
140	0x3ff1fb3b034baf5d	1.1238355759369008
141	0x40038cc5a392906b	2.443736341390879
142	0x3fd1ee39a1db3890	0.28016510778696446
143	0xc000d807be62a724	-2.10548351992192
144	0x40043833f3bbb1d3	2.527442840733991
145	0x3fb6ce92714226f9	0.08908953919504005
146	0xc021f3c6df6668f9	-8.976126652957179
147	0xbff51fcdddac733e	-1.3202646884084994
148	0x400fe2f41dfe0edd	3.9858171790273063
149	0xbfd183695dd83daf	-0.2736457268192351
150	0x400052a7e38dd061	2.0403592851308052
151	0xc02d3c63b6a9a9c7	-14.617948253832663
152	0x3fe5b59c1aedb621	0.6784191633175319
153	0xbf9c71752e304e4a	-0.02777655691541118
154	0x4015b541288cd16a	5.427006372065401
155	0x3ffdd2365b5c4967	1.8638213700074517
156	0x3ff9fdd8a43a8c21	1.6244741835769292
157	0xc018217b7261d62b	-6.032697474690887
158	0xbffe6a94dd9421c2	-1.9010208754935864
159	0xbff4c49ae9783a92	-1.2979992980869253
160	0xc00090ca414c70c5	-2.0706982709362785
161	0xbff25f51243371bf	-1.148270741853693
162	0x4012cca675a5568d	4.699853742805897
163	0x401062ec10dae232	4.0966036447139675
164	0xbff1332f57c95611	-1.0749963215979543
165	0x3f8c7b674412e562	0.013907248272846121
166	0x3fe8d6fae1255e36	0.7762426755315974
167	0x3ffc43a904bd769b	1.7665186104926878
168	0x3fedc39b474d4b63	0.9301277535072184
169	0xbfad66da7a19c873	-0.057425334362862034
170	0x3ff04e6337ce6098	1.019137590401476
171	0x4005ce5b8058f789	2.725760462489181
172	0x403c8cec61e7d556	28.5504819098472
173	0xbfc98b77da743f9d	-0.19956873099044695
174	0x40003608101a2a2b	2.0263825662598456
175	0xbfff887e53bcea06	-1.9708235999120247
176	0xbf864ce353dfafa0	-0.010888839718937338
177	0xc02f6ba49d013109	-15.710240274806454
178	0xbfccdd19de989d6e	-0.22549746865227455
179	0x3ff21e80c4d2fbc8	1.1324470222896128
180	0xbff9f2ffd4bb6547	-1.621826010689192
181	0xbfc8b6586c4814d2	-0.19306474005876467
182	0xc0420689b692c40e	-36.05107767263699
183	0xbfcb7dc9380aa809	-0.21477618442924065
184	0xbfc4aec654bf3e0f	-0.16158370149649712
185	0x401b7a94fb56bdea	6.8697089454358125
186	0x3fd4eeedaf2a5ecb	0.3270830355263398
187	0x3fec69a2b1996337	0.8878949612363617
188	0x3fedfa40fa8744f0	0.9367985623486259
189	0x4008a39f143d4588	3.0798932629774676
190	0x401e45744291051e	7.567826309300726
191	0x3ff584a985da44a6	1.344888232099302
192	0x400b57ccf848f7c6	3.417871417738726
193	0xc00df7df82b44056	-3.7460317813165984
194	0xc01475b283b75316	-5.114938791336291
195	0x4000011fc38888bc	2.0005488658944994
196	0x3ff0fd0550ebf2bf	1.0617726479533045
197	0xbfe52110e4131250	-0.6602863745288889
198	0x400df5da49d94cee	3.745045258468614
199	0xc014fbba4fd93775	-5.2458279110268125
200	0xbffe779715e86b45	-1.9041968208100155
201	0xc0125d5894a15705	-4.591158220622451
202	0x3fea4d1293d8834f	0.8219082725155235
203	0xc019e35dec08ce66	-6.472037971532336
204	0xbfdb6517c30bdea0	-0.42804521605965284
205	0x401b946763a6aa33	6.894925648734488
206	0xbfe6dfa92a6eb349	-0.7148023442037835
207	0xc00e0140f2ce18d5	-3.7506121606012166
208	0xc00713e4d775a082	-2.8847138245365054
209	0xc017fd2b54544437	-5.997235601084916
210	0xc00c7eda08faa391	-3.561939306401151
211	0x4005b056cdae5e5d	2.7111030644262386
212	0xc012d821a8c652b2	-4.711065899948766
213	0xbffba32d6965b16b	-1.727338229854548
214	0xc02120038a2b2b0b	-8.562527005929516
215	0xc00306e69f75c906	-2.3783695657558637
216	0x3fd3bad28c8e368e	0.30827773786664003
217	0x3fee423959b6d090	0.9455839874485878
218	0xbfdee0ac4e06b7d8	-0.48246295566320674
219	0x40306b70a417ff00	16.41968751512377
220	0x3fcf9547b86f140d	0.24674316888391026
221	0xc00e7ac0ed92514a	-3.809938293483502
222	0x3fe27178d755d081	0.5763515668645739
223	0xc04fa49916961058	-63.28592188193642
224	0x3fdc5731944eeff2	0.4428218792270392
225	0xc0293cc5e01af0c8	-12.618697169579164
226	0x3ff699d298aa4d04	1.412554355953774
227	0x3ff337054afd7fac	1.200932782106956
228	0x3ffc80222d2070b2	1.7812825930368885
229	0xbfde6b064d24a299	-0.47528226407534074
230	0x40003c350741b8d4	2.0293980185443647
231	0x402523fb4c1a6790	10.570276621077738
232	0x40159a647054ad85	5.4007737685855135
233	0xc01d375034b58e47	-7.304016898709569
234	0x4036d3d0da6e801f	22.827405597665457
235	0x3fd40258adafd5fa	0.3126432129059534
236	0x3f96fd3e04512b19	0.022450417531483333
237	0xbfd3858c186efef7	-0.30502607713786695
238	0x40017f4399e6c73e	2.187140657763762
239	0x400496e50a8aaf25	2.5736790488789603
240	0x3fd5885053aa1bf3	0.3364449326549554
241	0xbffb2af188574d97	-1.6979842496701616
242	0xbfd3af3a569b18d3	-0.3075700612793188
243	0x40329d64f2897e49	18.61482158524294
244	0xbfd1788a4a3f7f4c	-0.2729821896627882
245	0x3ff2ea4ff5b36e30	1.1822051618281755
246	0xc003343585b83ce5	-2.400492710766786
247	0xbfb26e9b18d97dd2	-0.07200021130255799
248	0xbfc400923c25d189	-0.1562674325647431
249	0xc04095b6ac62b7ae	-33.16963724918547
250	0xbff09d5fe6a40d9a	-1.0384215363891145
251	0xc00185275570ea53	-2.190016429432299
252	0xbfb03dba22708126	-0.06344188061530484
253	0x3ff2e204e9ddc149	1.1801804671668654
254	0xbfa5f8f6c78b7c52	-0.042915069445137136
255	0xbffb00cd7c9a2bee	-1.6876959674143523
