generalElliptic/data-revision1/model_OGA_3D_cosine_relu_3_neuron_512_N_512_rand_trial_0.pt (torch, 22232 bytes, 3 tensors)

fc1.weight f8 [512, 3]
-0.6160838213216981 0.4590528627117992 0.6084217938347147 -0.053437855740401684 0.6317481808842103 0.4808767481653418 0.5171252247759751 0.3519925003059719
0.2892347753665203 0.8319910757128314 -0.15398581126307181 -0.1564356673650833 0.20379700832394976 0.05231860008776977 0.8434936097391982 -0.5617281005580902
0.3249156154306679 0.7552674420389389 0.687366640773334 -0.17275247598459978 0.5744421703366336 -0.3482671501901172 -0.2060362545085073 0.7648229165826476
0.45683854443831606 0.7968635673985148 -0.07635791290330583 -0.1337970182437629 0.3768307314880947 -0.44539965704523343 0.30587680886750995 -0.509245552853861
0.32609271024332304 -0.5183105407281892 0.7933766627826175 0.24016312059560532 -0.585524703987736 0.6722646331588533 -0.42992805588776006 0.5725716595795496
0.5402140053607086 0.6164493537330547 -0.4112549927233043 0.6677551232912732 -0.46335125695090623 -0.585619546575313 0.00287207648103922 0.23832074783377116
0.5920894093088255 -0.592011948912373 0.5413207612804953 0.2671977713266484 -0.18946621794176524 0.9441977920542673 0.20808568019971216 -0.6359570802966357
-0.38256434169167336 0.436586430392521 0.5469845753861373 -0.713020083816642 0.960357130518118 0.21937394439551358 -0.09612838650345734 0.9152940627548315
-0.3584807070399371 -0.16749672774331598 0.48426108758356606 -0.04473673692414906 -0.844609671164666 0.05967505949311426 0.9909490465252048 -0.10258099776461012
0.63379754057114 -0.7573827888983325 0.12846919528759632 -0.40052235223143856 -0.6808156539871271 0.15542232474992765 -0.044658469787111035 -0.743719274050118
0.6582620912574839 -0.4616777804185582 -0.25480309073970764 -0.5593580347916929 -0.06352455104764271 0.5580540272206881 0.717683227828119 0.4926351656098866
0.6247027873225696 -0.6058147051437781 -0.36652984883632755 -0.6099461418646727 -0.4462125036385655 0.6654666423056409 0.3261052353610621 -0.5450545701893862
-0.07670305832236346 0.9446561740152005 -0.14889009324577068 -0.7760038888576858 -0.35209646193932304 0.44531327726944303 0.10485226718075831 -0.31763448159283886
-0.8375955476107365 -0.1969634507661264 -0.3423031495756 0.9160415122582457 -0.5888398299977847 0.09753867515342013 -0.6725882186712138 -0.7589991486497983
-0.030682988893583958 0.6491137998125007 0.6694485679894837 -0.7210024433827287 0.11063084065551257 -0.5345612150675977 -0.6254147799901089 -0.34854954785279524
0.3906757071936413 -0.788215367710498 -0.4108765813928058 0.7147147033026976 -0.1824890540158523 -0.6639170672822201 0.5965059797348241 0.3194753949025083
0.28114113415156794 0.35790738571043357 0.43271497903991596 0.549811538919658 0.07318509297585316 -0.656780011053233 -0.4992081730466207 0.451339292789265
-0.07733034456709742 0.706478439533727 -0.25434081736820224 0.32795057548829015 0.7094931583144953 0.4640904670290028 -0.400261035588639 0.6979493513164096
-0.8564099673917586 0.2785023381822036 -0.15920690871334395 -0.5176440253679968 -0.7830623534375845 0.11975430996147923 0.31875553194036305 0.6955881977070754
0.18109536952673383 0.3318308092643843 -0.8020118882352046 -0.28661888669554825 0.14633996245457362 0.8562004520571742 -0.41329286709407914 0.7895988600863131
0.2062023981538569 -0.32260957448344046 -0.4594163157785288 0.768098160405243 0.4333580041565557 0.8782115488987634 -0.34939010885724386 0.22735216665549943
-0.6372484912024923 0.5829585861119665 0.39178599976288847 -0.8300020616591092 0.27359953382889796 0.4049576387767714 0.21960745661263706 0.06453326538581496
-0.8527750334737103 0.26175300498220927 0.634177064931963 -0.7044671945702754 -0.045476053254182046 0.38686204303309024 -0.862010447664693 -0.12770232013996682
0.619408599040485 -0.7714940658494182 -0.1162166981315331 0.897768974915275 0.3158641198425099 -0.5585830826337894 -0.4692267620922084 -0.30011492266583356
0.7933963138784161 0.35441538982913207 0.21441784606945727 0.6466722997565819 0.48422667039574285 -0.5157774516074088 -0.5642038256002996 0.4445448042338589
-0.5386039011825694 -0.2560409993554918 -0.4953865437571002 -0.38747529902716893 -0.2589580351712765 -0.6352541572011351 0.5408749181984935 -0.22822428922094212
0.8483710874958765 -0.25132659359285997 -0.30709947779947616 -0.36925775439011443 0.8371125064234142 0.6856447517545204 0.5187907368747394 0.03369902554360523
0.8960277943680879 -0.1892988138822288 -0.20360798780439246 -0.6021700964532679 -0.5201274613145569 0.1039766909978645 0.5093839386478792 -0.8548752765163912
0.06415848654688253 0.7371357531787446 -0.48480884122269624 0.46907199329638455 -0.4797900601517641 0.23115341247367652 -0.5661180956036032 -0.8318636674271424
0.14563432281801816 0.5200972513863389 0.5151393435842002 0.41999208472731625 0.525904301762812 -0.36669899842138276 -0.31826036208070124 -0.7158844660313618
0.11322700702934987 -0.7845336154896949 0.555882648202422 0.6913699266863399 -0.3917169782548021 -0.48879442384370386 -0.29856634561173073 0.8445723440835392
-0.4240221020528027 0.5342025147144733 -0.01567320913815833 -0.8332332277575278 0.36787997489724533 -0.7228835080052997 -0.5824458601828164 0.49450286387512893
00000000: 1e7c 056b f5b6 e3bf e9de 1e42 1f61 dd3f
00000010: 3c33 56fb 3078 e33f ebf9 8be5 345c abbf
00000020: cc90 06f6 4737 e43f e5b9 b144 afc6 de3f
00000030: cb2e 0b33 4a8c e03f 4117 508d 0b87 d63f
00000040: c82a 4493 d282 d23f db03 98bf ab9f ea3f
00000050: 4e22 b69b ceb5 c3bf 6067 a17d 1506 c4bf
00000060: 9012 e336 0516 ca3f 3eee b2e8 80c9 aa3f
00000070: ffdf 864f e6fd ea3f af84 a435 adf9 e1bf
00000080: ed00 8fdd 6acb d43f 624e 69a0 262b e83f
00000090: 8173 4f53 e8fe e53f b114 54cd c01c c6bf
000000a0: 5440 e18b d461 e23f 729c 154d 024a d6bf
000000b0: 71c2 735f 655f cabf 9785 bee8 6d79 e83f
000000c0: 408c fabb d73c dd3f 6737 2b06 e87f e93f
000000d0: 4fe4 b532 318c b3bf 3063 d4bc 4220 c1bf
000000e0: bb9f f7a4 fe1d d83f 502b 2a90 6d81 dcbf
000000f0: 0936 ac52 7c93 d33f 3581 6454 bd4b e0bf
00000100: 8361 7df5 b3de d43f 5230 b3fc ff95 e0bf
00000110: 68f3 8174 5763 e93f 3deb 5446 aabd ce3f
00000120: b813 d44d 9ebc e2bf 3e97 b51e 3183 e53f
00000130: 38ee eaf6 f083 dbbf ec56 10cd 8152 e23f
00000140: 75b1 bbe1 6e49 e13f d08f bdfe f3b9 e33f
00000150: 450d 0476 0052 dabf 0bb8 08fe 3f5e e53f
00000160: 6189 ca07 8ca7 ddbf e50e 0e34 65bd e2bf
00000170: 9877 d851 2e87 673f 6ec0 f354 4b81 ce3f
00000180: 7742 297d 65f2 e23f 886f ed0a c3f1 e2bf
00000190: c00e cbea 7f52 e13f e35e 5aae c419 d13f
000001a0: 39db e0d4 6d40 c8bf f782 ba49 de36 ee3f
000001b0: 7fa1 9c33 8da2 ca3f 0a14 b1a9 c259 e4bf
000001c0: cd9d 0b26 ef7b d8bf d272 1a36 08f1 db3f
000001d0: a265 d6cb e580 e13f e946 ac7e 0fd1 e6bf
000001e0: 76c8 81e0 3ebb ee3f f7f9 6206 7214 cc3f
000001f0: 98e5 3fb4 de9b b8bf bd28 38c6 164a ed3f
00000200: 73f1 3e10 59f1 d6bf 7a1a ec63 8870 c5bf
00000210: 4d65 7937 22fe de3f 34b7 09cc bbe7 a6bf
00000220: a633 71dc 0a07 ebbf b2ce d1b9 ba8d ae3f
00000230: 1980 5ac6 dab5 ef3f 7d0d 978e bf42 babf
00000240: 9639 a1c7 1148 e43f 3be4 9bd4 7a3c e8bf
00000250: 72de 26b8 ad71 c03f 55aa 0981 28a2 d9bf
00000260: 9458 0fe9 3dc9 e5bf f342 eff4 e0e4 c33f
00000270: 3a39 7396 79dd a6bf 5e67 ee5c 8ccc e7bf
00000280: 00b8 44a9 7b10 e53f 4201 0cf6 208c ddbf
00000290: 9864 699f b14e d0bf c2ec 45d2 42e6 e1bf
000002a0: 1c22 3e1d 2543 b0bf df0b 8a1e 94db e13f
000002b0: 871a 0dd1 42f7 e63f 40db 49a5 5587 df3f
000002c0: c5a7 28b3 90fd e33f bce8 4085 d562 e3bf
000002d0: 64a1 709c 3975 d7bf 272a 74c5 ad84 e3bf
000002e0: 2f69 8ce3 be8e dcbf 5703 29b3 804b e53f
000002f0: 7d87 3b7e e8de d43f c3f5 2f48 1671 e1bf
00000300: 586b ffc6 cfa2 b3bf 3f83 ab95 9f3a ee3f
00000310: 5a30 98a0 d40e c3bf 73cd 861b 06d5 e8bf
00000320: d544 4499 bf88 d6bf 9832 9642 0380 dc3f
00000330: 6deb 7322 99d7 ba3f 677b a193 1f54 d4bf
00000340: 276d 882d 95cd eabf ef1e c62d 1936 c9bf
00000350: 0dae 2f78 4be8 d5bf 7aae 1d4a 3650 ed3f
00000360: a386 8da0 c6d7 e2bf 2c0d e16b 4bf8 b83f
00000370: b0c4 5bba d785 e5bf 3791 2495 b849 e8bf
00000380: 72ab 5d87 5c6b 9fbf a276 b24d 8ac5 e43f
00000390: becd 3b67 1f6c e53f f446 55b7 7312 e7bf
000003a0: b25e 8b82 4d52 bc3f 819c 0d1f 201b e1bf
000003b0: fec2 4fdb 6503 e4bf ce0d 44c3 a24e d6bf
000003c0: 5041 6fae d400 d93f b3ad 506f 0f39 e9bf
000003d0: 7e8f f149 cd4b dabf 47f9 945e f1de e63f
000003e0: d622 7023 cd5b c7bf be77 6701 cf3e e5bf
000003f0: 558b 5ab5 9316 e33f cae8 3eed 4872 d43f
00000400: 0072 2f62 37fe d13f 04e2 2761 f4e7 d63f
00000410: 16cf dd2a 9ab1 db3f 95f2 535e 0e98 e13f
00000420: 76d1 e21c 42bc b23f 257c 8483 5704 e5bf
00000430: ac64 48d6 06f3 dfbf 947f 7b33 bee2 dc3f
00000440: c072 e7e4 ebcb b3bf 0d0c 24ac 789b e63f
00000450: fc98 28b5 1e47 d0bf 2d4d 1b69 24fd d43f
00000460: cb49 f6fe 2ab4 e63f 8298 9180 a8b3 dd3f
00000470: ced7 6d76 e09d d9bf 7b63 c5e0 9955 e63f
00000480: 1d50 3de0 b567 ebbf c088 9678 fbd2 d13f
00000490: 034c 1c59 e460 c4bf 649c fd33 8a90 e0bf
000004a0: 72c8 d7c7 d80e e9bf 0cf0 d6ec 37a8 be3f
000004b0: 9d96 469a 7d66 d43f c755 142e 4242 e63f
000004c0: 8684 c910 222e c73f ad20 664a b73c d53f
000004d0: 2f26 dfd5 14aa e9bf e67d 31be f657 d2bf
000004e0: b18d 6b94 44bb c23f c8fd 8c7d fe65 eb3f
000004f0: 8bb4 f5ec 6373 dabf 70f2 20d4 6444 e93f
00000500: 25bb 3616 d764 ca3f 431a f2a0 a2a5 d4bf
00000510: 3220 e1b0 1367 ddbf 70dd e197 4294 e83f
00000520: b8fb d335 23bc db3f 92ab 2f1b 4f1a ec3f
00000530: 929d c554 685c d6bf f1e4 3a34 e019 cd3f
00000540: 467b a4f2 5664 e4bf d7be c8c3 98a7 e23f
00000550: 07c9 0096 0513 d93f c707 ce7b 608f eabf
00000560: d9bd 7f9e a782 d13f 7ef1 b371 d3ea d93f
00000570: 35f4 0dde 181c cc3f d90e 5688 4085 b03f
00000580: 30ad f3dd ee49 ebbf e5cf 01ad 8fc0 d03f
00000590: 8f31 38b3 2d4b e43f 2e18 39c9 fe8a e6bf
000005a0: e3aa f422 a348 a7bf f803 b903 59c2 d83f
000005b0: 34f7 30ef 9695 ebbf f3ee 4fb4 8c58 c0bf
000005c0: 92ae 77fb 31d2 e33f c933 bc52 14b0 e8bf
000005d0: 9e5a b9a5 60c0 bdbf 51fc 5300 86ba ec3f
000005e0: 9504 2d24 1e37 d43f 0a5a 00a1 e9df e1bf
000005f0: 3904 66af cf07 debf 750b 7938 1535 d3bf
00000600: f0fd 9baa 8063 e93f 41f9 20e3 bdae d63f
00000610: c106 4642 0b72 cb3f 48e0 551b 8ab1 e43f
00000620: 0ed8 4cdc 91fd de3f 9d60 d5b6 3f81 e0bf
00000630: 6b67 672e f50d e2bf 24a2 f20c 6c73 dc3f
00000640: 0678 a23f 3e3c e1bf 09b0 aac9 f962 d0bf
00000650: 892c 14c3 69b4 dfbf b616 5532 65cc d8bf
00000660: 1336 06b9 c492 d0bf 1d76 ba86 0054 e4bf
00000670: 5e74 9cea d84e e13f 5aab 2d19 7436 cdbf
00000680: f855 751f db25 eb3f b12b 0623 bc15 d0bf
00000690: 8b1d 7191 84a7 d3bf a698 b946 eba1 d7bf
000006a0: 2c28 c52a a0c9 ea3f e5b5 2e43 cdf0 e53f
000006b0: 2b08 0b08 ef99 e03f 2bd4 3ba9 ff40 a13f
000006c0: 40c6 237b 42ac ec3f 94db 658b f13a c8bf
000006d0: 7380 6998 d30f cabf a2ab dc38 fa44 e3bf
000006e0: f11e 8358 e2a4 e0bf fcd2 6167 379e ba3f
000006f0: c135 b38b df4c e03f da7f 5965 235b ebbf
00000700: b2ce 7ac9 b06c b03f 60ae 13b8 9d96 e73f
00000710: a33d 77a9 1b07 dfbf 355c ab89 4605 de3f
00000720: 830d 535e e1b4 debf 6174 775d 6f96 cd3f
00000730: 2452 49b2 a31d e2bf f990 ca8d a09e eabf
00000740: e9d8 d63e 25a4 c23f be33 aefd a2a4 e03f
00000750: 2c77 3281 057c e03f 4de4 1e7b 26e1 da3f
00000760: 2ab4 1c42 35d4 e03f e687 6c13 ff77 d7bf
00000770: 95fb afb5 605e d4bf 3f36 2a8a 86e8 e6bf
00000780: 8a0b 37f4 71fc bc3f 1482 a43d e61a e9bf
00000790: 502f 4e68 cac9 e13f afc8 11d3 b31f e63f
000007a0: be1b b916 e411 d9bf 440e 3868 6848 dfbf
000007b0: e5ab 8504 b61b d3bf 4b3c 9e94 bc06 eb3f
000007c0: 0345 4699 2d23 dbbf c877 44df 2f18 e13f
000007d0: 6de1 af42 a30c 90bf 5c17 e5ba d8a9 eabf
000007e0: b65d 4273 588b d73f a16a 3698 dc21 e7bf
000007f0: 08a0 2580 65a3 e2bf 27cf 0757 efa5 df3f

fc1.bias f8 [512]
-0.19883187654071882 0.6056370072884298 0.7245867969728857 0.5095165373566402 0.4942146029936804 0.09199171097804626 0.4095117533503901 0.5013032617054993
0.3879129649875658 0.801071846477714 0.735371939240109 0.21030770273042682 0.14276887190293774 -0.017908582874143198 0.41264759657657896 0.7747546185713022
-0.07696633768086537 -0.03461838726402358 0.6371055377113106 -0.04245613219397442 -0.14264847595261101 -0.07532069809277478 0.22388462831752431 -0.06273765506374596
0.0903750768116699 0.5932249081237265 0.10760242421043907 0.6395682926250028 -0.4116687000625373 0.006750122035147461 0.5426932609983494 -0.39207784809171004
-0.28208703244251615 0.27484928789266966 0.431912070672925 -0.07001357491622999 0.43746879838701547 -0.04037476234498709 -0.14055215597357193 0.44901433496826054
0.23931038585216796 -0.12286075784689006 -0.6804966942465291 -0.6183585706038249 0.560424088713615 -0.5396304986447763 -0.5695424716053198 -0.37051024925002485
0.40453871952760373 0.3232907652180281 -0.617864416521954 0.4056043132681778 -0.2733027758641329 -0.4795177510766487 -0.10565370325744167 -0.23448245036805665
-0.31713936641211526 0.26879208233610585 0.4694494274601739 0.1817437384653184 0.32435732820086216 -0.06944070293931737 -0.2841380026520511 0.6146073695661939
-0.4460235507945076 -0.28515449990900227 0.4404086713923601 0.7340967726105609 0.48666951275242254 -0.4062205251629575 -0.2618802649066329 -0.509521168747539
-0.3461848322571158 0.5966971146679618 -0.07483283539069378 -0.03953143006353248 0.6291898758812721 0.1276414193448881 -0.5307191072925596 0.5017485603168259
-0.25036200285447735 0.36006311202336927 0.13327021365637318 -0.14179002767760548 0.05348437042214283 -0.4161373011051426 -0.3387828512039924 -0.25071749331458426
0.10436193049866803 0.7093635727194496 -0.563996739274021 0.04417055465476169 0.04361068223765079 -0.21545157166627077 0.43303606810891737 -0.739679069377844
-0.27775203631361123 0.47956135936513095 -0.3368118923234233 -0.45434786506057906 0.10748633619437073 -0.21465169135115486 -0.2395952232459245 -0.5497243298395931
-0.020292610567217144 0.8051446001359622 0.32452726832286294 0.42349500283867336 0.20032138029365706 -0.16402758325675232 -0.36931633142079984 -0.7465571868412524
0.06156179770439339 0.30412939991869214 0.5369996424530916 -0.36920295650839435 -0.14311995875237443 0.5220582222115607 -0.6709158673047977 0.26929401350303506
0.1581515407408179 0.3881100265275558 0.39908547134318045 -0.27958847564959366 -0.010001980206134308 -0.5823764649900828 -0.4924943495752637 0.2454248760043404
-0.494766051279845 0.4320362554108433 -0.2727125978706644 -0.1392977521123388 0.18451283336203128 0.5871000035482044 -0.4145927837796255 -0.532910437744446
0.3932308354587015 -0.0355768881766186 0.26408576719706095 -0.44320480532426587 0.6556069636301977 0.2902912792035695 0.6761652356460066 -0.2331868611540969
-0.42124723070409537 -0.05370889569492777 -0.4104641134717067 0.24548741157805076 -0.676921604137556 0.27478126819393456 -0.6321178607226776 -0.2507343320505224
0.4624663107071372 -0.45237486583770914 -0.33436205034139416 0.17327662925215215 0.4658944771775037 -0.3210060317952092 -0.2854931303071551 -0.7346163204481173
0.32199341266360215 -0.08970385938411882 0.1789638712408718 0.1423988704889635 0.5705685016533916 0.34583202743925545 0.6696271744287356 -0.2845140996704406
0.051800827964273564 -0.7388366662118924 -0.59688085591801 -0.5113775008360324 0.08288108527553122 -0.6690672613451354 -0.1098762566260802 0.05502982902380274
0.07747383969809861 0.0628298150896311 0.571539191805594 -0.3358871762462932 -0.521911596806069 0.20176815735710393 0.42289637478345316 0.17598272901877923
0.7642807149547711 -0.6081320245160056 0.5772714337555893 0.6016813742454282 -0.49484845047778814 0.525994903041147 0.17945906878347068 0.48090831095827374
-0.255324774773438 0.12441580740974414 -0.030010315738048344 -0.3418138773635527 -0.012475459959434821 0.3000250549223831 -0.7578846176589935 -0.5365827150092901
-0.5270697069078218 0.29060548283633686 -0.619143395926924 -0.5845758741866083 -0.12616489259794517 -0.0319111660223124 -0.31629820315980034 -0.5462696535589485
0.39739865852720513 -0.26288452087053377 0.4656152443571661 0.1111059289996112 0.08584430842317907 -0.3300540273059356 -0.6146268816589134 -0.7716260024017704
-0.5878880921365335 -0.6361591111542645 -0.12940229936776523 0.3819151919777718 -0.3264891186449433 0.3540283965568451 0.28194651577851126 0.37142313050287024
0.5769406605608479 0.07009520392615673 -0.20202043276297282 -0.14176676069139985 0.23319365882466464 -0.19521699397104983 0.5205563611014842 0.18747793770203006
-0.0004914717233325936 0.18254894852567474 -0.45378384449986614 -0.41331431728718987 0.6500829398157166 -0.4090557313414037 -0.5375041242133898 -0.5142097602557816
-0.8001934675591761 -0.3360392233446101 -0.5980525384427691 -0.2062523263083609 -0.6291129951597483 0.38970677843253715 0.658643159436922 -0.1556282475073529
-0.2339192650189843 -0.5885711575952823 0.7105148800721451 0.4079337582001175 0.3672250849408015 -0.5155997680941308 0.3586720740876951 0.1344578237652628
00000000: 6e85 92ab 5273 c9bf c6a2 71dc 6061 e33f
00000010: fb94 83a6 d02f e73f 4cf9 16a0 f54d e03f
00000020: 1310 4449 36a1 df3f f85e 27ce c48c b73f
00000030: 3dec fdc8 7035 da3f 6ae7 4c23 ad0a e03f
00000040: 2639 94e6 90d3 d83f 98c7 cb6c 61a2 e93f
00000050: f4d5 adbb 2a88 e73f 3a7b a9e0 5ceb ca3f
00000060: 04df da19 4046 c23f 3d71 0ca7 a056 92bf
00000070: 2f71 0477 d168 da3f cf09 a632 caca e83f
00000080: 1172 3bdf 10b4 b3bf 044b 4752 80b9 a1bf
00000090: 2442 1227 2b63 e43f f756 9366 cfbc a5bf
000000a0: e135 8525 4e42 c2bf 2236 059f 3748 b3bf
000000b0: 84b6 5962 40a8 cc3f 10fd b930 930f b0bf
000000c0: 8894 472f d222 b73f 5f0c 72cd b2fb e23f
000000d0: 7743 f41c d58b bb3f 1641 8cec 5777 e43f
000000e0: 2e8c e3ac c758 dabf 7bd3 2816 04a6 7b3f
000000f0: 8beb f741 be5d e13f 8d8e c2af cd17 d9bf
00000100: d3d7 bdc4 b60d d2bf 65fc b477 2197 d13f
00000110: 316c 9286 72a4 db3f 9b8f 8ade 68ec b1bf
00000120: f6ed 8521 7dff db3f 0603 b637 00ac a4bf
00000130: d3f6 a4f0 9cfd c1bf 75ed 079f a6bc dc3f
00000140: 8a02 6a04 b9a1 ce3f ed06 ea78 cd73 bfbf
00000150: 0666 da00 a1c6 e5bf 453b bee9 97c9 e3bf
00000160: 6d4c 9d7f feee e13f c34f f32d a744 e1bf
00000170: 9b4a 2722 b139 e2bf 8625 d79e 70b6 d7bf
00000180: b78d 955e f6e3 d93f a774 edbf cbb0 d43f
00000190: 825d ca98 8bc5 e3bf 7e9d 26cb 6bf5 d93f
000001a0: 9c84 0fed ca7d d1bf 7571 ae38 6bb0 debf
000001b0: f426 3100 1f0c bbbf 268b e85b 8503 cebf
000001c0: 96e8 c0e9 024c d4bf 08ab c3b4 e333 d13f
000001d0: cf4f 849c 750b de3f 870c 7bfa 6043 c73f
000001e0: 12cd 353d 45c2 d43f f0b7 22ac ddc6 b1bf
000001f0: 993e 3c29 512f d2bf 3f5b 0513 ddaa e33f
00000200: 0820 fa5c a68b dcbf 4ba6 daa8 f83f d2bf
00000210: e151 20da a72f dc3f acc4 ce83 b87d e73f
00000220: 9cd7 4ee2 9725 df3f 7a7c a25f 84ff d9bf
00000230: bb79 4f71 a5c2 d0bf f97d 8c56 ff4d e0bf
00000240: 8298 3a6d e427 d6bf 06ba 238c 2418 e33f
00000250: e383 aba4 3e28 b3bf 76ef 92ae 763d a4bf
00000260: b34c 7cce 5222 e43f bac4 d9d4 8d56 c03f
00000270: 2be2 25a3 a6fb e0bf f806 2cff 520e e03f
00000280: 4df2 9a59 ee05 d0bf 0cba a826 460b d73f
00000290: e5af 9794 ff0e c13f a31a e3f5 2c26 c2bf
000002a0: 81d9 9eab 4d62 ab3f 501b b958 fea1 dabf
000002b0: 5979 9744 9eae d5bf 2a8f 9462 c10b d0bf
000002c0: af6f 70a6 76b7 ba3f 5ab8 393c 1bb3 e63f
000002d0: 2071 c7e3 420c e2bf 9c73 60df 859d a63f
000002e0: 2715 efab 2354 a63f e6d6 16c7 ea93 cbbf
000002f0: e409 a1e9 dcb6 db3f 0b6f 9070 73ab e7bf
00000300: c051 177a b0c6 d1bf b181 b920 22b1 de3f
00000310: e3b5 9b77 538e d5bf b153 5c11 0914 ddbf
00000320: 3ec0 b87a 3984 bb3f 9e30 31e5 b479 cbbf
00000330: 833d 0f68 0eab cebf 0e40 4f7a 5797 e1bf
00000340: 6e57 f20a 96c7 94bf 8d51 c49b bec3 e93f
00000350: aad7 0605 0ec5 d43f b289 cdc8 8a1a db3f
00000360: cb81 8688 21a4 c93f c665 dd18 dbfe c4bf
00000370: a32f 55f7 e0a2 d7bf 4c76 c2e5 cbe3 e7bf
00000380: 7e8c a527 0785 af3f eac8 9928 db76 d33f
00000390: 5297 c9df 192f e13f 6990 f26f 05a1 d7bf
000003a0: 5287 1f3b c151 c2bf b135 e071 b3b4 e03f
000003b0: 7021 8e8d 2478 e5bf 7843 40f5 1c3c d13f
000003c0: 0a9c a547 4f3e c43f f6df cb6f cbd6 d83f
000003d0: b992 eec9 9d8a d93f 4c39 d00f c7e4 d1bf
000003e0: c670 0b0f eb7b 84bf b7f5 e2f7 d3a2 e2bf
000003f0: c2fe 3805 0785 dfbf ad20 0814 156a cf3f
00000400: 67c0 5a3a 3faa dfbf 8941 eb64 7ba6 db3f
00000410: f0f2 438a 1f74 d1bf a649 dd3c 82d4 c1bf
00000420: 74b9 7dd4 1d9e c73f 9c12 57f2 85c9 e23f
00000430: 086e df2b b088 dabf eee6 b930 9a0d e1bf
00000440: 74ba 84aa b12a d93f ab8e 6c46 2237 a2bf
00000450: 1dd4 5cfd c7e6 d03f a40e 13b0 775d dcbf
00000460: 394a 7a74 bbfa e43f d192 9fdf 2194 d23f
00000470: de55 b946 25a3 e53f 33c2 412b 11d9 cdbf
00000480: e5e5 d9f1 b6f5 dabf b129 077d bb7f abbf
00000490: 2dba e245 0b45 dabf 8859 27aa 216c cf3f
000004a0: cf40 f77e 57a9 e5bf 1091 1c2c 0496 d13f
000004b0: 2caf 603c 4f3a e4bf ac0c 0903 080c d0bf
000004c0: 9c4a ff4b 0c99 dd3f d48a 93b5 b5f3 dcbf
000004d0: c758 cf15 3066 d5bf 4049 e6b7 ed2d c63f
000004e0: 4752 b711 37d1 dd3f 2744 18e2 5c8b d4bf
000004f0: b1b8 79fa 8445 d2bf 34d7 ed15 fa81 e7bf
00000500: 04ba 3a42 8a9b d43f ce38 6106 d5f6 b6bf
00000510: 9d92 12c3 49e8 c63f 5c64 de4d 203a c23f
00000520: 4954 d7df 1842 e23f d8b3 f0a7 1c22 d63f
00000530: d8e5 d5f7 956d e53f a277 55a0 7a35 d2bf
00000540: 3349 065c a385 aa3f 64e7 ceca 8ca4 e7bf
00000550: c9d7 78e1 a519 e3bf f607 4059 345d e0bf
00000560: 0b24 b7de b137 b53f 0ca7 c9be ff68 e5bf
00000570: fcdf d0b0 d920 bcbf 8464 eca7 de2c ac3f
00000580: 6783 cc57 53d5 b33f bd10 0661 9d15 b03f
00000590: 57fe 258f 0c4a e23f 59e9 47ed 2c7f d5bf
000005a0: 32ed f5f2 7fb3 e0bf 6789 9cfa 89d3 c93f
000005b0: 55ae d2f4 bb10 db3f 49f3 e520 9a86 c63f
000005c0: 3737 76d4 fc74 e83f d849 9e4a d175 e3bf
000005d0: 30a6 1cf1 0179 e23f ede2 1f4c f940 e33f
000005e0: e8d0 d1d5 98ab dfbf d494 4d43 f3d4 e03f
000005f0: b6a3 b2c7 83f8 c63f 412f fca6 33c7 de3f
00000600: bdab 60b9 3d57 d0bf 3227 eedf b6d9 bf3f
00000610: 5dda 8c32 06bb 9ebf 411b 2650 47e0 d5bf
00000620: 1a05 3ae4 bb8c 89bf c5d2 b749 9c33 d33f
00000630: 3494 df3d 9740 e8bf 900a 9283 af2b e1bf
00000640: 6e34 3c4a c1dd e0bf b780 34bd 4799 d23f
00000650: ed4b a1cf 05d0 e3bf de2f b576 d8b4 e2bf
00000660: 8446 ced3 2b26 c0bf 85d8 e20c a956 a0bf
00000670: c9b6 96d1 3a3e d4bf 65a7 1a7f 0a7b e1bf
00000680: c04f 76c8 fa6e d93f 5dde f098 19d3 d0bf
00000690: ef1d c2e1 a3cc dd3f 5ded 712b 7071 bc3f
000006a0: b3ac 3981 e4f9 b53f 1c4b 4ced 9a1f d5bf
000006b0: b9f5 7efe 05ab e3bf dde1 a103 29b1 e8bf
000006c0: 58e5 2db0 facf e2bf 47b8 2e5a 6a5b e4bf
000006d0: 87e7 e729 4190 c0bf 42f7 d86a 4c71 d83f
000006e0: 011d c59d 32e5 d4bf 3749 44b8 66a8 d63f
000006f0: c459 1f66 690b d23f 9637 9f85 65c5 d73f
00000700: 65ed 9a42 4c76 e23f a623 7860 c2f1 b13f
00000710: 369d eb37 cedb c9bf 752a 6ac8 6925 c2bf
00000720: 92ac 2431 4ad9 cd3f c352 5dd6 defc c8bf
00000730: 03fb 54d0 65a8 e03f 5d6c 93ed 46ff c73f
00000740: 6f7e 437d c31a 40bf 8521 eb91 c35d c73f
00000750: f11f e564 cb0a ddbf 1de4 ede4 bd73 dabf
00000760: f445 c6bc 7acd e43f 7e92 1617 f82d dabf
00000770: aec5 5ed9 3b33 e1bf 84a4 f206 6874 e0bf
00000780: c576 b454 2f9b e9bf c40d 9ca8 aa81 d5bf
00000790: e4d8 bc13 3f23 e3bf 41f2 1bea 7966 cabf
000007a0: 2664 7693 b121 e4bf cb6c 19b3 f4f0 d83f
000007b0: 9080 b0d1 9a13 e53f 2f5e b05c a0eb c3bf
000007c0: 3098 9404 11f1 cdbf feb2 272e 93d5 e2bf
000007d0: 3366 a7b3 89bc e63f 1dd9 9931 961b da3f
000007e0: 32dc 85a4 9d80 d73f 6343 b915 cb7f e0bf
000007f0: 2a7d 0cb7 7bf4 d63f 6bae e1f9 e935 c13f

fc2.weight f8 [1, 512]
-10.183384370783973 22.201811384242646 -77.03500931531633 73.47906722491274 4.808628720459928 3.073678424363393 -33.057020821233074 -0.6159419557128447
17.530105793846836 90.88278516638125 135.1801968180938 0.19396962945310375 -2.230903598553694 118.65343003323368 8.340407683225076 57.9302911684129
13.93155310577314 1.2687044814809487 5.896059178833588 -2.97911157425097 -5.089901760083411 2.463365765668707 0.20959429764691775 0.24982629825260222
-0.3046532562654379 6.153316371034684 -5.505496634824574 -5.837006799538536 -0.03975328409525537 20.726605322523223 8.219769259754441 -1.4981480146665611
2.231775480596059 0.956159447401884 2.8815162749907626 1.9859170549782597 1.8567984045559505 1.594243242540851 -0.7755431481523676 3.2465992877247913
-2.6402867910410275 -1.5797670824358723 -4.457750088932666 -38.83181056168696 1.3957408288592865 -2.6473805505600114 -5.075713372247572 -14.855257293515878
2.045199170271541 -3.360093568193365 -7.928106442179559 -1.8107437439194058 3.432833353648144 -0.7795458814429741 1.1404042689455038 1.2713700550673366
-0.3449407971206067 -3.922722845080081 0.7733717468631209 0.8562719875824111 4.212521632405394 2.1385230633605437 4.113656045584486 -17.6404498269583
-7.80136252749568 -10.170067041882662 2.3539822139755646 58.54187166660471 -11.792850130416497 -0.7711273417620951 -3.2826712334549866 7.308390397429592
-0.17849456132670616 7.696987974011279 -2.334669993203016 1.434001516761043 8.045114365438206 -1.545359507638276 55.984910731096 4.6033456356180595
-2.544212239071598 8.312616493542379 -0.1498469044544706 -4.616639134493352 2.667458715027261 25.371560347657496 -26.827253143202928 -1.461244276501591
-0.04742029603052645 -9.333848246316977 2.202887876577511 -18.356564131488234 8.427334216591206 9.039522780982823 -4.272699947874029 -33.392031877255384
-13.914756333463528 8.638090827470023 -0.48109286880047836 -3.05221365269712 -12.391610869384055 14.385878991144128 1.5917895487286797 -46.66221779228179
2.2400434503586233 -123.7050560789211 2.0207102571585516 -8.487974130941927 -8.3961583526906 -2.23474147247343 -28.71570683880995 136.0096313651122
24.263451662710008 -5.057604242396159 2.261021136218579 11.878775055859757 -7.632278679422213 -15.501234813571257 -47.85062276682947 0.5434029243639189
-10.721035256050431 -35.70872196256684 -3.9797015484977276 0.3865239367805634 -0.08969352991173549 33.80991982204738 65.64507044458018 -3.085595589029694
-2.274898804447166 3.349025582161896 1.8851933426978131 3.119433571269475 20.96749143490433 -67.32851877158402 0.7278350743135206 -10.530041120958455
20.270374998000054 25.935456123682968 4.201772016916434 25.062636205464056 1.7895829504165368 -4.700159086031272 1.2344787367508492 -3.5423864079476886
-0.6618732849909279 14.561652782013796 -3.620260519821749 15.798166957182408 -10.873635545554372 3.940081456038812 -105.99836967179003 -8.698985309734644
-2.105932582350782 10.321464040494826 -6.02153759575667 -6.1101681077703365 -7.107927801439739 1.5516159973143304 -4.18535780265355 -31.249596190477874
0.721956835196322 17.147811064266495 1.144269861018014 -1.4893715653201818 25.30680321813561 -2.459662176744326 -6.764123616935964 0.5476101726131668
2.2551933095216357 -47.09355092889533 2.9184808298238187 -13.264107428312105 -2.720332726960651 -61.11903676130602 -3.982508072276256 -3.5813826818129955
3.026579556820112 -1.2786307850190894 -6.5490246074028615 -38.4022959452331 -1.0837891888777984 -7.675429009519258 11.844466479766917 -3.142159768466549
40.082823503290335 48.5554579702607 2.8971023636378423 0.6053346198278824 -19.912950490273712 -3.6431595352208936 1.0482131412187026 45.355904645436276
-45.9015656446915 3.024724554953839 -0.6103128122025169 -1.702339133339317 0.14780756552634386 0.8853332780431139 -23.960013786506156 -80.85038196644827
3.066639183157368 -37.60884811403223 7.5391442579676795 4.449991193721549 1.2746228305401506 30.419668778748974 -0.819194857745642 -17.717769649202324
2.2414800081532107 0.4119316583635171 2.3820057582885292 0.15221691177674543 3.024288762279223 -52.022642818190945 -3.2336759154798487 174.08350191349362
1.6102850910809852 6.121548217403986 23.530231604215246 1.8819015583585181 -13.93433161848812 -12.188057345305685 -3.4993406044948694 2.7363224321427055
6.048693134699892 -2.15605289032799 -10.944019925205193 -1.8674999405234318 1.376774719786143 -1.488146493424168 -5.404345708803994 -4.240569778952695
-0.346230325814209 -2.814600867644771 -3.9523560581358006 5.923148839857608 -33.96294565003721 3.8680444708372614 -3.7995713833707305 -0.6617170052523393
-159.21609895832157 8.788509247077116 8.707961480155046 0.29136602643335113 -8.219510370743818 0.752133017430486 -126.98747055005863 -7.718425088574784
-32.75785622324312 -3.2078436393991945 -13.375168718585776 -8.054650103695675 -2.5128485313613735 -4.939288659131578 -6.620970925697147 -1.6583201333137751
00000000: ba3a 668e e45d 24c0 5c48 2fe9 a933 3640
00000010: b215 b697 3d42 53c0 7ce5 9309 a95e 5240
00000020: 47ed d32a 093c 1340 1f7e b8b6 e496 0840
00000030: 8d31 5175 4c87 40c0 9cab 80e7 cbb5 e3bf
00000040: 06fe 6703 b587 3140 17c0 5a8d 7fb8 5640
00000050: cc11 1e2c c4e5 6040 7a8b 752f ffd3 c83f
00000060: dd88 62fc e3d8 01c0 9fbd 33cc d1a9 5d40
00000070: 8584 75ea 49ae 2040 a70b f0c7 13f7 4c40
00000080: d490 5787 f4dc 2b40 2ffd 0312 9d4c f43f
00000090: c77b 9189 9095 1740 0c58 f472 38d5 07c0
000000a0: f4a4 fd34 0f5c 14c0 9510 4d1c f9b4 0340
000000b0: 3d2a e966 fcd3 ca3f 4e7c 56e2 4efa cf3f
000000c0: e9ea 115f 707f d3bf 3824 7ef7 fe9c 1840
000000d0: 083d ebe8 a005 16c0 c930 7a4f 1859 17c0
000000e0: 3208 32de 8a5a a4bf 3756 71ce 02ba 3440
000000f0: 779f ae98 8570 2040 9df6 780d 6af8 f7bf
00000100: e665 691a adda 0140 e047 8bb2 db98 ee3f
00000110: 09d1 9f67 580d 0740 4334 3bf6 50c6 ff3f
00000120: 1653 6d3e 72b5 fd3f ac4f c933 0582 f93f
00000130: 1071 3edd 3fd1 e8bf 80f5 1f0c 09f9 0940
00000140: efa7 5cae 4e1f 05c0 22c0 25d9 b946 f9bf
00000150: dcd3 7670 bcd4 11c0 d974 bbc4 786a 43c0
00000160: f647 da55 f454 f63f 17c6 a5da d52d 05c0
00000170: 5ab1 66ce 874d 14c0 e1a1 b248 e4b5 2dc0
00000180: 18fb f061 915c 0040 a31f 97bc 78e1 0ac0
00000190: f578 0189 61b6 1fc0 8d20 996e cef8 fcbf
000001a0: 544b 5455 7176 0b40 1eee 5034 0af2 e8bf
000001b0: 866f f58b 183f f23f 000c 7a20 8857 f43f
000001c0: 791b ac90 8213 d6bf d020 d783 bc61 0fc0
000001d0: 0aae 0d1b 76bf e83f 49b7 e482 9466 eb3f
000001e0: ab7e 5345 9fd9 1040 8e00 d7fa b11b 0140
000001f0: ba1c 1b40 6274 1040 c783 1585 f4a3 31c0
00000200: dc55 df60 9834 1fc0 e906 fe06 1357 24c0
00000210: 3420 83a0 f4d4 0240 1f59 ff0c 5c45 4d40
00000220: 5089 c973 f095 27c0 796d 3d3f 13ad e8bf
00000230: 56ac b922 e942 0ac0 3171 3db1 ca3b 1d40
00000240: b0be b4e7 e8d8 c6bf c055 2837 b7c9 1e40
00000250: 7313 1e76 67ad 02c0 ff72 0e93 abf1 f63f
00000260: 1646 e83a 1917 2040 a9e7 1de4 cab9 f8bf
00000270: b5c4 098e 11fe 4b40 d5a7 3470 d369 1240
00000280: e029 47f2 8b5a 04c0 d0e8 df44 0fa0 2040
00000290: 01f7 04f1 2e2e c3bf ad54 d03f 7077 12c0
000002a0: 35c7 4398 f456 0540 e9ad 3594 1e5f 3940
000002b0: dd91 abdc c6d3 3ac0 0baa b0ad 4161 f7bf
000002c0: b149 3c19 7947 a8bf 4984 4728 eeaa 22c0
000002d0: 0b3e d5ad 839f 0140 2aab 73c9 475b 32c0
000002e0: 2871 e98c cbda 2040 5189 7754 3c14 2240
000002f0: 9ef5 b6a7 3e17 11c0 93e6 bd19 2eb2 40c0
00000300: c711 30f1 5ad4 2bc0 00b9 47d7 b346 2140
00000310: 558f 75be 39ca debf 21e9 d5fd ee6a 08c0
00000320: 7986 4938 81c8 28c0 e25a 5eee 91c5 2c40
00000330: ec77 5e51 f877 f93f fd56 788d c354 47c0
00000340: 3846 87e6 9beb 0140 fa33 88a3 1fed 5ec0
00000350: 7880 a923 6a2a 0040 1361 cbbe d7f9 20c0
00000360: cdaf 8144 d5ca 20c0 5e4e 1a23 c0e0 01c0
00000370: 5836 3a90 38b7 3cc0 87c5 6fe6 4e00 6140
00000380: 936a 7391 7143 3840 37cf 449b fc3a 14c0
00000390: 0cfd dc3f 9216 0240 9dea dacd eec1 2740
000003a0: 4f4e e80f 7487 1ec0 77cf 77d9 a100 2fc0
000003b0: ff61 f234 e1ec 47c0 8e33 9687 8e63 e13f
000003c0: caff 7788 2b71 25c0 3c97 b966 b7da 41c0
000003d0: 3c1b f5c3 6dd6 0fc0 0aff e5e4 cebc d83f
000003e0: 463a a2b9 27f6 b6bf ae09 e673 abe7 4040
000003f0: a3c5 8bd5 4869 5040 e083 7cbd 4caf 08c0
00000400: 0a7b f624 fe32 02c0 57d2 a6ec cdca 0a40
00000410: 6b62 987e c029 fe3f d02c 9596 99f4 0840
00000420: ff12 c884 adf7 3440 d404 9973 06d5 50c0
00000430: 99dd 21c8 6c4a e73f 7e1a c08c 610f 25c0
00000440: f910 be4b 3745 3440 b00f 720d 7aef 3940
00000450: bd9d d752 9dce 1040 7f03 26ed 0810 3940
00000460: 9c4a 58bb 21a2 fc3f 9a01 e280 f6cc 12c0
00000470: 953c 9fc6 6cc0 f33f 2071 5faf ce56 0cc0
00000480: 5a3a 24e2 102e e5bf d1e9 14f4 901f 2d40
00000490: 3113 bd25 4bf6 0cc0 4bb1 e356 a998 2f40
000004a0: ec8e 8128 4dbf 25c0 221a 2a6d 4985 0f40
000004b0: 036a e849 e57f 5ac0 b363 0b67 e165 21c0
000004c0: 3038 862e f3d8 00c0 d587 49ef 96a4 2440
000004d0: 31a3 95f3 0d16 18c0 42be 8fe8 cf70 18c0
000004e0: 2b0d 26a0 846e 1cc0 c7a5 c64b 6bd3 f83f
000004f0: 59d2 916f cebd 10c0 044f 3389 e53f 3fc0
00000500: f556 8938 451a e73f f502 27f2 d625 3140
00000510: f1ee ede9 ed4e f23f b747 4a47 77d4 f7bf
00000520: 3333 dca7 8a4e 3940 b599 025d 63ad 03c0
00000530: 635d e36b 760e 1bc0 2e93 cac4 0586 e13f
00000540: 6d6d 34ca a20a 0240 d50e 127a f98b 47c0
00000550: 1bc5 307a 0c59 0740 5a76 be16 3987 2ac0
00000560: a546 04ce 3dc3 05c0 626a ba98 3c8f 4ec0
00000570: 35dc 3331 2ddc 0fc0 ddc7 a6f6 aba6 0cc0
00000580: c546 ba57 6f36 0840 800d d58d 4575 f4bf
00000590: 66fa b581 3332 1ac0 770b fc6e 7e33 43c0
000005a0: f1d0 1f55 3357 f1bf 9a9e 8aa9 a3b3 1ec0
000005b0: 9555 12e9 5db0 2740 51f7 22a9 2423 09c0
000005c0: 6ffc e6f5 990a 4440 3f49 2c3f 1947 4840
000005d0: 21e9 0701 442d 0740 e083 69b5 e65e e33f
000005e0: bf97 921f b7e9 33c0 0b13 8fd3 3025 0dc0
000005f0: 1e59 8c24 7bc5 f03f 5752 8e48 8ead 4640
00000600: d692 c780 66f3 46c0 a97a 97c9 a232 0840
00000610: cdaa 17bc ae87 e3bf 294b 86f5 c73c fbbf
00000620: 33bd 04ba 5beb c23f 472e 6874 a654 ec3f
00000630: c9c0 a876 c3f5 37c0 39c0 7ba8 6c36 54c0
00000640: 2a58 c21f 7a88 0840 f6ff 28bc eecd 42c0
00000650: 8230 af6e 1528 1e40 9516 d27d cacc 1140
00000660: 757a bee8 da64 f43f 0de1 bf69 6f6b 3e40
00000670: 7834 6222 d836 eabf a862 71c0 bfb7 31c0
00000680: 303f 0d12 8dee 0140 38ef 369a 165d da3f
00000690: 02dd f508 590e 0340 b357 fd00 d87b c33f
000006a0: 5832 7d4e be31 0840 48cf b9f5 e502 4ac0
000006b0: 5dca 767a 91de 09c0 7973 340c acc2 6540
000006c0: 0ede b64c bac3 f93f 838c ca22 777c 1840
000006d0: fc68 2742 bd87 3740 720f f7ce 441c fe3f
000006e0: ea0c c2b6 60de 2bc0 93b8 670d 4960 28c0
000006f0: 72f6 6e49 a6fe 0bc0 ade9 ea03 fde3 0540
00000700: 944d f49c dc31 1840 6c3d 63a8 983f 01c0
00000710: ae0e 6394 56e3 25c0 0748 1d9e 47e1 fdbf
00000720: 890e b7ed 4407 f63f 419f 8eb2 72cf f7bf
00000730: 485d 2ecd 0c9e 15c0 f607 94ec 57f6 10c0
00000740: 5459 903d a328 d6bf c19e ae75 4d84 06c0
00000750: d5b9 5eda 6c9e 0fc0 751d f2ed 4db1 1740
00000760: 1e5e 95cd 41fb 40c0 dfc1 ad4c c1f1 0e40
00000770: 7b28 73ae 8565 0ec0 e881 1824 c92c e5bf
00000780: 1bd6 5c48 eae6 63c0 6094 e97b b793 2140
00000790: f62f 58ed 796a 2140 f996 acb0 bda5 d23f
000007a0: 7ff4 cea9 6370 20c0 2f62 0343 7911 e83f
000007b0: f590 adb7 32bf 5fc0 e937 90d3 aadf 1ec0
000007c0: 1bf3 c66e 0161 40c0 9235 0fed a9a9 09c0
000007d0: c49d 411d 16c0 2ac0 1e31 3019 fb1b 20c0
000007e0: 66fd af54 501a 04c0 31e5 e1e2 d4c1 13c0
000007f0: 5c8b 66cd df7b 1ac0 ad18 2eb1 7a88 fabf
