NeumannProblem/data-revision/model_OGA_4D_gaussian_neuron_1024_N_1024_randomized_trial_0.pt (torch, 50919 bytes, 3 tensors)

fc1.weight f8 [1024, 4]
000000 ac 8f 14 5a ea 57 e0 3f 99 5f 19 93 63 f1 e1 3f
       0.5107318648701855 0.560716426184615
000010 59 65 29 f2 ce 3f dc 3f 42 a4 69 9f 3a f6 db 3f
       0.44139455460170535 0.4369036251796993
000020 aa 5c 32 6a 77 fe c2 3f 78 cc 93 a1 ba 26 dc 3f
       0.14839070020091089 0.43986383227383596
000030 7b c6 ce a7 b5 5c d4 3f 05 09 a8 a6 31 c6 d5 3f
       0.31815854442093155 0.340221798658732
000040 7b 8d 5f 99 6d e7 a8 bf 99 71 77 81 9d d9 e4 3f
       -0.048640656444855566 0.6515643623966297
000050 3e 65 59 da d6 b3 df 3f cc 10 2e 2c 93 12 e0 3f
       0.49535151789821785 0.5022674429788139
000060 de f6 ad 8b bf f7 e4 3f 5e f4 e8 96 12 b6 db 3f
       0.6552427032581496 0.43298783051779377
000070 58 a6 21 b3 fd cd cc bf df 4c f4 b1 7e cd d6 3f
       -0.22503634688046037 0.35629241350507174
000080 0c 83 72 68 fc 03 df 3f 43 f7 7c c7 8e b3 c1 bf
       0.4846182842248232 -0.13829216709739897
000090 22 33 5b 68 95 9b e7 3f 07 2a ac 47 33 d1 b1 3f
       0.7377421415527332 0.06959839343850414
0000a0 c4 2a 8a c5 ca 5d e1 3f 95 eb 5b 32 d1 f8 e7 3f
       0.542699228114849 0.7491231902671297
0000b0 7b 61 c5 4d 5c 34 c4 3f 44 d1 38 4a 7a 01 c9 bf
       0.15784791753209135 -0.19535759567373578
0000c0 00 34 e8 27 c7 30 d4 3f 18 f2 a2 2e f8 d5 c1 3f
       0.31547716996357167 0.13934232976124927
0000d0 b8 d3 4f 85 ae dd bb 3f 3a 5b 71 b4 c9 8a eb 3f
       0.10885134463008128 0.8606918834947017
0000e0 a9 8d 21 7f ec ec a9 bf 98 d7 36 6c c6 07 e9 3f
       -0.05063571025746267 0.7821991075095296
0000f0 52 d6 a2 55 29 b5 48 3f 9e 98 e4 5b 17 e2 b8 3f
       0.0007540180042925981 0.0971998786304504
000100 bc 77 21 c9 57 d9 c9 bf b9 70 52 7d 38 53 b4 3f
       -0.20194527932011208 0.07939484653110442
000110 d0 01 10 8c 20 42 e9 3f 51 c2 04 49 81 85 c8 3f
       0.7893221603008502 0.19157424989090768
000120 a9 3a 68 ea 59 93 d6 bf fa 5d ee 0d b6 ac c8 3f
       -0.3527436055309559 0.1927707260153822
000130 13 63 6b 47 dc fb d0 bf e7 58 b8 c5 fb be e0 3f
       -0.2653723428207268 0.5233134137841063
000140 c0 77 85 5a a5 ed ea 3f 7e 48 7a b2 97 f4 88 bf
       0.8415095108027728 -0.012185273298460194
000150 36 5b 99 9f 59 fb a1 bf e2 38 c3 ed 64 bc c8 3f
       -0.03512077401381079 0.19324933633328728
000160 6f b3 2b a8 26 a5 cd 3f 03 bc a6 04 83 7c d6 3f
       0.2316025086542157 0.3513495965407289
000170 22 af ac c1 c0 3f e5 3f f5 b4 d0 59 96 29 d2 bf
       0.6640323431688311 -0.2837882878400955
000180 05 96 cb 87 b5 df b4 3f 58 68 17 50 f8 fb bd 3f
       0.08153853001893914 0.11712600665433237
000190 6d 9e 8a b4 dd b8 b1 bf 06 b7 18 43 ad e5 c1 3f
       -0.06922708184958433 0.13982167984197974
0001a0 03 e9 de d5 21 91 e7 3f 90 10 23 a9 a5 bd ad 3f
       0.7364663293040227 0.05808751763973519
0001b0 60 88 75 2d 7b 6d d1 bf 20 7b 7d ec 90 bb c1 bf
       -0.2723071998535769 -0.13853656337138265
0001c0 0c 48 3a 83 ca 80 a4 bf 2e 84 5d 76 22 7a d3 bf
       -0.0400450978460328 -0.3043295055304637
0001d0 90 32 ac 35 1f 4d c3 3f 74 61 e3 50 b8 00 e7 3f
       0.15079107399687475 0.7188378887031335
0001e0 62 5e d2 c6 d0 78 c4 bf c8 f8 99 59 e4 a8 e8 3f
       -0.15993699749081985 0.7706166982677809
0001f0 cb c9 7f 9f 5d 71 d3 bf fe ec 6e f5 94 1b e1 3f
       -0.30379429412928677 0.5346169274920667
000200 3d 08 bf 2f e3 9c d9 3f 30 09 2e ff 1a ad d9 bf
       0.4002006498595881 -0.40119051856904075
000210 cf cd 58 4e dc 17 b7 3f bc 8e be 8a 60 23 70 bf
       0.090207833411845 -0.003939988247939116
000220 f9 c0 4b fb 38 8b c3 bf b7 83 97 e4 62 8d ea 3f
       -0.15268623609836832 0.8297590698895111
000230 51 01 11 7a 01 66 e0 3f af 98 75 06 8c 00 c3 bf
       0.5124518760785951 -0.14845419230841148
000240 c1 6a 35 57 39 9b e4 3f b7 5b 0d 02 5a 30 e3 3f
       0.6439482405943054 0.5996522941667227
000250 cf 0c c9 2d 75 28 b2 3f 2d ee 57 61 4e 08 db 3f
       0.07092983596617163 0.4223819685573485
000260 6b 14 0d e5 a3 4f c1 3f cd 08 d6 51 91 8c da 3f
       0.1352429264462985 0.4148295687847508
000270 6c 4c 9b 45 8d ce e6 3f 4b 9e 0c 38 94 05 e1 3f
       0.7127138480667674 0.5319310278618529
000280 c0 91 53 b9 6a ef c9 3f b4 9d a2 78 47 51 c1 bf
       0.20261892365591727 -0.1352929438628344
000290 c5 69 6e 46 16 ec e4 3f ef 07 af ee c2 99 e0 3f
       0.6538192153560024 0.518769708804255
0002a0 b1 67 66 f8 68 65 d0 bf 5b ef af f4 9e bc da 3f
       -0.25618957765402245 0.417762507393254
0002b0 03 3b b4 7e 52 32 d2 3f 43 73 7f db 9d 1d d5 bf
       0.2843214261383055 -0.32993265567147406
0002c0 f4 5f 11 3b be 8d 89 bf 6d 6f 34 9e 42 86 c8 bf
       -0.012477384736641263 -0.19159729695172292
0002d0 e2 08 b9 ad db 96 e8 3f 81 0e 07 27 8a 56 d6 bf
       0.7684152977965619 -0.3490319615486684
0002e0 8e 14 09 ad f6 9f e0 3f b5 8f 8b b6 39 65 cc bf
       0.5195268039320966 -0.2218391553243443
0002f0 69 31 82 8a 21 f5 c6 bf 13 87 c0 e6 90 26 e9 3f
       -0.17935580504525753 0.7859577662349885
000300 cb 5d 84 80 08 23 df bf 08 d9 81 84 2a 72 d2 3f
       -0.48651325750821844 0.2882181447997856
000310 75 e7 ab a7 80 ed dd 3f 46 e2 f5 38 22 4a e5 3f
       0.46762100576562854 0.665299521685548
000320 dd 46 5e e9 f0 1a b9 3f 00 e4 6a 91 99 7f e3 bf
       0.09806733796565532 -0.6093261566339834
000330 03 b2 33 f8 1c 00 e2 3f bb ef 2f c5 9b 20 e1 3f
       0.5625138137525599 0.5352305270493994
000340 31 f2 f7 ae 40 f7 d3 3f 86 c2 72 0b 0d b3 ca 3f
       0.311966105334963 0.20858920153616028
000350 86 40 36 fc e3 b8 b2 3f 6a 87 36 35 94 e4 c9 bf
       0.07313370616452816 -0.20228817556658935
000360 64 00 3a e0 5f a2 a3 3f 22 ab 6f af 58 b5 e9 3f
       0.03834819423809746 0.8033870150078182
000370 19 9e 32 f2 4e 6e d3 bf 21 43 c0 9d f5 32 da bf
       -0.3036076894008786 -0.40936031728147
000380 a9 19 c8 8c ac 5c e8 3f ce 5c ce 23 8e 2e d1 3f
       0.7613127469674527 0.268466505972765
000390 1d 3a e2 67 95 8b a4 3f 5f a6 30 a0 d0 b1 df bf
       0.040127438479533796 -0.4952279629093023
0003a0 8e c3 aa bd c2 87 be bf aa 5b d7 ac aa 2f d5 bf
       -0.11925904398482443 -0.33103434447314817
0003b0 19 55 1e 7d 51 69 d2 bf 04 6e 4e 35 e8 73 eb 3f
       -0.28767811983682773 0.8578988114490476
0003c0 17 be 64 16 3e f3 ea 3f 04 b3 4e 83 bf 50 db bf
       0.8421926915525003 -0.426803472738172
0003d0 cc 37 b3 d0 34 db cb 3f d7 89 9d ac 00 2f aa 3f
       0.21762714567597496 0.05113985163804429
0003e0 e6 d0 bc ba 59 57 df bf c5 3c 9f 70 02 cc ac bf
       -0.48970645176019756 -0.0562439691999486
0003f0 e3 b8 c0 2c 4f 0d ea 3f 67 72 7f 74 e9 ef a0 bf
       0.8141246675566233 -0.03308038279621855
000400 f6 0b 1f 13 23 1b db bf b4 db 67 ff 43 62 e0 bf
       -0.4235313116770948 -0.5119953144447806
000410 b8 89 de dc 27 2c d5 3f 09 1a da 72 ad a4 da 3f
       0.3308200509001398 0.41630111900340744
000420 a4 df 9c 57 0d 72 e1 bf e5 06 52 79 38 10 e1 3f
       -0.5451723776995903 0.5332300538577469
000430 d6 e3 c4 6d d5 03 cf bf 55 ec 66 80 67 4b c0 bf
       -0.24230449542827043 -0.12730115670805967
000440 49 77 af 86 75 c6 e9 3f 13 c8 b5 43 b6 ec b3 3f
       0.8054759626936426 0.0778306880290816
000450 90 36 4a 66 a6 31 e2 3f 76 27 cf 14 c1 ee c2 bf
       0.5685607908105386 -0.14791120067667024
000460 01 0b 39 d9 d4 0c e3 3f 1f a3 62 6b fe f7 bc bf
       0.5953163378365788 -0.11315908548079932
000470 6c 68 b8 ed 93 a7 dc 3f 1e a1 05 9b 12 0a e5 3f
       0.44772814001920014 0.6574795749448048
000480 a5 29 ed 51 08 67 df bf 65 2e e5 80 63 99 c5 bf
       -0.49066360474230414 -0.16874355119431353
000490 07 25 11 86 8c 8d d8 bf 9e 50 d9 06 90 db e0 3f
       -0.38363946049192105 0.5268020757453262
0004a0 fe 25 da 34 c2 c8 e6 3f 2d 6d 35 32 80 3d 8b bf
       0.7120066673534777 -0.013300897152183378
0004b0 70 a7 5b 29 62 86 dd 3f 90 ce 1c ce eb 9a d0 bf
       0.461327114475913 -0.2594556343858381
0004c0 f5 12 8f 25 ef d9 d9 bf e6 09 2e ad 76 e0 e7 3f
       -0.4039266459260909 0.7461503393572542
0004d0 23 b6 4f 7d dd 4a d5 3f a1 39 d4 20 a4 57 da 3f
       0.3326944087737919 0.4115991898151155
0004e0 52 27 7f b0 d5 9d 97 3f 28 37 a9 df 6c 34 c5 3f
       0.023063029191497116 0.16566239281603967
0004f0 d2 2c 00 9a e0 df e6 bf 36 3e 95 ec b8 8c c6 3f
       -0.7148287780595644 0.1761695056143126
000500 20 8d 69 3e 75 49 b4 3f 26 e0 75 5c 09 7a c3 bf
       0.07924587987649945 -0.15216176047010882
000510 7d 92 4a 7b cd 17 aa bf ea 53 0b cb 28 2e e4 bf
       -0.05096284990330433 -0.6306346860607139
000520 8a bd 32 93 38 ba d5 3f db f9 f3 a7 04 69 a2 bf
       0.3394910275919406 -0.035957475187376985
000530 f8 d6 16 55 67 a1 ce bf 7e d6 73 52 c8 91 e3 3f
       -0.23930064825770336 0.6115457163238742
000540 4b de 38 bc 7b 24 cc 3f 5c f2 32 c0 a7 b0 e8 3f
       0.21986338320287965 0.7715643648039747
000550 23 50 5a b1 dd ce cf 3f 98 f5 be 32 5d 63 dd 3f
       0.24850054893306703 0.45918970065744125
000560 33 a2 84 bf b8 b2 dd 3f c8 4d 86 31 7f 03 e4 3f
       0.46403330519618463 0.6254268615033931
000570 8d 79 bb 4c ef cc dc 3f b4 9b d8 e7 d5 de db bf
       0.4500082253779503 -0.43547580376837947
000580 b1 0b 3a 02 1b 9a cc 3f 51 f0 e4 97 cf 77 c5 bf
       0.2234529267189749 -0.16771883885110353
000590 93 4b 6a ac 3b 6e ed 3f d4 3e 29 e9 dc 68 d1 3f
       0.9197061889156991 0.2720253254856122
0005a0 d4 f0 ed 47 34 7f dc bf 83 4b 2a e4 09 3a d5 3f
       -0.44526392959938943 0.3316673973251271
0005b0 54 42 bf 16 0b 0b d5 bf 5e 0b 1f 92 f9 68 e8 3f
       -0.3287990305080133 0.7628143171244621
0005c0 e2 4f 72 f7 9e 2d e4 3f 70 3e 32 55 c6 25 c2 3f
       0.6305689652385775 0.1417777935025586
0005d0 2a fb 82 af 8e c3 bc 3f f1 a4 de 73 74 7b e3 3f
       0.11235896859123487 0.6088201773719942
0005e0 f3 df cb 6a d8 cc ac 3f c5 18 c7 d5 e7 d1 d8 3f
       0.05625034621874638 0.38781162144404063
0005f0 e0 9a 68 f3 0d 45 ed 3f 33 c7 0b 8a 2f 6d b8 bf
       0.9146795038294293 -0.09541604156745791
000600 da f5 99 e5 8d 10 d3 bf d4 62 d2 c6 4a 22 e2 bf
       -0.2978853933526274 -0.5666860469092065
000610 10 22 7f 45 c1 b6 d3 bf 31 e1 87 5b b0 2d c2 3f
       -0.3080294779470316 0.14201931447292673
000620 ef a0 89 20 f0 03 9f bf f7 37 15 93 8f 12 cb bf
       -0.03028845976442168 -0.21150393182546143
000630 f3 2b 9c 59 56 f4 d3 3f 1c 76 7b 89 2b 93 ed 3f
       0.3117881655786611 0.9242150960159878
000640 69 5f a0 ff 54 ee d3 3f 1b 7c e3 bc 30 1c 9b 3f
       0.3114216324188335 0.02647472527393911
000650 b9 27 e7 da 52 85 db 3f f9 e9 88 cc f4 95 ea bf
       0.4300124299739952 -0.8308052058048921
000660 44 da 6b 0e 89 fc ed 3f cf 27 a5 48 f0 93 c0 3f
       0.9370770723024369 0.12951472804189598
000670 79 86 63 cf 23 d7 d2 bf 22 de 4b 34 26 2f ac 3f
       -0.2943810963898624 0.055047220119316856
000680 71 97 b0 2a 0a 34 d6 3f 17 73 3a 67 95 d0 ed 3f
       0.34692625206877553 0.9317118660142992
000690 bd 5b 86 eb a8 fc 97 3f c1 57 dc 6b 10 28 ba 3f
       0.023424758315367934 0.10217383035009588
0006a0 c2 47 78 21 ad 53 c5 bf 52 68 1a b3 4f e0 ca 3f
       -0.16661609777707836 0.2099704384352799
0006b0 9d 62 c8 32 ff 0e d4 bf 97 9c 01 f5 ce 89 e2 bf
       -0.31341533622029677 -0.5793223176268779
0006c0 91 14 26 02 27 5a a8 bf f3 0d 8b b5 7b a8 d7 3f
       -0.047562808048533196 0.3696584008104928
0006d0 cc bf c6 6c aa a0 db bf 60 f2 8c be 68 1a e8 3f
       -0.4316812574643307 0.7532237741175543
0006e0 a4 c5 b8 6c 11 58 e0 3f 75 15 32 bc ae 3b de 3f
       0.510750496241759 0.47239273432236156
0006f0 07 d9 77 0c ce c0 e0 3f 26 c6 1c 1f 58 b6 cf 3f
       0.5235357516783389 0.24775220412407
000700 58 56 ea d4 2b 67 d5 bf a2 72 1f bf 83 5f e4 3f
       -0.33442207138555125 0.6366595013492609
000710 c8 2e 7b 4d 3a 21 bc 3f e6 a6 2e a7 c8 5b e4 bf
       0.10988201514845308 -0.6362040772703181
000720 1e 96 2d 37 2c 90 da 3f 1e b8 41 c8 90 d5 c8 3f
       0.4150496043060644 0.19401750353012032
000730 b6 eb d0 40 69 d3 e2 bf dc 43 c9 c3 cd 33 e5 3f
       -0.5883070245684994 0.6625737022351319
000740 0a ec 6c a6 b5 8f e8 bf 3f 7d 8b aa 7b ac cb 3f
       -0.7675426722047416 0.21620126559626304
000750 d7 a6 ad 6d fc 92 d3 3f 43 85 2a fd 52 54 a7 bf
       0.3058463164403355 -0.04556521740347332
000760 d2 36 cb 58 55 eb d8 3f a3 5f dc ea 02 5d e2 bf
       0.38936360999364894 -0.5738539301992102
000770 bc 17 4c ce 50 70 e1 bf 7b 1d 5a 9f 79 28 cf 3f
       -0.5449604062312043 0.24342270165309884
000780 a5 2c 49 d2 09 6f d4 3f 2e c2 5a 64 a9 d4 e7 bf
       0.3192772439549095 -0.7447096786546064
000790 1f c8 da a0 46 bb a8 bf f6 20 d5 ff 2a f0 e1 3f
       -0.04830380166585279 0.5605673786858734
0007a0 c4 4b d2 2e b0 3a d9 bf 06 bc fe c8 2a db db 3f
       -0.39420704433831255 0.4352518999903058
0007b0 29 d2 dd 3f 3d 0a e4 3f 37 fa ec 3c 6f 8d dc 3f
       0.6262499091522545 0.4461324782350035
0007c0 2f 59 51 db ad 87 d0 3f 9e 51 62 83 80 79 e0 3f
       0.25828119676352207 0.5148317876906281
0007d0 3e 56 57 f3 35 df e2 bf 76 79 66 9a 8f 74 ca bf
       -0.5897474053151155 -0.20668215788914396
0007e0 f9 8d 16 28 30 74 d8 bf 0a c1 7f 73 b2 a8 e1 bf
       -0.38209155955175295 -0.5518429046478854
0007f0 75 50 fb bf ce ec d0 bf c8 6c 37 be 92 f5 e5 3f
       -0.2644535898991827 0.6862271990934454

fc1.bias f8 [1024]
000000 93 83 8f 54 28 4a c9 3f c7 55 41 d5 60 1b e8 3f
       0.19757560852943054 0.7533420720234795
000010 cf ea 28 83 73 94 d1 3f 9f 6f 9e 1f e4 04 dd 3f
       0.27468574341370994 0.45342352950842185
000020 95 24 6f 56 61 66 dc 3f d0 08 ea d7 0c 3d d2 3f
       0.4437487930377498 0.28497620663996504
000030 a1 28 bf 54 4c ef d6 3f 1c c8 98 7d 41 a0 e3 3f
       0.3583556010822893 0.6133124783575599
000040 c4 90 4f 81 ae 53 e1 3f 75 24 f8 fa 86 7e e6 3f
       0.5414650464631667 0.7029452230209602
000050 cd 13 41 05 99 19 e0 3f d9 dd 5a 03 b1 91 e1 3f
       0.5031247236844308 0.5490346017385789
000060 07 5f 6c 9a c6 46 ef 3f 9e 8a 58 60 56 39 e3 3f
       0.9773896232681815 0.6007491952662638
000070 33 13 8c e5 1d 5e e3 3f 14 46 2f 5d 04 6a a9 3f
       0.6052388652175068 0.04963697087772459
000080 d5 86 96 2a 1b 35 ea 3f 9d 0e 16 18 dc 77 ae 3f
       0.8189826804920936 0.05950820726414217
000090 7c 65 ce 63 32 54 ca bf 7d 05 fb 43 a6 82 c1 bf
       -0.2056944835028779 -0.13679960555422702
0000a0 04 39 01 5e c2 9d df 3f a9 27 68 68 9f 29 e8 3f
       0.49400386028436594 0.7550808943935766
0000b0 f7 23 26 d5 f3 06 e0 3f 40 b2 9e 4e a6 87 c6 3f
       0.5008486903253687 0.1760146983991877
0000c0 53 04 13 86 e4 9d c1 3f 6d e5 3d 6c 17 4c c0 3f
       0.1376310019168466 0.12732212815516722
0000d0 d4 96 80 f4 fa d9 ec 3f 52 13 b2 a4 b6 8d d3 3f
       0.9016089225230766 0.3055245025973835
0000e0 ec e6 59 52 f5 62 d4 3f 99 63 30 08 b2 ad ce 3f
       0.3185399345598927 0.2396757640824745
0000f0 43 46 7f 2b 7e fa ce 3f 22 63 d5 d0 f6 87 d3 3f
       0.24201943515667965 0.30517359155560275
000100 df 30 1c 7b a5 cd e0 3f a3 b7 fb 15 7d c1 e2 3f
       0.5251033215040727 0.5861192159043082
000110 6e d8 f1 95 28 18 6c bf 68 77 2c 59 de fc 7d 3f
       -0.0034294884385941892 0.007321232364828713
000120 9c e9 9c a9 25 b4 e1 3f 40 5c 26 21 bb 84 dd 3f
       0.5532406151535727 0.4612262557724911
000130 08 fc 09 43 9d 88 5e 3f 4e 91 68 a1 e7 fb e4 3f
       0.0018636260757884954 0.6557500984677433
000140 85 17 7d 64 49 2a e8 3f bb 8b 64 ea c6 84 e5 3f
       0.7551619494122269 0.6724581315978563
000150 9d 0f 7c f2 33 85 d2 bf 5f 7b 6c df 74 ef a2 bf
       -0.2893800609601785 -0.036983158372314355
000160 52 48 58 ff 92 5c a7 bf 71 e7 c0 55 09 5f a5 3f
       -0.0456281601619969 0.04174069568439521
000170 45 d7 6e 62 b8 8c dc bf aa 96 7a ad 00 00 9b 3f
       -0.44608888256640383 0.026367197597798743
000180 09 c0 14 54 6b 0e e6 3f 1b 3b 9f 62 0d df ab 3f
       0.6892601625640974 0.05443612889177115
000190 90 fe fe 5e 06 19 c5 3f f4 94 8f 0d a1 ca bf bf
       0.1648261989448554 -0.12418562489581914
0001a0 f6 e0 e4 c4 e8 61 98 3f 64 bb 52 78 8d 7f e6 3f
       0.02381099416490514 0.703070387846179
0001b0 af 5b 71 23 3f f9 d4 3f 04 b4 0f bf f2 30 db bf
       0.327712807285418 -0.4248625627358822
0001c0 b3 2a fb ac 06 71 d0 3f c4 7d b4 3a bb 11 b2 bf
       0.2568985642689469 -0.07058305915096869
0001d0 5c 3e 2c 8e fb 94 e0 3f ca 61 e1 09 bc d3 d9 3f
       0.5181863571942347 0.40354824986345916
0001e0 da c2 bb 9b 66 fe c4 3f bc 4b ba 81 b4 2e d0 bf
       0.16401369671031923 -0.2528506533500907
0001f0 b6 01 9f 46 1c dd e0 3f 33 1b df 02 d9 c8 b7 3f
       0.526991022045016 0.0929084426889915
000200 5c 97 eb e7 97 ac b4 3f b0 e1 80 f1 5d b7 b8 bf
       0.08075856601825876 -0.09654795785980386
000210 fd 16 a3 28 f3 69 d8 3f 4c e6 b6 54 32 1c 8c 3f
       0.3814666649671919 0.013725655756263631
000220 83 8f 26 89 f7 74 d6 3f ba a3 b6 7f 6a fa ce 3f
       0.3508890952455134 0.2420170901871453
000230 2f 92 2e 4b 9a 0b c0 3f 0f ea 96 49 16 fe c7 bf
       0.12535408659927458 -0.1874416217159056
000240 cd 41 e3 92 93 60 af 3f 0e 94 a6 f6 5a ff 88 3f
       0.06128369491637251 0.012205801632100968
000250 68 e5 2b ba f0 5c a5 3f 54 f3 71 50 c9 93 cf 3f
       0.04172470352745955 0.24669758251175244
000260 51 42 eb 18 10 93 d0 3f c1 6f 6e dd 20 a1 b4 bf
       0.25897600587362485 -0.080583623943709
000270 c9 24 09 d9 41 04 d6 bf 08 be 9e aa e1 fd d1 3f
       -0.34400983996290485 0.2811206976138867
000280 20 91 e3 24 09 4a ee 3f 18 81 a0 3d 71 a2 d9 3f
       0.9465375633704163 0.40053969400652667
000290 6c 82 b0 0a a0 16 d3 3f ca b6 4a 85 10 c8 a6 bf
       0.2982559303655197 -0.04449512126062201
0002a0 17 59 b6 7d 7b d9 af bf 91 c3 c7 d6 24 a7 cc 3f
       -0.06220613393377244 0.2238508270961828
0002b0 a3 51 96 12 e7 42 c6 bf 7f 44 d4 47 4e 88 ae bf
       -0.17391670615746788 -0.0596336805994122
0002c0 ec a9 bf 7a d8 6b c6 3f c4 a8 18 87 75 29 d1 3f
       0.17516618722522936 0.26815546219826225
0002d0 51 72 99 01 c7 77 dc bf f6 eb 76 e0 2a 9d b4 bf
       -0.4448106303805491 -0.08052318554011592
0002e0 a0 a6 b6 21 bc 99 db bf e4 fd 98 b4 24 7d d0 bf
       -0.4312582329972461 -0.25763814579474187
0002f0 e6 4f 09 f3 43 c7 bb 3f 7f f0 bf 48 e6 13 bb 3f
       0.10850929912095317 0.10577239299886008
000300 66 be 6c 4c f8 80 c9 3f d9 97 dd 74 64 56 c6 bf
       0.19924834949187015 -0.17451148706749
000310 86 ae 16 c4 a0 cc a3 3f f6 bd 5a 07 d7 93 d8 bf
       0.03867056268367457 -0.38402343481263246
000320 ce 99 38 65 e3 68 dc bf 63 98 2a b9 48 ad b2 bf
       -0.4439018715369486 -0.07295660515464557
000330 74 71 bb c8 6a f5 de bf 35 34 a6 60 11 e8 cd bf
       -0.483729072597064 -0.23364464968872914
000340 40 54 04 ad 5d a4 e2 bf f9 d9 21 2d 4a 0c cc 3f
       -0.5825641993748221 0.21912505344126013
000350 ef f6 e8 a7 cc cd af bf ee 2d 92 0d 01 8c da bf
       -0.06211700009997211 -0.4147951729325702
000360 0e 31 d2 44 e3 11 e7 bf ce a1 6d c9 da b7 ca bf
       -0.7209335655366276 -0.20873579821933536
000370 79 55 32 f1 fb 78 e2 3f b3 7b 51 2c 52 87 bd bf
       0.5772685728904171 -0.11534608442296594
000380 f7 0f e3 9b 40 b1 bd 3f aa 1a bf 6d 24 cb e1 3f
       0.11598590665658991 0.5560476439939823
000390 89 b5 a9 9f c9 3c ab bf ba b6 38 ed ae 31 ce 3f
       -0.05319814752588587 0.23589121420939368
0003a0 97 6a 88 2c 5c 37 b5 bf 1c 8b 97 8a 19 2a d5 3f
       -0.08287597739437512 0.3306945661008045
0003b0 c2 e8 d0 df 36 2b e2 bf 39 b3 fa 96 f7 fc e3 bf
       -0.5677751895339258 -0.6246297787489318
0003c0 84 f9 9b 4b 3a 65 e1 3f 16 5c 84 9a cc f5 de 3f
       0.5436068989509271 0.48375239457658503
0003d0 8f e6 d2 dd 29 18 dc bf c1 b0 d7 79 cc 9e da bf
       -0.43897482550128414 -0.4159423055523455
0003e0 87 04 19 47 01 ec be bf 3e 96 95 e6 8f 62 d2 bf
       -0.12078865037712393 -0.2872657539176976
0003f0 74 0d e0 c7 35 19 c3 3f 6f bf 21 01 54 e2 c3 3f
       0.14920685061961658 0.15534448676362042
000400 11 c8 c3 01 0f 9f ba bf a7 82 f3 04 10 91 d1 bf
       -0.10398954194150202 -0.27447891696469146
000410 b0 56 53 34 91 12 d5 bf 7c fc db 3f 0a e4 ca 3f
       -0.32925825223842775 0.2100842296422093
000420 b7 3e b7 08 bc 76 b8 3f f9 f9 13 38 7f f3 d5 3f
       0.09556174481189826 0.342986874355034
000430 da cc 8d 0e b7 cf e1 3f d7 20 ef 61 ec c7 e0 bf
       0.5566058429962155 -0.5244047081733026
000440 1c 8d 8a 6f 9b 4a bb 3f f4 c2 d8 63 5f 55 d1 bf
       0.10660716508077822 -0.2708357310357734
000450 ec 4e 81 07 ad 2b e1 bf 1e d2 35 c0 82 ff b8 3f
       -0.5365815302452268 0.09764878456719159
000460 94 c9 2a b0 19 11 cd 3f b4 6e 19 05 dc 16 da 3f
       0.2270843610945802 0.4076452302740379
000470 cb d8 93 bc 98 07 e3 bf 93 85 f8 1c d5 39 e0 bf
       -0.5946773226885623 -0.5070596280894953
000480 f0 64 bf 9e 95 79 d0 3f 41 5a 1c 73 2e 2c e1 bf
       0.2574209261197913 -0.5366432426697615
000490 09 5c ec 5e ec e9 e1 bf d3 d6 72 ab 4f fe c2 3f
       -0.5598050931902218 0.14838596221459585
0004a0 1e 02 40 79 53 2f bc bf 5d bc c6 8c 46 37 df 3f
       -0.11009713850217692 0.48774875400244416
0004b0 c8 f3 0d 51 e3 e3 d2 3f fa df 4e 23 8f 5b dd 3f
       0.29515917697409266 0.4587133259587969
0004c0 9c 9b ba 68 d6 9c c4 3f f2 4d 0f 2f d1 8c e0 bf
       0.16103630174367545 -0.5171895903717412
0004d0 04 95 79 8d ea 8e d6 bf b4 22 82 e4 3b fe ca 3f
       -0.35247291389380586 0.2108836045993222
0004e0 6c 0b 63 08 e5 a6 d5 bf 44 f5 07 8c 50 48 d0 bf
       -0.33831144160301707 -0.25441373515043986
0004f0 78 12 93 56 5d 29 e7 bf 4d 8b 43 9c ac b9 b8 bf
       -0.7237993899257864 -0.09658316435847532
000500 38 98 51 6f 78 6d 2e 3f 4a ed 3c 53 f7 db e4 3f
       0.0002321443095382751 0.6518513322584252
000510 40 a9 ba 42 97 06 cd 3f 82 72 96 67 2b 25 de 3f
       0.22676363714465175 0.4710186492537006
000520 be 56 d7 ae 9e 17 a9 3f 57 92 b9 18 4c f1 dc 3f
       0.04900833019534677 0.4522276154951092
000530 65 0c 7e 6b bf 40 e9 3f 73 4c dd ac fb f3 bd 3f
       0.7891537761173707 0.11700413675616676
000540 e9 0f 29 58 c4 89 d5 3f 6d 83 16 e8 79 7c de bf
       0.3365336285535237 -0.4763474241718118
000550 b2 a0 0b 85 af 4f e0 bf f4 92 51 0c ce aa e0 3f
       -0.5097272490065932 0.5208502045248609
000560 ab 65 5e 8e dd d2 c4 bf eb 9c 29 fc 48 3a df 3f
       -0.16268510295485092 0.4879324400448712
000570 a1 a5 3d 99 69 57 be 3f b5 40 74 5e 54 b7 d3 bf
       0.118521308815295 -0.30806454872164163
000580 69 11 a7 9c 49 0e e6 3f 02 4c 5f 61 87 e8 c8 bf
       0.6892440852757719 -0.19459621672157829
000590 63 3c 89 79 56 b4 d0 bf a2 17 2b 17 e7 2c be bf
       -0.2610069453120955 -0.11787266078599015
0005a0 83 e2 fb 87 b0 15 dd bf 7a 35 c4 6e 65 17 d4 3f
       -0.45444882659607105 0.31392799202952626
0005b0 f1 8a 1d 9d 90 d0 e4 3f 51 50 12 ce b4 71 b8 3f
       0.6504595822010214 0.09548501997989091
0005c0 f2 db 67 6b ff 2a e4 3f c0 5e 66 99 ab 3a 91 3f
       0.6302487466590476 0.016825371969018788
0005d0 88 53 6c 19 12 6e c9 3f 6b cb ad a5 4a 39 cd 3f
       0.19867159119953848 0.2283109005907947
0005e0 68 e5 9e 7b 5d e3 5e bf b2 5b 5c 00 e6 79 c4 bf
       -0.0018852627676849368 -0.15997004525772024
0005f0 d9 53 f8 e1 d0 03 e5 bf 90 85 17 8e 49 89 a0 3f
       -0.6567158139683854 0.032297419161987695
000600 82 1e 79 89 dc a8 c6 3f 4b f6 71 29 9d bd d1 3f
       0.17702824318461202 0.27719811484698614
000610 e0 c7 04 4c e5 6e e3 bf cc 1a f0 11 56 42 e0 bf
       -0.6072870716800445 -0.5080976820325644
000620 c1 46 6a 45 4a 97 d8 bf dd eb 27 63 ca 86 d2 bf
       -0.3842340162164924 -0.2894769638366464
000630 e1 cf 7c 4b d7 b5 d5 3f 40 0d ed de 1f 0b e2 bf
       0.33922369357901344 -0.563857970621406
000640 34 0d b1 58 90 cb e0 bf e2 94 dc be e1 67 da bf
       -0.5248491031892741 -0.4125904430278081
000650 a7 e4 68 e2 42 a4 b9 3f 10 1a 11 e4 db 8f e2 bf
       0.10016267802793043 -0.5800609068326725
000660 e6 a1 13 c8 96 ce d9 3f cf 16 96 d8 97 4e d4 bf
       0.40323419131030247 -0.3172969451046414
000670 4f 42 0b bb 49 5e dc 3f 37 0d 62 2d f1 50 e2 bf
       0.44325488344205594 -0.5723806272875781
000680 62 39 73 b6 9c 32 da 3f d4 e5 af 63 8c 17 d3 bf
       0.40933912103073145 -0.29831228003567145
000690 97 25 09 84 50 d0 e5 bf 26 4b 86 92 35 7a c4 3f
       -0.6816790179083679 0.15997953085442268
0006a0 ae 2b ff e0 a6 12 e9 3f 1a 9b 98 76 14 06 aa 3f
       0.7835268396823858 0.05082763622004034
0006b0 0a 9e 4d d8 80 98 cb 3f 91 9a 7f ab 0c 36 d5 bf
       0.21559153138808568 -0.3314239191808293
0006c0 17 51 05 91 d0 fe e0 3f 88 ce 32 e8 ea b8 cf bf
       0.5311053116261374 -0.2478307374745905
0006d0 b1 9a f6 e6 d2 73 e0 bf 0e 21 95 98 53 7b d6 3f
       -0.5141386519433891 0.35127725506437535
0006e0 1f 89 ac ea 4d 38 d0 bf 2e ce a8 6d d2 4d e5 bf
       -0.25343654553775424 -0.6657497541222648
0006f0 00 35 1b 6b c0 c3 dd 3f 72 1d de 7b aa ad ce 3f
       0.4650727315864316 0.23967486427521184
000700 62 a6 5a ab 51 75 da bf 2e e9 2c 22 fb 38 dc 3f
       -0.4134105847721 0.4409778436417068
000710 44 2e be 62 b6 75 e2 3f dc 09 dc 02 ea 0f b3 3f
       0.5768691948482645 0.07446157998860009
000720 42 7c ae 95 25 91 d4 bf 9c 54 aa bf 2f af ba bf
       -0.3213590585455145 -0.10423563412980957
000730 a3 1f 3e 6c 84 09 d1 bf 7d 5c 25 c4 cb 56 c8 bf
       -0.26620588846753374 -0.1901488025421009
000740 81 df bf c9 b4 29 ca bf 01 a4 60 b0 b3 c6 d7 bf
       -0.20439777232217796 -0.3715028021275089
000750 09 cb 20 d1 ef 29 ce bf 00 70 ba e9 5f 2c 99 bf
       -0.235654809106187 -0.024583338394776888
000760 4a b8 8c 81 d1 d7 d1 bf 09 81 14 b5 29 8f e3 3f
       -0.2787975087293303 0.6112259422989449
000770 d7 2a 77 1b 8d 2e e3 bf 36 3e df 6d ab 80 e0 bf
       -0.5994325195727822 -0.5157067438066807
000780 01 8c 0e 50 09 de d8 bf 1e a5 24 21 39 34 c6 3f
       -0.38855202501343916 0.17346872442548372
000790 58 a0 ec 32 a7 5b e2 3f f8 fc 0b f1 41 39 d3 bf
       0.5736881250968606 -0.30036972560624475
0007a0 0a 63 45 7b 4c 7f dd 3f ff 2e 98 68 a9 54 c8 bf
       0.46089469946086636 -0.19008367163802828
0007b0 56 8b f2 8a 21 66 d5 3f 41 ef 7b 62 fc 1d e0 3f
       0.3343585831554966 0.5036603854673346
0007c0 fa 5c c5 75 73 d9 d6 3f dd f1 dd 98 a7 61 da 3f
       0.357022156725591 0.4122103684274217
0007d0 49 ca d3 6f 7f 48 e7 bf 8d db 57 a3 ba 0a d8 3f
       -0.7275998291136797 0.3756548495434167
0007e0 e3 2c 8e 61 d1 f4 ab bf 1b 65 f2 1c 06 7a d1 bf
       -0.054602187307944104 -0.27307274653283437
0007f0 e1 cc df 4f 1d f8 d5 bf 60 a2 71 9a df 4c e1 3f
       -0.3432687072774581 0.5406339661104305

fc2.weight f8 [1, 1024]
000000 9f d5 52 a9 7a 6d 10 c0 75 82 a4 80 da 67 02 40
       -4.106913228684248 2.300709729214129
000010 4d d9 be 2b 0c 98 dc 3f e9 61 29 8a a9 32 e7 3f
       0.44678024551412393 0.724934358450864
000020 64 66 42 7a dc 87 02 40 54 24 99 e0 4e 1d 21 40
       2.316338496352545 8.557242411321717
000030 f1 dd c7 98 c5 dd de 3f fc 63 7a c3 89 85 0e c0
       0.4822858802794761 -3.815204169437946
000040 8d 6d 1d 22 c1 15 0f 40 08 83 dd 35 a3 25 05 c0
       3.8856222787123387 -2.643377705404763
000050 7d 3f 8d 4a 1c df e4 bf 52 46 74 0d c9 a1 10 c0
       -0.6522351699913852 -4.157993517133564
000060 a2 45 1f d7 4c 96 03 40 a0 65 37 f1 1b 60 ff bf
       2.448388748781057 -1.960964147807637
000070 3a 13 f8 a3 1f 3d f3 3f cb c0 89 58 da 03 e5 bf
       1.2024227528610951 -0.6567203263530471
000080 b5 76 4d ad 2c e2 f5 3f 1e 76 00 47 59 89 ef bf
       1.3677183885223887 -0.9855162035707428
000090 a5 e9 8e 9c 56 03 e4 3f 60 2e e1 ed 37 46 01 40
       0.6254075105455753 2.1592863640160402
0000a0 40 d7 4a fa a1 44 11 c0 da 66 52 72 7d 54 f6 3f
       -4.317024145906373 1.3956274476717483
0000b0 cc 4a fd c1 7e 68 f4 3f 44 95 c6 63 3c 77 f0 bf
       1.275511510630781 -1.029110326527488
0000c0 e4 4c b9 c9 24 41 f3 3f da 46 38 4b 1a 24 e5 3f
       1.2034042243802157 0.6606570691239668
0000d0 97 ba 99 6e 53 58 d0 bf 57 d2 55 7d cf d0 00 c0
       -0.255390985496811 -2.1019582549873053
0000e0 b7 b4 41 90 85 98 04 c0 24 ce 39 a4 51 47 cd 3f
       -2.574473502164064 0.22873898047292684
0000f0 a2 69 1f 20 ad 47 f9 bf 2f 07 7f 10 7a ef a5 bf
       -1.5799990896981417 -0.04284268809671087
000100 99 a6 de 19 c2 e5 e4 bf 9b 46 9d 73 29 af f8 bf
       -0.6530466561573177 -1.5427641407190211
000110 76 85 6d 8f c1 7a ac 3f 28 96 69 ff b7 d2 0e 40
       0.05562405467822888 3.85289001027083
000120 8b 1c 05 d7 b8 91 e8 3f 0b 19 5a 19 6a f7 ea 3f
       0.7677883338555075 0.8427019591479462
000130 7f cc 2f 53 04 60 bf 3f af a5 7c db 58 56 d9 3f
       0.12255885153699529 0.39589520868556866
000140 fe 7d c8 16 9f 89 ea bf ef 03 6c 67 58 06 d1 bf
       -0.82929949235762 -0.26601228809164373
000150 91 71 2a 44 10 31 c3 3f e8 cf 8a 0c 02 c3 ec bf
       0.14993480041892984 -0.8988046879735494
000160 b2 db 30 8e eb c1 ef bf c1 1f b5 32 b2 6c ce 3f
       -0.992421891895779 0.2376921413035671
000170 78 96 89 41 d5 dc e2 3f f8 ce 32 2d 58 74 ec bf
       0.5894571571377147 -0.8892022021086339
000180 22 9e b5 c2 80 ea e7 3f 69 d6 94 a9 bf 71 e6 bf
       0.7473758509558517 -0.7013853370796826
000190 88 bb 6a b3 40 e4 b1 bf 8a 7a 86 3a 38 79 de 3f
       -0.06988911037727352 0.47614865985261956
0001a0 79 5e 96 57 17 58 f2 3f 98 86 94 b7 f5 bf d5 3f
       1.1465066357976907 0.3398412983679946
0001b0 a3 8d 08 5d 99 13 d5 3f 92 67 48 da ad f0 d2 bf
       0.3293212326554686 -0.29593988720591213
0001c0 a5 1d 90 54 76 d3 c1 3f ae 07 ef ff 94 29 f1 3f
       0.13926581505823524 1.0726518628511985
0001d0 6e 1a a5 39 d3 fc f0 bf 8c c4 31 a2 fd db d0 3f
       -1.061724877524877 0.26342717017457384
0001e0 d0 be 6e 55 0f d8 cb bf f1 2d d7 56 51 73 f3 3f
       -0.21753112479699732 1.2156537430008678
0001f0 31 47 95 e2 91 27 f5 bf c9 83 35 bb 51 fe d3 bf
       -1.3221606112387685 -0.31239741594441434
000200 da b8 c4 95 81 45 a1 bf a0 22 c2 e8 93 23 d6 bf
       -0.03373341515758606 -0.3459214947729752
000210 f0 66 e4 65 e3 9e ec bf 19 7d 65 4c a1 29 cf bf
       -0.8943955411989162 -0.2434579489736073
000220 57 a0 44 4e f8 6c e9 3f 4c 08 09 4a 89 88 fe 3f
       0.7945519951508783 1.9083340541842686
000230 b6 d9 ac 35 7e 8a e0 bf c5 99 80 e4 fd e7 a9 3f
       -0.5169058845847789 0.050598081725457024
000240 96 c7 25 74 fd f7 cc 3f c5 3e 37 71 8f cb f8 bf
       0.22631805583256143 -1.5496973440639732
000250 e9 11 27 ad 25 f2 da 3f af 70 c6 0f e1 b4 ee bf
       0.42102949056086786 -0.9595799739941152
000260 59 3d 97 ba 76 b7 be bf 1f 28 99 38 dd b9 b2 bf
       -0.11998693519057237 -0.07314856178086913
000270 dc e5 a5 95 2a ad bf bf 86 56 f7 3c 0d bb c7 bf
       -0.12373605874554222 -0.18539586521972157
000280 9d 53 8e ea 47 15 0e c0 21 9c 84 47 e7 2a cb 3f
       -3.760391075581039 0.2122468089303036
000290 2c 89 4e 37 ce 68 f5 3f ff 7f 19 ca 4c 36 c7 3f
       1.3380872879429928 0.1813446032347201
0002a0 8b d3 08 24 be 8a fc 3f 68 3e b3 87 ac 1f ae 3f
       1.783872738609008 0.05883540302749851
0002b0 8d e9 aa ce 21 65 df 3f 1e d8 ac d2 d0 0c c3 bf
       0.4905476110685861 -0.14882860457299868
0002c0 e1 0d a3 90 32 fb d5 bf 64 30 c2 83 d9 e1 e5 3f
       -0.3434568798513436 0.6838195393952557
0002d0 3e 4a 34 05 b2 f3 e1 3f 68 05 5d db e2 e3 cc 3f
       0.5609979726453458 0.22570453368283983
0002e0 91 9e 4d 7a 4c c6 c2 3f 9d 4f 77 a2 3a d4 e1 3f
       0.14667659732662178 0.5571568654217917
0002f0 da 1b 33 a6 ff 1c c9 bf 60 9a 70 6f 91 2a cf bf
       -0.1961974679490755 -0.24348657552146147
000300 35 cb 6a b0 26 e7 96 3f a7 29 a0 8c e9 00 c4 3f
       0.022366146581315156 0.15627784124837982
000310 15 fa 72 cd d9 82 e0 bf e7 1a bf 3d 10 59 e4 bf
       -0.5159729969671526 -0.6358720022188579
000320 df aa ae ec a0 8f aa bf 54 90 f8 16 65 a3 13 40
       -0.0518770493429963 4.909565314217691
000330 d9 e6 7c 32 7a e3 e4 3f de a7 22 32 08 ae b4 3f
       0.6527682291118381 0.08078051780708459
000340 40 34 c1 e2 a1 ae f6 bf 22 1c f5 90 c2 e1 cf bf
       -1.4176348550420386 -0.24907714918137552
000350 ab f7 12 8a 1b e7 d0 bf 2a 5f 84 cd 86 72 d2 bf
       -0.26410568698690423 -0.28824014730479297
000360 0d 97 8f 9b 00 04 f6 bf 96 a1 d5 b4 45 77 ed bf
       -1.3759771420095064 -0.9208096057819144
000370 63 4d db 89 50 26 c5 bf 32 42 2f e4 56 50 cd 3f
       -0.16523176890641897 0.22901426450563772
000380 d8 e5 c6 43 5b b7 d2 bf 53 82 ef c4 75 9c e3 3f
       -0.2924411928066468 0.6128491255186169
000390 6d 36 5c e8 57 03 ce 3f 21 27 4d 9d 04 ff dd bf
       0.23447703214371832 -0.46869006501639104
0003a0 4a e7 51 96 38 7c d6 bf 60 6d 37 77 71 79 c9 bf
       -0.351331850811779 -0.199018653117359
0003b0 b7 77 2f c4 96 5f ec bf 28 0e e5 d0 19 f5 bf 3f
       -0.8866685706850522 0.12483369207353034
0003c0 53 93 e9 7b fe 5a cb bf 95 65 cd d5 31 8c df 3f
       -0.21371441889200557 0.4929318035043136
0003d0 1d 1d 40 8a 67 d2 e3 3f d1 de 1d 3a 1f a0 e1 3f
       0.6194341373638143 0.5507961402026585
0003e0 03 4e 35 51 18 a7 d8 3f bf de a7 49 5e 68 f1 3f
       0.38519866877069847 1.0879805447747655
0003f0 0a 9e 22 0a 75 43 9e bf de a6 d9 3b fa 6a eb bf
       -0.029554203742604236 -0.85680877389424
000400 75 6d 77 23 2f 62 d3 bf 78 66 c2 24 21 b0 d4 3f
       -0.30286768401648284 0.3232500895479471
000410 1a 3b f7 18 b4 77 c8 bf 91 93 91 40 66 3c e3 3f
       -0.19115306109457536 0.6011229764086342
000420 66 f1 5f 8c b3 24 f8 bf c7 ce 5f 13 e5 a0 be bf
       -1.5089602931394324 -0.11964256022457241
000430 42 15 71 df 98 4d dc 3f 61 88 dd 0f 57 36 37 3f
       0.4422361547516013 0.00035419106995083187
000440 f4 be af d4 29 38 c5 3f 63 c7 5b 06 f5 d1 cd 3f
       0.16577647099574444 0.23296988306497743
000450 77 a5 f7 24 11 45 d6 bf 3d 45 40 a4 97 e1 de bf
       -0.3479655133256396 -0.48251906433241115
000460 18 cd 24 95 55 86 d3 3f e2 11 47 b5 74 a2 d4 bf
       0.30507411541766905 -0.3224155206956124
000470 ad 7b 14 6b 32 06 ea bf 3a 63 dd ae 76 86 a7 bf
       -0.8132564631849754 -0.04594775089817067
000480 fb 56 09 58 87 ee d0 3f 68 5c 09 c9 f6 9c d1 3f
       0.26455863568604315 0.27520532257535146
000490 1b 2a 2b 68 66 20 ee 3f ea 63 06 38 ea 40 e2 bf
       0.9414550814192951 -0.5704241842496434
0004a0 f9 d3 e3 73 cd 66 c5 3f bd b9 b2 83 c9 62 b9 3f
       0.1671997848385727 0.0991636225250891
0004b0 3f b6 92 88 34 a2 0b c0 35 34 fc f5 67 47 b2 bf
       -3.4542017621777457 -0.0714020705747352
0004c0 79 e7 ef 79 06 60 05 c0 9a d9 82 4e e3 47 e8 3f
       -2.67188735259418 0.7587753804607928
0004d0 21 f2 9f 21 a6 f7 e2 3f b2 c9 c7 0e cd 3b de bf
       0.5927305847868106 -0.4723999637928059
0004e0 8f 86 10 61 2f 20 e0 bf 44 c8 b6 3a 15 46 df bf
       -0.5039288421432547 -0.48865252240932855
0004f0 cb 11 86 03 00 9f 09 c0 ad 77 e3 62 37 a6 a1 bf
       -3.202636745003678 -0.0344712551320606
000500 c7 b1 04 00 be 9f da bf e9 5f d0 e7 6d 53 df 3f
       -0.4159998893908576 0.48946712148744936
000510 04 46 26 8a 99 15 c1 3f 3e 2a 2a e8 af ed d1 3f
       0.133471672492803 0.2801322715028255
000520 e4 ef 18 59 69 06 c2 3f b0 07 d8 4d 8f 59 d0 bf
       0.14082066393336767 -0.25546629526081244
000530 fb aa 05 0c d1 2a 0f c0 2c 02 f3 5a 92 9d d2 3f
       -3.8959065379361824 0.29086741334689026
000540 b4 7f a5 49 0c 4c 95 3f 13 43 c3 50 33 81 e1 bf
       0.020797912592911152 -0.5470215394398984
000550 5f 39 62 c0 33 4b cd 3f 0f c4 b0 10 ff 52 96 3f
       0.22885748761877786 0.021800980943400158
000560 73 37 e5 01 64 7f 9c bf b6 85 53 32 85 61 cb 3f
       -0.02782970677917924 0.2139135833486258
000570 95 f4 b5 58 cf 9c b8 bf 6f 59 cf de 8d 6f ce 3f
       -0.09614272990980262 0.2377793634356737
000580 0a a3 da 2f 06 74 02 40 42 4b f5 c3 a7 a3 e5 bf
       2.3066524256322554 -0.6762274577434726
000590 00 20 f3 d4 2d 7d c8 bf 1e 7b 6d a4 d8 7e c7 bf
       -0.1913201608460895 -0.18355854061788873
0005a0 64 ca ea 7b da d9 b6 bf 2a d5 fb 16 bb 55 08 40
       -0.0892616798908335 3.0418607516864045
0005b0 a1 57 9a ea f3 60 f8 3f a4 4a 5e 55 f8 2c d8 3f
       1.5236701168227926 0.37774475418806674
0005c0 0c cd b6 91 98 48 fa 3f 64 d2 82 af 35 47 d5 bf
       1.6427236263232912 -0.33247129573582
0005d0 ef 21 8c 0a 9a ad d3 3f 27 6b eb 8a 2d 51 cd bf
       0.30747080831545665 -0.2290398529356363
0005e0 f1 e5 e3 5d 96 37 f1 bf f6 6f 4a b2 4c 1d b1 3f
       -1.076071135290814 0.06685332634737037
0005f0 7f 4a 68 0f 2e b1 e2 bf 53 1b 44 b8 2c 61 de bf
       -0.5841284085202715 -0.47468107218485506
000600 75 c0 d3 d8 41 94 d6 3f 28 05 60 09 50 92 e1 bf
       0.3527989022686662 -0.5491104300601011
000610 33 eb 2a 90 d3 58 e2 3f ee 9a e5 f3 1c 1f e3 bf
       0.5733430686735573 -0.5975479854212986
000620 2d 27 c5 03 6f f9 ca 3f fb 11 a7 bd 60 9f c9 3f
       0.21073711093986827 0.20017632732755417
000630 14 69 9b e1 42 a4 c9 bf 83 79 30 b2 21 8c fa bf
       -0.20032535568208998 -1.6592118225595136
000640 de c8 ef 37 bb 7d e2 bf 30 72 39 a0 18 c8 c4 bf
       -0.57784806180123 -0.16235645125824893
000650 36 0c 2a c3 d0 ab a0 3f eb 0d 20 74 0f 80 e6 3f
       0.03256084806800923 0.7031323688574366
000660 ae ec 97 42 be 83 e0 bf 17 74 1d d6 7e 4e c5 bf
       -0.5160819340375349 -0.16645799116932444
000670 c1 be c4 11 59 40 e2 bf a5 27 c5 73 a4 f4 f2 bf
       -0.5703549716035569 -1.1847271463652558
000680 0e c9 fa 9b 6f 75 db 3f 77 a0 2f 2c 3e d9 dd bf
       0.4290427230108812 -0.4663844520096129
000690 b6 cb 60 4c 97 fe fc bf c4 92 66 65 40 e3 dd 3f
       -1.8121560081024035 0.46699533369455204
0006a0 6d 50 4f 90 56 b5 f5 3f 0b ee 9a 43 ab be c7 3f
       1.356772006712187 0.1855062561133852
0006b0 67 15 9f 2c 2a 7d df 3f 49 63 02 87 2e ad 00 40
       0.4920144496685083 2.084561400184985
0006c0 2c cb 08 15 a3 d1 c2 bf 81 68 cb 9d 0e 0f c0 3f
       -0.14702261473720435 0.1254595060807482
0006d0 85 b6 a7 d8 66 af f4 bf e0 6f 66 32 06 17 d6 bf
       -1.2928226912585228 -0.345155286044017
0006e0 2a a1 64 9f 89 cd de 3f 07 86 bd 52 fe ac d3 bf
       0.48129501882296444 -0.30743368225202555
0006f0 94 2d 7d 63 36 1e de bf c0 5a 28 53 d6 10 b8 bf
       -0.4705940219471014 -0.09400691538062755
000700 9c cd 3b 78 2f d2 cc 3f 8e 0b 1e bb d7 df e3 3f
       0.22516435023099468 0.6210745482097637
000710 69 5a 77 d2 a4 01 ea bf 3e 89 86 00 2d 6a f0 bf
       -0.8127006636303352 -1.0259218235519962
000720 58 20 f9 33 7e 21 d1 bf ac ab 2f 35 fa a8 c0 bf
       -0.26766924930098446 -0.13015678021414823
000730 31 8e 0c 7d ad c6 db 3f 6b 74 f8 64 08 8f 96 3f
       0.4340013238126828 0.02203000179553209
000740 5a 41 77 47 4c ee ea bf 8a a6 d0 02 92 4c d9 3f
       -0.8415891071145254 0.39529848360926023
000750 3b bb a5 b4 fa b1 e4 3f 24 99 77 40 e1 7d da bf
       0.6467259910840321 -0.41393309875128836
000760 64 6f 51 7c ad 20 cf 3f ac e5 34 b5 e5 68 ee 3f
       0.24318474359722153 0.950304845732878
000770 d6 ce ab 2d 66 5f d5 bf c5 8b 20 13 83 97 f2 bf
       -0.3339477010733679 -1.1619902369645712
000780 99 cc 67 bc 91 87 02 c0 b9 39 df ca ee e6 e9 bf
       -2.3161959380318646 -0.8094400369971516
000790 90 54 7a b0 84 ae f2 3f c5 87 08 91 5e 72 d5 bf
       1.1676070111909986 -0.3351055542317421
0007a0 95 a5 59 5e 0f 26 d3 3f d4 c8 12 9c 30 19 e0 bf
       0.2991980000866417 -0.5030749367054121
0007b0 47 f0 6f 30 9e 61 d2 3f 1f 14 7f 99 50 e6 df bf
       0.2872081254024618 -0.4984323023784913
0007c0 ea df 87 db 42 2c f6 bf 88 d8 07 15 85 bd cd bf
       -1.3858059478206948 -0.23234618689429376
0007d0 50 4c 0e ad 4f a4 03 c0 be 2b bf f3 22 81 e0 bf
       -2.455230094908565 -0.5157637367896013
0007e0 8c bd db ec 78 cd da bf a0 f8 5b f8 55 91 a3 bf
       -0.4187910378522808 -0.03821819931725767
0007f0 c3 21 8c 48 54 35 be bf 21 3c 4e a0 dc ab e0 3f
       -0.11800123950172918 0.5209792262047622
