NeumannProblem/data/model_NeumannOGA_OsciCoeff_3D_cospix-osci-coef_neuron_16_N_512_deterministic.pt (torch, 3388 bytes, 3 tensors)

weight f8 [16, 3]
0	0xbfe217d703a4a8a1	-0.5654101439624989
1	0x3fe216d5fea103e6	0.5652875874731051
2	0x3fe33864fcc94ae8	0.6006340920669944
3	0xbfd3334e5dc32407	-0.3000064769408372
4	0x3fea7482ef0904c5	0.8267225903183762
5	0xbfde75ebd73ba6de	-0.4759473420987045
6	0xbfccbfc22d41af8d	-0.22460200509828745
7	0xbfbe98b877df7b12	-0.11951783110223982
8	0x3feef26d9f6c575c	0.9670932878241092
9	0x3feffdd81583b4dc	0.9997368259625108
10	0x3f97097f65dc3a61	0.022497168151910055
11	0xbf7263a7cb047a8d	-0.004489570085097439
12	0x3fd38628fa6cdf1c	0.30506348090738
13	0x3fe9edbad96cd961	0.8102697607599049
14	0x3fe00344d2a1034a	0.5003990281912618
15	0x3fe53dc00441c176	0.6637878497258913
16	0x3fe02edfdce3f6ff	0.5057219805018746
17	0xbfe1a203c868176c	-0.5510271944228697
18	0x3fe5628ffa1d893c	0.6682815442148136
19	0xbfd7f776a38a5d4b	-0.3744789692950305
20	0x3fe491a5fa2ec53d	0.6427793394451907
21	0xbfef915df8dc2a26	-0.9864950047061185
22	0x3f9247dc18550d50	0.01785224817764447
23	0xbfc4d723d0a5c156	-0.16281554878106402
24	0x3fe08f158fa6db60	0.5174663358401226
25	0xbfe7ad27f6956bdd	-0.73988722000956
26	0xbfdb8320f4f1bdae	-0.42987846298543786
27	0x3fe5763232bfa2f3	0.6706782332595068
28	0x3fe35232443d4d44	0.6037837345888097
29	0x3fdb932041e01896	0.43085485871450524
30	0xbfd1cc3650110937	-0.27808912104605404
31	0xbfe5d1a2d69c87a7	-0.6818403426770957
32	0xbfe5a68a9f39635d	-0.6765797719809644
33	0x3fb4399d9775aff4	0.07900414417025542
34	0xbfee74a7a60d39ce	-0.951740097350745
35	0x3fd2fadffa63394c	0.29656218959725744
36	0xbf99801d7d300a2f	-0.024902783170555217
37	0xbfc8924d43b41216	-0.19196477704839826
38	0xbfef650e14139e9d	-0.9810858146783691
39	0xbfe5e22012642849	-0.6838531836704159
40	0xbfc6750ac21f9e85	-0.17544683912932527
41	0xbfe6a9aab898fa65	-0.7082112889691642
42	0xbfe8483f86ecc695	-0.7588193545581868
43	0x3fe1cde83c898c01	0.5563851530426974
44	0xbfd5ab1bf41e72d0	-0.3385686763738649
45	0xbfea94fe5c6a58e8	-0.8306876950253157
46	0xbfdfadb512df7d41	-0.49497725337092296
47	0x3fd04faf8f555e49	0.254863634084789

bias f8 [16]
0	0x3ff7a1a34fba0c96	1.4769623865438795
1	0x3ffaf09e25d2bb50	1.683744571444283
2	0x3ffb85bd72f654e2	1.720151375838491
3	0x3ffb30b8e73c6717	1.6993950874952526
4	0x3ff9ccb9c31e95ab	1.6124818441252085
5	0x3ffb7b9a3734cedd	1.7176763683791514
6	0x3ffa534116818fbe	1.6453257445473208
7	0x3ffb46dbbba40ff4	1.7047993974419997
8	0x3ff9b25d3e14ef9a	1.6060459542340824
9	0x3fe3d02c77e73d7a	0.6191618291722272
10	0x3ffb034d3010671a	1.688306033849989
11	0x3ff8f39b449ace15	1.5594742469664926
12	0x3ffa491cda2cb091	1.6428497812694653
13	0x3ff9847ec9391f12	1.5948474750784425
14	0x3fe8413576de193b	0.7579600640899921
15	0x3fec4df334c0d7c3	0.8845153837526073

weight f8 [1, 16]
0	0x4000101b6ca5cd77	2.007864807901281
1	0xbfef944777bad835	-0.9868504847024783
2	0xbff4a59bc797bd7f	-1.2904317661849232
3	0xbff76333cb7afb48	-1.4617193172886846
4	0xbfe2eb79faa8429b	-0.5912446876191838
5	0x3ffe1b521a23cd6d	1.8816700955474872
6	0x3ffd0345f66f1ce3	1.81329914344115
7	0xbfe9176be7e36983	-0.7841090706890984
8	0xbfe7f37f5160b2e3	-0.7484737958344251
9	0xbfc90400d6b7dcdd	-0.19543467029845987
10	0x3ffc35e525ead86d	1.7631579857966486
11	0xbfd4826c4a3892a3	-0.32046038864272414
12	0xbffe74b48d9c5531	-1.9034925014178266
13	0x3ffd11ef2bffecf0	1.8168784826983106
14	0xbff133c0ad0b72c6	-1.0751349219855668
15	0xbfe18cb325365e89	-0.5484252669147774
