nonlinearPDEs/data/model_OGA_2D_cospix_neuron_512_N_512_randomized.pt (torch, 22891 bytes, 3 tensors)

weight f8 [512, 3]
00000000: bc01 0bb2 87a5 e03f 0fcf f0ef f878 e23f
00000010: ce92 ec9c 1124 e4bf df7d 222f 8829 dd3f
00000020: b793 96cd d5d8 e63f 194d 5978 0c03 e13f
00000030: 4039 cf90 e89f dfbf 339e e578 0e92 e43f
00000040: cff4 2819 f4ba e23f 8a77 d354 e4c5 da3f
00000050: 517c 1c79 77f8 a3bf 12ed fa51 e509 ed3f
00000060: fe29 2bfa be91 e8bf fe9e 32f1 409f bbbf
00000070: 3255 cfbd a635 e43f 0a4f 3281 a22c d7bf
00000080: c477 3fa4 9c19 e93f dd99 963b b11d e0bf
00000090: 1036 4114 aeae ec3f cb0e 4ccd 8c33 d7bf
000000a0: e888 d962 fd56 d0bf d017 a9eb 483c e73f
000000b0: fef7 b40a 937e e2bf 8c20 88c6 a5d6 d73f
000000c0: c13d a004 d271 ebbf d389 2ec5 7c4a c43f
000000d0: 02b3 a823 0f4f dfbf 828e 07fb 5e81 ef3f
000000e0: c89e 27a7 7f55 bd3f 7c85 e167 8bf4 c03f
000000f0: 8803 4b9b 6905 d9bf c9a0 ea77 e2c9 e9bf
00000100: 3a29 f423 af74 dcbf b917 fe84 28af cabf
00000110: 2f23 079d 4d06 e8bf e747 2ac5 ca0e e43f
00000120: 7f04 21fc f8aa e53f 5114 b267 eee6 dabf
00000130: 0f02 b6cf fa53 e33f 3e29 d748 4726 e43f
00000140: cdf1 73cc ec11 d93f b15a 0c6e c777 e53f
00000150: 0297 e510 c7f1 c43f 49e4 d8e2 adff e8bf
00000160: ae23 29aa 3247 e3bf 4e9b c859 f4f1 e13f
00000170: 4b83 fb14 4729 e93f 5ee0 7bfc 6a99 d0bf
00000180: 3922 2e30 b324 e7bf c68f a7a8 c7cc e5bf
00000190: 2b9c 453b 2e02 bd3f 8ce1 6b7d fd9b c8bf
000001a0: b8ae 788a 435a cabf 72f0 7d73 43b4 eebf
000001b0: fadc c71e 4526 e8bf 63a8 2ac0 67e2 de3f
000001c0: 44cf fccc 0473 dc3f 77b9 2e6d f378 c2bf
000001d0: fdbc b1db 6389 b1bf b105 03a8 cb96 ef3f
000001e0: 1a04 5644 0121 e83f 3c4a a40d b9e8 e4bf
000001f0: 6e42 773d 232b b1bf 83c7 0ce0 edfb e3bf
00000200: 57e0 c5d8 1422 e43f f78b 39fa f89d dd3f
00000210: 4fd4 0157 909b e1bf 62bd 5240 5855 e3bf
00000220: 4821 5278 ba71 e23f 2349 91b6 9922 c4bf
00000230: 272d 9f55 55ad ec3f 03b0 ba1c f68d da3f
00000240: d1fb 15ab 3477 dc3f 1b15 49e9 ea32 e2bf
00000250: 90ea 4003 1d24 e63f f663 0ee4 6961 e3bf
00000260: ff0c 01bc 466d dbbf 8146 d9af 9974 e53f
00000270: ca7f 185c b078 dabf a09e 88e7 8e83 de3f
00000280: 39e0 da1f f7d1 e8bf 2008 6d7a 58c5 e43f
00000290: 9df8 9cd1 8ec8 dd3f a6f8 24ae a041 e33f
000002a0: 38bf 853f 286e df3f 4cab ba74 5175 e23f
000002b0: c140 1096 6fe3 e43f d9da eb45 8b31 ebbf
000002c0: 6f20 135f 0b32 c4bf d38d df58 1818 e0bf
000002d0: b227 a93d 5aae eb3f e435 2ba0 07ca dfbf
000002e0: 070e db0d 691a b23f 7eb8 91d8 62c4 b4bf
000002f0: 3f94 9a1f 68bb ebbf 1473 037a 2482 df3f
00000300: 21f1 d48d 4c3c b33f 793e 11c6 f54d bc3f
00000310: 3ac1 fb15 79b6 efbf 0658 4838 cab9 e43f
00000320: 1ce2 513d 54d1 d9bf 3322 2aed f6ae e43f
00000330: 620b 3fc3 ca8b e13f d03c eaec ff83 eabf
00000340: 7d64 ff3f 72e8 bcbf c301 22c8 a616 eebf
00000350: 4b02 8cde 92b5 d43f aa85 f32d 7316 bbbf
00000360: a808 3b66 53fa e13f 8511 fe09 30d9 e53f
00000370: 9bf6 b0c7 6be5 ddbf 2a22 8b66 99e2 e2bf
00000380: fa27 21df 58e5 e63f 78c2 60c8 65ed d7bf
00000390: bff2 5e01 e8b0 d33f ea72 6b4e 5f5f dcbf
000003a0: 3c7d 46cd e2f0 eabf 8bc0 9cf5 e0fe ef3f
000003b0: 253a ba51 c49a 903f 7ba7 a116 5ee7 6abf
000003c0: dee7 8ed3 e8d0 e4bf 409d 0639 feff e6bf
000003d0: f55b 8c89 026b cf3f 22dc 0c45 f8e8 e13f
000003e0: de76 ba2b 2a6d d6bf e591 2d07 f707 e8bf
000003f0: 4e75 545a 2e97 c83f 51ee 63b7 b8ba eb3f
00000400: fbd6 0fe0 3b7b dd3f 0fc3 2f13 5bce e83f
00000410: b459 71f2 b378 debf 9f3c 8e5b ad92 da3f
00000420: 2acf 052b 9314 e1bf f70e 97ed bdb0 e0bf
00000430: 277d 1330 cf4c e5bf 1868 bc87 5c27 edbf
00000440: 01ef 9b36 d562 c2bf 8333 9830 a7bb d83f
00000450: 9fd7 f759 822d d53f 5aed cea8 fa4c eabf
00000460: 840e 35dd c0ac ddbf c6b6 d8e3 66e1 e5bf
00000470: ebd7 9cbe 122a d9bf 4147 065a aeab e33f
00000480: 62f9 3dc3 bb3b b4bf db30 c963 55cc ef3f
00000490: dce6 a577 085d b4bf 29bd 4dca 4f7b e2bf
000004a0: ac75 4450 28b7 d53f e628 e482 8ec2 e73f
000004b0: 6da0 a4b1 6a56 eb3f 07cd 199e 9752 e03f
000004c0: 29ba 965b 3496 b93f a54a 7bb5 e4cc c5bf
000004d0: a30e 3b04 8599 d6bf 8d2e 1d96 3070 ed3f
000004e0: 978d c241 eeff b6bf bdf3 03df 8827 d4bf
000004f0: 246c 4574 483c eebf 5999 f12d ed8a e6bf
00000500: f71e b15f 24c7 e33f c827 bb3e 9854 d6bf
00000510: 157c 307c 7e71 bd3f 5e98 2ec1 0f9f e7bf
00000520: 2345 0c08 9145 e53f d454 e222 5d29 e7bf
00000530: 5632 60bc 702f dabf bb7e d05a a5c7 e13f
00000540: fc5c de5b 3f00 e4bf c107 8f2c 70a8 e2bf
00000550: b0be 0bb7 c59b e0bf c36b 2d42 11de e73f
00000560: 8681 bb98 75fa c8bf a629 2684 5061 e43f
00000570: 5491 92af 3db3 ea3f 53a3 7d80 fe1f dd3f
00000580: 7d64 c9f6 3ee7 d33f 65e3 07b8 ffce e5bf
00000590: 5e97 251f cd5d d8bf a833 b826 b6ff e33f
000005a0: 29cf 0c8e 8c86 c23f 4a14 1ff6 bb9d efbf
000005b0: 5117 dd72 0f92 ab3f a7f2 4b05 78bb cbbf
000005c0: 73bd 4291 6916 e9bf a1eb 1afa a39d e2bf
000005d0: 6eeb 9f7f 28dd e9bf 45f9 25e2 20b7 50bf
000005e0: 5bc0 301d cdd7 e2bf 861a a97a c33c cabf
000005f0: 9183 ff9c 7a8e ebbf f04c bdba f1c5 dd3f
00000600: 2838 9d6f 2c0a e5bf 4898 fc9e b6db dd3f
00000610: ba6b 7133 cbee e2bf 9e0b 076d 4100 e23f
00000620: 8dd8 b8f3 83cb e83f 023f c4ac 3475 d23f
00000630: d403 719f 3c10 eabf e3a2 f267 282b c63f
00000640: 8d6b 907f 34b8 e13f 85a4 be8e 0cc5 e03f
00000650: dd8e f16b 03db ea3f d2fe 1de6 6c92 c2bf
00000660: edec 874b 162e e73f bd3c a7a6 9a00 e1bf
00000670: 6f4b b9f0 4e1d dcbf d0b9 78c3 2946 e1bf
00000680: 09ce 4902 9f38 d43f 9aa9 9256 b6f7 e8bf
00000690: e7fa 4e26 27e5 d03f 2ba2 0510 932f e2bf
000006a0: 30a1 4710 2ef0 e83f 28d2 df1c b047 c73f
000006b0: 2437 64e9 6e32 e63f ba51 ea85 8c4d e6bf
000006c0: 08f3 5e68 8205 b83f a7f5 ebde d140 cabf
000006d0: 636a e274 e82c efbf e0b3 4f9c bfa1 d93f
000006e0: be8c 21aa 7a7c e63f 258e 9140 6fd1 e2bf
000006f0: e42e edd0 b31f e43f 5ef9 fab8 c00e e33f
00000700: 1a02 7338 68fd df3f b673 45b7 8e61 e23f
00000710: 685e 204c 5a8a e2bf 23a6 6b19 f480 e2bf
00000720: 6290 7a74 aae7 e73f fcc4 6688 0ac9 e1bf
00000730: af51 8d64 1358 d7bf 9802 4419 c4c2 d8bf
00000740: 0e9c 408b 5067 ca3f 0358 d4de a1c2 ecbf
00000750: 1c5e 5c87 6150 c7bf 1631 9c80 d8d9 eabf
00000760: 71e0 7e5b 2367 e0bf 8f2e 417b 1e41 dbbf
00000770: 6db2 4cbb 88f2 d63f 385c e032 3d95 ea3f
00000780: e803 20b8 0fac e03f b007 f631 066a e8bf
00000790: fdee 6988 797e d83f 7b03 6e0f 5f0e ca3f
000007a0: 1be5 c557 5258 d8bf ef51 4038 5ede ecbf
000007b0: d265 9dec 2776 debf fc19 1edd b4fb e83f
000007c0: 2bd1 ad8f 8ce9 d93f ecb1 c12c 9ea4 debf
000007d0: f756 b2bf 1bc3 e83f 8543 8817 228a da3f
000007e0: 5a55 27e8 5e9c d93f 492b 9ac7 b2c4 e3bf
000007f0: c416 0bd7 6ba9 e53f b148 8ce4 1c1d d33f
0.5202063062097788 0.5772671400395398 -0.6294029297756312 0.45565991023064883 0.7139691367525448 0.5316221571505678 -0.4941350378184275 0.6428291665333233
0.5853214732557265 0.4183283642176937 -0.03900502541932183 0.907457981221713 -0.7677912603479056 -0.10789876831642783 0.6315492350792395 -0.36209929100844873
0.7843764503447734 -0.5036245502313325 0.8963232417679041 -0.3625213627676486 -0.25530943539901196 0.7261089899773143 -0.5779509743804281 0.37247604740014917
-0.8576440897322116 0.1585231745530807 -0.48920038683245093 0.9845423605842856 0.11458585577895086 0.13246290752708123 -0.3909553543599533 -0.8058941213721705
-0.4446218348608856 -0.20847040647293882 -0.7507694308234018 0.6268056727296852 0.6771206783670464 -0.4203449261334003 0.6040014321188795 0.6296726629891862
0.39171905485252695 0.6708714627628379 0.16362846684494775 -0.781210845051768 -0.6024411509944139 0.5607854608141254 0.7862887773336323 -0.2593638864195834
-0.7232299748439522 -0.6812475484880387 0.1133145231921026 -0.19226044296352673 -0.20587963353442773 -0.9595048194601203 -0.7546716309724666 0.4825686813952698
0.4445201875525877 -0.14431612807443248 -0.06850265611295821 0.9871576577644899 0.7540289244353773 -0.6534085527840214 -0.06706447840338978 -0.6245030761694895
0.6291603311392561 0.46276688037886465 -0.5502397250517194 -0.6041680580437225 0.5763828611389181 -0.1573059216921787 0.8961588547039455 0.4149146347579064
0.4447757406959996 -0.5687155300480841 0.6919083655878513 -0.6056413130019098 -0.4285446964242538 0.6704834398789928 -0.4136162661907262 0.4767796765395165
-0.7756305334251073 0.6490900412684404 0.4653660819057082 0.60176118862707 0.4910984630905548 0.5768210677973484 0.6527631693770887 -0.8497978559160756
-0.1577772344810486 -0.5029412971311394 0.8650332645713574 -0.49670591966136457 0.07071549022935396 -0.0811216143353892 -0.8666267983686636 0.49231826701525105
0.07513884031954322 0.11056457601193327 -0.9910245351184479 0.6476794337529561 -0.4034014319254611 0.6463579780693806 0.54831445821797 -0.8286132457013995
-0.1129218488926131 -0.9402650746197242 0.32358237965676 -0.10581130859238522 0.5618073460284636 0.6827621646084913 -0.46712774754619496 -0.5901610377123394
0.715496478843533 -0.3738645989242637 0.3076725018870938 -0.44332106264282223 -0.8419050225528859 0.9998631283870208 0.016215388763663924 -0.0032841527618545064
-0.6505016452786057 -0.7187491525445822 0.24545318332886237 0.5596886967313177 -0.35041288633679624 -0.7509722843356569 0.1921136799873388 0.8665431577532648
0.46064659958879844 0.7751899122941682 -0.4761171214680886 0.41520246449449333 -0.533761581448265 -0.5215749397688957 -0.6656261385905154 -0.9110548640339884
-0.1436411396642754 0.38645343537864835 0.33090266023588727 -0.8218968674695291 -0.46366902925749565 -0.6837648820998872 -0.3931929456188061 0.6147071607867717
-0.07903646008160117 0.9936930607741731 -0.0795445720777041 -0.5775526953929432 0.3393040450917748 0.742499595305415 0.8542989224997776 0.5100820625215484
0.09994818912557747 -0.17031535016447666 -0.35312009251740956 0.919945042792692 -0.08984269242733088 -0.3149130037198196 -0.9448587675973426 -0.70445879910839
0.6180593365652091 -0.3489132511718904 0.11501303226440059 -0.7381666920744114 0.6647420079408771 -0.7237992936449253 -0.4091455306632147 0.555620839473668
-0.6250302118595807 -0.5830613012587876 -0.5190151763071835 0.7458578388717502 -0.19514341313971445 0.6368792134319861 0.8343800000334718 0.4550777678291997
0.3109891328836694 -0.6815184206344439 -0.3807251743477219 0.624964786171053 0.14473111091648974 -0.988004666047922 0.053848727008285587 -0.21665859469057588
-0.7839858853457556 -0.5817432293764463 -0.8082468502683307 -0.001020223725020823 -0.588842923176354 -0.20497935761723712 -0.8611424509400526 0.4652065585734837
-0.6574918918574939 0.466535239468048 -0.5916496281382628 0.5625311974948664 0.7748431930729268 0.28840367194878536 -0.8144820322123629 0.17319207263542244
0.5537359706389552 0.5240538394911175 0.8392350300095718 -0.14509354816617887 0.7243758654798548 -0.5313237433382693 -0.4392888403719359 -0.5398148362926865
0.3159558794352227 -0.780238312804886 0.2639863847834207 -0.5683074295930671 0.779318839832774 0.18187524232747987 0.6936564024378851 -0.6969664207013502
0.09383406684987616 -0.20510314354752987 -0.9742319376849305 0.40049734368113654 0.7026952097770829 -0.5880657445054039 0.6288699226947441 0.5955508816621593
0.49984174263593817 0.5744088725583569 -0.5793887602657835 -0.5782413956159796 0.7470295214630023 -0.5557911552515686 -0.3647507173493762 -0.3868875738844877
0.20627791213448216 -0.8987588264596983 -0.18214053258337592 -0.8390924941936955 -0.5125901019118954 -0.42584955250343 0.35855310717560124 0.8307176583938434
0.5210035892670222 -0.7629424072076656 0.38271940538082544 0.2035635781612902 -0.38039072581848793 -0.9021445368439894 -0.4759616671268222 0.7807258909895718
0.4048797038187952 -0.47879747744334966 0.7738169426035871 0.4146809797103333 0.40016911193136695 -0.6177610300522726 0.6769313049378174 0.2986519081033619

bias f8 [512]
00000000: 63b5 bc06 e3f7 f93f bde0 85ff f096 f73f
00000010: 8983 96a2 c25b f73f 86db 2d7e 6a40 fa3f
00000020: fbdc 9537 695f f93f 088f 7c3b 052a f93f
00000030: 0446 6e9c a226 fb3f 2494 8a4f e7aa fb3f
00000040: f398 0303 0a02 fb3f 44e6 be0b 428a f83f
00000050: 11db 28da 68a8 f93f 60ed 7618 57a6 f33f
00000060: fe8f 8b08 2c47 e73f 80c4 8ad8 a879 a9bf
00000070: 97c3 9946 f65d ec3f 98d4 7d33 aef6 d43f
00000080: f841 58f8 7c45 f03f 2c66 4ca0 916b f33f
00000090: a818 0cba c49b c23f 0084 a9c2 8952 7d3f
000000a0: f303 fd2d 4db1 e93f d6ea c4dd 5e07 e0bf
000000b0: 8088 4b44 fc68 993f 5ea9 5f64 ba4e e0bf
000000c0: 4032 9e0a 9305 a5bf 2c48 eec3 c120 d13f
000000d0: 4cf1 3da8 18ab d73f 9e01 7efd 1d89 e6bf
000000e0: 87f4 a03b 943c f1bf 89ec c920 ea30 e83f
000000f0: 4421 c29f 4ab7 d2bf 905f f267 5867 d83f
00000100: 8036 051d bedb dd3f eece fe40 28c2 e8bf
00000110: 6c62 e829 f85d d13f 3a61 0c23 35b4 e63f
00000120: 4e9f f0f1 08a2 e3bf f843 7776 9253 d63f
00000130: 645b 7d98 10f6 d73f 6a3f c043 ed9b e2bf
00000140: e2e1 c16a 366b e33f b008 a2e1 d3ff dc3f
00000150: ec6b 93b5 84bb debf d829 1594 4db7 cdbf
00000160: 58e0 7fc7 0608 dd3f 5668 a304 9642 e03f
00000170: c05a b52b 215b c93f 7820 5d99 d5dd c13f
00000180: 6877 56ec 16b0 d0bf a032 0aa4 51d4 a43f
00000190: 4473 3f14 ceb9 dfbf c0a4 e7b2 1969 acbf
000001a0: 4f3b 0d09 8359 e83f e0d7 ce57 5d49 b4bf
000001b0: 908f 561e f9a1 d0bf ac22 69c3 8e3c e43f
000001c0: 1f9f f154 ee6a f43f e426 f5e9 2c9d d1bf
000001d0: 3a15 602c 70aa e9bf 4021 59c0 3b13 c2bf
000001e0: 2a47 b4f4 6ecb e33f 260e dbe3 e768 e83f
000001f0: c0cc 5300 7ef2 ef3f 208d 97d0 1f48 e33f
00000200: 9801 c089 388b de3f 7ea1 1178 e4bf eebf
00000210: 0cdc fd7b 7261 d6bf ec0b 4a28 0885 d6bf
00000220: 5424 eb90 d373 d0bf 30ee a9e1 5b9c e13f
00000230: e04a 14d2 4777 ca3f d036 b5d7 b413 c03f
00000240: cc04 f979 e23e d93f d2e0 93a8 ec79 e4bf
00000250: a2c7 1e5b e342 e2bf 80e5 0738 3d80 c63f
00000260: f001 b760 c753 b73f f06d beae 51b6 d83f
00000270: 6618 929e 5c50 f33f a6c6 b82d c531 e7bf
00000280: 9ada 8f79 b536 e1bf f84e 3c71 f4d6 cc3f
00000290: 5e89 a85d 7f54 e9bf 44b9 8a05 e6dd dcbf
000002a0: ac85 c408 66c1 d8bf 0ea1 12b2 9e4a ebbf
000002b0: 180a 46fb 7c1d c43f 3018 78bd 394f d13f
000002c0: 2294 ed30 f9b0 f13f 2ca3 4ed7 a2b9 d93f
000002d0: 28d1 71e0 1a9c cfbf 8013 7b3f d299 993f
000002e0: 2071 8f14 ee73 c13f 80ca 275d 3f3c 9f3f
000002f0: 6800 15e4 b787 c63f b42b 9a7f d709 d8bf
00000300: b68b 222f 8183 e6bf 00a5 bfb9 8a35 c23f
00000310: bc33 5175 bdc8 d4bf 531b 2a59 ac97 ef3f
00000320: 8073 f797 657e bf3f 50a8 760c 1d3f d93f
00000330: 40a2 d47b 93ec e23f 18e2 0ae9 baff c3bf
00000340: 1c54 2a32 78c3 d3bf aa1e 0600 407c e4bf
00000350: 5069 6db0 409f d93f 94ec e333 3825 d4bf
00000360: 624c 12eb e047 ee3f 900a 4bc0 f58a cbbf
00000370: 0ec7 ff8f fc1e ebbf 2e2c 48e6 fd6c ecbf
00000380: e853 4f78 c9d9 cdbf 1831 34c2 4a69 c73f
00000390: fc4c 5645 fd73 d8bf 5c1b 6c84 976c d73f
000003a0: a090 e8b6 f3e0 c2bf 98ef a772 43c5 da3f
000003b0: f6f0 dd57 7384 e5bf 9252 83e6 434f e93f
000003c0: c0a9 4d0a bb13 c4bf de7f b4f5 ba9e e23f
000003d0: 1ab6 3e34 6542 e63f c2c2 ab72 5df5 e33f
000003e0: 56a6 0d59 6f32 e2bf 3bd3 f4d3 36b8 e73f
000003f0: ba51 58ab 3ca5 f13f 60cc da5b 3b07 b33f
00000400: c834 775f caaf c4bf 70b5 3881 d137 db3f
00000410: 80d5 c299 0e38 ccbf 8008 23dd 51a9 c93f
00000420: 8cc5 ea7d 6453 e63f dca9 8390 d0c3 d8bf
00000430: f20d a34b 7f8e e03f 803c 11d7 3f69 e13f
00000440: 80ec 4918 7caf 83bf 70d0 ff76 4404 dd3f
00000450: 166b f74f 146d ea3f 0c6b 723b 9e36 dfbf
00000460: fe3b d685 c65a e5bf 0006 c9d2 aa42 da3f
00000470: 164c ec48 69bd e2bf e039 ce20 3898 e03f
00000480: 249b ff4c c25f d43f bc30 6bf4 a254 d23f
00000490: 40f2 b43c 0a73 df3f e0ed 19d9 07a0 bf3f
000004a0: d87e 3c33 f8a5 c5bf 44c6 c964 0600 dfbf
000004b0: 74ec 05f8 3e8d d23f e03a 5de6 6a9c cfbf
000004c0: f8e3 be46 1e2b e23f 6cab e7fc 40b9 e23f
000004d0: c4f7 89ca ef84 de3f 9045 dcc5 0ffd bb3f
000004e0: 2dcc e6b0 48b1 f13f d0e3 34f0 144e b5bf
000004f0: f133 0283 9e73 e73f f454 0dc0 790b e53f
00000500: c094 ac72 42e6 9a3f 54f4 2dca 8148 d93f
00000510: d040 33bf c9c5 ec3f 78c2 4a91 aa21 de3f
00000520: a728 28e0 59e3 eb3f cede 9b30 c27b e3bf
00000530: b412 8919 2aab d4bf 84ae b802 7d30 df3f
00000540: a4ac 9bfd d54c d83f 64bf efc7 e65e d6bf
00000550: 0b2f bfd9 c74b f23f 0849 56f0 db8d d93f
00000560: 58d8 3f38 e306 c33f 4234 31bf a153 e03f
00000570: ad3d e923 8032 ea3f 007c ab1f e1d7 653f
00000580: 0018 d215 3915 8abf b0f8 28ec cc12 c03f
00000590: 3b6b 7c2b 585b eb3f 6300 205a 7837 e83f
000005a0: 66d8 4381 4e29 eebf 4498 0017 4bb5 d3bf
000005b0: 7458 77f4 4469 ed3f acaf dce1 5baf d6bf
000005c0: 0e8a 1828 474a eabf f095 dd8f 8b3b b9bf
000005d0: 704c bf1a 5493 c03f d45f 707f f309 de3f
000005e0: 3e9e 27a1 c65a e03f 2ac2 a25d f4a5 e73f
000005f0: b090 d042 a0aa bf3f 94cc 8594 dcbb d4bf
00000600: 7441 7580 5365 d1bf 90ba d309 b205 b43f
00000610: 3445 7e85 4720 dbbf 0d67 1489 47d9 e93f
00000620: 7848 e90b e0c8 c3bf 2c90 7211 ca56 dbbf
00000630: fc4e 41c4 62f9 d13f 26da d220 4593 e9bf
00000640: 669a 3eaf 2014 e8bf e0ed 4b7f c149 b4bf
00000650: c66a da10 df3e eebf d0d8 faba e1f8 b63f
00000660: f21d 32bc 8e20 e13f 202e dab5 9da9 a1bf
00000670: f803 ffb7 f258 c7bf 04db b440 5e1f de3f
00000680: d482 23b0 74b7 dcbf f003 5d37 1052 c93f
00000690: 703a b377 62c6 b63f 1c51 e6c8 8be2 dbbf
000006a0: 7abb 9a50 620a f23f bc18 e84b 3709 d73f
000006b0: 94e3 1971 fe11 d3bf 6024 f973 1575 b03f
000006c0: 404b b304 2617 cfbf 9217 0ab6 e106 e3bf
000006d0: 1f4f 2be9 2589 e73f 667a 4750 7d01 ed3f
000006e0: dabf 11fe ec4a e53f 34d8 26fd e321 d03f
000006f0: 8ea0 e213 3792 e03f 2e70 da0e 0393 e43f
00000700: df0f 5b58 9668 ed3f b44e 0c6c e84e d9bf
00000710: 3273 4fcc a603 e0bf 00eb 6096 e838 8c3f
00000720: 00cc 7578 02d9 e03f 9c67 0ed8 57a6 d83f
00000730: 2025 c139 0a12 cd3f 3ab8 00c9 f1a4 ef3f
00000740: d2e6 84aa f978 e4bf 6042 0b13 7689 a1bf
00000750: 4204 a3c4 f3fe e93f b267 b876 938d e9bf
00000760: ea68 45a9 f05f e3bf 5cdc 38cc 05c8 da3f
00000770: 8a9d 4313 ab75 e8bf 2430 4ab6 9e24 f73f
00000780: 0c21 010e e2e3 dc3f 1c0e c04e 2dd8 e13f
00000790: 24e9 82d9 f87c d93f ec23 3c9d 0a70 ddbf
000007a0: 6642 9d82 18e5 e7bf 7eb8 59fa fa1b e03f
000007b0: d82d 020d cbf4 da3f 40c0 3d24 8c9b 96bf
000007c0: 84ed 7537 7deb d2bf c475 df76 8e89 d43f
000007d0: 6849 971a 9e90 c13f a8c4 f989 f2cc c6bf
000007e0: 4ccc 8889 66f5 d93f 3fbd a754 f05c f03f
000007f0: 8e5e dcd2 5f8d e2bf e821 fe99 8ef4 cdbf
1.6230192435426367 1.4743509274831432 1.4599024153796754 1.6407265595314313 1.5857937022499857 1.5727588962262775 1.696932421739235 1.7292245013316085
1.6879978292213849 1.533754392511029 1.6036156198367204 1.2281104045531137 0.7274379889390727 -0.049756313737256086 0.8864699725073589 0.32755618122548347
1.0169648838965468 1.21376192680908 0.14537867626512946 0.007158792616423604 0.8028932474336429 -0.5008997279577112 0.024814550083541054 -0.5096103630469704
-0.0410581541501398 0.26762432226053323 0.3698178904521867 -0.7042379332561273 -1.077289803433162 0.7559710159688545 -0.2924372253551335 0.381307698736685
0.46653702577609835 -0.7737008351745922 0.2713604363685025 0.7094979939020398 -0.6135296559705041 0.348850837411248 0.37439360515184306 -0.5815340350400053
0.6068374714951086 0.45311448130099574 -0.48019521457689396 -0.23215646486853703 0.4536148975598784 0.5081281748382576 0.19809355386924743 0.139582347759873
-0.2607476528154309 0.040682364725488585 -0.4957156369908271 -0.05548935231110752 0.760926740340304 -0.07924445527791546 -0.25988605463702985 0.6323922936072299
1.2761061971777463 -0.27521822783874783 -0.8020554415422005 -0.14121195690155197 0.6185831813220137 0.7628058862978306 0.9983510977166574 0.602554232984776
0.477247366448887 -0.9609243722052694 -0.34969770535047995 -0.35186962065216565 -0.25706948425483245 0.5503367812629616 0.20676515348221525 0.12560139210329746
0.3944631758823334 -0.6398833553821766 -0.5706650523845733 0.1757885478580583 0.09112211333468401 0.3861278730853135 1.207119578758943 -0.7248254673961199
-0.5379283308273728 0.22530990151482633 -0.7915646390213558 -0.4510436109657301 -0.3868041120168424 -0.8528588750823773 0.1571499087259134 0.2704605436596266
1.1057063971759438 0.40195532823649915 -0.24695144614418862 0.025000844120558252 0.13635040286943312 0.030503263531452607 0.17601679455583796 -0.3756006952395936
-0.7035528107265836 0.14225896901852053 -0.3247522016216029 0.987264799260496 0.12302241287348004 0.3944771405900882 0.5913789194647237 -0.15624176386860777
-0.3088055124183613 -0.6401672363726523 0.4003450129436219 -0.31477170054831416 0.9462742415656857 -0.21517822160065636 -0.8475325405581502 -0.8883046624845343
-0.23320883154397554 0.18290075762377778 -0.38207942744448053 0.3660029214083147 -0.1474899905307483 0.4182900066077706 -0.6724182811881565 0.7909259321409812
-0.1568521309194022 0.5818762587477939 0.6956048984918113 0.623701786009484 -0.5686566104242938 0.7412370815060066 1.1028410618938396 0.07432909958406375
-0.16161470090302132 0.42528188342369955 -0.22046072490563162 0.20047972963044813 0.6976797541921527 -0.38695158112264294 0.5173946835788554 0.5440978241475847
-0.009612054339632303 0.4533854639150894 0.825815349754836 -0.48770862393728076 -0.6673309911728891 0.41031904778000694 -0.5856214927938506 0.5185814514859963
0.31834466475850065 0.28641580456747895 0.49139648369217426 0.12353562403034557 -0.1691274881531999 -0.48437652437778334 0.2898709699727029 -0.2469609856438728
0.5677634603263177 0.5851139964628209 0.4768638112944894 0.1093301637704569 1.1057822141854203 -0.08322268356722806 0.7328636702310388 0.6576508284585132
0.026268995522646277 0.39505047554104533 0.8991440519694383 0.4708048266284446 0.8715028169692872 -0.6088572453872645 -0.3229470490808055 0.48733449235690096
0.3796896912233001 -0.34954232716608247 1.1435011392340495 0.39928339453139516 0.14864769217064366 0.5102089628432014 0.8186646176708813 0.002666415877100814
-0.01273579213944842 0.12557374507190877 0.8549004411064297 0.7567712555173894 -0.9425423168857037 -0.30794026609726566 0.9191002630930272 -0.3544530587848793
-0.8215671332475851 -0.09856483709662434 0.12949611001986083 0.4693573708077541 0.5110810420564531 0.739008124239324 0.12369729644030047 -0.3239661646286518
-0.27180945915917865 0.0782119058601245 -0.4238451770443874 0.8077733685815659 -0.154567724052473 -0.4271722002397407 0.28084630170381764 -0.799227298840212
-0.7524569914574613 -0.0792504249365531 -0.9451747254527951 0.08973513426721813 0.5352243114184019 -0.034497192810786226 -0.18240198120295736 0.4706645614527789
-0.44869725419088735 0.1978168745354476 0.08896460935941675 -0.4357022725973978 1.1275351666078834 0.35993750012165626 -0.2979732613089763 0.06428655701997021
-0.24289393643865687 -0.5945900493104423 0.7354917100987882 0.9064318244889591 0.6653962099353479 0.25206851693963306 0.5178485287078887 0.6429457941153538
0.9190170026490668 -0.3954411559254638 -0.5004457464634469 0.013780419434728852 0.5264904358613194 0.38515277957196203 0.22711303539316763 0.988884823402038
-0.6397674875690547 -0.03425187094183424 0.8123720970689947 -0.7985322302586069 -0.6054614358975219 0.41845841353955904 -0.7643638015987773 1.4464404221244047
0.4514088761102506 0.5576387918558257 0.39825268975586625 -0.45996346812222444 -0.7467157889423788 0.5034155740411419 0.4211909892116785 -0.022077741348255353
-0.2956231156928981 0.32089578255348905 0.13722587870013148 -0.17812949883549334 0.40560306006517943 1.0226901347012498 -0.5797576063514087 -0.2340257884900574

weight f8 [1, 512]
00000000: c1be 464b f525 03c0 8640 1e1b 643d f63f
00000010: 9a3e 6853 8b8d fdbf e05f c4ab 384d d9bf
00000020: 7069 b919 97ec f53f b2e8 f5f1 bfb4 0640
00000030: f748 5d9a 193a 0740 5fbc 3ce8 de02 b9bf
00000040: bced 094e 8dc2 fcbf ece3 a02d 328e f1bf
00000050: 662e 25d0 4284 07c0 6e3e b88d e667 eb3f
00000060: 8d06 2550 85e9 09c0 6129 8d5e 9cf0 1040
00000070: 63a3 1df7 0ab2 ae3f cb5d da0a 12d4 fabf
00000080: 91cf 4e73 5d7b b5bf 849b e00b f0f4 e73f
00000090: 373d 8673 a318 dc3f 212a 4e88 2f16 c63f
000000a0: 2980 07f1 51ab fcbf 6875 65e8 8288 e8bf
000000b0: 4077 d228 c572 f43f 6149 8a46 df58 9dbf
000000c0: 6668 1abd fcdb e73f f0bf dc5e c51e dfbf
000000d0: 9065 6567 9994 b23f 178c f63f 8214 edbf
000000e0: e96f abe7 457c e53f a283 6492 3930 a53f
000000f0: 28b7 4181 c08d a53f 11d1 c397 caab c2bf
00000100: 32dc 2206 094f ae3f 8004 626f 4c07 f1bf
00000110: 18af 06d1 6031 b63f f223 c5b0 32a1 b93f
00000120: ba47 b085 0e0b e1bf 2feb efe3 c040 f0bf
00000130: 618f cd10 371a aabf ecdf b79d 5cf5 96bf
00000140: 7d78 6f51 c8c7 cfbf c6b2 e220 0c46 d2bf
00000150: eed0 9d5f 8517 823f 945b 26e1 c17d c23f
00000160: e960 7c74 e21b f3bf 6ce4 64fb 8575 d23f
00000170: dc74 3611 2284 d63f 926a aa68 9a39 c93f
00000180: 707d c8e0 ee0a ab3f db79 0f5a 103f ce3f
00000190: 563b 8379 b37d c0bf 753a c06d 4702 bc3f
000001a0: 6953 366c 7d70 8b3f 6a21 fe15 ed17 e33f
000001b0: fead adb3 2e8f 91bf 5672 d5d5 b096 dbbf
000001c0: 68fa a40a 3280 fd3f f471 837f dc24 c23f
000001d0: bb11 59ab b278 c43f 34fa 5c30 42cf d13f
000001e0: 7ccc 5c81 4c06 afbf 4251 ed3a 0001 c53f
000001f0: 00a2 48ea 2ec9 a83f 0589 29c1 5e0f a9bf
00000200: e1c1 63f3 7119 ddbf 005a 70b2 6a6d a5bf
00000210: fa50 fbca 92c5 953f 3ebc 5850 5fef 43bf
00000220: 4625 6f60 0592 d83f 0cc1 ae5f 2306 b0bf
00000230: 9b35 6351 f8a0 d33f 9997 51c0 dbff 863f
00000240: 2a3f 5e16 6725 b13f 62ba 084f 0ffb f9bf
00000250: 0091 e85f 44c2 f4bf 54f4 b4a0 389b e53f
00000260: a349 03e6 866e d1bf 0c5c d48d ef02 c2bf
00000270: d2e7 9094 6f93 e63f c2b8 b670 f4f3 d8bf
00000280: b372 2e6e 039a ebbf 84b1 2e0b f104 99bf
00000290: e3f0 4709 6e9b d3bf ffa8 a7f3 5bc3 b93f
000002a0: 4364 111c f219 dabf 44af f451 564a 863f
000002b0: 8dc1 0b39 248d a63f aa1d c49e dd4a c23f
000002c0: bd21 5020 d167 fb3f 694e d990 4ade e1bf
000002d0: 70d0 0c7b 4f3f c3bf ed5f 2a7d bdc6 c43f
000002e0: 5c8b af53 039e c0bf 7e32 a511 bb05 c93f
000002f0: 22df 008a b2df f03f ac17 347b ad55 d1bf
00000300: 8c83 b947 61ea f3bf c2fb 8769 a5a9 8abf
00000310: 024c 01c2 96d2 d1bf 9990 f9fd 9c4d a4bf
00000320: 2ce6 07ee eeb0 cdbf ecea 7885 5836 ccbf
00000330: d31f 924c cf97 9cbf 9c51 689c 7556 e63f
00000340: 4761 c003 12a6 a23f 552c 429a 44fa 873f
00000350: ec4f 6c56 561c e4bf baff 2775 a24b e43f
00000360: 3c07 70c0 1190 e63f 99c4 d824 5eac c0bf
00000370: bf8e 032d e467 a63f 6bc2 d1c8 aa45 89bf
00000380: a6fb bf35 2f4c e0bf b909 d141 7367 c6bf
00000390: fedb cc58 5b9a 7e3f 29e3 1016 22af cd3f
000003a0: 1509 f2c5 a550 ed3f 67d0 92bb ca2b c3bf
000003b0: 9eb9 18ae 4ed1 c6bf de44 3387 c4d0 b8bf
000003c0: 847b 9706 67e6 a73f f7a8 a829 488a b93f
000003d0: f996 06af ea6c 8b3f 03b4 8200 0472 edbf
000003e0: 0088 bc06 f735 c63f 56cd 0602 42b1 93bf
000003f0: 075a 4619 89f3 e13f 1d49 205b 2bb6 e13f
00000400: 9708 c18b da91 b1bf 8d63 df63 86b9 b63f
00000410: 8548 c105 16ad cbbf 2de0 e1f5 f546 b7bf
00000420: 9b76 65d6 32f8 bf3f 439f 150e e39f cabf
00000430: 15a4 499e 4e16 f5bf 6f1a 9858 f2f9 b83f
00000440: 619e 108d be38 e23f 862f c75a a34c cabf
00000450: 699f 6a08 9df3 aa3f 0d82 6530 38b3 b53f
00000460: 0d9a 4855 efe6 e8bf f9d7 8fb7 ede5 d1bf
00000470: c925 31ed dc29 8fbf 8555 a077 6c19 f0bf
00000480: 16d6 23dc 9a78 9f3f 3bbe 8907 b743 e03f
00000490: e855 98d8 b157 c1bf 0446 aab8 d1a1 d43f
000004a0: 7842 54d8 9108 eb3f 8334 80c8 2ec1 e7bf
000004b0: e8b2 5576 3e87 a9bf 886e 04e8 1d72 a33f
000004c0: 827b 17f8 73fe 9a3f 3699 1e89 5e7c e1bf
000004d0: 1f13 ab69 5885 98bf 0dd3 0b77 eaa8 b43f
000004e0: a51d 80da cc2e b3bf 0f11 6611 482d bb3f
000004f0: 270e 4b8a 2566 b13f 6d05 3e0e e4c4 e0bf
00000500: 8f62 7eab 939b d33f c5a2 6ea4 e858 9dbf
00000510: a543 1499 f4e5 b43f ffd4 c3c4 9d71 b63f
00000520: 1efd 3b34 50bd b1bf 7277 21d6 8528 a3bf
00000530: 9cf4 8c32 a306 b83f 849e 568d 6743 b13f
00000540: 53fb 3bf2 8885 e1bf 90f3 20c4 1a2e a7bf
00000550: 189d 555c 754e e43f 2d44 6fca 8763 d7bf
00000560: ddc4 4a5a 74b2 d8bf 99a7 f863 0a68 f2bf
00000570: 05a4 7727 f908 d5bf 5174 f486 a992 d13f
00000580: 3d6a a7fa d5a7 cd3f 3a01 2f57 21e6 d13f
00000590: 2ce2 2dc7 e664 cc3f 1ac3 620f abd8 ad3f
000005a0: 8970 88ec 3812 dabf 4367 e757 394d c6bf
000005b0: 9a5c d14c 473c af3f 3138 ece2 8d05 b0bf
000005c0: 1d6a a616 ffc0 e0bf 0315 a422 fccc e53f
000005d0: e29b c742 bae0 fc3f 6d98 94b4 fa47 c33f
000005e0: 4d7c 3085 dbdc e3bf 9788 9db2 22c3 b03f
000005f0: 58b6 636e 7317 d03f e152 0125 6f02 c63f
00000600: 6e6f c443 b404 be3f 7a80 ea14 23e6 e93f
00000610: 8e83 ce18 fe6c edbf 8294 bde2 474c eebf
00000620: 786a 4438 3337 d2bf b38d a3df 1135 c63f
00000630: edb7 d614 967f a63f ad7d 2795 42af ecbf
00000640: e3db 7a59 5745 a5bf 92aa 3000 e18c a9bf
00000650: 4073 7521 3425 943f a33b 73fe 3a7a f53f
00000660: fc9a a7a2 b1ea c2bf b56f 15c1 385a f23f
00000670: a7e1 6ad5 3dd8 923f b26f 3243 0c39 ecbf
00000680: ffc3 93fd 0958 c6bf 8e98 710e 136d afbf
00000690: 470f bd8d 9d05 c8bf 44cd 6648 c0de 463f
000006a0: 2dcb f163 522a b23f a91b 152f 76c1 e7bf
000006b0: 25c6 bb3b c517 bbbf 8607 adb0 1bda c33f
000006c0: 936e 08d8 d0a9 843f 9bf1 9b19 50eb cabf
000006d0: 4de9 3ec9 b090 a7bf cb1e 1852 b7ff e5bf
000006e0: 7d55 431c 72ae c13f 311c ac9c a48c d63f
000006f0: 3d2e be38 e475 dcbf bdb3 0908 fd89 aa3f
00000700: 680c 2e99 33e3 b33f 8117 6d82 395f b6bf
00000710: ea79 35cf c49a c7bf d900 7c00 ff95 c63f
00000720: 161c 78df 3f95 60bf c478 6934 0b6e eabf
00000730: 16d3 eb96 1126 fe3f d1ea d444 3ea1 c1bf
00000740: 830e 5372 1fc3 b7bf d402 738d 0f0c d43f
00000750: e79f 8e8c ada7 e9bf 0644 54ad 2fb7 de3f
00000760: 1ad2 7c00 bf97 f5bf 001f 632d 568c ce3f
00000770: 2080 ead6 6518 dc3f 98d0 34e8 c049 ab3f
00000780: 2c8d 217d 3df5 d23f 129b a3d2 22e3 a03f
00000790: 2f2a 2d35 3f78 773f 6759 9c68 7d06 e4bf
000007a0: 1398 87b9 66b9 d4bf d21e a9da bc03 d1bf
000007b0: c458 230b 44da dcbf bc7a a04b a565 e63f
000007c0: 002d 68a3 87c4 dfbf fabc 5090 bdf3 cfbf
000007d0: 3020 a960 b902 c33f 80fc 466a 37b5 e13f
000007e0: 69ef a609 4256 d43f 630e d66b 3357 a8bf
000007f0: 6aad 2eca b39b a93f ed34 1a62 010e bebf
-2.393534267517538 1.3899880465797039 -1.847056699571033 -0.39533821844224626 1.3702612881521326 2.838256731335684 2.9033691463201836 -0.09770005388121338
-1.7974980400457374 -1.097215822445146 -2.9395805608126464 0.8564331787074033 -3.2390238057421983 4.234971501699278 0.059952109017848774 -1.6767750190682473
-0.08391365113385364 0.7486496192912999 0.4390038135688487 0.17255205302747448 -1.7918261923987393 -0.7666639842024496 1.2780200571646247 -0.028659332924300233
0.7456039136334425 -0.48625311149498796 0.07257994436567672 -0.908753514221078 0.6714200520323149 0.04138355171222165 0.04209710672226513 -0.14586765680690708
0.059196741103214726 -1.0642818785566135 0.08669095137764449 0.10011593642879271 -0.5325996981721268 -1.0158089546009241 -0.05098125534166687 -0.022420355917318988
-0.24828437782611337 -0.28552535258749534 0.008833925228579589 0.14446280950207024 -1.1943077612141286 0.2884230570812807 0.35181476288728475 0.19707040892247513
0.05281778806624515 0.23629955670817435 -0.12883609231217957 0.10940977506127487 0.013398151268839436 0.5966706685585852 -0.017147760121060777 -0.43107243425564457
1.8437977233694713 0.14174991823428196 0.1599334084186362 0.27827505801170394 -0.060594931403465474 0.16409304501815752 0.04840990648182597 -0.04894538982331834
-0.4546780468799892 -0.041850408823098206 0.021261495245952645 -0.0006083693885495856 0.383912414716708 -0.0625936611747912 0.3066998286056674 0.011230198675729318
0.06697696968171543 -1.6237938964146896 -1.2974284883903806 0.6751979006581998 -0.27237102949325215 -0.14071459222097393 0.7054975415878693 -0.38988982207491685
-0.862550463865395 -0.024432913119811342 -0.30636168390607404 0.10063719462019448 -0.4078336023426951 0.01088397443398715 0.04404557415353159 0.14290971996545682
1.7128459226824895 -0.5583851651267199 -0.15036958225539676 0.16231506930921516 -0.12982217394081885 0.1954873882445049 1.0546136275060651 -0.27085434943762254
-1.2447216798538845 -0.013018886836105529 -0.2784783262806628 -0.0396546421077641 -0.23196207640266786 -0.22040850178912963 -0.027922858284483553 0.6980541281541721
0.036423266370720735 0.011707817037196625 -0.6284591377211632 0.6342327392776419 0.705086589674671 -0.13026024626882274 0.04376137780653044 -0.012339910748978519
-0.5092998552134886 -0.17503205026339488 0.007471424888357168 0.23190713956298595 0.9160946718332378 -0.14977392348157822 -0.1782625532227486 -0.09693554211414177
0.04667970614877162 0.09976626412450061 0.013391335932122926 -0.9201679239246235 0.1735218794720481 -0.019230872510616358 0.5609784597061783 0.55348747060842
-0.068631800765646 0.08876838625236712 -0.2162196662998818 -0.0909265256212854 0.12488095983777685 -0.20800436198919145 -1.3179460700141636 0.09756388342803189
0.5694267993139414 -0.2054638093235292 0.05263987281551758 0.08476592237048682 -0.7781902948088956 -0.27965872693982835 -0.015216566074871889 -1.006206958093885
0.03073350876453248 0.5082659861781801 -0.13548873020106034 0.32237666162208733 0.8447961068323613 -0.7423318782836222 -0.04985995478168609 0.03798001725428174
0.02636128617984524 -0.5464317968478898 -0.02394617218921546 0.08070245176697828 -0.07493286451801014 0.10615969109318633 0.0679648840551229 -0.524034526650366
0.3063706564658241 -0.028659472499984035 0.08163384187015639 0.08767114690620657 -0.06929494166614744 -0.037418539418225275 0.09385128006120386 0.06743476105349983
-0.5475506526125663 -0.04527362484120723 0.6345774463087848 -0.36544985550887327 -0.3858919984587155 -1.1504005341653054 -0.32867268423302703 0.27457655123891295
0.23168444384539724 0.2796710349466768 0.22182926869915442 0.058293672207019934 -0.40736220454142164 -0.17423168937858166 0.061006763579535675 -0.06258475103479168
-0.52355913566436 0.6812725712376565 1.8048651321967033 0.1506341344585879 -0.6207101441722301 0.06547753201224037 0.25143132953858105 0.17194928461926565
0.11725927977061953 0.8093429001346657 -0.9195547565942535 -0.946811621525413 -0.28461914534424393 0.17349456233851654 0.04394215587977599 -0.8963940537614029
-0.041544656441537396 -0.0499029457790431 0.019673170606768098 1.3423414172609476 -0.1477872890675015 1.1470267813046864 0.01840302100274163 -0.8819638550225959
-0.17456173783969572 -0.061379046929503564 -0.18767136975122353 0.0006979407196951244 0.07095827999164035 -0.7423659247950712 -0.10583145817124569 0.15509363295319306
0.01008952292709545 -0.2103061795277313 -0.04602577644932868 -0.6874653437998516 0.13813616161375455 0.3523341684344273 -0.4446955255632224 0.05183401797407992
0.07768557061904036 -0.0873905127928918 -0.18441066854116112 0.17645251773502116 -0.0020242927091689384 -0.8259330772086959 1.8842941184386226 -0.1377332531063389
-0.09282108822940853 0.3132361298885773 -0.8017184968239207 0.4799308006923301 -1.349547387985814 0.23865773407145952 0.43898912418262803 0.05329706987905175
0.2962182733519565 0.032982910359171794 0.005729910760076381 -0.6257922213724613 -0.3238159953892829 -0.26585313180519876 -0.4508218868990179 0.6999079205596312
-0.49637022931774766 -0.24962586924218738 0.1485206338859384 0.5533711505630805 0.3177647680529306 -0.04754028979644145 0.05001603930517258 -0.11740120549275775
