L2minimization/data/sin-product-4d_model_randDict_relu_1_size_256_num_neurons_512.pt (torch, 26353 bytes, 3 tensors)

fc1.weight f8 [512, 4]
000000 8c 56 30 e0 dd 73 e3 3f 8c 3a 35 e2 be 01 c1 3f
       0.6078938845336821 0.13286577267941302
000010 73 97 35 ff 15 09 c4 3f b1 3d be 8d 61 8b e8 3f
       0.15652728043931638 0.7670142906589971
000020 1e 47 77 79 c1 bb e4 bf 20 d6 16 0e f7 cc ad 3f
       -0.6479194042569565 0.05820438429820407
000030 f7 06 8a 2f c5 2f e2 3f bb 53 f5 80 1c 1f e0 bf
       0.5683313301562681 -0.5037977713314982
000040 9a 46 11 7f f7 da ee bf 8a 87 88 af 71 e7 8e bf
       -0.964229343584708 -0.015089882058479071
000050 76 6d 92 78 a2 55 cf 3f ef b3 48 ad 70 bc b9 bf
       0.24480086219123692 -0.10053161840978907
000060 53 52 c0 76 f5 d4 e2 3f cc 5b d5 13 19 e8 d8 3f
       0.588495952545211 0.38916613518580045
000070 5b ef 0f 5c fd 6f e0 3f 34 85 6e b6 18 3f df bf
       0.5136706159678214 -0.4882261067924276
000080 f9 da cb e1 7c 18 c2 3f c9 be 73 dc 04 85 db bf
       0.14137230897150468 -0.4299938347676116
000090 1c c7 1b 85 6c a0 eb bf 3f 53 56 66 aa 8e cc bf
       -0.8633329963470007 -0.22310380932744953
0000a0 a1 7d f6 85 b2 63 e0 3f 5b 1c 2f 62 b4 f8 e9 bf
       0.5121700874769212 -0.8116094510704771
0000b0 81 e4 a0 9d 9f 1a c3 bf 36 e2 e7 ed 62 7a ce bf
       -0.1492499847097726 -0.23810993782514495
0000c0 51 f0 ab 2d 73 b2 bd bf 6b 3f 3a fa c7 be de 3f
       -0.1160041796210305 0.48039435802728886
0000d0 5b 81 27 9c ff 37 de bf 65 e4 ab 9c b8 5b e7 3f
       -0.47216787576146196 0.7299464282979328
0000e0 e7 a0 4f 04 02 2f df bf 51 fd f8 44 f3 e8 d8 bf
       -0.4872441331958854 -0.38921815620047534
0000f0 47 48 a2 b3 77 d1 cf 3f 10 8a 60 35 8a b7 e7 3f
       0.24857994338214182 0.7411547701379408
000100 a2 28 b5 c4 26 dc de 3f 1e 3d bd 90 1f a5 c2 3f
       0.4821869774792821 0.1456641632780497
000110 d0 b5 94 43 54 89 e7 3f 8a b3 c0 87 8b ff dc 3f
       0.7355138130130232 0.453097231455836
000120 62 69 b9 36 93 50 dd 3f 53 a0 29 10 67 d1 e5 3f
       0.4580429109970706 0.6818118396449883
000130 60 93 9d 49 d6 2c e2 bf 66 86 34 ba 89 c7 aa 3f
       -0.5679732740214654 0.052303604107021326
000140 51 65 c4 c7 ed 0f c1 bf 67 94 a1 d9 e2 82 ea 3f
       -0.13329860929733653 0.8284773111923983
000150 e5 af bf 52 5f 15 d6 3f eb 24 d5 1d f7 e8 da bf
       0.34505446511206933 -0.42046907342280687
000160 94 08 56 b0 35 66 c5 bf a3 30 c6 3d c7 c7 d2 bf
       -0.1671816931739768 -0.29344349892267924
000170 0f 9c b6 5a 9b ec e6 3f 60 c9 4a 58 65 89 e3 bf
       0.7163826724762447 -0.6105219578223959
000180 49 3c b9 27 18 21 d8 3f 7f 00 62 87 cc c3 db bf
       0.37701991919761163 -0.43382561894396326
000190 d0 56 44 4f 49 1e d7 bf 3c b2 59 46 3b 7f e7 3f
       -0.36122353306687405 0.7342811941176204
0001a0 bc 23 03 43 f0 4e d3 3f e9 b2 40 de 98 62 da 3f
       0.3016930250565186 0.4122678919255081
0001b0 99 97 ce 94 a9 38 dc 3f ab fa af 25 4c 9d e7 3f
       0.4409584000771872 0.737951348884811
0001c0 36 5a a3 a0 a4 30 e1 bf df ff 63 4a c8 ac dc 3f
       -0.5371878755057142 0.4480457998724869
0001d0 59 79 cd b7 f1 50 e3 bf 83 3a fe 3b 0b 7b d8 bf
       -0.6036308851142095 -0.38251000269603014
0001e0 f1 a0 f7 32 99 da c8 3f 24 01 4a 12 ba b6 c3 3f
       0.19417109478604958 0.15401388066312294
0001f0 4e 1d 4b 68 b7 3e ed 3f 60 11 fa 79 3b 93 d4 bf
       0.9139058148365764 -0.32148634826469014
000200 85 5d 6b 63 47 11 d1 bf 23 d0 8d 62 6d 6c e8 bf
       -0.2666796179668938 -0.7632357525712944
000210 5a 4d 58 cf a4 2a e0 bf 4a 6b 18 09 b4 51 d3 bf
       -0.5052055406289739 -0.3018617714712276
000220 12 4c 92 6d d6 06 dd bf 5c 19 13 64 3a bb ce 3f
       -0.4535423345598143 0.24008874784903866
000230 82 15 67 22 10 8e e9 3f f3 63 74 1c b6 20 d4 bf
       0.7985916778495012 -0.3144965436818545
000240 66 30 46 fe 2d aa e9 3f dd 80 34 14 5c 48 ce bf
       0.8020238844196796 -0.2365832422883675
000250 27 33 41 c9 9f fd d0 bf aa 84 e3 13 b9 b6 de bf
       -0.2654799905183602 -0.47990252439746917
000260 d6 99 b8 69 78 b2 e8 bf c9 7d 4d 99 dc e0 e3 bf
       -0.7717859330048735 -0.6211989397233363
000270 ad 01 b3 8f 18 6b bf bf bf 20 9c af 7c d6 ad 3f
       -0.12272790439874966 0.05827703136134365
000280 04 e7 68 39 45 a4 c3 3f 92 80 42 26 4b 63 e5 3f
       0.15345063498698874 0.6683707949887483
000290 96 d9 ac 26 82 3d e1 bf 13 32 4e f3 aa 51 df bf
       -0.538758349931231 -0.48935960541055684
0002a0 3c d0 a3 d2 a2 11 e3 bf 56 63 0e d6 6e 5e e4 3f
       -0.5959028352795097 0.636527460173151
0002b0 18 1f 3a a3 bd df d6 3f ec 06 63 f8 f9 6a d5 3f
       0.3574060529722245 0.33465432411695306
0002c0 fa 05 ef 60 2a fd d0 bf b0 95 fa 0f 04 d9 e2 bf
       -0.2654519983881013 -0.5889911949240538
0002d0 50 3e 55 6b 15 ab e2 3f 31 56 28 c4 a5 80 df bf
       0.5833842369410807 -0.4922270217515204
0002e0 d9 e7 0f b6 ad f8 dd bf 9b e0 8d 23 bf a1 da 3f
       -0.4683031347227576 0.41612223121729536
0002f0 07 f2 7a f7 f9 fe c5 3f 30 e7 b0 13 19 54 e8 bf
       0.17184376319882252 -0.7602658638563522
000300 6e 62 f8 d3 26 d8 e1 3f 2d 3f 8c a3 21 fa e1 3f
       0.5576357021373732 0.5617836183828097
000310 19 4f f8 b2 15 5e e2 bf 55 9c 18 7f 22 d8 ca 3f
       -0.5739849563128444 0.20972090917459477
000320 3b 29 8a f4 af 6d e4 bf 47 6b 22 23 d6 74 e8 bf
       -0.638389566055856 -0.7642622648448673
000330 80 4d de 7e e9 35 85 bf 80 ab d9 73 4b 42 b7 3f
       -0.010356735405173678 0.09085532739997682
000340 5d 8a 40 5e 36 08 d7 bf 2d 1b 19 6d 73 bc eb 3f
       -0.3598762436323904 0.866754258234186
000350 85 ab c5 1f a1 49 cc bf ab 74 a8 b4 bf fa d0 3f
       -0.22099699069380221 0.2653044952620102
000360 17 e9 88 a3 47 ed 7f 3f 6c 2d b8 d5 e0 63 e8 3f
       0.007794647063344116 0.7621921705444215
000370 48 63 4f c5 88 3a 9e 3f 31 bf a5 46 32 b1 e4 bf
       0.029520165484288513 -0.6466304187615376
000380 f1 eb a0 c5 88 5a e7 3f 07 4f c0 51 f7 d3 c8 bf
       0.7298015460904691 -0.1939686917472658
000390 c6 97 e8 e1 86 18 de 3f 2c 56 62 3e a0 3b dd bf
       0.4702470022333468 -0.4567642792911524
0003a0 f1 b8 83 8b 57 7b e8 bf df 38 b9 82 8f ed dd bf
       -0.7650563931363462 -0.4676245476338305
0003b0 55 4f 83 0c b7 da d8 bf ec b1 81 95 a2 36 cb 3f
       -0.3883493063160491 0.21260483074310288
0003c0 4d 16 8a c5 22 f7 d5 bf f2 ec 54 43 4a 4a e3 bf
       -0.34320897379834464 -0.6028186144898469
0003d0 43 b0 d1 f7 39 3a cb bf b7 4d d1 cf 70 05 e6 3f
       -0.21271442986051356 0.6881641444146486
0003e0 b3 27 b0 5f 06 a4 e5 3f a7 b9 9b c6 a6 8e b9 bf
       0.6762725705059353 -0.0998329386600064
0003f0 d5 a2 be 63 00 53 e7 3f 90 2a 0f c8 cf 4a a3 3f
       0.7288820217264297 0.037680142566007935
000400 57 34 16 2e 8a d8 eb bf 0c a2 cd ee 6c 6c 6e bf
       -0.8701830768710676 -0.003713810691284408
000410 30 22 8c f2 1e 49 df bf 97 fc 79 51 39 95 af bf
       -0.48883794485348897 -0.061685363002646536
000420 b1 d2 75 35 bc c6 d0 bf 79 de 26 34 b7 6e e7 bf
       -0.2621298334191052 -0.7322650927153084
000430 49 f0 14 b6 af e2 da bf 64 71 bd d7 59 ec dd bf
       -0.4200858381407256 -0.46755071705208295
000440 b8 4a 4b 17 f2 16 d1 3f 5e df fe d3 5b eb cc bf
       0.267025492427972 -0.22593257762286617
000450 21 69 81 a3 c4 85 e6 3f f7 85 37 c7 fd c8 e3 bf
       0.7038291161982536 -0.6182850733713953
000460 b3 8b fc b2 07 27 cc 3f 3d 43 94 5b d4 74 e3 bf
       0.21994110335898895 -0.6080114163070004
000470 73 10 cb e6 a5 63 d5 3f 8e e2 48 f0 aa f1 e5 3f
       0.3342070344772374 0.6857504551945384
000480 8e d3 f8 ac 18 8e dd bf d0 67 98 13 02 04 e8 bf
       -0.4617978753261064 -0.7504892714234703
000490 13 2e 30 e5 30 91 c0 3f a3 96 1f 18 e1 19 dd bf
       0.1294308775980971 -0.45470454555320766
0004a0 15 9a bd 16 bb d5 e6 3f ac 77 0a d9 97 21 b9 3f
       0.7135901874688125 0.09816884087419336
0004b0 67 85 80 e1 51 d6 c9 3f a4 ef ed ef 78 3c e5 bf
       0.20185302267877178 -0.663631886112388
0004c0 6f 6d c4 b6 36 43 ca bf 6d 3b bb bd c8 b9 e9 3f
       -0.20517620014366453 0.8039287286463669
0004d0 b2 39 f4 6b cc aa e1 bf 84 69 3f 41 49 17 b5 bf
       -0.5520994289852779 -0.08238656847917097
0004e0 a0 b0 0f 8a 96 55 e7 bf 33 72 72 29 62 fa ac bf
       -0.7291977592954204 -0.056597774085478746
0004f0 9a 9b 84 fa c4 12 b2 3f 4e 95 c3 2e 96 b4 e5 bf
       0.070598899041768 -0.6782942689284626
000500 21 d3 a8 09 0d ad e1 3f 82 8d d1 05 96 60 cd 3f
       0.5523743809377245 0.2295100716029133
000510 07 93 e0 4a 98 41 e6 bf a4 a5 c2 d0 57 7a d9 bf
       -0.6955071890302812 -0.39809222590209914
000520 b6 36 3d d0 6a 75 d1 bf 69 ba 25 90 5e 9c c4 bf
       -0.2727915795884245 -0.16102201498457028
000530 72 d0 95 9c e5 27 e5 bf 35 f0 f2 d1 9f c3 e5 bf
       -0.6611202295594139 -0.6801299191060993
000540 2d 27 b9 75 6f 77 e8 3f 70 bd 20 76 8d b5 cb bf
       0.7645795153887086 -0.21647804515803726
000550 d1 58 4b 54 aa f8 a1 3f bf e1 f7 50 f1 64 e3 3f
       0.03510029105170676 0.6060720998203165
000560 ba eb 8d 6d a7 e5 e6 bf 49 fd 9e 71 4d f4 b4 bf
       -0.715533937428851 -0.08185276054336045
000570 5b b6 17 33 86 d7 e0 3f 63 28 4f 65 ad ed dc 3f
       0.5263091085341317 0.45200667279698886
000580 71 85 cd 04 24 b7 dc bf 15 de 7f a5 23 3e da 3f
       -0.4486780211355699 0.41004267847117265
000590 fe ae 95 ee 6e 67 e3 3f 20 e6 e1 43 09 68 e0 3f
       0.6063761386735391 0.5126997304752798
0005a0 5b 93 cb 8c ab 1e eb bf 80 97 da 5e 4c 7f bf bf
       -0.8474939107805811 -0.12303616824882901
0005b0 74 42 51 d9 4b 03 d0 bf ad 9a e7 8c 56 e8 dc 3f
       -0.25020118925480195 0.45168079147553436
0005c0 a4 87 83 e7 06 46 ea bf 2d b6 e6 99 b4 d6 d9 bf
       -0.8210482141259843 -0.4037295821134162
0005d0 05 84 3f 2d e4 8b 8d 3f 7f b7 12 94 23 d0 d9 bf
       0.014426977759230306 -0.40332879505410085
0005e0 18 e4 ca 90 65 b3 df 3f b1 f0 b4 1c 37 33 d7 3f
       0.49532450809380313 0.3625009327258893
0005f0 13 af e1 5a 66 a5 e4 3f a1 9c e0 a7 d6 1d dd bf
       0.6451904082327665 -0.4549461974551808
000600 06 8c 75 09 03 a9 b7 bf 4e af ae 20 27 c1 b3 bf
       -0.09242266636788096 -0.07716602847966422
000610 ae ea 3c 20 9a 9c ef 3f 31 ef c6 1d fb 1c b9 bf
       0.9878664617202355 -0.09809846379260702
000620 f3 4c 3d f8 73 90 b8 3f ef 06 33 b0 e3 69 e9 3f
       0.09595417795690135 0.7941759530442293
000630 b2 9a e9 e1 b6 2b e3 3f 85 4e e4 46 2d 89 a1 3f
       0.5990862285951464 0.0342497014081831
000640 be 00 db 3e 04 15 db bf 32 a2 2a eb 0c b1 ea 3f
       -0.42315775049429394 0.8341126053902086
000650 c8 a8 7c 82 01 df d5 3f 5a 50 7d c5 10 7a b7 bf
       0.3417361997877717 -0.09170632192155051
000660 d3 8e ed 71 31 2c ea 3f 1e 66 32 c7 ab a4 da bf
       0.8178946709781151 -0.41630072071856883
000670 2e db 77 dd 37 4e cf bf 21 cc f4 6d 0c 07 d4 3f
       -0.2445745307338369 0.3129302095214275
000680 8c 6d ad 1c 23 46 ef 3f ed 8b c6 bc 39 04 c7 3f
       0.9773116645914555 0.17981645314748054
000690 57 a0 08 6f 49 7c ad bf 11 13 1c 72 e9 91 b8 bf
       -0.057588858417432824 -0.09597643886452213
0006a0 47 bb 97 d1 4c 79 d8 3f ef a2 fd 80 6c 45 e6 bf
       0.382403568916676 -0.6959745902396132
0006b0 2d 1d 9a ee 90 6a e3 bf 53 42 19 0c 9b f6 a1 bf
       -0.6067585621066535 -0.035084576823127954
0006c0 8e 60 24 74 1d 7d e0 3f 3b bf 27 65 f6 2f d4 3f
       0.5152728336716039 0.31542739752238774
0006d0 45 09 ca 5c 79 5a bf bf 7f 7d c4 7d 62 32 e9 3f
       -0.1224742747818129 0.7874004799268021
0006e0 1d 0e 1a 5f 22 4b c1 bf 48 46 de 36 6a e8 b5 3f
       -0.13510541576043603 0.08557761992985846
0006f0 e4 22 46 b4 54 a4 e7 3f a9 ca 07 a0 fe f2 e4 3f
       0.7388099213577246 0.6546624303430991
000700 21 f3 19 d4 0b 46 e8 bf 9c cf a3 3a 71 91 dc bf
       -0.758550562153321 -0.44637709356833866
000710 bc 5e d0 c6 d5 2b dc 3f db c8 0b ee 6b c0 c6 bf
       0.44017548003601425 -0.17774724124280436
000720 49 40 e0 a5 d5 96 a4 bf 7b ea 95 ff 8f 9b e1 bf
       -0.04021327638486178 -0.5502395622164181
000730 31 c4 28 5b 90 d6 c5 3f e7 4b 93 01 f6 1f ea bf
       0.17061047030577606 -0.8164014845627862
000740 b8 1e 3a 21 bd 87 e3 3f 6f af be 94 a5 19 d0 bf
       0.6103196763005689 -0.25156535650125184
000750 ac 81 ee c0 f2 77 e1 bf f0 4a ce 98 d6 82 e0 bf
       -0.5458921211430172 -0.5159714683998953
000760 b8 3a d6 c0 7b 2d bc bf 89 5b 0a 03 00 5d ea 3f
       -0.11006902177744393 0.8238525447257966
000770 3c f7 2b fb 05 5f d9 3f df 2c e4 6f a4 f3 d8 bf
       0.39642476585855824 -0.38987074782262526
000780 45 24 bc 6a b8 f0 ed 3f 17 f2 04 7a 37 30 d3 3f
       0.9356348118464061 0.2998179141611969
000790 76 04 f4 80 18 44 b0 bf 16 c8 ce 2b a1 69 c6 bf
       -0.06353905819197955 -0.17509855879831154
0007a0 b9 56 b0 34 5c 89 b6 3f 2a 84 66 e4 a1 cc d9 bf
       0.08803344999645447 -0.40311476998073437
0007b0 ca 39 18 9c 64 35 e9 bf 77 ec 9b 5d 40 45 dd 3f
       -0.787767701027229 0.457351771750559
0007c0 3c a4 19 a0 ba ca a5 bf 63 1c f8 8d 78 b1 e2 bf
       -0.042562324565388526 -0.5841639302096947
0007d0 11 1b 3b 92 ae 97 dc bf 37 3f d9 21 0c a4 e5 3f
       -0.44675792961463495 0.6762753163438678
0007e0 46 59 d7 0d 8d a0 92 bf e8 bf 6b b7 81 0f cd bf
       -0.018190578431892555 -0.22703572708223807
0007f0 5d e9 37 c3 ec 26 e5 3f 5d a4 28 33 24 e1 e6 bf
       0.6610015690669503 -0.7149830817408077

fc1.bias f8 [512]
000000 dc c8 89 a1 5f 08 fd 3f f2 0a 66 9d dc b0 ff 3f
       1.8145443258368266 1.9806791447051038
000010 a0 b1 e7 d2 ca 76 dd 3f c0 6e de 6c 65 99 d4 bf
       0.4603755054111165 -0.32186256057478246
000020 3c dd 2e bd 99 6b fb 3f b8 a1 62 ea cd 3c d8 3f
       1.7137696638072404 0.37871120347201837
000030 48 12 73 45 70 5f d6 bf 00 de 66 ad 10 28 97 3f
       -0.3495751074044944 0.02261377390251873
000040 f0 49 3c 9d 55 ca e9 bf e0 a4 91 d3 70 d1 c8 bf
       -0.8059490271573946 -0.19389162378801128
000050 a0 a1 a3 79 49 b8 df bf 38 df d6 1b 43 b4 d3 3f
       -0.4956229865915933 0.3078773280972089
000060 30 28 69 86 0c 28 c9 bf 1c 25 0b 41 f4 70 f0 bf
       -0.19653469622636655 -1.027576688839253
000070 4c 4a ec 07 f9 bc e2 3f 44 67 e4 3a a8 85 e5 bf
       0.5855679659601463 -0.6725655699003501
000080 28 fd 70 3c 25 f0 ee 3f 80 7c 3d 20 28 57 ca bf
       0.9668146305556649 -0.2057848126814612
000090 d0 37 ae cd c6 ad c7 3f 8c 43 9c d5 78 58 e8 3f
       0.18499074023242068 0.7607998058393703
0000a0 60 68 73 49 44 8c b2 3f d0 9e 58 34 2a 1b e6 bf
       0.07245280068619442 -0.6908160231004903
0000b0 d4 d0 44 34 14 20 e9 3f d0 2b 64 9a 99 b2 e3 3f
       0.7851658841014122 0.615551759286399
0000c0 00 de e0 ab a4 ec a4 bf f0 a3 da b6 29 21 f0 3f
       -0.04086794469952437 1.0080964224564433
0000d0 10 e5 09 a3 6f 6e c1 3f b0 9d ed 01 9e 6b d9 bf
       0.13618274174567846 -0.3971934336500125
0000e0 80 65 1b e8 0d 7f b6 3f 18 da dd c7 93 2e d5 3f
       0.08787619511294587 0.3309678508589129
0000f0 00 2d 2a 34 96 b8 85 3f 34 ba 08 0d 52 44 e4 bf
       0.010605977503721054 -0.6333399061748595
000100 60 3f fe c6 c8 b6 f1 3f cc 4e 4e c9 39 2f f4 3f
       1.1071250699205493 1.2615297187339136
000110 e0 b7 05 07 4b 49 b0 bf c8 d1 a8 65 2e 0f e4 bf
       -0.06361836358493589 -0.6268531785522606
000120 70 ee 95 16 48 31 ea 3f 90 ee 83 30 78 60 db bf
       0.8185158196569784 -0.42776303041294117
000130 80 f3 a0 3e 1f d4 ab 3f 2e 11 79 62 a0 de f1 3f
       0.05435273780356109 1.1168521734808325
000140 40 ca 86 f8 6b 35 b9 3f 08 9a d8 e7 5b ec e0 3f
       0.09847140138189392 0.5288524177784106
000150 40 36 02 3b c0 66 d2 bf 48 8e b9 eb 85 fa d1 3f
       -0.2875214172607663 0.28091571826937356
000160 08 53 fe f1 9a 6f dc bf c0 5d ad 93 20 06 df 3f
       -0.4443118441788987 0.4847489778671523
000170 78 91 07 f1 96 0f e6 3f c0 0e 48 af 69 29 e4 bf
       0.6894030292137776 -0.6300552772013006
000180 60 09 9b 48 64 2d c7 bf 60 1a 3e 9c 99 b2 dc bf
       -0.18107274575420274 -0.4484008813673537
000190 d0 95 14 f6 1d 37 cb bf 30 0d f4 67 4f 81 c6 bf
       -0.21261953845639292 -0.17582123351903922
0001a0 a8 32 3f 8b 6b 88 dd bf 4c 3f 17 47 6a 64 eb 3f
       -0.46145142172171427 0.8560077084057212
0001b0 5c c5 81 1b 97 45 ea bf 04 48 0c f9 98 4e ef bf
       -0.8209949052090155 -0.9783444275110473
0001c0 5c f4 3a 24 09 9b e1 3f b4 dd e8 30 3e 1a e2 3f
       0.5501752574560999 0.5657034831300991
0001d0 6c 91 66 10 5b 1f e0 3f 10 3e 63 88 1b 32 d2 bf
       0.5038276024174997 -0.28430832213504775
0001e0 60 aa 5b 03 b3 5a bc bf 14 e0 ec 94 02 b9 e3 3f
       -0.11075896102890104 0.6163342388817932
0001f0 40 04 ac 47 cc db bf bf 80 df 5f ea 5a 8b c7 bf
       -0.12444760083964557 -0.18394028133456786
000200 58 3c d6 2d 02 3d e1 3f 00 c0 1c e3 7c 14 24 bf
       0.5386973281146181 -0.00015319847585137936
000210 e8 17 a5 00 31 0b d5 3f 60 88 05 a2 c2 6d c6 bf
       0.3288080698297322 -0.17522461806499035
000220 c0 f7 54 40 b4 b7 be 3f 8c ed d6 e7 0a 60 ed bf
       0.119990602212936 -0.9179739502064179
000230 c0 4b b2 cb a2 12 e0 3f 54 86 6e 50 9f 76 e0 bf
       0.5022748926588676 -0.5144802637989394
000240 94 fe 62 8e 51 eb e1 3f e0 3d ad fa cd c7 de bf
       0.559975412463205 -0.4809451053633591
000250 00 69 73 5e 2a da ba 3f c2 5f 06 c0 ed ee f2 3f
       0.104891441401751 1.1833322049114803
000260 80 e9 7f a0 0b 24 cf 3f 80 c5 d6 f8 7f 93 af 3f
       0.2432875188531618 0.061672209859703564
000270 a0 d1 a2 76 61 f3 d5 bf 80 82 f5 7f 79 b7 de 3f
       -0.3429797800593182 0.4799484014129476
000280 d0 32 ff 65 be 6a d9 bf 90 50 d1 2b f2 a2 c5 3f
       -0.397140121084516 0.16903521670849786
000290 40 ad 53 00 e1 68 c4 bf 50 b3 26 54 23 bb de 3f
       -0.15945065036735606 0.4801719972409062
0002a0 f8 48 af b3 0e e6 e2 bf 90 1e ff 4e 82 94 cf bf
       -0.590583182284063 -0.24671963555578147
0002b0 80 3b c6 74 26 22 d4 bf e0 71 f3 0a 26 6b bb 3f
       -0.31458436397308986 0.10710370795590718
0002c0 8c 40 ca af 76 1a e8 3f f8 a8 68 6e 21 42 d0 3f
       0.753230422344147 0.25403629095184455
0002d0 60 5a 0e 9f a4 2a c7 bf b0 08 0f 91 5d e2 cc bf
       -0.18098886267098901 -0.22565812666841145
0002e0 b0 13 79 c6 14 85 d8 3f 70 ef 99 89 a8 0b ee 3f
       0.383122628995177 0.9389231383824903
0002f0 18 f8 29 28 eb c6 d2 3f 90 3a 50 99 dd 8c c3 3f
       0.2933910267091746 0.15273637758260294
000300 60 aa a9 13 60 05 c9 3f 10 f6 76 7d f9 f4 e2 3f
       0.19547654113860613 0.5924041223985927
000310 5c 9c 2b b4 3c 05 e2 3f 80 13 96 0d 1d 91 b6 3f
       0.5631392973854292 0.08815175611205284
000320 48 5f 6a d0 9b e4 e7 3f f8 37 4b e2 07 f5 e3 3f
       0.7466563292136721 0.6236609859276987
000330 34 5a c6 28 21 a0 ec 3f 80 61 09 ff ca 5a c7 bf
       0.89454706157523 -0.1824582810684312
000340 44 a6 32 97 45 55 ee 3f bc 7c 88 78 1c 8b e3 bf
       0.947909159954357 -0.610731349388423
000350 48 bd 1b 8e 70 9b e9 3f 20 24 27 b3 6d 04 bd 3f
       0.8002245688966605 0.11334882377481437
000360 60 3b 60 45 f1 b2 e2 3f 80 44 f7 99 aa 9a 95 bf
       0.5843435626028217 -0.021097818038303462
000370 00 f6 18 28 41 75 b1 bf c0 dc b3 a2 c5 bd c8 bf
       -0.06819541195815049 -0.19329138225996267
000380 40 38 dc 64 36 00 d5 bf 18 2e 87 9a 4e 31 db 3f
       -0.32813796853668364 0.4248844632208786
000390 68 65 fe d6 6c 8e ec bf 40 3a ee 2c 10 c6 a4 bf
       -0.8923858832451232 -0.040573602184953206
0003a0 50 3f d6 28 69 23 c0 bf 20 2b 95 93 3d 4d c3 3f
       -0.12608065122594292 0.15079469400583267
0003b0 d8 b5 6c ba 2b 42 e0 bf c0 9d cc 1e 48 9f d5 3f
       -0.5080774918657722 0.337846784665512
0003c0 f0 16 26 5c 5d 32 e7 bf f0 62 2e 2c 5a 63 ea 3f
       -0.7248980331212049 0.8246279585756309
0003d0 6c 88 d6 10 20 0f e5 3f 48 20 6d 87 ce d4 d8 bf
       0.6580963448398172 -0.38798869347784093
0003e0 2a ad 81 c8 b9 19 f3 bf 7c 7d 69 98 00 cb e5 bf
       -1.1937806923186352 -0.6810305573271047
0003f0 60 da 12 00 72 17 b8 3f 80 26 e8 47 98 28 da bf
       0.09410774709508862 -0.40872771284248444
000400 00 59 56 98 eb 26 e2 3f 1a 7c 8e 0a 6f 64 f6 3f
       0.5672510123575023 1.3995199596754504
000410 68 09 f1 7b 02 5a d4 3f 00 83 70 45 be aa cc 3f
       0.31799375632922144 0.2239606703815511
000420 c0 20 08 5a 21 fb c8 bf c0 60 b4 d2 18 f2 e6 bf
       -0.19516388794023065 -0.7170528521847004
000430 f8 5f 65 d4 4d 4b d9 3f 80 bd e3 94 6c eb d9 3f
       0.3952211927585263 0.40499414958954816
000440 f8 fc 53 7f fa be e7 3f 00 de 66 b1 48 20 88 3f
       0.742062805831579 0.011780326761125615
000450 d8 1c 9f e0 b4 6c d5 bf f0 df 80 1c 75 24 c9 3f
       -0.3347599214143435 0.1964250935723153
000460 a8 66 2f fb 08 7e e0 bf d0 de 02 62 9a d6 cd 3f
       -0.5153851419410858 0.23311166558936813
000470 90 46 4c 92 47 5d d7 3f 00 00 05 1e 1f 64 5c 3f
       0.36506833350095125 0.0017328552131203878
000480 04 37 fb 80 cd 38 f7 bf 40 57 d1 9e 19 e7 dc 3f
       -1.4513678587276795 0.4516052294687718
000490 18 0e 17 55 b3 8e db 3f 1c a3 5d 15 ce 88 e8 bf
       0.4305847483594518 -0.7666998307514379
0004a0 50 f4 af 80 ae 37 cc 3f 50 e2 ac 41 41 be f4 3f
       0.2204492691379607 1.2964489522402296
0004b0 80 d7 15 1c 21 ae 97 bf 00 60 3e 61 f3 60 5f 3f
       -0.023125188197318902 0.001915204692499728
0004c0 84 ef d8 77 6c 60 ea 3f 50 bd 79 b7 31 d8 dd bf
       0.824270471646273 -0.46632044713529286
0004d0 10 69 ed 78 47 ac d0 3f a0 65 24 37 24 66 d1 bf
       0.26051508721651917 -0.2718592203615007
0004e0 d2 73 31 e4 00 4b f0 3f 60 2a cb 1e 2e 4e cf bf
       1.0183113969608155 -0.2445733690604639
0004f0 04 44 ad 22 90 f3 e5 bf 80 11 b0 7a 89 b2 a5 bf
       -0.6859818150788901 -0.0423777544274655
000500 e0 0c 06 a8 3a 94 c3 bf 70 48 65 27 ae 04 d0 bf
       -0.15296109394339563 -0.25028566214780934
000510 e0 ab 10 6c 9e 6e d1 bf e2 2f 51 08 d5 18 f0 3f
       -0.27237663796648626 1.0060625386131439
000520 40 0b 3a fd d5 17 e1 bf cc c9 65 8b b1 ba e9 bf
       -0.5341596551737453 -0.8040397379502848
000530 e0 42 90 3f 44 78 c8 bf b6 6c df f2 24 0d f0 3f
       -0.1911702452057602 1.0032090651718995
000540 f0 48 ae 21 ba 1e c3 3f bc a7 3d 73 2b 5a e8 3f
       0.14937521595545133 0.7610070467755956
000550 d8 d7 ac 06 05 4a d6 3f f0 53 10 e3 c6 b5 c3 3f
       0.34826779987213063 0.15398489081476852
000560 20 80 78 6c 85 29 d9 bf e0 4b 2e 5d 94 e8 df bf
       -0.3931592520984868 -0.49857052898113174
000570 88 35 c0 9f 18 b5 e5 bf 3c 19 b4 e6 18 14 e9 3f
       -0.6783564682133809 0.7837032800605708
000580 0c a3 92 2a 4c 60 ee bf a8 01 0c c3 e2 62 e3 bf
       -0.9492550689220436 -0.6058210191259166
000590 bc 05 b2 03 11 77 e2 bf c0 f6 0e 7a 76 98 e0 3f
       -0.5770344803024083 0.5186111816362526
0005a0 a0 84 33 47 6a f6 cf bf 88 8f 9a f5 a0 9c db bf
       -0.2497074935591046 -0.43143486008397547
0005b0 60 68 6b bd 04 80 eb bf aa 6c 2e b7 5a 0a f3 bf
       -0.85937726017006 -1.1900279193421661
0005c0 c0 5b 17 68 54 30 d3 3f 00 6c 44 f4 b5 7c 94 3f
       0.29982481160316965 0.020006983789340183
0005d0 00 55 f2 1a 0a 83 cd bf c0 48 79 d7 73 2e bd bf
       -0.23056150737526337 -0.11399005899991987
0005e0 18 55 e9 11 9c 73 e5 bf a4 d1 e4 f8 37 0c ea 3f
       -0.6703625058968639 0.8139915333945749
0005f0 70 96 d2 54 c5 51 f0 3f d0 b3 77 c8 78 bc da 3f
       1.0199635804541707 0.4177534063044819
000600 98 9f d5 91 01 de ed 3f 88 26 9a 6a e9 e9 e3 bf
       0.9333503578500197 -0.6223036844323397
000610 60 5b 7c 00 bf 65 b0 bf 40 96 16 1a 4b 4b e4 3f
       -0.06405252229556657 0.6341910848174805
000620 38 32 c2 c0 c6 d7 db 3f f8 18 92 5a 22 fe f0 bf
       0.435044944992828 -1.0620444810788836
000630 d0 92 76 f6 64 b2 c8 bf 30 c6 3d ec 96 5a cd 3f
       -0.19294416460356567 0.22932707343311298
000640 40 3d dc 04 22 ea db 3f a0 0d e9 4a e5 e1 df 3f
       0.4361653373207055 0.49816257777657746
000650 10 07 54 3a e1 5a df bf 00 cb 71 a7 74 c3 93 bf
       -0.48992186256519776 -0.01930029174804826
000660 c8 0f 10 bb ee 67 d2 bf 80 9f b4 aa cd 51 98 bf
       -0.28759353893132955 -0.023749555152931645
000670 2e c4 3a 69 e9 c5 f1 3f 10 54 44 55 0f c8 d7 3f
       1.1108183012513666 0.3715856869396825
000680 e0 a8 e9 f6 5b 51 d1 3f 18 97 21 38 9c 7b ea bf
       0.2705907737023505 -0.827589139586709
000690 3c 8d c0 2c 9f 20 e4 3f 40 d4 42 62 0c be c9 bf
       0.6289821504655388 -0.2011123161115922
0006a0 1c 63 eb fb bf 7b e2 3f 58 ee cb 4c 9a 45 d5 3f
       0.5776061935713162 0.3323732137648441
0006b0 b0 0c 93 f3 9a 7c cc bf e0 e7 95 27 0d dd c1 bf
       -0.22255265134126523 -0.13955845291985636
0006c0 f2 5b 05 3a c3 3c f0 3f f8 f0 1c 6e be 06 e3 3f
       1.0148346201365226 0.5945732260366006
0006d0 00 f7 1a ad 71 54 82 3f 40 55 fa a3 35 8e d7 bf
       0.00895012673879192 -0.3680547810884782
0006e0 d4 4b 05 d1 07 e7 ec bf b0 89 e5 54 95 5b cc 3f
       -0.9032019693789786 0.2215449013265931
0006f0 00 bc 74 da 62 b5 e4 bf 50 0c f6 86 f2 ea db 3f
       -0.6471418635100008 0.43621504955098533
000700 d0 35 04 56 cc 55 f3 bf f0 ba 18 73 12 73 d7 bf
       -1.208446823121779 -0.36639844169523794
000710 00 4d 70 a2 0a d2 9d bf 70 39 df 35 2f 2b d5 bf
       -0.029121557392568498 -0.33076076756414974
000720 90 4d e7 c8 07 84 da bf 00 83 f7 65 51 12 b2 bf
       -0.41430849666104397 -0.07059200992035741
000730 70 f8 74 47 b5 0d f3 3f 80 6c 57 64 66 04 a5 3f
       1.190846709374025 0.04104919409629648
000740 00 fd 7c 67 56 39 c3 3f 28 41 84 f3 02 29 ee bf
       0.15018730214249132 -0.9425062900718659
000750 04 6c bc 69 0a 49 e3 3f 6c 94 7b b6 51 11 e6 bf
       0.6026660981327727 -0.6896141590228928
000760 70 74 fe f9 2b 8b d0 3f 70 4a 81 cd 69 f2 dc 3f
       0.25849437154267374 0.45229573315479055
000770 80 2e 01 ce c8 3d af bf 10 6f de ef 98 a6 de bf
       -0.06101825251297743 -0.47891829895682836
000780 6c 20 e5 a6 e7 79 ea bf 28 4a 83 09 23 4c dd 3f
       -0.8273809680622555 0.4577720253848008
000790 80 44 4c 0f 72 0b d0 3f e0 b9 71 40 7e 6d c4 bf
       0.25069858068406603 -0.1595914663952973
0007a0 58 38 6e da 0d c0 e1 3f 60 4b d2 d1 e8 5d eb 3f
       0.5546941057416559 0.8552135561061327
0007b0 1c 8e e4 a8 78 c9 e4 bf c0 9e b2 79 0e fe bc bf
       -0.6495936678588268 -0.11325159522186379
0007c0 00 1b 59 c9 f6 1b e7 3f 98 3d 66 86 aa 3c d8 bf
       0.7221635754184206 -0.3787027657026214
0007d0 00 4d 9d 45 52 57 aa bf 90 ba 74 fc 69 f9 ce bf
       -0.05144745921884386 -0.2419865114875006
0007e0 64 df f3 92 58 11 e7 bf 30 ba fb 55 84 38 d2 3f
       -0.7208674307030205 0.2846995200806388
0007f0 50 94 4f b7 26 f6 d2 bf 30 bc 04 1f b2 4b e4 3f
       -0.296273879065045 0.6342402082281122

fc2.weight f8 [1, 512]
000000 64 cb 69 d6 9d 53 e3 bf c0 55 49 60 2d 62 e2 bf
       -0.6039570987471561 -0.5744845276446355
000010 1e 3c 53 ea ee 69 81 3f ca 1b 38 dc b4 5e b7 bf
       0.008502832914386412 -0.0912888562817066
000020 12 de 4b b3 39 7b e6 bf c8 7b 8a b3 0e 72 9d 3f
       -0.7025421621210077 0.028755407055196774
000030 92 c2 33 c8 a4 ac ab bf 0e 1c ff 48 78 7d 80 bf
       -0.05405154174684869 -0.008051814773251589
000040 3f 23 83 5d 06 9b bb bf 13 04 ec 0e dc f7 b2 bf
       -0.10783424170507504 -0.07409453739457232
000050 53 fd 48 4e 61 32 9b bf cc c4 b5 d8 95 47 91 bf
       -0.026559372332710506 -0.01687463889306144
000060 23 51 46 0e 8f f0 91 bf 58 ee 22 df 89 8a a6 bf
       -0.017519221540696194 -0.044025715339981175
000070 0f e4 05 09 06 67 c3 bf 01 56 cd 7a b6 a1 84 bf
       -0.1515815300042793 -0.010074067709562763
000080 af 9d f2 1d 9d 24 b2 bf e9 53 63 31 89 19 b4 3f
       -0.07087118130822632 0.07851464706193635
000090 ba 12 f6 5b cc c6 a4 bf 37 98 06 88 7a 27 5c 3f
       -0.04057921049664999 0.0017183968157978965
0000a0 9d e4 80 a7 95 f7 b4 bf 4f aa b6 91 e9 ac 9d 3f
       -0.08190284099045404 0.028979920881889772
0000b0 d0 df ca db d3 81 c6 3f 12 1f aa 9c fa 3b 96 3f
       0.17583702308706828 0.02171317654804656
0000c0 28 a9 85 be a0 50 bd 3f d2 30 25 a9 fb 9b a5 bf
       0.11451153422755012 -0.042205681226364825
0000d0 c5 c4 79 10 48 c3 ab 3f 06 35 12 a7 66 f8 aa bf
       0.054224254618824776 -0.05267639913027193
0000e0 5b 08 0e 9d c6 ce b2 3f 74 52 f1 57 67 0c a0 3f
       0.07346764883371419 0.03134463261145451
0000f0 c0 3b c4 45 04 a0 80 bf 6e 1f 09 5e 52 2e 86 bf
       -0.008117707614045844 -0.010830539221515525
000100 30 0e 72 31 0e 1b 99 3f e3 b8 30 b4 08 dc bd 3f
       0.024517270820537174 0.11663870238473666
000110 b0 b9 b7 47 1c 7b ad bf bc 4d b7 c3 da 34 65 3f
       -0.05757988334140707 0.0025886795753906327
000120 05 e1 51 f0 81 d8 8e bf 62 2b 23 0e bf 0a ad bf
       -0.015061392923812375 -0.056722612834696276
000130 86 3b 98 69 cf 55 72 bf 7d fe 87 f8 b6 d6 83 3f
       -0.004476366238590828 0.009686879596301207
000140 36 7f 42 16 59 a3 ad bf 2f a5 46 0e d8 72 6e 3f
       -0.05788687130666263 0.0037168712462586555
000150 e8 1f e7 87 d4 5c a7 bf 95 d9 2f aa a2 4b bc 3f
       -0.04563011321039295 0.11052910475686979
000160 d3 8c 8b 7e f4 76 bd bf 74 58 5b 83 1d ea a7 3f
       -0.11509636010628137 0.046708032879608036
000170 cf 4c f6 34 83 25 91 bf 2f 89 cf c4 b1 8c b5 bf
       -0.01674466143374503 -0.08417807631443418
000180 4b 88 f3 1e 80 45 a5 3f b3 da 4a ad 0d 81 5b 3f
       0.04154587152312724 0.0016787179530816487
000190 6a 06 3d 7d d2 3b 92 bf 23 fa a7 0f e1 97 89 bf
       -0.017806328672355688 -0.012496717729843237
0001a0 3c 47 05 8d d7 56 9f 3f 2e 71 f2 5a b7 43 86 3f
       0.030604713422980753 0.010871345961554892
0001b0 3b d4 cf e7 21 50 96 bf f8 35 fa 71 3c 3d 7a 3f
       -0.021790056012793917 0.006406055559307948
0001c0 08 db a1 c9 28 30 a6 bf 34 25 90 ba 51 15 82 bf
       -0.043336176503478596 -0.008829725748017304
0001d0 03 15 5a fb e8 f9 b3 bf 68 66 bc 79 e4 b9 99 3f
       -0.07803207527657112 0.025123186044857
0001e0 16 93 8a d7 02 b3 a6 bf ea e4 38 44 a1 6f a6 3f
       -0.04433449631804913 0.04382041890898754
0001f0 dd c4 f9 e7 06 77 bc 3f 80 e4 99 f8 6d b0 8c bf
       0.11119120753734842 -0.014008387707905579
000200 bf 99 dc 6d 9a 4b a9 bf 35 ff ab b0 b7 9e ce 3f
       -0.04940493193707906 0.2392186749129849
000210 fe db 3f 7b 22 6d a2 bf 95 e9 15 6a 1f 16 aa bf
       -0.035988881630991884 -0.05095003290167025
000220 3c 9d f8 8d 94 5f 9b 3f f7 a3 4e b5 00 59 ae bf
       0.026731797375899577 -0.059272787220216054
000230 dd 60 f1 53 b9 7d c3 3f 32 ad a4 dc c4 c9 85 bf
       0.15227429007314344 -0.010638750060556566
000240 45 95 51 9f e5 66 b6 bf 69 3d 74 c9 16 1f c2 3f
       -0.08750758304230029 0.14157376133560298
000250 01 c9 39 e5 12 ce ad bf e2 a4 53 2d 4c 9d c2 3f
       -0.05821284340062683 0.14542534077853647
000260 16 86 cd 5e 6c 60 79 bf 2c c7 97 52 ea fe 8e bf
       -0.006195472070289939 -0.015134649892363315
000270 dd c9 db 1f 68 e7 ca 3f bd 97 e5 be 45 99 bb bf
       0.2101869731482812 -0.10780750189368767
000280 07 37 b7 bd 6d b4 ba 3f 4f 56 d4 89 a8 ed c0 3f
       0.1043156231091552 0.1322527573581049
000290 df 82 82 e4 e3 4f 1c 3f 44 6f 16 4e da 73 a0 bf
       0.00010800198026795657 -0.03213388636797146
0002a0 6f e3 d8 a6 43 cb b6 3f 0d 11 16 ea 2b 71 b2 bf
       0.08903906653803316 -0.07203936066622792
0002b0 06 72 f2 2e c6 72 ad 3f b7 1b 83 2f 7e 51 b5 bf
       0.05751628230175147 -0.08327473316158672
0002c0 85 6b 1f 48 d0 2e a5 bf 7b 0b 1c b8 9f 23 a8 bf
       -0.04137278442768547 -0.04714678881102593
0002d0 90 a3 a8 fa 8a 18 84 bf f9 ed f1 59 55 f6 bb bf
       -0.009812436842439515 -0.10922749944614187
0002e0 a3 07 51 f8 83 77 a1 bf 90 48 7b 1a 9a eb b1 bf
       -0.03411495596129945 -0.07000125071070529
0002f0 06 81 de bf df 57 8b bf 01 06 85 76 bf ad b6 3f
       -0.013351200144655195 0.08858868258996468
000300 88 24 40 c8 73 d3 c6 3f 23 fa 1c 52 e2 7c 78 3f
       0.1783280113016057 0.005978473725746033
000310 80 fe 36 8e 32 a7 c0 3f ea 40 66 9f 30 ad b2 bf
       0.1301024622352891 -0.07295516864383314
000320 ed da 9e f2 73 bd c0 3f 1d 78 83 ef af 6f 95 bf
       0.13078164431291076 -0.02093386554121689
000330 03 09 5a ba 59 57 bf 3f 0f ee ab 84 21 1b a6 bf
       0.12242661285020877 -0.0431757425739897
000340 fb b9 ba be 63 ea ae bf 77 46 7c fc c4 47 c9 3f
       -0.060382000954053404 0.19750273064032672
000350 13 4a 97 4b 83 1b 8a bf b9 c0 06 3d ff 53 a2 3f
       -0.012747789139131027 0.03579709644270807
000360 d5 d9 91 d7 5c f8 b5 3f 4b 85 d2 e6 b3 b8 b4 3f
       0.08582096350605835 0.08094334016143027
000370 db 4a 89 38 aa 85 89 bf b6 40 e5 b7 4f cf b1 bf
       -0.012461976862288384 -0.06956957091938673
000380 c8 d9 fe a4 ca a4 b0 bf dd 8c 45 86 82 c6 b6 bf
       -0.06501451996050556 -0.08896652010075763
000390 53 a5 4d 0f 4e e7 96 bf 0f ed 7d 88 1a cd 93 bf
       -0.02236673324970202 -0.01933709581451831
0003a0 77 70 01 ea 46 bb b8 bf 83 77 d6 dd fc ed be 3f
       -0.09660762036350144 0.1208189050289246
0003b0 60 b1 ad 7d a5 b2 cd bf 37 7b ae 27 46 ce b2 3f
       -0.23201435696263228 0.0734599921110942
0003c0 e8 22 0c d8 cd de 92 3f 38 58 7a 46 56 64 c4 3f
       0.018428055106627733 0.15931204263023502
0003d0 05 62 7e 40 1d 39 b2 bf e8 36 e9 25 d2 70 b3 bf
       -0.07118399452736675 -0.07594026017724398
0003e0 24 dc c3 37 75 f1 b1 3f 67 e7 20 97 13 ef ae 3f
       0.07009060489132019 0.06041775913077068
0003f0 3a c4 26 32 39 b5 a1 bf 2c 9a 06 3e 14 c0 c4 bf
       -0.03458574998092741 -0.16211178806880022
000400 10 a3 5d 91 fd 0c c5 3f fa fd e1 69 ed f5 d0 3f
       0.16445893857896765 0.26501021709552186
000410 02 c3 a3 5c 4c ec b4 3f fc 07 99 4a fa dd a0 3f
       0.08173062574111259 0.03294355545632752
000420 f8 f2 1f 2b cc 6e ab bf bc bd ce 31 cf d7 cc 3f
       -0.053579693092592195 0.22533597881327505
000430 39 1a ee 7f 17 ef ac 3f dd 11 f3 29 72 e8 c8 3f
       0.05651162563940599 0.19459368751826292
000440 fa 61 1e 96 00 8c d0 3f 01 0a 7d a3 11 ce b8 bf
       0.2585450616839179 -0.09689436189095348
000450 36 97 50 3b 8e 4f ae 3f 5c 6f 93 7c 99 df c9 3f
       0.05920071100290018 0.2021362169533586
000460 7d ac f0 d9 0c 45 af 3f 10 d4 98 ef 22 15 a0 3f
       0.061073686222095504 0.031411258456877644
000470 87 4f 33 22 77 81 cb 3f 39 d9 93 58 e8 fe b8 bf
       0.21488846940939885 -0.09763958132302698
000480 c9 c7 1b 41 2f 8b cf 3f e2 3d 79 cc 77 5b c0 bf
       0.24643507651449983 -0.12779138073027158
000490 d0 be 1e f7 87 eb 89 bf 44 45 12 fa 19 0a ce 3f
       -0.012656271199232988 0.23468327246204457
0004a0 d3 eb e5 bd f4 4c a6 bf d8 88 4a 28 e0 5a b6 3f
       -0.043555877858089474 0.08732415183706921
0004b0 75 df 66 35 c3 6c ab bf 37 99 5e 27 48 4b bb bf
       -0.05356416727903383 -0.10661745988054326
0004c0 9f 8d 02 67 d4 3f 88 bf 25 37 a3 9a 85 24 a7 bf
       -0.011840495484938538 -0.0452005149141839
0004d0 f0 24 1e d9 30 6c b6 bf 79 1f 57 b9 99 2c 83 3f
       -0.08758836079336496 0.009362412422788445
0004e0 3c c4 b3 4e cf ce ab bf 3c 68 b4 ed 25 f4 b8 bf
       -0.054312208516315214 -0.0974754052480486
0004f0 d9 04 67 d7 a9 0e ad 3f c0 0d 80 dc ef 24 78 bf
       0.0567524981920628 -0.005894600828472318
000500 52 09 cb b9 5e 8a 76 3f 27 e9 3b 30 c2 eb ae 3f
       0.005503053686597719 0.060392444980566666
000510 b5 8c a7 3b cd 7a b4 bf 3a ba 16 71 6c 93 a8 bf
       -0.07999880510719744 -0.047999752812178234
000520 2b 51 1d b6 a6 1b c2 3f 34 06 69 96 3c 6a b0 bf
       0.14146884815512215 -0.06412104293942705
000530 cf 72 34 e9 73 93 ae bf 6f 3e 20 48 60 b5 a6 3f
       -0.059718725411789124 0.04435253982967146
000540 40 e7 69 21 7c 06 c6 3f f8 80 43 f6 3d 18 66 3f
       0.1720729029801138 0.002697106379955124
000550 3e d8 24 c3 b9 27 a0 bf c3 b8 92 ff 83 e6 90 bf
       -0.03155308253410326 -0.016504347299524335
000560 4d 09 60 8b 2f 3a b2 bf 1f 9a 2f 87 a7 20 ac 3f
       -0.07120034363473345 0.05493663335055409
000570 6a 22 40 19 08 3c c1 3f 55 3b 68 c7 23 07 9c bf
       0.13464452012000844 -0.02737098602852524
000580 61 7e 0d ae af af 98 bf fb 01 cd be 43 f4 99 bf
       -0.024107689855894402 -0.025345858116681424
000590 e1 76 5a 2e 4f 47 a3 bf 2b c7 6e 21 0c 7c 8e 3f
       -0.037653421791430615 0.014885039110456319
0005a0 7d 83 db ab c5 81 b1 bf 48 a7 6e 72 66 9d 8c bf
       -0.0683864159177698 -0.01397209202498896
0005b0 9e d1 d0 33 e1 6e c7 3f 2a d9 9c 3f 16 9e b2 3f
       0.1830712798124638 0.0727247147850433
0005c0 08 e2 29 2e 87 44 a7 bf 42 af 83 81 c4 7c 9b bf
       -0.045444702515798296 -0.026843138127261364
0005d0 09 22 ec be 05 d6 c4 bf cb 99 0e 4f 29 71 bd bf
       -0.16278144667036568 -0.11500795536139845
0005e0 59 22 45 86 db e5 b6 bf b2 90 8c 33 b8 ad c1 3f
       -0.08944484737470172 0.13811399952931463
0005f0 42 3c c0 99 b7 52 ae bf a4 52 bc 8e 69 bb af 3f
       -0.05922483207552222 0.06197671763780946
000600 4d 45 5f 7d 65 31 72 3f c5 89 9c 9c dd ab a7 bf
       0.004441639370228967 -0.04623310601006695
000610 8d a4 07 47 c1 63 b9 bf 90 a0 ea d5 e4 e2 a2 bf
       -0.09917839035155591 -0.03688731299672654
000620 93 fe 42 14 4d ba ac 3f 99 18 28 80 df cb bd bf
       0.05610886452040833 -0.11639210585426198
000630 f4 f4 6f 8b 65 16 9d bf 4f 5d d7 56 6b c4 c9 3f
       -0.028405748973445236 0.20130674114509836
000640 81 80 40 93 04 f4 a1 3f a1 eb b4 dc 71 02 9e 3f
       0.03506483361729896 0.029306201072568098
000650 0c 8d e2 1a 7d fe b1 3f 8c 13 59 02 bf f9 9a bf
       0.07028943926211556 -0.02634333087759759
000660 44 f9 ee 1d d8 55 b7 bf c4 73 c8 b1 c6 13 aa bf
       -0.09115362864301796 -0.05093213005259359
000670 12 43 3d c7 43 b2 c8 3f fc d7 e2 74 d3 38 bb bf
       0.192940208706681 -0.1063358459822154
000680 ce 70 f5 cc f3 77 8d bf 2b 52 a6 fa f2 2c d4 3f
       -0.014388947193474524 0.3152434776068584
000690 db c5 2b 31 21 1f 95 3f 6d 37 6f f9 94 c8 c2 3f
       0.020626562715681956 0.1467462747518157
0006a0 41 a4 36 f8 2e 99 cb 3f cb 7c ab ef 09 27 ae bf
       0.2156122886638361 -0.05889159250886563
0006b0 f4 78 48 85 d6 16 b8 bf d8 4e 45 2f af 5d c4 3f
       -0.09409847978574587 0.15910901840344738
0006c0 78 91 82 ea d3 d1 c7 bf cd 17 35 e3 01 7a 86 bf
       -0.18609093619046368 -0.010974898096389208
0006d0 27 cb 1c 00 57 47 c6 3f 7b 60 06 28 df 43 90 bf
       0.1740521193074411 -0.015883910005499473
0006e0 e7 9a 67 2e ed 04 9e bf 40 2e 0b 0f 33 93 a9 3f
       -0.029315668065374913 0.04995116766584973
0006f0 84 c4 bc 90 dc 39 a5 3f 50 9c 7d 57 ca bb b8 bf
       0.04145707384885447 -0.0966154540634403
000700 a3 2c e7 e3 15 d0 c7 3f 24 8b 73 25 0b 8c af 3f
       0.1860377657706965 0.06161532241983128
000710 47 00 1f 0d 96 10 a7 bf 3e 32 6c b8 56 5f c0 bf
       -0.045048417188355 -0.12790950779926108
000720 d4 12 f2 ab ac e5 b6 bf 3c 48 63 cf 69 55 a7 bf
       -0.08944205472841854 -0.04557352692212688
000730 d8 83 ac 6b b0 ba c7 3f 64 dc fb 62 2a d4 a8 bf
       0.18538480050577166 -0.0484936948613999
000740 1c 61 a6 33 e9 3c 4c 3f 00 c1 6d f5 6d 01 be 3f
       0.0008617533379036454 0.11720931283867131
000750 b3 f4 75 59 f6 7a b1 bf a3 f6 3c d7 2f 7f a1 3f
       -0.06828250583744726 0.03417348387163812
000760 c3 2e ba 1b 83 54 a7 bf 09 c6 5d 56 60 12 be 3f
       -0.04556665147273755 0.11746790035774536
000770 e8 4c de 42 86 f7 cc 3f 15 70 19 60 3c 52 ac 3f
       0.22630384697968187 0.05531490967834444
000780 e0 e0 20 5d 5e de c7 3f af 7f 70 ec d2 40 a2 bf
       0.186473651383273 -0.03565081726287588
000790 14 37 eb c4 4f 67 a9 3f 93 37 c7 c9 c3 0b a8 bf
       0.04961632994455392 -0.04696475828278248
0007a0 7b b6 55 91 a7 04 b6 bf 31 e2 4b 44 ba 04 aa bf
       -0.08600852297032617 -0.050817318760838844
0007b0 a5 69 7b f3 ff 93 ac 3f ec fb a9 99 e8 0a b0 bf
       0.0558166489333474 -0.06266645194590098
0007c0 7b bc be e3 8c 5d c0 bf cf ef e7 3e e2 73 b1 bf
       -0.12785493011822155 -0.06817449603835189
0007d0 3e cd 1e 2d 12 e0 a2 bf 9c 0b 76 92 f5 5c b6 3f
       -0.036865776069499465 0.08735594583235556
0007e0 02 39 41 b8 56 64 81 3f 7a fa 16 67 dc 34 ad bf
       0.00849216222573235 -0.05704392202777782
0007f0 61 2a 52 d5 ca 1b 9c 3f 58 d4 fe 77 5b 04 97 bf
       0.027449769277647088 -0.0224775592793843
