FixedSizeIterativeOGA/data/model_cos4pix1cos2pix2_N_2048_neuron_128_epochs_256_randomized_6.pt (torch, 5888 bytes, 3 tensors)

fc1.weight f8 [128, 2]
000000 be de 4a a2 de 2c b1 3f b2 82 cb 92 a7 c8 bf bf
       0.06709090673654836 -0.12415549596654321
000010 be 64 9f dd 0d 53 e6 bf b5 cc 8f aa b8 60 d8 3f
       -0.6976384476248751 0.3809034028665324
000020 b4 b7 d4 8c bb 4f e1 bf 02 61 bf 87 19 db ce bf
       -0.540982985554129 -0.24106139305400381
000030 74 30 8a cf e8 55 d6 bf a1 54 19 4c 1e f9 a9 bf
       -0.34899349467810414 -0.050728747167036355
000040 a9 31 1b ca 9c e1 e0 3f 62 cf 41 0f 5a 58 ca 3f
       0.5275405833613621 0.20582128281568673
000050 d1 4e 08 13 fe 91 aa bf 37 a2 dd ea 5f 3b d4 3f
       -0.051895084212586824 0.31612394271954564
000060 b3 8b 46 92 bd 11 e5 bf 6c 47 78 0d 29 06 d5 3f
       -0.6584155899948797 0.32850099864400906
000070 05 98 99 18 54 63 dc 3f d0 7f ec 89 80 5c cf 3f
       0.4435625305399074 0.24501044020234852
000080 e7 a4 da 20 68 39 e1 3f 71 c4 d8 50 f3 13 e5 3f
       0.5382576600724435 0.6586853579557453
000090 93 0d aa dc f8 39 e3 bf 24 f9 06 94 a7 67 cc bf
       -0.6008266744469658 -0.2219132874287847
0000a0 69 f4 6a 78 06 39 b6 bf ff f9 3e a4 44 f0 bd 3f
       -0.08680763664138315 0.11694745073234712
0000b0 19 34 c9 43 c2 a1 ba 3f 13 54 e6 27 c2 3b df bf
       0.10403074412279557 -0.488022364582606
0000c0 b5 f2 26 ed 71 65 e4 bf 36 f2 15 2a e1 17 d9 3f
       -0.6373834258916619 0.39208249196943556
0000d0 54 c4 e0 be 78 43 e0 bf 80 f0 55 96 16 c1 d5 3f
       -0.5082362869344572 0.33991017037602234
0000e0 bf 0e ec 09 06 15 e5 3f 0d 7d 80 27 48 c6 dd bf
       0.6588163560668007 -0.4652271638642141
0000f0 0a 16 a9 a2 7b f0 d6 3f b8 ea 40 bb 96 8f e5 bf
       0.3584279144746182 -0.6737779290482058
000100 6e d3 55 fb 42 df da bf b3 bf b2 b5 9f 8f d7 bf
       -0.4198768095441697 -0.3681411051174976
000110 7c 65 0b 27 8d a7 c1 bf 23 78 86 17 db 2b e2 3f
       -0.13792576223822184 0.5678534945943777
000120 69 fc 4c a9 77 d7 d3 3f 86 cc dc ab c5 fe bd 3f
       0.31002608807825155 0.11716876455175126
000130 5d 0f 1f 48 18 bb cb bf 9b a1 35 c3 0e 75 e6 3f
       -0.21664718171643474 0.7017892658887378
000140 75 dd 91 92 97 2a e1 3f c3 50 3a f2 9f a4 df 3f
       0.5364492285433885 0.49442289977129067
000150 32 52 17 b8 91 f0 b4 3f 97 f5 ed d3 f1 48 c1 bf
       0.08179579491054126 -0.13503859375115887
000160 fb 86 4f d2 3b 52 53 3f 96 15 09 4d f5 85 a8 bf
       0.0011792740053739304 -0.047897020009752087
000170 56 98 28 46 9d 68 d6 bf ce c9 c8 3d c5 ab d5 3f
       -0.35013515330718314 0.33860903771997364
000180 d5 40 be 6a 39 0b e6 3f cc 1c 41 aa 08 9f c2 bf
       0.688870151980178 -0.14547832787704917
000190 88 7b 6b 53 37 34 cd 3f 9c 91 6d d0 d0 24 d1 3f
       0.22815600941882175 0.26787205080315757
0001a0 14 51 2d 11 90 2a dd bf ea b0 97 a5 92 e8 e3 3f
       -0.45572282483523563 0.6221402391652451
0001b0 a9 a1 03 f0 a3 3a e1 3f 51 79 f7 5a 1c c8 ca bf
       0.5384082496430455 -0.20923189584477567
0001c0 49 cf 4d cf 04 2c b0 3f a6 cb 03 0c c7 e0 dd 3f
       0.06317167340403985 0.46684433148692006
0001d0 86 de cc 47 ff 0e e4 3f e7 9a ff 0e 15 d8 c6 3f
       0.6268307115887672 0.17846930725428153
0001e0 67 ec 7e 95 1d 8f de 3f 6c 77 27 5d bb 30 dc 3f
       0.47748508071135237 0.4404743585308697
0001f0 32 21 37 91 a3 ee d5 bf a4 3b de af 0c 10 e2 bf
       -0.34269036465822744 -0.5644591746257572
000200 f3 20 7e 98 ec 3a ec 3f d1 d0 84 73 be 0a de bf
       0.8821928957341058 -0.46940575867780604
000210 ec a9 8d 5d 00 0f e7 bf 1b 9f 04 aa 35 12 e4 3f
       -0.7205812289442384 0.627222854677686
000220 3c f2 08 3a cf ad eb 3f 88 55 77 11 92 d4 de bf
       0.8649669774527591 -0.48172427850416755
000230 ed 71 f5 81 ef 6e ee bf 06 59 b9 4d 03 47 d3 3f
       -0.9510419405228824 0.30120928373561673
000240 ea be c1 b3 50 43 e8 3f 62 cf 11 34 9f ab d2 3f
       0.7582171927333239 0.29172496876639376
000250 2f 12 10 b9 92 a1 e8 bf a1 78 23 2e 83 86 cd bf
       -0.7697232832438824 -0.23066749337062212
000260 e0 7a c2 87 9c fe e6 bf ef 8b fe 8f 8d d5 e3 bf
       -0.7185804988438029 -0.6198184788121334
000270 06 de 85 3d db 7d e5 bf 32 e7 c8 15 f5 83 d4 bf
       -0.6716133309955132 -0.3205540383092852
000280 de 9a b7 74 e7 b1 b5 3f f5 25 87 a6 94 85 eb bf
       0.08474585151234801 -0.8600562336443419
000290 5e fb 9e f4 33 78 e8 3f 51 e6 66 a9 a5 f3 e2 3f
       0.7646732118372304 0.5922420796043274
0002a0 e5 b8 8a f0 33 39 e6 3f 4a 81 26 32 6e ad da 3f
       0.6944827745517413 0.4168353547811604
0002b0 4d e8 cd 42 bf 45 e6 3f e8 3c 4c 85 f7 b4 d3 3f
       0.6960140518924703 0.30792034165729243
0002c0 62 a4 45 5b 3f 07 ec 3f 5d 5e 78 9b 86 b7 de bf
       0.8758847029358885 -0.4799515264762471
0002d0 c3 df 48 d9 d3 1e e4 3f ac 0e 7c f7 d2 08 e4 bf
       0.6287631267396069 -0.6260771592792103
0002e0 f7 6e d0 f6 7a 25 e4 3f f8 3d d4 f9 63 d3 cd 3f
       0.6295752354230605 0.23301362703976713
0002f0 7e 53 7e 2c 15 dc ed 3f 35 8b d2 92 01 fe d2 3f
       0.9331155652058525 0.2967533048451288
000300 d5 38 38 c9 f3 c4 dc bf b2 5f 08 17 e0 55 e7 bf
       -0.4495210137400936 -0.7292328309877034
000310 bf c6 9d 18 fe d9 ea bf da 16 9d 7d 55 5c d3 3f
       -0.8391104203021412 0.3025106169410329
000320 06 52 c2 e6 65 9f e7 3f bd 44 1a 7c e5 82 d3 bf
       0.7382077700627299 -0.3048642837466778
000330 34 79 0a 37 c6 50 ec 3f e2 3f 89 dd 34 38 d7 bf
       0.8848601412790118 -0.3628055728377132
000340 c2 b4 a6 63 f0 94 e9 bf 87 d7 3d 39 dd fc 9b bf
       -0.7994310327827849 -0.027331787699459233
000350 0a 78 c9 01 fd a3 de 3f fa 3f 42 0e fb d5 ea bf
       0.47875905203352487 -0.8386206892482726
000360 72 38 4e f4 91 2b ee 3f 7d 92 2b 78 8d 72 cb bf
       0.9428186198799848 -0.21443336837468854
000370 6f 69 e0 c3 0a e0 ed bf b5 14 70 e7 0a dd d4 3f
       -0.9335988832201972 0.32599136926030364
000380 82 d7 73 48 4e ec e9 bf d8 dc 56 57 be c5 d9 3f
       -0.8100959220016508 0.40269430665234784
000390 17 8c f9 9b 16 24 b8 3f 1a c1 34 d5 95 14 ee 3f
       0.0943006640241467 0.9400128521138271
0003a0 dd 63 54 fc c7 c0 e8 3f db 3b 0b ab b1 7d d4 3f
       0.7735328605950788 0.3201717539167796
0003b0 fa 4b 6e 98 09 2a e7 3f f2 b9 37 5d 07 6b c0 3f
       0.7238815285840012 0.1282662587322672
0003c0 2e f4 74 6b 8d dd ec bf a3 1f 03 eb 38 2a d7 3f
       -0.9020449732557887 0.36195204687509824
0003d0 c5 bb 10 bf b0 92 e9 3f 83 69 42 61 8f b0 dd 3f
       0.7991565448518193 0.4639013719367073
0003e0 ee 38 d1 00 4b ba e6 bf d3 c2 9c c3 7c 28 e3 3f
       -0.7102408424341584 0.5986923046640079
0003f0 cb 57 2f 7d b5 18 e2 3f 0d 96 61 8e fa f9 de 3f
       0.5655162282007437 0.4840074911538473
000400 f0 42 ce f9 0c 48 e9 bf 80 6e 1a 05 9a f4 d9 bf
       -0.7900452498452903 -0.40555429933895226
000410 4e 7d c0 75 ff 2d e7 3f e0 d9 ac 9b 45 b5 d4 3f
       0.7243649768678695 0.3235639591470356
000420 94 63 d3 37 2d de ee 3f de ce 53 82 8f ca 9b bf
       0.9646211710306596 -0.02713989479975864
000430 da 1c da dd 7b 2c 98 bf 63 b3 55 39 1f a2 ed 3f
       -0.02360719243600049 0.9260402793712327
000440 76 18 89 e7 fa 66 ef bf 25 09 14 af 0b 58 91 bf
       -0.9813208124330817 -0.016937429963044388
000450 fa 16 1f f2 e2 ab eb bf 38 91 ac db e1 de d9 3f
       -0.8647322396215877 0.40422865345523773
000460 68 09 32 2f 23 26 e7 bf d6 fa 20 59 4c 69 dd 3f
       -0.7234054490839243 0.4595518942259508
000470 ad 54 af 06 9b c5 e5 bf 2d 86 2f 81 1f 5f de bf
       -0.6803717737735916 -0.47455585113320603
000480 7f 3d 7d 64 43 e9 ec 3f cd e8 71 25 e4 57 db bf
       0.9034745180778571 -0.4272394529031203
000490 c8 f2 1b d3 b8 f9 ea bf a2 4f 4e 22 5c 62 e0 3f
       -0.842983639071087 0.5120068235432778
0004a0 43 f3 e1 b6 f6 e9 e9 3f 27 68 d4 f0 2e a4 d5 3f
       0.8098100253988395 0.3381459571697882
0004b0 92 65 8b a7 65 42 e5 3f ef 74 69 28 9b 10 c9 3f
       0.6643551132539633 0.19581927750815661
0004c0 c0 0d c7 2e ae 92 e4 3f 46 a2 d7 a3 5f 59 e8 bf
       0.6429053224205106 -0.7609098625226316
0004d0 57 83 83 a9 bb e9 d7 3f 1a 6b dd f3 43 5d ed bf
       0.3736409335524988 -0.9176349413859015
0004e0 45 fa 1f a0 b8 92 ea bf dc a3 e1 d0 2c aa e1 3f
       -0.830410301918001 0.5520233230318996
0004f0 7d 4b 7e cd ad 0d e5 bf 6d 75 21 ec 6d 38 d3 bf
       -0.6579197896520409 -0.3003191762889717
000500 22 31 ab e8 c1 9a e8 bf e5 e5 41 61 a4 4a e4 3f
       -0.768891291075793 0.634111585574996
000510 19 89 39 76 ff 84 ea 3f 12 82 a1 2c b9 59 d9 bf
       0.8287350949360955 -0.39610127790914007
000520 e6 f1 96 80 d7 1a e9 bf 09 d8 3e 26 37 cc da 3f
       -0.7845265876308616 0.41871432051573315
000530 d8 67 4d 99 a3 4a e8 bf fb 8e b3 06 58 1d e4 3f
       -0.7591112131296951 0.6285820132147529
000540 13 0b e9 7a 22 bf e6 3f ba 55 8e 6c 90 d7 d7 3f
       0.7108318710892 0.3725319919697899
000550 20 56 3e b1 fa 20 eb 3f da 7d cb 19 59 7e d5 3f
       0.8477757894312994 0.33583667296440256
000560 eb cc 89 c0 cd 07 ea bf f1 a8 73 5e 7e 3f b9 bf
       -0.8134526024354306 -0.0986250858874518
000570 67 f1 f7 63 13 20 e0 bf b2 c6 f3 26 a8 12 e8 bf
       -0.5039154961118982 -0.7522774468217988
000580 d9 96 20 d3 06 6b ee 3f 09 22 78 5a d2 6a d1 3f
       0.9505647777156937 0.27214487872018417
000590 b7 ea 5b 84 e6 2c e8 3f 39 6c ce 8b cc 29 d4 bf
       0.7554810128343296 -0.31505120900118616
0005a0 a1 b7 0b ea 71 46 e8 3f f7 c2 be 94 1e 66 b5 3f
       0.7585992404180965 0.08358946925615017
0005b0 b0 ef 1a 1f 54 f7 ed bf 3e 67 44 fb 8d 63 d6 3f
       -0.9364414794467759 0.34982633149921927
0005c0 22 54 7c ab 2a ca cd bf cf 65 68 60 45 14 ef 3f
       -0.23273213742564375 0.9712244875874435
0005d0 85 10 f5 09 ae 8a e8 bf 89 c4 04 ee 0f 84 e4 3f
       -0.7669286913374128 0.6411208771516083
0005e0 30 6e d1 42 28 cc e6 3f c5 47 78 95 58 89 e0 3f
       0.7124215416947148 0.5167658728917038
0005f0 56 0c cf 00 c3 1b e6 bf 2b 4f 3c 11 cc 9c d5 bf
       -0.6908888831898234 -0.33769513781702426
000600 5b cd 44 4b 76 5b d4 bf cf e0 b4 31 53 1e ea 3f
       -0.3180824027105779 0.816201779444805
000610 4d ea 5b ea 05 26 e3 3f d6 7c 21 39 6a 9b e9 bf
       0.5983914925885273 -0.8002215495906977
000620 9f 2c 69 d7 03 ee ec 3f aa 7b 9e cd 8f 70 c7 bf
       0.9040545661204255 -0.18312261142724867
000630 cf f0 62 e0 7d cd c8 bf bb aa 52 38 c3 a4 ee 3f
       -0.19377110916491921 0.9576126194054589
000640 a4 5b 84 56 ea 0a ec bf 77 a3 58 ba 9c e3 ca 3f
       -0.8763324441705334 0.21007117365777692
000650 b6 01 f4 00 76 f3 e3 bf e3 02 b7 c6 41 d5 e4 bf
       -0.6234693544975503 -0.651032341113105
000660 9b dc fa d5 f9 19 de bf a5 d7 f8 ee d8 af dd bf
       -0.4703354444167844 -0.46385787331689193
000670 61 c8 95 3d 9c 25 9b bf 83 84 68 d4 a4 f7 e8 bf
       -0.02651065946469833 -0.7802299641226828
000680 df 1e 67 16 20 99 e7 3f cd 6e 3e 9f d0 32 dc 3f
       0.7374420583300568 0.44060149718437175
000690 3c 32 7e 88 f8 f7 d1 bf 08 ba 31 43 8f b5 e6 bf
       -0.28075993852033654 -0.7096630394351573
0006a0 0b 6b de 21 a6 43 ce bf d6 49 54 cc a3 ad ee bf
       -0.23643948224783914 -0.9586962691121765
0006b0 2e 25 f1 28 1a 2f eb 3f 96 56 78 c4 14 e8 d7 bf
       0.8494997787139817 -0.3735401075985946
0006c0 dc 20 b5 13 37 b9 ea 3f ea 5f 2f b7 7b b7 df bf
       0.8351092705643413 -0.49557392968335867
0006d0 52 0a b4 f3 2d 76 ed 3f 3b 53 15 26 5d fc d7 bf
       0.9206762084798561 -0.3747780677706946
0006e0 8f 64 f6 7b 47 00 b6 bf 50 77 dc 09 32 5b ec 3f
       -0.08594176079204117 0.8861322586633182
0006f0 11 13 35 ea 09 46 ec bf e1 e9 ce 5e 82 c9 d8 3f
       -0.8835496496545564 0.38729914911860247
000700 a2 23 63 52 41 83 91 bf 90 9b ad 6c f0 88 e8 3f
       -0.017102261212844312 0.7667162058468069
000710 5c 4a 07 a6 ff 68 ed 3f c6 c0 ab ae 63 32 d4 3f
       0.9190672152274817 0.3155755239267929
000720 a6 e3 02 ae 6f af ec bf 66 5d c2 9b b0 9c a7 bf
       -0.8964155577333386 -0.04611732388837701
000730 90 39 81 19 6d c2 e9 3f c9 d8 5b 9a cc 13 dc 3f
       0.8049836633816074 0.4387084491167
000740 fa 17 30 24 19 ae db 3f 37 e1 b3 09 88 45 dd 3f
       0.43250111135455394 0.4573688597443097
000750 b7 a1 e4 8a 41 4a c8 3f 90 0c 19 e3 fa f2 e6 3f
       0.1897661140622071 0.7171606479172556
000760 44 64 de 0a 19 04 eb 3f c4 78 ef 50 93 98 db 3f
       0.8442502224235189 0.431187466658127
000770 1b fa 47 ec 7e 60 e8 bf 12 01 b4 2b 5b 01 d4 bf
       -0.7617792715898902 -0.31258277194867035
000780 be 48 9a cc 3b 6f db 3f bb 20 16 1f 19 fa eb bf
       0.4286641595910047 -0.874279556956956
000790 a2 c4 97 1e 45 2a eb 3f 82 c7 ca 25 11 9e bc 3f
       0.8489099118725287 0.11178691074999672
0007a0 b7 74 b2 e7 80 d1 e9 bf b4 07 72 37 0a 74 de bf
       -0.8068241620382172 -0.47583251394837167
0007b0 7b a0 c4 3f c2 0d d4 bf a3 d8 54 53 df a1 e4 bf
       -0.3133397696242423 -0.6447598102156643
0007c0 94 23 ec b6 6e 71 eb bf 59 63 c6 42 6b 86 c7 3f
       -0.8575967381194567 0.1837896419572427
0007d0 6b a5 2b b2 98 ab ee bf 33 01 83 7f f5 4f c0 bf
       -0.9584468345539511 -0.12744015432509456
0007e0 c6 8e ad ba 38 12 a1 3f f4 1f f9 ff 8b 84 ee bf
       0.03334214476379098 -0.9536800384021249
0007f0 3c 04 3a f7 29 d9 ee 3f 87 cd 8e 82 61 9c a3 3f
       0.9640092686314641 0.03830246657107766

fc1.bias f8 [128]
000000 f3 c7 a2 c5 ff 77 b4 3f 05 ad 10 5f aa ab d1 3f
       0.07995604109854053 0.27610263141350827
000010 a8 88 68 a4 41 49 d7 3f 54 88 56 e0 d7 14 df bf
       0.36384621673108564 -0.48564717205056707
000020 d2 fd c7 af c9 40 e6 3f e1 3f 53 36 2d fb d6 bf
       0.6954086716868295 -0.3590806036490886
000030 20 6c ab fc 73 6c e2 3f 7c bf 43 3e 7c 20 cf bf
       0.5757389006570328 -0.24317887344613698
000040 bd e0 e6 91 0f 62 e4 bf f1 3a c9 81 81 83 ce 3f
       -0.6369703149457774 0.2383882411690688
000050 f0 84 b7 57 a9 7f bd 3f 94 34 9f 00 47 5e ab 3f
       0.11522920981908036 0.05345365412322525
000060 4a e6 ae ef e6 a8 b8 bf 22 2a 20 a4 6c 74 bc 3f
       -0.0963272414363924 0.11115149504636482
000070 cb 70 f7 e3 ec e1 c8 3f 3c 77 18 c6 c8 ab e3 3f
       0.19439469462566303 0.614719759850892
000080 44 d9 22 97 18 37 e3 3f 0f 57 63 44 46 95 e2 bf
       0.600475592792272 -0.5807219825462385
000090 3c c7 39 68 72 b9 e5 3f de eb 68 0d 87 56 73 3f
       0.6788875613840228 0.004721190975540216
0000a0 2f 8b ca 43 15 b7 b1 3f a0 f0 46 8c 00 1f e4 bf
       0.06919987587984332 -0.6287844409739769
0000b0 6b 74 76 d2 21 89 98 3f bf 86 ba 95 bb c2 b4 3f
       0.023960617514252307 0.08109638600810863
0000c0 a8 74 5e e1 0e 76 c1 bf cf 74 e8 0d b8 83 da bf
       -0.13641534809440725 -0.4142894874401692
0000d0 9c 7d 25 64 81 03 a9 bf c7 c7 ad 0d d3 da d8 bf
       -0.048854869341762724 -0.38835598312209324
0000e0 ec ab 9b 28 de a5 de bf 63 f7 2a 70 53 76 9b bf
       -0.4788737675250434 -0.02681856510275028
0000f0 87 77 08 fb e0 6a bf bf 90 6f 43 e9 7a ea b1 bf
       -0.12272459152924685 -0.06998413271816006
000100 97 d8 4c 7f 9e 1d a3 bf 25 3b 57 a1 69 ea d2 3f
       -0.03733535102803492 0.2955574107735848
000110 f1 d0 99 f8 d1 ff c1 bf 68 5e 39 2f c6 b8 b1 bf
       -0.14061951292718036 -0.06922567990238238
000120 fb b9 b3 0d bd a8 e2 bf d7 ad 07 b4 42 0c e3 3f
       -0.5830979602449696 0.5952466503344408
000130 cb 51 df b8 40 2f d4 3f ce d1 76 79 fd 5f e5 3f
       0.31538408330859785 0.6679675457331145
000140 09 50 cb c6 7d 19 e0 3f 5c 88 16 e7 cc 41 d0 bf
       0.5031117327403091 -0.25401613776387477
000150 92 65 4e 9e 53 c4 e2 bf eb 48 42 fa c1 c1 e4 bf
       -0.5864656536024759 -0.6486520660276062
000160 a3 d7 d0 28 7b 75 a9 3f 41 a9 a2 f8 ec 83 dd 3f
       0.049724434597393306 0.4611771038131743
000170 ce 93 c1 a1 b3 b7 e7 bf 18 e6 b4 78 d3 fd c9 bf
       -0.7411745223331481 -0.2030586566341277
000180 17 5c 6e b0 3b 82 e0 3f 17 a2 94 c4 f6 ee dc 3f
       0.5158976026458529 0.4520852012379079
000190 21 5a 13 2d 90 41 e3 bf 89 a5 8b b7 ca b3 d2 bf
       -0.6017533188231178 -0.2922236244617911
0001a0 f4 9b a9 06 50 34 e3 3f a9 57 7f 63 d9 a0 d0 3f
       0.6001358156325964 0.25981745449586896
0001b0 b5 4f 47 b0 b1 54 d0 bf 79 8d a2 00 d2 09 c3 bf
       -0.2551693173857033 -0.14873719244961217
0001c0 31 71 bd b9 9e 45 db 3f 2d 91 0f 37 6f fb d4 bf
       0.4261242689006109 -0.32784633996040463
0001d0 a4 67 82 0a 7c 80 e1 bf 94 a8 8e 6f 53 b1 e5 bf
       -0.5469341473828888 -0.6778962305882197
0001e0 c5 e0 5c 97 18 1a ce 3f 77 fc f4 49 69 77 d8 bf
       0.2351713885379977 -0.3822882864223582
0001f0 e0 88 eb e9 11 b3 d7 bf 7a 3a fb 0b 71 5e e5 bf
       -0.37030456393962474 -0.667778514290901
000200 5a 99 9f f7 42 6c dd 3f da a9 d8 a7 0c 7b e3 bf
       0.4597327631185145 -0.6087706831215727
000210 02 6c 13 1f 87 c8 d0 bf df bc 04 41 9e 1b d8 bf
       -0.262239246699835 -0.37668567990745133
000220 b4 ef 33 8b 60 87 c8 3f 73 66 af 43 59 13 d3 3f
       0.19163138196006246 0.2980559502590047
000230 a9 4c 39 29 0a 7d e0 3f 79 9e 03 b5 00 df e1 3f
       0.5152636342194415 0.558472016852604
000240 71 02 08 4e ee bc a1 bf ca 68 ef 54 fa 1e c5 3f
       -0.03464455320864069 0.16500786921716887
000250 60 de e8 42 2f af de bf c4 b3 2d 39 f7 14 e7 bf
       -0.4794424203314289 -0.721309291531377
000260 11 28 0e da 9f 72 b6 3f 65 79 0b 02 71 55 c1 3f
       0.08768652986159987 0.13541996574253826
000270 69 f4 06 27 13 4f b3 bf 37 1d eb f0 85 19 e6 3f
       -0.07542533591090862 0.6906156259000572
000280 e3 52 d0 88 d3 f7 b4 bf 53 a1 31 aa 6b 4d d9 bf
       -0.08190652933292202 -0.39535037632460507
000290 a3 e9 76 3e b6 45 dd 3f b4 93 82 a1 f1 a8 c5 3f
       0.4573798761372478 0.1692182577727671
0002a0 04 a6 6a 24 64 17 e3 bf 3c d3 85 07 3a 45 da bf
       -0.5966053687345156 -0.4104752610649489
0002b0 c7 cd d6 4c b9 57 e2 3f 32 0f 32 fd fe 29 db 3f
       0.5732084751857024 0.42443823553206805
0002c0 7b eb 79 1a 4c 24 c3 bf e5 fc db fe e1 61 e2 bf
       -0.14954520504747024 -0.574448583385586
0002d0 fc 38 92 b9 73 ad e4 bf 0c 96 c7 9c 31 12 9b 3f
       -0.6461733459889554 0.02643659133345548
0002e0 3e 5f 48 55 27 e6 a9 3f ea fd 05 6a eb ad 9c bf
       0.05058405796097397 -0.028007200571208125
0002f0 e4 25 82 a9 aa 62 de bf c2 2d 98 8b b2 74 e4 3f
       -0.4747721343379381 0.639245293279082
000300 70 ce 58 4e 6d de de bf 23 64 15 e3 9b 4e a4 bf
       -0.4823258652788587 -0.03966223856941322
000310 3a 2d 62 b1 85 b7 d8 bf 7f de 79 96 56 48 cb bf
       -0.38620130846603085 -0.2131450876947731
000320 96 56 27 04 43 be db 3f cc f9 7c 1f 66 b5 db 3f
       0.43348765760070174 0.43294671130197737
000330 d4 7b b3 b6 1d 06 e8 3f 6a 22 60 ae 6e ff e3 3f
       0.7507465904599209 0.6249307065746283
000340 ff d2 aa 55 8c 61 e0 bf 95 10 f4 93 87 ad e4 3f
       -0.5119077370823958 0.6461828126634993
000350 5d cc 63 f2 d9 3c c4 3f 26 9d a7 5d 65 d8 d7 bf
       0.1581070359748961 -0.37258276124926437
000360 09 1d 5f e7 2e 8f ce 3f c5 2e cf e0 25 ec bb bf
       0.238744605039962 -0.10907208193310243
000370 9b fc e5 97 2c 25 dd bf 33 31 ec c3 4b da d0 bf
       -0.4553939326651261 -0.26332372792309683
000380 a2 16 89 cb 48 89 e4 bf e8 6f a2 ff 6f 37 ce bf
       -0.6417583442023054 -0.23606681806711483
000390 21 6d 78 d6 35 36 dc 3f 2b 50 cd 2d 18 90 d9 bf
       0.4408087343633316 -0.3994198272023392
0003a0 8c a5 3e 3c 54 dd e8 bf aa 6c f2 81 57 75 e5 bf
       -0.7770177055983125 -0.6705739534403581
0003b0 cf e3 9b 95 21 5f d4 bf 01 38 ed e7 70 28 e2 3f
       -0.31830634699104804 0.5674366502587419
0003c0 09 98 4c ba ca 27 cd 3f 3f ba 56 4e d4 87 e0 bf
       0.22777685257568717 -0.5165807275823865
0003d0 04 1c ab 68 2a 69 d6 3f db 65 6a 23 8d 4f e6 3f
       0.3501688024666125 0.6972108546935333
0003e0 33 0a c6 07 47 be de 3f d8 38 c6 f7 91 55 d0 3f
       0.480363614646339 0.25522278973302326
0003f0 7f d9 6c 6f 50 22 d3 3f 81 4e 27 fc 8c d6 d0 bf
       0.2989693725716264 -0.2630951368748598

fc2.weight f8 [1, 128]
000000 58 f2 29 15 07 6e 12 40 cb f7 32 37 b6 48 f9 bf
       4.607448893246861 -1.5802518993582335
000010 1d 74 c5 90 d7 3c 1c 40 00 00 f8 35 b0 cf 82 3e
       7.059416067172632 1.4015497649955133e-07
000020 7d fd 1a 5e 9d 6b 12 c0 00 00 28 9a ff 4c 65 3e
       -4.605092497250891 3.9675785563214605e-08
000030 71 d2 17 b6 b6 2a fb bf f7 42 d4 7b 41 27 16 c0
       -1.6979281533250765 -5.538335738020343
000040 cf fe ab ca 13 73 d0 bf 8e 58 be 5d c9 61 0c c0
       -0.2570237616746284 -3.547747356768986
000050 f8 f1 1c 27 c6 11 3c 40 e0 31 ea a4 5d 52 e2 3f
       28.06942982155485 0.572554418658509
000060 e6 34 9e de 9a 78 08 c0 35 cc 17 51 15 01 02 40
       -3.0588891403227647 2.250528939760921
000070 b3 30 ba 62 45 48 df 3f 46 50 39 71 f0 27 03 c0
       0.48878607407892644 -2.394501576005527
000080 92 d3 56 75 79 6f 00 40 00 00 00 00 00 56 ac bd
       2.0544308821794823 -1.2885692513009417e-11
000090 86 03 1d 9a 75 6a 29 40 e0 0f 01 0d 09 17 d5 3f
       12.70792848209545 0.32953096647201896
0000a0 7d 51 a0 f3 58 31 2f c0 00 00 00 00 40 cd 9b 3d
       -15.596381772346598 6.321387857610716e-12
0000b0 5f 0b 82 b6 7d f1 27 40 29 3c 57 6b cb 8f d2 bf
       11.971662238478244 -0.2900265262841822
0000c0 58 e9 e6 0d a9 57 ec bf 34 66 5d 38 3e 5a 13 40
       -0.8857007285617255 4.838127976132046
0000d0 e1 5d db 60 0f 85 ee bf 9d 68 35 84 ef ab 15 40
       -0.9537426845299103 5.417905870208554
0000e0 cc 3a 66 56 49 d7 f7 bf 8a 20 f6 24 ef 7c 17 c0
       -1.490060174462701 -5.8720060134147705
0000f0 0e 71 87 bf 94 38 12 40 00 00 00 00 54 a2 b6 bd
       4.55525492920084 -2.058558878914596e-11
000100 ba a7 f5 f0 3f 96 fd bf 6e b8 d0 97 5c 97 e7 bf
       -1.8491820728763586 -0.7372267689841132
000110 b4 bc bc 8c 80 04 05 40 28 af 47 e2 64 eb 03 40
       2.6271983141992568 2.489938514530781
000120 0d c0 f9 74 23 a5 fb 3f 9f e0 51 a7 c1 5e df 3f
       1.7278170174940926 0.4901584753020049
000130 86 16 f2 49 09 99 ee 3f 0b fd 27 2b 4f 78 1e c0
       0.9561811870814416 -7.61748950416155
000140 2a b4 77 e6 13 8d d5 3f bc a8 19 97 3e e3 0a 40
       0.33673570162392485 3.360959225149683
000150 b8 2e 77 38 4a d3 fe 3f 50 5c 6b bb 5a 50 0a c0
       1.9265844541250043 -3.2892355577601293
000160 69 60 d7 87 e1 b3 05 c0 5e 05 e5 5c 29 3c fe 3f
       -2.7128325092890475 1.8896878842063738
000170 c7 47 4c 8f 4d bf 12 40 a1 4c cb b2 68 02 03 40
       4.686819304495606 2.376176258877948
000180 99 e6 2b ba 8c 6b d3 bf 70 e0 f1 27 85 07 cd bf
       -0.3034393137055332 -0.22679199648314663
000190 f1 fd 7d 0a 4f 72 15 40 2d 9a b5 a4 98 31 0f 40
       5.3616296424292935 3.8992169254227265
0001a0 14 45 26 fb 13 0b ff 3f 9b 56 21 34 07 1e d8 bf
       1.940204602291776 -0.37683277216761163
0001b0 ca 64 aa e8 d3 0e e0 3f ae 57 58 c0 e7 49 0d 40
       0.5018100303888329 3.6610865618667594
0001c0 43 81 a4 5b 17 03 18 c0 a8 d6 83 08 de 7b d6 3f
       -6.003018791118225 0.3513102610735168
0001d0 f7 59 98 23 8e 84 0f 40 54 ad 3f 43 58 bc ff 3f
       3.9397242337101903 1.983482611360917
0001e0 39 41 4b d1 81 0f 09 40 9a 22 08 6f 8b 76 00 c0
       3.13257182608518 -2.0578831362111716
0001f0 7a 1f 22 ab 5b 38 00 40 40 c5 e7 7b 7e 65 ee bf
       2.0275185937679767 -0.9498894138361393
000200 d9 e7 a6 3a b4 69 05 c0 14 1f 41 f6 82 b9 ee bf
       -2.6766132909951748 -0.9601454553275937
000210 6e 1f 44 c8 c7 57 eb 3f bb f1 65 b7 05 46 e8 3f
       0.8544653808066707 0.7585476476665954
000220 db cb d2 3a d7 e9 e4 3f 8e 8a d0 1a 2d 15 e7 3f
       0.6535450123686773 0.7213349841807302
000230 e3 ea 5c 81 e5 0d f9 3f d2 73 e3 ce b0 85 f0 3f
       1.5658927014580335 1.0326393205243574
000240 c0 ad f4 5b 1f 5a 05 c0 56 50 36 a2 fe 9e 00 40
       -2.6690051254315392 2.077634112627531
000250 3b 91 e1 5f 44 e7 f7 3f 7c 34 42 8d 8c 4a 12 40
       1.4939616914135303 4.572801787534555
000260 f0 09 21 11 7e 2f b5 bf 50 bd 56 ee a0 f6 b2 3f
       -0.08275592725934877 0.07407575434512137
000270 67 dc 29 35 57 8d f5 bf 30 7b c6 8b 69 5d 1c c0
       -1.34700699584007 -7.091222938527423
000280 c8 06 1a 3d ac 32 dc bf 6c fe 23 cc b4 52 13 c0
       -0.44059282271346634 -4.830767812439813
000290 00 02 74 fc ae 72 04 c0 fe bf 5a 6d 0d b3 ea 3f
       -2.5559978220846915 0.8343569885091708
0002a0 40 b8 bd a6 1f b8 df 3f 4d 11 c4 60 f1 71 00 c0
       0.4956130150156959 -2.0556361732325628
0002b0 b4 82 6a e0 51 ca e1 3f 6a 26 e8 0f ab 88 d5 3f
       0.5559472449422942 0.33646656564142197
0002c0 03 7f 4f 19 a5 d9 01 40 04 f9 3f 8b da 0c 0f 40
       2.231271932352571 3.881276214494507
0002d0 27 d5 7e c6 24 c8 f4 3f b4 ef 25 8e 37 60 01 c0
       1.2988631967285273 -2.1719809632613423
0002e0 5c f1 f5 c0 d9 9f e7 3f 70 43 67 2b c6 6a c2 bf
       0.7382630127681682 -0.1438834869318515
0002f0 d6 31 dd 42 bf 9c e4 bf d9 e1 20 3a 22 c9 0d c0
       -0.6441341691911997 -3.7232098141941887
000300 00 44 ff 68 e5 b3 e1 3f ee d1 04 23 a1 a4 e8 bf
       0.5532099772191259 -0.7700963672601213
000310 18 58 ad 89 63 0f b4 3f 40 ce 6b ab 38 89 84 3f
       0.078359814751224 0.010027353984219833
000320 49 f2 83 a9 bc b9 ec 3f 28 dc 16 da e5 67 de bf
       0.897672968945309 -0.47509142205984967
000330 a4 35 ae 8b 39 1c 06 40 d0 95 73 a7 81 bd df bf
       2.763781634572938 -0.4959415564793206
000340 5c 57 cd b2 35 73 e7 bf 66 c3 43 33 25 76 e1 3f
       -0.7328136913517755 0.5456720353377988
000350 25 b9 f8 9d cf 2c e5 bf b2 a9 a4 f1 5e d4 fb bf
       -0.6617200932867361 -1.7393483580768643
000360 0b 7d bd 9d 1d 14 00 40 89 6e bb 54 4b 1c f3 bf
       2.009822113366345 -1.1944077787256069
000370 ce 5f ae f1 98 11 da 3f fe 9f 59 eb c7 d5 e8 3f
       0.4073240623633837 0.7760963055307
000380 4a 43 53 ce a3 b8 e1 bf d3 01 9b af d5 e8 fc 3f
       -0.5537890462675048 1.8068444118108473
000390 fc 11 7b de 4b 0d e4 bf e6 9c 43 27 83 39 04 c0
       -0.6266230912520423 -2.5280821864613356
0003a0 bb a9 08 00 d2 80 03 40 4e 99 84 6e 50 48 d2 3f
       2.4379005434650174 0.2856637076642031
0003b0 d8 ed 92 53 6a 1b b4 3f ce 76 e5 64 f9 3e 05 40
       0.07854332485560833 2.6557491190459137
0003c0 2c 97 35 d2 5d d4 d9 bf 66 8c 36 e7 55 c9 e7 bf
       -0.4035868218255583 -0.7433270946388688
0003d0 f6 d9 6a 3a a6 16 f7 bf 92 f6 39 d5 3d 31 e2 3f
       -1.4430296213082534 0.5685109295443047
0003e0 2c 26 21 3c af 1f e5 3f 67 ab 9e 30 1e 60 da 3f
       0.660117738190086 0.41211657283809305
0003f0 f0 8f 6a a2 f8 9c d3 3f b6 a3 30 4e 5d 3d e4 3f
       0.3064557634445455 0.6324907805584334
