FixedSizeIterativeOGA/data/model_cos4pix1cos2pix2_N_2048_neuron_32_epochs_64_randomized_5.pt (torch, 2806 bytes, 3 tensors)

fc1.weight f8 [32, 2]
-0.31100572259662196 0.3791568904543378 0.14420733397580834 -0.2664743666157368 -0.3920874632644324 -0.5720925463025281 0.30788584612801984 0.14494955961824663
-0.2212694242152376 -0.23855357882155406 -0.6116777831548876 0.5013622421030411 -0.19694268648105098 -0.08856755874244028 -0.8215530691574393 0.5179433817693532
0.7087701504843622 0.24641449114601405 0.8731444390947408 -0.4113984647141308 0.32084845360230557 0.7550071571924776 0.8643535979083211 -0.4959300729007409
-0.5762112569697361 -0.30954694576096947 0.7254067892770641 -0.39007406933475924 0.8818736757220346 -0.4365523384552884 0.718558959693409 0.4067860973455254
0.8127055807499669 -0.5819118474065027 0.36941059916218566 0.6570876452911955 0.8365897506655571 0.372815459388002 -0.8190563104195617 0.4042818236916808
0.6523268069986411 0.3912731764444367 -0.9810954706799228 -0.06544540628528923 -0.024483290934198654 0.9809725910894027 0.8758239733814998 -0.48227448773956594
-0.40917402239974304 -0.833903944744687 -0.7725600246302989 0.5324267968122627 -0.7658366489373186 -0.06231996194550944 -0.05485204484771977 0.791380438550815
-0.8231090166322214 -0.46321551370284697 0.5908861060465307 -0.805907794244558 0.09319940115950891 -0.8848645780467806 0.5898786982389733 0.4348067084309155
00000000: 3af7 da8b 84e7 d3bf df7b 2343 1b44 d83f
00000010: 397d a2cb 6275 c23f d58f 7580 ea0d d1bf
00000020: 131c f903 f617 d9bf 80f3 1407 954e e2bf
00000030: 405a 01d6 66b4 d33f e8a2 1009 b58d c23f
00000040: 22fa 4d76 8e52 ccbf 49f0 b075 ec88 cebf
00000050: 76e1 4a49 dd92 e3bf 7904 29d4 280b e03f
00000060: edad cffe 6a35 c9bf 090c 4910 5dac b6bf
00000070: 46b5 7ea9 294a eabf e320 bcff fd92 e03f
00000080: 40c3 16bd 3eae e63f 3ac6 5d92 828a cf3f
00000090: df13 539b ccf0 eb3f 6698 e439 5a54 dabf
000000a0: bd6b ccf3 c788 d43f 6767 0cc5 0429 e83f
000000b0: 0d47 66e0 c8a8 eb3f 7f8a 0d7d 51bd dfbf
000000c0: c9b4 0897 5270 e2bf e5ae 27fe 9dcf d3bf
000000d0: 2cb9 874c 8836 e73f 0bde b33a f9f6 d8bf
000000e0: 09be 8d24 4f38 ec3f 2e19 2a38 79f0 dbbf
000000f0: f030 045c 6ffe e63f 9a41 248e c808 da3f
00000100: 2321 5322 af01 ea3f 0582 3898 059f e2bf
00000110: 6ca1 8c5a 6ca4 d73f e133 64ab dc06 e53f
00000120: 26e0 68de 57c5 ea3f 98f0 605f 35dc d73f
00000130: bfb3 5a94 b535 eabf 59df c7de c0df d93f
00000140: e39f cb77 dcdf e43f 8e60 28a6 9e0a d93f
00000150: 2b5e 1a54 2265 efbf 3533 abb7 07c1 b0bf
00000160: 207f 71d7 2512 99bf 300b a0a1 2064 ef3f
00000170: fb3d 57ff bf06 ec3f 7857 22d0 95dd debf
00000180: 4719 253d e82f dabf dee1 5553 57af eabf
00000190: a77d ffcc cfb8 e8bf 9a53 faeb a309 e13f
000001a0: d372 28dc bb81 e8bf 7a4a e3ec 66e8 afbf
000001b0: 90b7 7a35 9115 acbf eca2 c811 fd52 e93f
000001c0: af4c 6fb8 e856 eabf daa0 96ae 52a5 ddbf
000001d0: 2e2e a4fa 89e8 e23f 64e6 7b24 ffc9 e9bf
000001e0: dba3 fc7b eadb b73f 4131 0385 cf50 ecbf
000001f0: e363 b14a 49e0 e23f 3cb3 3284 dfd3 db3f

fc1.bias f8 [32]
-0.34180419369896037 -0.01837788141830299 -0.6901391047763347 0.22487982958001024 0.08449377666305083 0.3812335019723906 0.6790358153606202 -0.2382964704718009
-0.6610028535003656 -0.2614767517558424 -0.5718570296928616 0.08334398943898698 0.7564134290924588 -0.567121865654431 -0.17810355374816952 -0.5640905002308783
-0.02980337004115772 -0.6570933233813194 -0.4014053092855824 0.4070662936112779 -0.6491340680214206 0.18212242093573797 -0.19259632394304627 -0.018538773578133397
0.37037930602622054 -0.34593744287004485 0.6400081636100966 -0.6088581564331248 0.32851626231245434 0.03696264136988915 0.45643022483354645 -0.6804309279180121
00000000: dba6 64b2 1ee0 d5bf 2140 a5be a6d1 92bf
00000010: f98f 969a 9e15 e6bf d6c0 c9bc dcc8 cc3f
00000020: 9abb 7b57 62a1 b53f 1e1a c733 2166 d83f
00000030: 7c2b 7951 a9ba e53f d7dc b6ad 7f80 cebf
00000040: 9218 cb74 ef26 e5bf 6e29 5dfc 08bc d0bf
00000050: e497 101d a74c e2bf 0568 f51c 0856 b53f
00000060: 69a2 86ef 8934 e83f 18a2 3ac1 dc25 e2bf
00000070: 8b2b 53e5 18cc c6bf 983a 4f85 070d e2bf
00000080: baa7 8c4e c684 9ebf 8ef7 ca93 e806 e5bf
00000090: 3ea1 f4e4 9fb0 d9bf e051 97c8 5f0d da3f
000000a0: d8e2 1bcf b4c5 e4bf 91c7 e498 c94f c73f
000000b0: 7425 5510 ffa6 c8bf e474 e708 d4fb 92bf
000000c0: d7db 9f67 4bb4 d73f 71ad e5cc d623 d6bf
000000d0: b51b 7c66 f27a e43f 580f b919 c47b e3bf
000000e0: 7683 b512 6906 d53f c203 b76f c4ec a23f
000000f0: 7e39 241e 2736 dd3f 9008 d314 17c6 e5bf

fc2.weight f8 [1, 32]
-7.869678185874935 -0.21566828584660327 1.148459105593247e-11 37.0969612111133 25.110644228735516 5.249835805976255 -32.26479010650357 6.211823340023266
-10.12523563394201 7.16292677762148 -0.7406492182006974 -7.448153105086152 16.90484756815274 9.669918347795718 8.74158877022758 12.867612219516735
-1.8111617900126877 1.7559623141185967 -13.564122087933775 -12.088853356913033 -4.031293256433867 4.351566315361844 -1.2675905965553333 -5.951451659954176
1.5492370969346836 7.002031017594436 3.3769581701110805 -0.7260442234973988 -2.0107247174507332 -1.0468650889629498 0.9050754494867429 -3.7107241643445956
00000000: 8482 19eb 8c7a 1fc0 e16d 3fb5 049b cbbf
00000010: 0000 0000 4041 a93d 295b 9739 698c 4240
00000020: 02e9 1f2e 531c 3940 b926 20f5 d4ff 1440
00000030: 5cde 67a4 e421 40c0 b9b7 b737 e8d8 1840
00000040: 4726 90e2 1e40 24c0 911b f646 d6a6 1c40
00000050: dc5b 3ffd 65b3 e7bf 93c8 c7a5 e8ca 1dc0
00000060: c614 1917 a4e7 3040 c28b a589 ff56 2340
00000070: a86a f685 b17b 2140 63de 38ab 37bc 2940
00000080: b5e8 fdc8 84fa fcbf 9a5d 82f0 6b18 fc3f
00000090: ec40 3d9c d420 2bc0 9f29 ec2f 7e2d 28c0
000000a0: 0de0 e356 0b20 10c0 d96a 0b00 0168 1140
000000b0: b0c1 ce13 0d48 f4bf 93e9 0c58 49ce 17c0
000000c0: e659 91d6 acc9 f83f 3395 486b 1402 1c40
000000d0: 5fb2 24a5 0204 0b40 95df 6b18 c13b e7bf
000000e0: 8cad 35d7 f615 00c0 52b8 869b f5bf f0bf
000000f0: 6fa8 fec9 60f6 ec3f 1cb2 9226 90af 0dc0
