FixedSizeIterativeOGA/data/model_cos4pix1cos2pix2_N_2048_neuron_64_epochs_128_randomized_8.pt (torch, 3835 bytes, 3 tensors)

fc1.weight f8 [64, 2]
000000 e9 12 32 26 0a 5a e2 3f ef f9 aa 56 d5 56 d3 3f
       0.573491167641433 0.3021748873105982
000010 94 47 7d 90 cc 15 a4 3f 15 4e dd 17 a4 f4 ab bf
       0.03922881377970025 -0.05460083762468685
000020 9f 6f 42 7b 9c f2 ae bf b8 1b d6 b1 3c b0 d4 bf
       -0.06044472698815117 -0.3232566582377632
000030 7d ad 87 d1 44 9b ae 3f 73 2b a4 85 94 da d5 3f
       0.059778357102767445 0.34146607447535543
000040 3e 7a fd f8 f8 63 db 3f e4 4f ca a8 c3 81 ba 3f
       0.4279768401665115 0.1035425459943436
000050 b6 f4 31 76 59 b3 d6 3f b6 c0 8d 19 fc ec d3 bf
       0.35469662230009236 -0.31133940215569156
000060 8b 3b 21 3b f2 6a de 3f 19 8c c7 77 50 46 e6 bf
       0.47527747892757394 -0.6960832919543264
000070 e4 ce cc d6 07 ee d9 3f 2e 0e f8 ca cc 18 e1 bf
       0.40515323616567245 -0.5342773403394341
000080 39 fc 8f 91 08 4f b0 bf dc 91 d3 db 46 56 c2 3f
       -0.06370595506449285 0.14325795873368363
000090 08 65 0b 10 54 bd c8 3f 1d e0 12 8a b1 65 bf 3f
       0.19327784331725462 0.12264546986523368
0000a0 0f 16 4e b3 1e b8 e1 bf 3b 90 04 ec 18 29 c2 3f
       -0.5537255765963794 0.1418791916304388
0000b0 ed 7c 4e 73 8b d6 d0 3f 5d fa d8 a1 fa 0f d3 3f
       0.26309477100762885 0.2978502827208212
0000c0 bf 0e b0 ea 10 84 aa bf 7a e8 5f 59 8c 47 d8 bf
       -0.05178883423653024 -0.37936695793144504
0000d0 dc 8f 31 19 a8 3c d2 3f 14 35 cf ff fc ac d9 bf
       0.28495218715965875 -0.401183366598006
0000e0 26 2b 36 e9 32 61 c5 bf 4a 0f e1 21 2b 38 d5 bf
       -0.1670287741402145 -0.33155325230130883
0000f0 7c 07 db 51 fb f3 d5 3f 97 60 94 6d 18 84 e3 bf
       0.34301646226605675 -0.6098749294497051
000100 e5 40 40 06 b5 10 ba 3f 6d 49 a9 3a 86 9a be 3f
       0.10181743052112642 0.1195453541961677
000110 56 09 9c 73 4c 4d e6 bf 69 99 7d ea 8b 6a d4 3f
       -0.6969358690260303 0.319003085131405
000120 3a f0 6a 42 1a f8 df bf ce 59 77 df 2a a5 c4 3f
       -0.49951797948938614 0.16129051124035104
000130 86 2f bd a8 8d 0b e6 bf 55 6f de d5 01 22 dc 3f
       -0.6889103217776984 0.4395756329120009
000140 24 a9 45 c2 b6 c9 e7 bf 1d 61 fb 37 63 1d d6 bf
       -0.7433732790353003 -0.3455436751078354
000150 25 83 59 47 49 ff b0 3f d1 ec 6c da 1a 1c ee bf
       0.06639535896239275 -0.94093077336529
000160 65 aa bc 54 8d e8 e6 3f ef 1f 2b 3e 58 22 e4 3f
       0.7158877043742221 0.6291924680926949
000170 42 82 70 6f 82 5e e8 3f 98 73 c5 b3 31 ac d9 3f
       0.7615368057777874 0.40113489681044134
000180 4e 63 51 52 4c 8a e1 3f ce 66 c4 00 88 0a e2 3f
       0.5481320960781007 0.5637855544075252
000190 5e 8c 8d 93 26 85 e8 3f fc be 29 15 57 fe d4 bf
       0.7662537462132482 -0.3280236918135271
0001a0 8f 28 85 61 46 5b ea 3f e4 43 81 3f 81 ee d8 bf
       0.8236419586840088 -0.38955718232779035
0001b0 8e 04 01 19 fa 92 e9 bf f2 38 8b 89 7a 3d dd bf
       -0.7991915214880849 -0.4568773596955814
0001c0 07 b1 50 ef a9 50 ed 3f 4d 81 61 d2 d9 a7 d7 3f
       0.916096656239035 0.3696198038578771
0001d0 bd 69 d0 fc f7 38 ef bf a2 5b 67 6d 32 e3 ae 3f
       -0.9757041871810582 0.060327125410984964
0001e0 fc 37 3a ec 8f 3e ec 3f a2 97 df 17 af 1f dc bf
       0.882636987096475 -0.4394338353289361
0001f0 c8 07 76 a8 b0 32 e7 3f 01 30 fd 61 08 75 ce 3f
       0.724937752748013 0.23794655594463168
000200 92 c5 f0 ae 61 10 e7 bf 7b 10 f2 f1 fc 97 d6 3f
       -0.7207497040564468 0.35302661540504915
000210 70 87 3f 3c 5c 79 e9 bf 52 77 c8 45 d9 6b da 3f
       -0.7960644890519983 0.4128325635409641
000220 bf bb 4a b4 55 69 ee 3f 7c 05 6d 73 3d e0 d3 bf
       0.9503582497908311 -0.3105615260320389
000230 35 b1 c7 e3 ec fb eb bf 88 98 a2 34 d8 f2 9f bf
       -0.8745026062802369 -0.0311998159528675
000240 37 5b b3 a3 3f 3b ea bf fa 63 c2 3f c4 1e d1 bf
       -0.819732494094615 -0.26750284410951475
000250 f3 cb 9b 46 53 d1 ed 3f 15 2a 4f 21 9c 7b aa bf
       0.9318024043153613 -0.051724318567341644
000260 eb 76 88 b1 61 f6 ec 3f 6b 0d 19 50 68 0e d7 3f
       0.9050758807604472 0.3602543623166727
000270 60 8a d6 f4 49 7d e7 bf 26 e3 9e 3c f7 91 e3 3f
       -0.734044054221453 0.6115680870053424
000280 db 6a dd 51 54 f5 e1 3f 54 93 d2 cb ac 2f ea bf
       0.5611974333690698 -0.8183197003278146
000290 e2 59 a2 22 4f 77 eb bf b2 52 eb fb e4 46 e0 3f
       -0.8583141018341929 0.5086541099832032
0002a0 a2 a1 e9 92 c5 fc ec 3f 07 e4 0a 79 51 e1 da bf
       0.9058559293162498 -0.420002334790809
0002b0 4a fb 28 51 dc 56 d0 3f a3 69 b9 7b 9b ce ee bf
       0.2553015511111211 -0.9627206245889294
0002c0 08 f1 87 6a 28 fd e4 3f 4c 27 f7 96 7a 32 e2 3f
       0.6559030609783187 0.5686619709533516
0002d0 2e ca 06 a6 a9 51 e6 3f 26 bb 3c 31 a1 9a cf 3f
       0.6974685900407331 0.2469064226547399
0002e0 b7 4b c9 b9 34 08 e2 3f cd f3 91 a6 10 79 e0 3f
       0.5635017040861986 0.5147784474680691
0002f0 2f b8 92 38 75 91 e4 3f f4 7a a1 d7 a0 d0 d1 3f
       0.6427560906356627 0.27835866029447165
000300 e0 99 54 63 1b 9b e0 3f 5a 3b 20 35 3e fe ea bf
       0.5189339580581951 -0.843535522233519
000310 f2 44 21 16 b4 ad e9 3f 13 84 8d ac d3 41 db 3f
       0.802454035971236 0.42589275217875516
000320 ef 61 cc a7 fb 7e ec 3f b6 9b 57 0c 6a b5 da bf
       0.8905008580505277 -0.4173226471452226
000330 b2 0b c6 5c e6 07 e1 bf 97 49 02 98 65 3a ea bf
       -0.5322143375382125 -0.8196285218166847
000340 8a 24 76 d2 13 06 e6 3f 5d 19 d3 c3 47 a1 db 3f
       0.6882418737960887 0.4317187702512422
000350 93 70 35 be 3b 4f e4 bf 09 f0 8a db 47 81 e5 3f
       -0.6346720423712376 0.6720313346809245
000360 43 16 7c 7b e9 2a e6 bf b7 90 ab 7c 31 dd c2 bf
       -0.6927382861910661 -0.14737528407488806
000370 17 0e 6b 00 4a e4 ef bf 34 23 d6 ac c9 76 a5 3f
       -0.996617317978635 0.04192190394230125
000380 7f 55 ed 43 97 8c ec bf aa 57 40 d8 a0 0c d3 bf
       -0.8921619726849456 -0.2976457702474088
000390 bf 31 68 1d d9 c2 a7 bf 41 37 0f 1c 52 ea ef 3f
       -0.046408448066447054 0.9973536060367466
0003a0 ec e8 d1 85 c2 ed e4 3f 97 26 78 c0 fc 00 d7 3f
       0.6540234197302914 0.35943526073297377
0003b0 3c 88 09 71 8c df e3 bf 95 71 6a 3f f3 b2 d6 bf
       -0.6210386474379059 -0.35467225258778373
0003c0 de 72 2e 62 b5 b8 e7 3f 3f b6 3e 5e 0b e7 d8 3f
       0.7412974279028182 0.3891018314705867
0003d0 dd c3 a1 48 c0 18 ee bf a7 2b 7c d6 92 58 d5 3f
       -0.9405213755218217 0.3335311026173095
0003e0 a1 78 09 46 3d 4a e9 bf c8 61 fb da 9e 87 e0 3f
       -0.7903124206457229 0.5165552403441831
0003f0 aa 06 74 db d4 ad ea bf c8 04 57 f8 a9 e1 d9 3f
       -0.8337196623035272 0.40439843418068877

fc1.bias f8 [64]
000000 a5 d0 86 71 d5 c1 d5 bf c1 38 c6 8d ec 30 e3 3f
       -0.33995567404350374 0.5997221726445546
000010 86 2c 0a 03 eb 3d cb 3f 44 fe 3f 6d 69 b7 d5 bf
       0.21282708786415955 -0.3393195692915223
000020 22 f3 3a 36 74 dc e0 bf 7d ec 97 fd 1f 95 d7 bf
       -0.5269108828721054 -0.368476865434509
000030 cf 1e 86 fe 7f a1 c4 3f e2 12 35 4c 6e 4e e3 bf
       0.1611785881798284 -0.6033240784095961
000040 74 c7 b8 31 1b 7d cf 3f 31 78 79 af 60 bb d0 bf
       0.2460054390699572 -0.26143662582569777
000050 d7 c1 90 48 6f e8 81 3f f0 07 2d 3b 7a 2d a0 bf
       0.008744115259191538 -0.03159696552621927
000060 d6 7b 9c 5e e7 52 a5 3f 51 d4 60 ce 8a a6 d1 3f
       0.04164813070223487 0.27578992990612955
000070 34 6f 97 c2 e7 1f d5 3f 0f 6f 29 15 fc a6 a8 3f
       0.330072345763017 0.04814899214099288
000080 a4 06 00 a5 54 35 df 3f d5 6c c1 6e 17 c7 c9 3f
       0.4876300441102137 0.20138829143511452
000090 12 65 6b de 35 60 b3 bf 9c cf 39 84 21 bb c1 3f
       -0.075686804582251 0.13852328258837765
0000a0 a0 09 ca 13 a2 53 e2 3f df 34 78 e7 e7 3f d5 3f
       0.5727091204174037 0.332025505108346
0000b0 02 50 5b a0 48 5f d3 bf 97 33 d1 a0 4d 4a e0 bf
       -0.3026906553252503 -0.5090702191315469
0000c0 f4 0c 4c d0 26 c5 e3 bf 8b 28 52 59 13 ae e1 bf
       -0.6178163593580437 -0.552499460654205
0000d0 b6 33 76 28 7f 60 da bf e1 be 11 ba 54 ff d8 3f
       -0.41213969184246524 0.3905841652949516
0000e0 ce f8 56 88 09 e4 c3 bf cd 81 12 5e b0 f5 ca 3f
       -0.15539664418424198 0.21062283128141104
0000f0 6f 0a 07 00 6a 5c c5 bf b2 15 b6 53 65 af e4 bf
       -0.16688275338499944 -0.6464106211648668
000100 8a b9 b4 7a 13 17 e3 3f da 95 0a b7 bd 52 dc 3f
       0.5965669056511598 0.44255011439449066
000110 f4 ef a8 54 73 b7 93 bf 4f ff 88 6f 1f fa de 3f
       -0.019254495661002083 0.4840162839136512
000120 39 b2 e4 66 c0 34 e0 3f 13 f0 39 3b 24 fe d6 bf
       0.506439400638164 -0.359261567915156
000130 dd 5f f0 51 01 ec cc bf 3e 18 55 06 22 e5 d2 bf
       -0.22595230580259243 -0.2952351629104476
000140 41 43 53 7c 86 c7 bf bf 86 54 87 d7 54 4d b1 bf
       -0.12413826499256421 -0.06758623372964409
000150 d0 b1 eb 2f aa 26 ac bf c7 a6 03 a1 18 e2 b6 3f
       -0.05498248896569502 0.08938745432865423
000160 d4 bc ba 03 0c c5 df bf 9c 72 48 4c 0f 87 e5 bf
       -0.4964017902775144 -0.6727367868330307
000170 7b 24 a2 7b 00 ad e4 bf e0 b9 22 08 b5 d6 e6 bf
       -0.6461183943475953 -0.7137093695544614
000180 9e bd 41 e4 2f b7 c1 3f ab 8c 7c c6 b4 bf da bf
       0.13840292592383902 -0.41795081504296644
000190 ce 50 5e bc 0f 33 c7 3f ef 04 0a c8 d1 23 cb 3f
       0.18124577233959943 0.21203062312637352
0001a0 c6 02 33 fc 4e a8 e2 bf 51 81 3f 97 fd 6a d8 3f
       -0.5830454755560701 0.3815301873237518
0001b0 72 8e 7a 37 4f 97 e6 3f 12 98 48 1f 76 18 b2 3f
       0.7059703906601966 0.07068575156935733
0001c0 68 3a 5b 98 0a bf d5 3f 61 b0 02 92 65 a7 ac bf
       0.33978524092245843 -0.0559646359191397
0001d0 cf 0e 60 8e d1 4c e5 bf 35 f5 0b 9f b9 5d e6 3f
       -0.6656272679105885 0.698941050184351
0001e0 a8 2d d0 c7 0a 80 e1 bf 90 a3 06 b9 57 8b b0 3f
       -0.5468801405526635 0.0646262003634901
0001f0 f0 aa 22 e2 b1 16 d5 3f 6e 75 d6 f9 53 10 d8 3f
       0.3295101841310233 0.37599658392158275

fc2.weight f8 [1, 64]
000000 6d a6 e7 5b 39 2d 16 c0 e4 86 bb b7 bf e8 03 c0
       -5.54416411973362 -2.488646922502868
000010 78 7c b3 fb 1d 43 f9 3f 38 57 93 05 18 e4 ba 3f
       1.5788860160899088 0.10504293571588341
000020 36 60 1c bb 26 88 29 c0 00 00 48 86 46 45 92 be
       -12.765920493329855 -2.722532655152765e-07
000030 06 5b e4 af 0c 88 eb bf 00 00 e0 4a 8e 11 85 3e
       -0.8603576121703049 1.5697313443530092e-07
000040 b4 b2 35 8d 75 28 02 c0 5a ad 88 c3 59 b2 42 40
       -2.2697554618847224 37.39336437390985
000050 75 c6 c9 4f 13 04 04 40 e9 66 3c 24 03 79 08 c0
       2.5019899590923225 -3.0590880232747293
000060 5a 9e 30 28 3e 3e b3 bf d1 1b 48 0b fc 40 02 40
       -0.07516849976729514 2.2817307359104935
000070 a9 24 c6 a2 e3 d2 f7 3f ef ce 00 b8 38 70 e8 bf
       1.4889866217002157 -0.7636989206134482
000080 fc 21 76 96 09 5f 26 c0 16 90 ce 97 4f 1c 22 40
       -11.185620023651602 9.055294746365728
000090 34 4b ec f8 15 66 24 40 69 36 4d e1 24 0c 0d 40
       10.199386385769323 3.630929718178596
0000a0 ae 5a 6b aa 8b 43 1c 40 c8 6e 46 04 42 2f e3 3f
       7.065962469866163 0.5995187839029876
0000b0 c2 4a 38 97 52 18 f5 3f af e2 cb 09 ed 5e 00 40
       1.3184381396319371 2.0463505521150505
0000c0 9a a0 ed a3 7c 0f f4 bf 7c b7 cc 26 82 f0 1c 40
       -1.253780975670486 7.234871488804739
0000d0 12 7f c8 04 5b dd 15 c0 a6 d2 2a 68 4b a0 10 c0
       -5.466167521226241 -4.156537654508304
0000e0 50 04 a2 93 bd 86 14 40 e2 9c 05 10 78 3d f3 3f
       5.13158255268452 1.2025070787292909
0000f0 7b c4 32 f2 fc ba 0b 40 00 2d 35 72 c8 9b 03 c0
       3.466302768873502 -2.4510659143903695
000100 f2 ed b8 14 1a f9 1b 40 92 27 c1 0f 8d 10 16 c0
       6.993263553416442 -5.516163107074947
000110 b1 72 8b e9 8e 21 00 c0 7c 04 49 e2 fb ec f3 bf
       -2.01638586479961 -1.2453574027315701
000120 ae 5c d3 51 5a 91 06 40 54 06 d2 33 fd d4 f1 bf
       2.820973052275426 -1.114499285148118
000130 d6 83 42 01 cc 7b 1b 40 c8 f4 c1 df be 24 8d bf
       6.87089540451503 -0.014230242923299122
000140 cc d3 76 5d 4d f3 de 3f f6 8b 2b a7 40 41 12 c0
       0.4835999882446316 -4.563723194153672
000150 75 2f f4 cd 61 ec 11 c0 33 6f 2b f5 ea 96 cb bf
       -4.48084184458627 -0.21554314585852694
000160 e0 3b 7a 96 b1 f0 bc bf 7c 5c ce 66 b0 80 f7 bf
       -0.11304769443289286 -1.4689182296622496
000170 e1 73 71 a6 f5 24 f0 bf 7a 2e 2c f9 11 6b 03 40
       -1.0090233327566624 2.4272803751571788
000180 40 f0 0b 1e b2 e4 b3 bf 4e e6 ff 5b ef 3f 14 c0
       -0.07770837052879731 -5.062436521047472
000190 6b 06 22 02 91 bc 19 40 17 46 b3 62 37 a9 f8 3f
       6.434146912886358 1.5413125853996286
0001a0 54 90 fe de 2e 1a ef 3f 6e dc a6 d0 81 29 07 40
       0.9719461779936958 2.895267133800693
0001b0 73 e3 03 cb 86 db 09 40 ce 0e 00 b7 29 d1 f5 bf
       3.2321906910478275 -1.3635651730009388
0001c0 5d 14 18 0b 25 7e 00 c0 90 28 de f5 46 07 e2 bf
       -2.0615940920566076 -0.5633883287530512
0001d0 a7 ed d2 46 6a b2 21 c0 27 3e c4 c5 e9 9c 11 c0
       -8.848467076538169 -4.403235521414479
0001e0 a4 96 e1 58 ee 78 14 40 2a ca 2e 2a bd d9 05 c0
       5.118096722382379 -2.7313178344277462
0001f0 3c 73 1f 5c c7 83 f4 bf 26 3c 53 5d db 86 02 c0
       -1.282172546248332 -2.3158480921770375
