FixedSizeIterativeOGA/data/model_cos4pix1cos2pix2_N_2048_neuron_128_epochs_256_randomized_7.pt (torch, 5888 bytes, 3 tensors)

fc1.weight f8 [128, 2]
0.5090478709959153 -0.5720467663403905 0.3162960050927919 0.2826133588983861 -0.5762860813964733 -0.3236606037360255 -0.3103158613063532 -0.5024861462542568
0.6499859262128651 0.11294094134066315 -0.4859560899724776 -0.4833420607882473 -0.6397640498783761 0.5572583725569066 -0.22145628939023154 0.0791828100118662
0.36240212685359297 -0.34839446886165243 -0.2591179493766243 -0.16501393361707914 0.5357619298891283 -0.07822014451499741 0.2702902551186555 -0.5862020452837596
-0.7046625686227663 0.09163813417747069 -0.39369805736065766 -0.0218396520824013 0.22014661950973957 -0.19490509299354541 0.03812558368672292 0.348858296192952
0.08012871184881422 0.5004435748423897 -0.17068388423151984 -0.07818425805160209 -0.7007001870392988 0.435261319446514 -0.09113683662284529 -0.015269764225444732
0.3172460499492706 -0.3732183341960923 0.5289183911533559 -0.42892573354015157 0.30627649446847205 -0.19075977484554962 0.09669374777373088 -0.23535412472056247
0.45959312308993727 -0.34155064265237767 -0.797765979166845 -0.44960467873299115 0.8741814853665363 -0.48418858529093267 -0.723099520264819 -0.41918676808859007
0.6972392039793592 0.2548183193587398 -0.7791385759587934 -0.43891862974161144 0.31246536654438645 -0.8979579983882578 -0.8810055114357701 0.4401942360707629
0.8034845124742945 -0.2857933810804231 0.572081326037161 0.44744744098983935 -0.817580073562843 0.00891324037582594 -0.726571103460578 -0.35716015528013995
0.8062023850439127 -0.4661066154149372 -0.7891345100880672 -0.31653951601188873 -0.8616071388057637 0.47178549786126406 0.8579040880226713 0.43834004736137255
0.4850101731379665 0.6458404420909756 -0.6189266293870054 -0.2512785949743574 0.937851955600832 -0.3294324853868315 0.7053955443196505 -0.5531627130647023
-0.6535801590572747 -0.3908428340606053 -0.9388814939397695 0.2524788824203765 -0.9070552904324114 0.4116023934434881 -0.5716272324664549 0.7200139867110386
0.6458520409583975 0.6132506311579345 -0.8105576855684452 -0.21030272186471963 -0.8708693131817683 0.48109350209274 0.7064056969658589 0.27768513439808234
0.6804606359789365 0.42943959753831273 -0.8488567756212629 0.3676214856485448 0.8232149211072405 -0.3000359691377461 0.41430901463125686 0.645812155795017
-0.5161484475821811 -0.4640366733274187 0.7756420159364146 -0.5150542244367243 -0.09741620134299409 0.8618572024626131 -0.8641046514085255 -0.33885861956844965
0.7661181217589901 0.06475828271777251 0.9020592104081172 -0.29981361116036703 0.8873346666247194 -0.010839010042346537 -0.7304737339853481 0.38285472488477085
-0.939046610754472 0.3123948353087287 -0.45001525842374396 -0.8272120164531954 -0.87351894937431 -0.2750043180333077 -0.9302954726676829 0.3561133900535827
-0.9308524742981985 0.3630599082441903 -0.1367514495145473 -0.785836121253308 -0.8736601118595609 -0.44062499406859135 0.5930840338456904 0.4324017590818539
-0.7562989135964759 0.3460670538996407 -0.8479212197054018 0.4747634700152834 0.6797710164119041 -0.7277802966787033 -0.8791686240027001 0.46369799549376534
-0.4461017660661982 -0.4542315080164709 -0.03698219386306686 0.9036792602072027 0.7529278227896056 0.40633775846645526 0.9971528092915914 -0.03607437703470793
-0.9776271240510214 0.12429299027476037 -0.4779481104733049 0.8539936773888027 0.04386823023184745 0.9832561294430746 0.12461815113740587 0.752616081882387
-0.8412739161569635 -0.4168772521056933 0.74004049082397 0.24909716140435606 0.43355410466116917 0.7244747704277915 0.19834633784006112 0.9692698229959851
-0.6838019444517239 -0.23876849096098715 -0.7632252375050224 0.4125024124826147 0.7073637525718581 -0.40046999802905736 -0.8321823074215509 -0.5289033757560709
0.7842981550688238 -0.6161006716933592 0.8396648541908769 -0.5063920385366231 0.9456688566162705 0.01029090250871378 0.8502617439930839 0.2731241341530652
-0.79952967216727 0.04956792975900248 0.9241594059114312 -0.12737226055858716 0.5092270199494559 0.42437466048957934 0.6624280000336842 0.3353149988939267
0.8897565518448115 -0.3814860206316956 0.8579527883497508 0.3240912133992516 -0.10332310934807114 -0.9337532283950475 -0.9820947472576065 -0.06819269992765768
0.9853764954046588 -0.1670697598024107 0.7613218671168492 0.34029591664604136 -0.9324772053603718 -0.3535980355005041 0.4480047159718894 -0.8889837632217716
0.07085177985195108 0.7058278353098452 0.6863912276365496 0.4314068587590851 -0.8741712619848477 0.3677245092352471 0.776056432889788 -0.5712834727297837
-0.9167143774105836 0.31691985569581205 -0.8092672006313044 -0.5337384869752794 0.8142307285235113 -0.5216785466749022 -0.9526189799996253 0.30286578618440274
-0.4218741931515041 -0.7679835863867638 -0.5303855525498236 0.6716022245625572 -0.08114612249232116 -0.730657466188979 -0.8234227174936846 0.3860056933689149
0.8646107903552608 -0.014436732571319803 0.9097570359841218 -0.33491798807111106 0.6336458962864535 0.46390607956785884 0.8691012038892567 0.3488565950654868
-0.11971753099620798 0.9927593090084638 -0.8469125924025012 -0.2543636664697555 -0.9312336334315146 0.3380253674674514 0.7812066293362356 -0.6135101934135485
00000000: 09d4 c0c2 1e4a e03f 70dd 2605 354e e2bf
00000010: c8a7 6e99 313e d43f e066 7857 5616 d23f
00000020: 719c 1782 ef70 e2bf a930 03f7 dab6 d4bf
00000030: 3b6a ef0e 37dc d3bf 075d 9bd3 5d14 e0bf
00000040: 8c39 fe48 afcc e43f ba06 7091 b2e9 bc3f
00000050: 2553 6e92 e719 dfbf 1979 f789 13ef debf
00000060: dc4a ec74 f278 e4bf 2bbb b182 0fd5 e13f
00000070: dc57 3600 ae58 ccbf 5606 681b 5345 b43f
00000080: d291 b5b0 9831 d73f bf8e 7750 184c d6bf
00000090: 9144 9873 6395 d0bf 8b84 2234 2d1f c5bf
000000a0: d019 ea33 f624 e13f 0b8f 9442 3c06 b4bf
000000b0: 3560 8a7f 6f4c d13f 25f2 aaca 2ac2 e2bf
000000c0: 8667 de83 988c e6bf 88d3 5bc5 9875 b73f
000000d0: 6837 3756 5932 d9bf f1ba cc3d 225d 96bf
000000e0: cc44 8fb1 c32d cc3f 3895 1d6c a6f2 c8bf
000000f0: 0099 264e 3285 a33f 9391 45bf b153 d63f
00000100: d97b dcb4 5083 b43f e21f 6e3e a203 e03f
00000110: ad43 5d32 f8d8 c5bf 9ec6 642f e203 b4bf
00000120: de50 74cc 226c e6bf 3b24 0f4b 52db db3f
00000130: 3d8a c164 be54 b7bf 1d32 ba0f c145 8fbf
00000140: a34e 5460 c24d d43f baf2 e826 cfe2 d7bf
00000150: 1036 0843 e6ec e03f cdef 7deb 8473 dbbf
00000160: a2a3 d1b9 089a d33f 884e 2df9 d06a c8bf
00000170: f274 6ae4 ebc0 b83f 93a6 537e 1520 cebf
00000180: 70d1 4846 f969 dd3f e6a9 073a f7db d5bf
00000190: ac41 cc84 4c87 e9bf aa5a d2b3 52c6 dcbf
000001a0: 0f60 4d73 4bf9 eb3f b0f2 ba1e f2fc debf
000001b0: 4f4d e99a a123 e7bf c3cf f6bc f4d3 dabf
000001c0: cf92 5297 c84f e63f 7251 047f f14e d03f
000001d0: e270 d905 b4ee e8bf 481a 162a 3e17 dcbf
000001e0: f135 9cbc 6eff d33f 454b 8869 12bc ecbf
000001f0: dfcb 6678 3231 ecbf c0f1 f371 242c dc3f
00000200: 5b6d fd26 25b6 e93f efd5 4952 704a d2bf
00000210: e36b 3f7f 7d4e e23f 6abc 6e97 faa2 dc3f
00000220: b509 baaf 9d29 eabf ae10 53df 1a41 823f
00000230: 3a9e f20a 1240 e7bf eb32 9744 b6db d6bf
00000240: d510 b7f1 68cc e93f 8902 6ad7 b0d4 ddbf
00000250: b524 1f04 9740 e9bf 2d6a 4af5 2e42 d4bf
00000260: e977 6522 4992 ebbf 23a3 02cd bb31 de3f
00000270: bf2f 2546 f373 eb3f 8c6d fc69 c30d dc3f
00000280: 17b6 f61b 680a df3f a4e0 2693 b9aa e43f
00000290: 05e7 fa37 3fce e3bf 6761 e6d0 f214 d0bf
000002a0: 6c72 b91a e202 ee3f fb7d befd 6b15 d5bf
000002b0: c41a 33ad 9992 e63f 4c58 3f4a 82b3 e1bf
000002c0: 28e5 0ef0 20ea e4bf eba3 8aa9 9103 d9bf
000002d0: 514f e933 510b eebf fc45 bb2f 9d28 d03f
000002e0: 8a45 02d1 9806 edbf 05e3 b290 b157 da3f
000002f0: 0449 9e31 c54a e2bf 85c4 b2c5 5a0a e73f
00000300: d313 3fe6 d1aa e43f d763 a2c9 bf9f e33f
00000310: ab36 e1ab 16f0 e9bf c399 5518 33eb cabf
00000320: e794 6652 29de ebbf 7b9c 7366 3cca de3f
00000330: 7ba5 c51e e09a e63f e7ce b4de 97c5 d13f
00000340: 2ad6 3762 55c6 e53f 8434 c238 f07b db3f
00000350: b100 49af d529 ebbf 3ab7 8a44 1c87 d73f
00000360: a183 77d1 c657 ea3f 8c7f c410 ca33 d3bf
00000370: f7de 11f5 0984 da3f 9ff6 0f41 7eaa e43f
00000380: 76e4 c7bf 4984 e0bf 5e7f 05e0 c6b2 ddbf
00000390: 9236 7b34 0fd2 e83f 7fea 33ff 527b e0bf
000003a0: d663 dea6 44f0 b8bf 65c4 4c8e 5594 eb3f
000003b0: 08e0 43cc bea6 ebbf 9ae8 4010 dcaf d5bf
000003c0: 687d ba26 0a84 e83f 18ff 6ab2 ff93 b03f
000003d0: 3145 f846 abdd ec3f 7f15 b56d 2530 d3bf
000003e0: d353 b8ab 0b65 ec3f 7720 394d c332 86bf
000003f0: f9ba c173 0a60 e7bf 5ff2 9f1a b180 d83f
00000400: ef85 537a ab0c eebf 68c7 45e8 46fe d33f
00000410: cb61 68cc 0ccd dcbf 3fca b055 8578 eabf
00000420: 53f7 ff02 def3 ebbf c88e 0db6 ab99 d1bf
00000430: 982f d702 fbc4 edbf 3da9 fcd0 8fca d63f
00000440: be5d d020 8bc9 edbf 9871 19a0 5f3c d73f
00000450: d33b ac4d 1281 c1bf e48c 19cb 9125 e9bf
00000460: 6135 080d 06f5 ebbf 6cc9 d42c 3333 dcbf
00000470: 34b4 245e 8bfa e23f e152 7f6d 78ac db3f
00000480: d0b5 7cc7 9933 e8bf ad35 ae6d f625 d63f
00000490: 2003 87ae 2b22 ebbf 8845 4352 8662 de3f
000004a0: f53f 8825 afc0 e53f 0a10 9de7 f949 e7bf
000004b0: 7059 f83c 2622 ecbf 5e74 775b 3aad dd3f
000004c0: 6a4c fc6b ee8c dcbf 9395 ef07 2112 ddbf
000004d0: 6b37 5a82 54ef a2bf a73a 95c4 f0ea ec3f
000004e0: a527 e416 fc17 e83f 6a93 ef15 7001 da3f
000004f0: 7db3 2002 ade8 ef3f addf 2c3b 5778 a2bf
00000500: db69 afad b848 efbf f825 5a58 aad1 bf3f
00000510: e2bd eaab b396 debf 9705 6c8c ea53 eb3f
00000520: eabd 5b8c e575 a63f e695 f18e d576 ef3f
00000530: 5486 9fa3 f9e6 bf3f c21c 4452 6e15 e83f
00000540: 75e7 9b46 b7eb eabf 1361 0fed 1dae dabf
00000550: 6dc0 3965 69ae e73f d20a e170 6ae2 cf3f
00000560: fa3d 24b7 59bf db3f 8f76 b8b6 e52e e73f
00000570: 8ef7 26ad 6963 c93f 128f d825 4204 ef3f
00000580: 4990 8b9d b4e1 e5bf 2b11 ff45 f78f cebf
00000590: e21b 5255 576c e8bf 5992 c884 7066 da3f
000005a0: c080 f54e b9a2 e63f 5818 24ea 4ca1 d9bf
000005b0: a0ee 55ca 3ca1 eabf edb8 b3c5 c6ec e0bf
000005c0: f5ad ca71 f818 e93f 7aee 7ec1 18b7 e3bf
000005d0: ae36 0bd4 88de ea3f b306 8f13 5d34 e0bf
000005e0: 2e67 8055 eb42 ee3f be1e c58d 6513 853f
000005f0: e1af ef1d 5835 eb3f 07e3 fba5 dd7a d13f
00000600: 187b 4440 bf95 e9bf 509d 7dba f760 a93f
00000610: b9c5 15bf b692 ed3f f723 c2f6 bb4d c0bf
00000620: bb84 9d76 964b e03f 3972 0356 f428 db3f
00000630: f62d 8334 9c32 e53f 6ae4 860a cd75 d53f
00000640: fd67 72bb e278 ec3f d7a2 9f57 446a d8bf
00000650: 8f2c ef67 5974 eb3f a620 9e12 e9bd d43f
00000660: e32c 921f 6273 babf 7bb7 4f73 4ee1 edbf
00000670: 0c6f a1f6 516d efbf 33e6 03a8 1375 b1bf
00000680: c552 c049 3488 ef3f 393f 40b9 8a62 c5bf
00000690: 89e3 1fad bf5c e83f f540 3d86 68c7 d53f
000006a0: 8839 a96f dad6 edbf 87e3 99a7 59a1 d6bf
000006b0: e864 e3f8 1bac dc3f f0cc b613 8e72 ecbf
000006c0: 75d8 539d 5723 b23f 6d64 a841 2496 e63f
000006d0: 8cba 5ebc eaf6 e53f affb 6883 2b9c db3f
000006e0: b97e aa02 36f9 ebbf 2598 4661 cc88 d73f
000006f0: fb95 e34c 74d5 e83f d2d4 0347 f447 e2bf
00000700: f10b d863 b955 edbf caa8 ea37 6a48 d43f
00000710: 46fb 0d54 84e5 e9bf 719c 45bc 6214 e1bf
00000720: fa03 cd99 2d0e ea3f dfca 1f35 97b1 e0bf
00000730: 6db6 94cc da7b eebf 5251 af2d 2762 d33f
00000740: 9a2c a79d fcff dabf 8dab 6c50 5293 e8bf
00000750: c01d 4f1f ebf8 e0bf 5258 cdf2 c37d e53f
00000760: 233e 4d06 fec5 b4bf 3984 3bc4 8b61 e7bf
00000770: fe66 4d99 7a59 eabf fcb6 4539 51b4 d83f
00000780: 9d06 8b3f e4aa eb3f af11 0a72 0191 8dbf
00000790: 4472 9bc9 ba1c ed3f f0e1 66db 4b6f d5bf
000007a0: 0870 39c2 d346 e43f b335 0a20 a3b0 dd3f
000007b0: 74cb f353 adcf eb3f 2936 b39c aa53 d63f
000007c0: e1f6 62e0 cea5 bebf 89b5 9f2b afc4 ef3f
000007d0: ea0e de6f e819 ebbf e0ce 318b 7e47 d0bf
000007e0: 64c1 107a aacc edbf f46d 9f26 35a2 d53f
000007f0: 605c 8d0b a5ff e83f 9429 0f21 e0a1 e3bf

fc1.bias f8 [128]
0.0152627407747191 0.03906558591215467 0.23128391995138176 0.5284783883236142 -0.2546049754021166 0.6352497093098344 0.5687997326225405 0.1164486971873604
0.5068787353971174 -0.5823101608520883 -0.04750784180503578 0.2507220324870695 -0.1119240366572872 -0.030402031142863276 0.10311728301786349 -0.16895381315407557
-0.17212757183074803 0.1972577652936764 0.18598618441082204 0.6664036951868844 0.036901497648126974 0.4985797966789974 -0.0027119318771014578 0.23813180687335608
0.21160228418139676 0.4017773952643041 0.03698843760313745 0.5490077752201976 -0.6700187434344034 0.4475416359610017 0.30989809267053514 0.1733733640149915
-0.5222401569628339 -0.6873963514241312 0.5757459313438342 0.5869676780678341 -0.3643931083540666 0.5263738783327165 0.18722067825628902 -0.268064504612637
-0.5896229772595476 0.7441699370058921 0.10912353984154939 -0.44320214228823634 0.6481318189613449 0.2339999022845616 0.08851084572054341 0.39347447953230447
-0.4547513656650931 0.5465976614862303 -0.10067612230543009 -0.6510621763153641 -0.5937633829643533 0.37986394639585064 -0.4819705498160374 -0.641307024616657
0.7199032892449699 -0.3648268205655655 -0.49770698837691607 0.3721531772782752 -0.6394289548745212 -0.3104850712689168 -0.46099859573246 0.5655354839361623
-0.14353023968130035 0.3364618061849655 0.4016681094473854 0.08794081508922579 0.041245292078511034 0.6031257178973769 0.2063192272852758 -0.6791760063048768
0.5552022581888636 0.23585854386125327 -0.09081412342023328 0.10975745780703464 0.7711465174904841 -0.42661002333329845 -0.5176768487326441 -0.06621868500238458
0.16969519406361297 0.2055733510816689 -0.17686990215678156 -0.6465596257879846 0.3441969707460146 -0.6247324836450476 -0.5358797862814484 -0.1455154304352914
0.6894958364546189 0.49732182390422525 -0.5824605585153949 0.16653476012044988 0.07277613822284687 0.19629069245212996 -0.3249684768583435 -0.44995352431665425
0.5985777507254212 -0.3601467752259152 -0.7487282482234465 -0.6698902867545843 0.250602662619184 -0.3985999226797324 0.3426795055682098 0.17561225209419282
-0.03347921241005182 -0.5518946491530292 0.0738558783949877 -0.0948664492589651 -0.7048312508633743 -0.5854529911437887 0.3171802169548335 -0.2671546495125555
-0.24330342232379631 0.24537690499252668 0.25471516379523607 0.028096165278858366 0.48189560715293045 -0.5173409104343506 0.6779048413359816 0.41590219162935277
-0.5022347677669433 -0.24529997297958334 -0.6190993680010638 -0.35065962624396846 0.009831945342081025 0.46694559213053716 0.1361718433246531 0.11541856375292275
00000000: b546 cc63 1242 8f3f bc97 c88b 6700 a43f
00000010: 3414 2424 b69a cd3f 4ac4 4f82 4be9 e03f
00000020: fa0f b0aa 724b d0bf 94ef c832 f753 e43f
00000030: 9ecb 327f 9b33 e23f 80de 14f2 94cf bd3f
00000040: cc30 f2c0 5938 e03f 7d9f 1feb 48a2 e2bf
00000050: f45b b6a5 f252 a8bf 8eca 7a6c d40b d03f
00000060: 8650 14bd 0da7 bcbf 5158 f6c5 b521 9fbf
00000070: 40cf 36ee e465 ba3f f9ff 034f 47a0 c5bf
00000080: c960 e0b9 4608 c6bf cec0 6811 be3f c93f
00000090: f4b1 c631 65ce c73f ec5b 98d7 2d53 e53f
000000a0: bced 24cb c0e4 a23f 19b0 4b3c bbe8 df3f
000000b0: 9780 1357 5537 66bf 2b48 5461 1a7b ce3f
000000c0: 22b4 289d c815 cb3f 02aa 3b89 b8b6 d93f
000000d0: 55d5 ab03 26f0 a23f 4641 fac0 7891 e13f
000000e0: b63f d825 cb70 e5bf f640 83ac 85a4 dc3f
000000f0: e636 47cf 5ed5 d33f e98f 3830 1931 c63f
00000100: 6006 5afd 30b6 e0bf 2834 18a2 26ff e5bf
00000110: 96a8 3dbb 826c e23f 6e88 a370 70c8 e23f
00000120: 1c2f d178 3752 d7bf e20b 1d08 0ed8 e03f
00000130: 1673 1fe1 d8f6 c73f e2e6 2106 f827 d1bf
00000140: da98 8901 31de e2bf fa69 c378 3dd0 e73f
00000150: 75dc d732 85ef bb3f 8b49 a984 6c5d dcbf
00000160: 75f3 bdf0 7ebd e43f 6129 ca73 b5f3 cd3f
00000170: 6c06 b693 a5a8 b63f 39b8 5995 af2e d93f
00000180: 46f2 d578 a51a ddbf f7e8 0461 ba7d e13f
00000190: 1738 ca0c e9c5 b9bf 84fc 5d58 80d5 e4bf
000001a0: 759d ec10 1c00 e3bf 7cc7 acde b04f d83f
000001b0: cc14 4601 9bd8 debf 348e 2d4f 9685 e4bf
000001c0: 12e1 729f 7209 e73f ce18 c297 5259 d7bf
000001d0: cc72 8469 6eda dfbf c9cf 608f 5bd1 d73f
000001e0: 1fa6 29b6 3376 e4bf 2ec2 bfc6 fcde d3bf
000001f0: d30f 0b41 0081 ddbf 9b77 07df dd18 e23f
00000200: 7288 b5ea 325f c2bf 9bb8 7a19 9788 d53f
00000210: 020d 7b28 eeb4 d93f efb3 ca0c 4a83 b63f
00000220: 32ae 2e59 1a1e a53f 3bdd 374e ce4c e33f
00000230: c6f5 dc1e ab68 ca3f b2d5 e951 cfbb e5bf
00000240: c0c4 b286 37c4 e13f c0e1 2ede 9c30 ce3f
00000250: cdd4 1a2a 983f b7bf e2f7 c593 1019 bc3f
00000260: 3078 2176 3bad e83f 2630 9720 944d dbbf
00000270: 597f e609 cf90 e0bf 7728 782e b5f3 b0bf
00000280: db52 6576 92b8 c53f 2296 e941 3a50 ca3f
00000290: 0c7e b446 aca3 c6bf 6e8c f5cf 9db0 e4bf
000002a0: 3321 2fbb 5207 d63f 8223 40fa cefd e3bf
000002b0: 4052 955d ed25 e1bf 5d37 64e7 3fa0 c2bf
000002c0: c49f 8992 5910 e63f b15d 50ea 1ed4 df3f
000002d0: 8f12 4153 84a3 e2bf 28a9 2ed2 0251 c53f
000002e0: 4ea7 98fd 74a1 b23f e9a8 4bac 0d20 c93f
000002f0: e699 1595 48cc d4bf f63c eadd 09cc dcbf
00000300: 5953 ef86 8c27 e33f 16bb 560f a50c d7bf
00000310: 1cc1 76f1 94f5 e7bf a99b 30c1 bd6f e5bf
00000320: cd5a 0fc0 df09 d03f bd3e 0640 a982 d9bf
00000330: be31 5b05 76ee d53f 63bf c257 767a c63f
00000340: e244 cbf4 2f24 a1bf 9263 9ef7 1ea9 e1bf
00000350: 34e6 5206 38e8 b23f d50d 0ee9 2a49 b8bf
00000360: da05 7544 fa8d e6bf bada 49e9 07bc e2bf
00000370: a596 b040 ae4c d43f 825e a8d0 0f19 d1bf
00000380: bc5a f108 9124 cfbf 267c 11ab 8268 cf3f
00000390: c0ee 92d4 404d d03f 9a15 10bc 3dc5 9c3f
000003a0: a2b4 33ac 60d7 de3f 4d59 6686 0e8e e0bf
000003b0: ccd1 6a7e 65b1 e53f b77f d839 249e da3f
000003c0: 4324 cfa5 4e12 e0bf 6218 d450 fd65 cfbf
000003d0: 293e 517a a9cf e3bf 17b5 af12 3571 d6bf
000003e0: 9835 9a5d c522 843f 9b91 cdc3 6fe2 dd3f
000003f0: ea92 db36 146e c13f 4c8b ab2c 128c bd3f

fc2.weight f8 [1, 128]
-0.5720477272676109 16.917676553062883 1.0759390647368712 -0.22917071529133035 1.6477359962911602 1.0526479770749142 -1.8929351421505554 -9.117673388025377
-0.9450156072226492 4.817845766780238e-08 2.3036387458991197 -0.4021926360962971 7.363722520636884e-09 3.365907597085993e-08 1.0122715869913963 -0.015280515793081206
-0.3602476547343927 21.2493058405928 1.6628947732581159 -39.32459789958775 -0.978456507327162 10.427812753989668 -2.3621115656093767 -4.810352517274032
4.423176874958709 -3.321890285840301 -2.800717103166821 3.8470070134428216 -4.356545208816116 -3.2502603217115573 -0.07743622491715485 2.7637018810771314
-2.2304935696975328 -1.4760276580350578 0.969062094275286 3.5656307208418423 -1.3290599817613677 1.5457648244648095 4.7023895448892565 4.069639447709246
-0.7699063756382617 8.745858384585368 2.5150419719253296 1.8514520642006533 -1.9566835839866097 -0.8343437468688117 -0.7418541334675544 0.419126568210507
0.12458165900931917 0.9674314680150642 -1.6698840582691838 -3.7941100016050875 0.11241580202266566 -1.6615112278001232 -3.8909427551935414 -0.6130006865025006
0.08183044302543929 -2.205888740915293 0.2822325388663396 -1.7374699386927088 0.7168937647069444 2.165975346678712 -1.5322416544045934 5.592098086131655
2.9761590810514695 0.29299172624203296 -2.078038143816576 -2.353983232774443 -2.744777272760453 0.005066065102183881 4.666584682991976 -1.8731106612493815
4.694365330642686 2.2062667342983744 -0.4608524222275905 2.1547128365349177 3.494586500245577 0.28636039342768527 2.5398776978338775 -0.09726239163953743
1.103765042190214 -0.2966133739591199 -0.2733134766342471 -0.10460892880296208 -2.0984556690357534 -2.4080628191716484 -0.35353598634374284 -0.10752512729910979
-2.4136126004362994 2.09138738198559 3.1951049592957235 3.371012907966131 -0.5901634379885197 1.4108268545995482 0.510055005225297 -1.7802159674630986
1.0894497985754248 -1.0635796741140409 2.733343319419689 -1.8483874849848752 1.7427151658912678 -1.8685617708582982 0.04408212169013681 -0.3839680684928505
0.12785710020579533 2.8867406353069205 -1.776978422090668 -0.06777122928439883 -0.6114055891034809 2.5126894519003145 1.818566151511064 -0.8527857902642557
-2.802420899274003 1.7011892350356903 2.1298526706854477 -2.1257243808923123 -0.1544656608357875 1.1387761857146361 -0.4124273334903886 -1.427828573549758
-0.8558588326027418 0.8646385928547005 0.7445646877093912 -1.373570716390684 -0.3264081972790236 0.7566705337581061 -1.2904172674537802 -0.4920473954153093
00000000: 4fb2 0b09 374e e2bf 0ab6 bfd9 ecea 3040
00000010: fd89 78e1 0b37 f13f cb47 b04b 7755 cdbf
00000020: 3e33 886b 205d fa3f 0acc bb67 a5d7 f03f
00000030: 9ec5 0f5c 7649 febf 665b b2af 3f3c 22c0
00000040: 3463 e75e 913d eebf 0000 00c8 98dd 693e
00000050: 3c7b 9b26 da6d 0240 a470 ae2e 86bd d9bf
00000060: 0000 00a0 7fa0 3f3e 0000 0074 1112 623e
00000070: e1c4 0cb1 4332 f03f c042 c71c 644b 8fbf
00000080: e8df e22d 4c0e d7bf 410c f081 d23f 3540
00000090: bc53 bd8c 379b fa3f 338a 896c 8ca9 43c0
000000a0: d8e9 7005 844f efbf 0765 f645 0adb 2440
000000b0: 745d 9ebf 9ae5 02c0 66b1 df0c cd3d 13c0
000000c0: 0b7c 5947 55b1 1140 69ac d436 3b93 0ac0
000000d0: 4798 5b5e de67 06c0 a4c1 f19c abc6 0e40
000000e0: 91a4 ed2f 1a6d 11c0 8fe6 c97b 8800 0ac0
000000f0: 487d 8b45 dcd2 b3bf aef5 58bb 0f1c 0640
00000100: 4850 3e03 0dd8 01c0 6008 742d cf9d f7bf
00000110: 7594 5682 8e02 ef3f 6907 3d66 6986 0c40
00000120: 1e66 4166 d443 f5bf f822 86e5 73bb f83f
00000130: 1f68 7134 3fcf 1240 dcb0 3990 4f47 1040
00000140: a924 0bb2 12a3 e8bf ac7b 7226 e17d 2140
00000150: a4e4 4b53 ce1e 0440 eea7 1d33 8c9f fd3f
00000160: 1e7b 1d72 934e ffbf 888e 4da8 f1b2 eabf
00000170: 78a8 34e1 44bd e7bf 6853 d63d f8d2 da3f
00000180: 005f 2067 95e4 bf3f fede 87d6 32f5 ee3f
00000190: e40b a658 d8b7 fabf 1890 3258 565a 0ec0
000001a0: 88af 3d31 48c7 bc3f d269 15cc 8c95 fabf
000001b0: ae50 6198 a620 0fc0 7085 9e9d b39d e3bf
000001c0: 3088 9c04 d7f2 b43f 33c4 06ff a8a5 01c0
000001d0: 1012 1311 1910 d23f 327e 4747 adcc fbbf
000001e0: b6ec 4331 cbf0 e63f 2c6b efe1 ea53 0140
000001f0: 5fc9 33d3 0f84 f8bf aed6 eff5 4e5e 1640
00000200: ce79 067e 2ccf 0740 c851 8d5e 60c0 d23f
00000210: 0c43 5c76 d29f 00c0 e9c9 4029 f5d4 02c0
00000220: 537b 6ac9 4df5 05c0 00be ee7e 27c0 743f
00000230: 3adc d52c 95aa 1240 32ae 7de2 42f8 fdbf
00000240: a458 8ab4 07c7 1240 9083 702c 6fa6 0140
00000250: 1cfe 6f28 9b7e ddbf cc82 6915 da3c 0140
00000260: 65c8 5cc4 e9f4 0b40 0010 298b ba53 d23f
00000270: 4a4a 0066 ab51 0440 80f9 3827 30e6 b8bf
00000280: eccc 6a88 05a9 f13f 187b 2da9 b6fb d2bf
00000290: 48cf ecce f77d d1bf 6c0c 1498 a6c7 babf
000002a0: 36ea 3420 a3c9 00c0 4372 7870 b643 03c0
000002b0: f48c d366 55a0 d6bf 4077 3f49 c486 bbbf
000002c0: 0ab3 801f 144f 03c0 4e29 c74e 29bb 0040
000002d0: 4ab3 5b30 938f 0940 fcdd 909d d5f7 0a40
000002e0: 6894 2e6f 9ee2 e2bf 7e2d 0d2e bf92 f63f
000002f0: 0052 d3df 5e52 e03f da22 01bd c37b fcbf
00000300: 693e 78e9 626e f13f 8c29 d01e 6c04 f1bf
00000310: 612e 2d1a e3dd 0540 1c88 65c1 fe92 fdbf
00000320: 7af0 3b4c 29e2 fb3f 9a46 0607 a1e5 fdbf
00000330: 20af fe8d ee91 a63f 2aa5 38ce ee92 d8bf
00000340: 20ff f817 9f5d c03f 7e6b 6579 0b18 0740
00000350: d03b 09ed 806e fcbf b0de 628d 7459 b1bf
00000360: 6650 3974 a290 e3bf 0054 67ed fc19 0440
00000370: 41a4 25d2 d818 fd3f 38b6 f56c 054a ebbf
00000380: ed11 00a6 5b6b 06c0 9a91 0c34 1238 fb3f
00000390: 5723 6f32 f009 0140 4af0 c1c8 7b01 01c0
000003a0: b086 d2e0 87c5 c3bf 4eba b160 6d38 f23f
000003b0: 4655 549d 3565 dabf 750c 3bc6 62d8 f6bf
000003c0: 3fb0 0010 3263 ebbf e673 e58d 1eab eb3f
000003d0: 38fc ee52 79d3 e73f ae42 9a49 25fa f5bf
000003e0: 186c 1d35 dfe3 d4bf 52d0 8a1f a536 e83f
000003f0: d285 9e93 8ca5 f4bf c801 d95b b47d dfbf
