FixedSizeIterativeOGA/data/model_cos4pix1cos2pix2_N_2048_neuron_256_epochs_512_randomized_4.pt (torch, 9984 bytes, 3 tensors)

fc1.weight f8 [256, 2]
00000000: 775c 1610 0edb e0bf 4607 4cf3 b09e e63f
00000010: c7b6 442e 5809 dd3f a7c7 81e1 5871 dd3f
00000020: 01b5 5bf9 9a40 d03f 985d d14f 350c ddbf
00000030: 4cc8 c01d f1ee d33f 45a2 cd79 01ca e23f
00000040: 946d 1536 c920 c7bf 2f54 1878 fcb0 debf
00000050: 1656 f562 362f e53f 1b87 decb 9145 d4bf
00000060: 7c1c d2be 7f20 c83f 3ffc e37a d89c e23f
00000070: 8515 034f d082 e63f 5cae 59d9 96f5 e3bf
00000080: 536c 0d39 e86f dcbf d1a1 41f3 8c3e ca3f
00000090: 5082 f20a 93de e2bf 6432 d41e 957a e6bf
000000a0: b452 c89e 1a73 e43f 88cc 20e4 3afd d63f
000000b0: 4265 368d cbb0 e53f 645b f64d e3e5 c63f
000000c0: 2731 a149 a24f cfbf 7f68 a9cf d633 d8bf
000000d0: 92f1 9e95 d890 e4bf 8561 250c 118d d33f
000000e0: abe7 56fb e42c b1bf 200a 649b aaa3 e03f
000000f0: 4563 dad1 b669 e23f 6d65 d387 63aa dabf
00000100: cf55 d734 b7d2 e2bf f91b 319d 3309 d6bf
00000110: 3c2b 9877 2ff3 c5bf d74e 71ad 0a08 c2bf
00000120: 64c9 1d55 f4c4 c73f 2232 846b b103 cf3f
00000130: cca2 26b3 ecc9 ba3f f474 3fbc f101 e0bf
00000140: 09dc 8fa0 1f78 e5bf 27c4 c9c6 c1ba d73f
00000150: 50b3 e1bd edb0 cd3f 4627 e80f 2881 8bbf
00000160: e5a8 07ad 16c4 d2bf 9cbe b55b 79a6 ce3f
00000170: b470 07dd a29a c7bf da07 89ac ccd8 cdbf
00000180: d6a0 6ec2 2a81 dfbf c01e 25cf 8cb9 c9bf
00000190: e45a d6b5 850a e13f 9f5b 035c 9642 c1bf
000001a0: 2901 47e4 35c6 e5bf 3d4f ab61 1520 c73f
000001b0: e65c 600a f727 debf 3c42 85a1 8eac cbbf
000001c0: 379d 78c4 12c2 d0bf 404c fdef d755 e43f
000001d0: 48c2 a165 4411 d93f a045 365c 337e c2bf
000001e0: fdbc bd2c 49ee e53f e67f 5106 d1f0 e5bf
000001f0: 075e 6251 8d61 e6bf 5228 be8b d980 da3f
00000200: 0863 a3a6 a418 dbbf 94ef 8446 2327 e2bf
00000210: b7cd 32c3 e4f4 d4bf b214 da06 f7f0 d0bf
00000220: 091f ec68 7a75 49bf fa22 84d2 8e87 e1bf
00000230: 72ba 9fae a5de a8bf 74a9 462d b3e5 cabf
00000240: 5bf7 6c5d 8f8a e43f e96e 0ccf 05d7 d93f
00000250: 384f 5757 d706 e33f e148 fcaf d151 d1bf
00000260: 4159 61b7 ba4f df3f be36 f0c0 4f71 dc3f
00000270: b597 7493 fff5 dabf 2947 206f 8347 d43f
00000280: 7e0b 599e 63cb d7bf 3d0c 31f9 357b e03f
00000290: a1db f486 b80b da3f 70db 6cab dc1d b8bf
000002a0: 9332 0220 c0c7 d5bf 6b8f 1f18 0966 b6bf
000002b0: ffd5 2f13 4453 e1bf ea41 9547 6326 d4bf
000002c0: 7962 ea93 f320 cfbf 2191 b749 7272 d9bf
000002d0: 87d1 e63e 661a e13f b581 33ac 7d9a e5bf
000002e0: 834c 7f7f c336 d73f 9fc9 0b2f b0ae d93f
000002f0: 3ca3 447c 4c86 d03f 3e45 6461 210b d83f
00000300: ba7f e89d c72f d4bf 12ae b650 3b7a d33f
00000310: 9313 cf81 aac7 e0bf 2035 b70d 9d46 d03f
00000320: 811f 78a2 caf1 d83f 7e04 7195 5006 c9bf
00000330: b949 737f 5e46 e3bf bfd3 539e df23 843f
00000340: cf2c 23de 8ee2 e4bf 7c74 872b 519a db3f
00000350: 3dc4 5d87 5285 c6bf 4f7c 8e48 32d5 b5bf
00000360: e0d5 a24d 0651 ac3f 495a 1d4a 4cf1 e43f
00000370: bbcc 51b8 dce0 e03f 29c5 6004 cb80 d6bf
00000380: e147 b2cf 2610 e7bf 77a5 e6e5 b7f1 dabf
00000390: f88a 7bba eae0 ea3f b491 215c e82d d2bf
000003a0: aa18 7df1 34fd eabf 994e 23b9 bd73 d5bf
000003b0: cecf eb6b 7bc8 eabf edf8 a300 34b8 df3f
000003c0: 403d da78 eace e9bf 2bb0 a578 19bb e23f
000003d0: 69f8 4954 4b0c e73f 37d3 e6af 2ddf d03f
000003e0: 4030 ad59 3c8a 823f 98bf 033d ae8b efbf
000003f0: 1b86 752c 9959 ec3f b0ce c870 d3a0 af3f
00000400: b862 a0ac 7597 e63f 34a8 9f91 f006 c93f
00000410: 678a 74e6 c065 e63f 6010 029c 0d71 d93f
00000420: 77f3 99ed 3ad8 eb3f 668a e6d3 79b5 db3f
00000430: 14ae 48a6 793c eb3f eb07 80fc d75c d63f
00000440: 5be4 55a6 723f e83f 4a0c 608a 41fd d93f
00000450: f0f6 a132 0ddc e43f 9fac f2cd 4f57 cd3f
00000460: 3155 680c 3ee7 ec3f ce26 402c 5a72 dbbf
00000470: bd41 a83b 0fa7 e6bf 4885 f38d 9ae0 e33f
00000480: 1be5 a3b6 d814 ea3f c66c 620b 8d47 dcbf
00000490: eec2 1e99 8579 ecbf 94c5 daf3 d8be da3f
000004a0: 75e2 d552 14c9 ecbf 404c 8a58 bfa8 d6bf
000004b0: 04e9 866f 396b e83f e9d4 681b e65f de3f
000004c0: a9ab 762f 8105 e3bf f52a 701b e8e9 d2bf
000004d0: e03d 4760 1fe9 ee3f 0846 2715 1501 623f
000004e0: 23d2 613a cbce e6bf c174 d204 d860 e03f
000004f0: 4c1e 728e b8a3 e53f fe08 65f5 1ca0 d33f
00000500: 6581 f6e7 13eb e7bf 2c10 2272 b916 d13f
00000510: 4220 0c84 1b7e eb3f 49b1 9eb0 6bb7 b13f
00000520: 7fc0 87d5 ef0e e3bf 919d 6607 90d7 d5bf
00000530: 342a 0b90 1c8a e5bf 40e5 8ee9 b95f d1bf
00000540: 03e1 bea5 d90a ed3f 2f51 8055 138d dabf
00000550: 0750 5759 9488 ecbf a01c a1af 563b db3f
00000560: 7f11 d8bd 19ea ef3f a6a0 a8a3 081c 853f
00000570: cb2a 2b2f 34bc e93f 86ea 76e1 873c e0bf
00000580: 073b 4469 ec75 e83f 6711 859a f287 dfbf
00000590: 2d4c c7bd 4650 eabf 10a2 e634 242c d23f
000005a0: 1082 41f7 f873 e9bf 6c94 31a6 c434 963f
000005b0: 5cea 0c8d b21c ebbf ca7f 6270 2f8f d3bf
000005c0: 4906 0338 2d20 e53f ba52 7136 45ce d73f
000005d0: 9024 b6ec 7bc0 e7bf e79b 0bf9 2893 e23f
000005e0: 4108 dab5 552f eebf a34e 0ef7 abb4 d43f
000005f0: 7a9b 9b41 23fa a33f 9c58 70b6 2f6f e73f
00000600: 0bc0 4249 b8db e23f 525d 0683 f002 e33f
00000610: 0cd1 ff5d 26f5 e33f b1aa bad7 8772 e53f
00000620: aadb 3b5a 1a6e eb3f 5e30 6d15 cbf7 dd3f
00000630: c5c6 d05c 2e5c e8bf 56a4 00a3 d7d5 d63f
00000640: 9bb8 c49b e9a1 d2bf 2e8a 2264 cb9c ee3f
00000650: b6e3 7d45 d579 e7bf 1921 23e3 8165 dbbf
00000660: a4f8 2204 99f1 edbf d97a 770d 6897 cfbf
00000670: 5cf2 5c69 bdbf e33f f2d4 ae9e 80e1 e03f
00000680: 71f4 a50a 0aa4 e83f 82e7 a8ba 6073 7ebf
00000690: d939 03f3 9045 e93f 1164 8ceb 1372 dfbf
000006a0: b141 f541 6d7d ebbf 7ca0 cedd 3454 db3f
000006b0: 61e7 7a5c 1a72 debf 6736 c106 2604 ddbf
000006c0: 472f c4c5 0e3d e7bf 30eb 7ec2 e2e2 c8bf
000006d0: 4511 443c 8092 eabf cd29 25c0 b6d6 de3f
000006e0: 942e c7e1 dd72 eebf 2f6f 19a3 74a9 d33f
000006f0: 15bb c02d d6b0 eabf 6878 d474 dc77 e13f
00000700: 05b5 ba2c 27d9 e5bf 3d06 b41a 81ce e03f
00000710: 024b b21d e89f e1bf 9f6b 97b9 e65e d5bf
00000720: f472 39ec 1969 e6bf 79a7 2f78 bb4c e0bf
00000730: 58e2 acf9 809f e9bf 5065 b3b6 1896 debf
00000740: 7683 e987 7a39 d6bf 44cc a41d 4a10 ebbf
00000750: f3e3 4261 f8cd a63f e2cf 0ca5 3b1f ecbf
00000760: 7cd7 75e4 f3c0 e83f ccd1 090b 9a34 e0bf
00000770: 0777 ec58 455d ecbf 9f56 cb83 109c d93f
00000780: 981a 57f0 b3ab ddbf 3aee cd9f 7b8e e9bf
00000790: 257b 978c 1ecc 953f 0897 df34 f1dd efbf
000007a0: cfa5 fb58 77c4 e83f 4f49 cfce 2134 d53f
000007b0: 3cf8 b99a 52c7 ea3f 505f bafa e0ec dd3f
000007c0: aee2 0b27 22a9 ebbf d941 07c1 27d3 dd3f
000007d0: 1d85 e3f5 f0b1 e8bf 6b06 8e31 ca1d dbbf
000007e0: eb34 aca2 cdf2 eabf 4e98 eafb d01c b83f
000007f0: a736 5769 c20f e9bf 94f1 9ce8 601f e13f
-0.5267401041227363 0.7068714858907945 0.45369534033202935 0.4600431635109267 0.253943198694131 -0.4538701323958434 0.31145885377475646 0.5871589068384045
-0.1806880487518866 -0.47955238082915036 0.6620132382183239 -0.31674618634325363 0.1884917909376077 0.5816461944776917 0.7034684699253125 -0.6237291569827437
-0.4443302685883214 0.205033892419364 -0.5896697248281928 -0.7024636842848619 0.639050779459089 0.3592059352697068 0.6778314359718609 0.1788906222033929
-0.24461773486326274 -0.3781640079447541 -0.6426814005167663 0.3054850214589567 -0.06709128509728994 0.5199788126922762 0.5754045580571093 -0.4166497064994335
-0.5882221252492686 -0.34431162215008687 -0.17148393001147066 -0.1408704134834042 0.18569807201454147 0.24230020284484605 0.10464362500955388 -0.5002373387066243
-0.6709135185218439 0.3707737389841576 0.23196193477215354 -0.013429940209806934 -0.29321829698041163 0.23945538499855423 -0.18440662186083545 -0.2331786959130671
-0.492258729815615 -0.20097503771306968 0.5325344611654512 -0.13484458439662902 -0.6804456194441048 0.18066661137583565 -0.47118927014657996 -0.21620352637047968
-0.26184529482494007 0.6354789435666888 0.39167890477168443 -0.14447633745707567 0.6853376268244628 -0.685646545734923 -0.69940820594178 0.41411436697729187
-0.4233790995909179 -0.5672775628404332 -0.32744711935375953 -0.264707333270347 -0.0007769439415321332 -0.5477975951808667 -0.04857366329803349 -0.2101348849367458
0.6419140648574556 0.4037489435156503 0.5945851045494015 -0.2706188410385391 0.48924129398564636 0.4444159874118262 -0.4212645473475008 0.31686483242184466
-0.37178888763099127 0.5150403849623967 0.40696538142531763 -0.09420565781770818 -0.34031680227125455 -0.08749443854281728 -0.5414142966025678 -0.3148430060437294
-0.24319309923591328 -0.39761025618487805 0.5344725826785613 -0.6751087535195014 0.3627175088015024 0.40128712267246586 0.25819694648321323 0.37567934523493196
-0.3154162447044616 0.3043354309290588 -0.5243732962922983 0.2543099054281175 0.38975778452049076 -0.1955052118010236 -0.6023399819626355 0.009834048289556805
-0.65265601526462 0.4312937665070604 -0.17594367608720232 -0.0852843691959475 0.055305668808994346 0.6544553229858333 0.5274489974966835 -0.3516109030488957
-0.720721631676721 -0.4210033173681817 0.8399556772459098 -0.2840519809454023 -0.8434090344024032 -0.3351892765033227 -0.8369729144892462 0.4956178671126413
-0.806508289375337 0.585339294089413 0.7202507635372629 0.2636217325009968 0.009052726256094101 -0.9858008567516547 0.8859372967091902 0.06177387954485647
0.7059887286769344 0.19552428350954332 0.699921083553204 0.3975252173916086 0.8701452866222174 0.4329514092770864 0.8511322257740539 0.34941672952856945
0.7577450989475766 0.4060825206108275 0.6518617619437617 0.2292270427327354 0.9032278292021713 -0.4288545066961945 -0.7078930058651661 0.6211674473271751
0.8150447432700817 -0.4418671237160193 -0.8898342123630678 0.4178984052078587 -0.8995458238487816 -0.3540495266581196 0.7630889108907302 0.4746032016440283
-0.5944219519636721 -0.29552653007037516 0.9659573440966902 0.0021977817316176686 -0.7127433910632742 0.5118217558080219 0.6762354643005408 0.30664752926180927
-0.7474460154080985 0.2670119871693284 0.8591439799356595 0.06920502721795176 -0.5955733461869527 -0.34128189776171164 -0.6731093228675662 -0.2714676647988945
0.9075744855136069 -0.41486056661348675 -0.8916723008101152 0.42549674178412467 0.9973267276659924 0.01030737637945862 0.804224102140631 -0.5073890117267446
0.7643949562060194 -0.49267258729766755 -0.822299357091088 0.2839441792116597 -0.7954068021027201 0.02168566955915134 -0.8472531084910986 -0.30561433768343405
0.660177812002254 0.37196474377314426 -0.7422465918799777 0.5804638733069368 -0.9432781745711126 0.3235273277907515 0.03901777435185401 0.7323225558527784
0.5893212729333767 0.5941088255957914 0.6236755214618213 0.670230790468244 0.8571903002147014 0.4682491025203087 -0.7612525761416796 0.35680190008367185
-0.291132356755847 0.95663995320894 -0.7336222035656792 -0.42807051831597814 -0.935741909102735 -0.24680805833391764 0.6171557481644174 0.5275271510387525
0.770024319455514 -0.007434251640512703 0.7897419687595245 -0.491337757137047 -0.8590608871691555 0.4270145574651065 -0.475714292824355 -0.4533782068218443
-0.7262033331512406 -0.194424004524842 -0.8303834130352149 0.48185509456803005 -0.9515218171813609 0.3072177498595349 -0.8340865033731882 0.5458814889750672
-0.6827579377765295 0.5252080461070318 -0.5507698612221648 -0.33391731380623385 -0.700329743743707 -0.5093667361627318 -0.8007206799002899 -0.47791116563674496
-0.3472582175509652 -0.845738466165479 0.04454017817756286 -0.8788126205095035 0.7735537969699489 -0.5064211097329063 -0.8863856064596981 0.40015042181526356
-0.46360491247870916 -0.7986429330043798 0.021286465960538643 -0.9958425553020058 0.7739826906155772 0.3313068885446641 0.836831381034933 0.46758293614538093
-0.8643961680055179 0.46601289606499346 -0.771721344233956 -0.42369322623571887 -0.8421390702439145 0.0941897025137177 -0.7831737573084937 0.5350803893302776

fc1.bias f8 [256]
00000000: fd9e 6380 873f b8bf ce4f 7125 7334 b3bf
00000010: 3dd0 334c 7ada c93f 54b5 9218 a10f e5bf
00000020: a390 6212 4082 ddbf 3da4 84e8 f5da c2bf
00000030: 2729 29df ce52 abbf e38c b195 07b8 c2bf
00000040: 03a3 8451 568f 9dbf 6d35 0c00 8c4f dcbf
00000050: 5635 6ed6 d43d c0bf 295b ef61 7dfe dbbf
00000060: 6896 0aeb 6645 e0bf 4ce8 b230 99cf c73f
00000070: c739 7bac dd36 d8bf 9ea8 e5eb 3879 c3bf
00000080: 25dd 0ff1 69c9 e43f aac7 08fb 318b 9a3f
00000090: c61d e37f 0c25 db3f ab45 72a8 2b30 b8bf
000000a0: 8681 54c4 0ee9 b2bf 65f4 1e1d 9091 e43f
000000b0: d377 b027 fab5 e33f 3417 b4a6 b848 babf
000000c0: 0586 d562 0466 d73f 10c0 79a3 3c0f d2bf
000000d0: 9551 3f75 e63d e13f 0314 8c8e 68aa c53f
000000e0: 74a5 a3d4 be23 e43f fb36 a8a6 c497 cfbf
000000f0: f69b 098d c380 e0bf cf2b b866 a972 873f
00000100: 6448 48e4 1c6d e43f ff87 1613 3993 e1bf
00000110: d406 5c5b 94db 82bf 07ed 5ef5 6078 e4bf
00000120: f3b0 f6a7 8ac3 d1bf e19d e649 047a b1bf
00000130: 80f4 da10 3837 dabf 857e 3ffa 1b42 e6bf
00000140: bb20 5c5c da95 e53f cbe3 7d91 11b8 a03f
00000150: c8e1 7da7 283f da3f fede a354 d8ee d03f
00000160: b8ed 12be 41be e13f c288 eaa0 76f8 c1bf
00000170: ac53 bdf7 b270 b3bf ebdd 9ec4 a526 e5bf
00000180: 2ace e596 5724 cbbf 6e54 11cf a8a9 83bf
00000190: 26a7 4b89 97c0 e1bf 95dd 73f8 ab26 db3f
000001a0: f705 fe66 e6c1 d2bf 684b 9677 efa9 e0bf
000001b0: d434 ad5a 6f2c e6bf 5fa1 699a 87f4 d53f
000001c0: 9249 6e47 ad9f e13f c7d5 6690 8597 ddbf
000001d0: 6df4 0bfc 82df da3f 595d df1a 41b3 cd3f
000001e0: d21b a568 9d4c b53f 0e5b b2d7 9288 e4bf
000001f0: f0a8 6c2d 5b76 c53f 9bb0 9d83 476b ddbf
00000200: b2fe b7ca 47c8 e5bf 24b0 a867 dcfc e2bf
00000210: a521 eb69 b020 cebf 796f d793 b812 d9bf
00000220: f08f c7ce 7e58 e0bf af2a 8a01 b221 e7bf
00000230: 5864 11c0 b09d 90bf 8e5b 453f 7f84 d5bf
00000240: 3efe 93dd 4bfc d7bf 3666 b30e 8a72 c7bf
00000250: 47a1 f239 1260 d03f c865 a69c 7613 dcbf
00000260: 94ee 1b02 a5ee e73f 6058 9e1e 698e d0bf
00000270: e0ce 861a 18b2 de3f 61f8 c45b 406f e5bf
00000280: 4dca 97d7 3177 e33f 2e67 57e7 9c39 e0bf
00000290: 8658 a5cd 3745 e73f 52ea 9284 6903 e63f
000002a0: 44aa f887 d896 b0bf 0f96 506c f3c6 c33f
000002b0: 5a28 1b29 e984 b2bf 55e9 c986 93ce d3bf
000002c0: fd3d 8366 219e dabf b2a0 4eda cf8f df3f
000002d0: 9563 3a73 cb61 e33f 3fc7 1ef5 50ce db3f
000002e0: ea18 ab03 9ae1 e4bf 0291 2993 5b6e d5bf
000002f0: 0c14 c8a7 1d15 b3bf 2c74 6c0f 3ec1 e5bf
00000300: 0f90 5a4a f684 e1bf 589f 8637 c2be d9bf
00000310: a8e1 d89b 7971 cbbf 75b1 0a64 b353 e13f
00000320: 7bfd f75a 348a 823f e91b ff94 97e3 e03f
00000330: 4cb1 a271 c11f d03f f068 fde5 91ae e2bf
00000340: 2016 789f 426a e4bf 00a5 664d 8581 d7bf
00000350: fba6 16fb 9c10 d23f 31bd a158 bf1e e83f
00000360: 1478 df4c ed19 e53f 8eab 1dea fae7 d1bf
00000370: 5be2 812a cf9d 8ebf f048 f186 2a57 b4bf
00000380: 2688 fc31 0141 e03f 78ac e7ec 7c7a e83f
00000390: 007b 44ae af00 e03f e9c0 1a57 7d1d d73f
000003a0: f201 5911 cfed d93f 4422 dc96 c567 de3f
000003b0: 5574 5d4a 1d62 d8bf 4c25 af6e b2cc cd3f
000003c0: 4062 dc62 d88e d83f c71a 007c 77ac b63f
000003d0: 3124 9bef 8a44 e1bf 7b50 7e0c 4139 d2bf
000003e0: 056f 0a28 1a2b c8bf 016d 2887 685a de3f
000003f0: 9e27 1aaa b6fd e03f b591 08c9 8f45 d43f
00000400: 76f4 3833 36cb e2bf 4929 5935 4ef0 e4bf
00000410: 49f3 c420 c7a7 e73f 2a44 e4d1 beba d6bf
00000420: f439 4559 66c6 e2bf 491b 884a a4f9 c2bf
00000430: efd7 c80d 9339 e43f 63a4 d25c 3f5e dd3f
00000440: 1c36 4185 ae7a debf b4ae 0583 d0d9 d6bf
00000450: 8bb6 7ed6 7ed3 d7bf cc91 774d be4c e2bf
00000460: ec52 43a8 9b21 d33f c989 75a6 7066 e63f
00000470: f5d2 0381 acb1 e33f b422 5527 7cde 96bf
00000480: e4fa 25b2 6a32 e03f f9b9 8c80 1814 dd3f
00000490: 943f a748 e499 c9bf d3a5 a3f3 7da2 e33f
000004a0: de24 1881 037e dbbf 5cb7 0b87 bd85 aa3f
000004b0: 1ff1 a8cf ec37 db3f 3eb0 43f8 3c31 e03f
000004c0: 2988 fb8b 699f e5bf af95 07c9 3ea9 d1bf
000004d0: 0dec 3532 c263 e6bf 66fb 36c6 5da0 e6bf
000004e0: 5ff0 b31b 0795 e1bf 783f 4f32 937d e3bf
000004f0: 1927 d56f 64b5 a0bf 16b2 8e02 6f83 e13f
00000500: be20 7708 df62 5c3f ae56 cb73 0699 e7bf
00000510: 202d 3194 5133 e03f d75e 5fde b9eb dabf
00000520: 2c08 e89d 1f11 e53f b8af 246b 4693 c4bf
00000530: c6fc a49f 896a d43f 5d20 faa9 a437 dbbf
00000540: b76e c7d5 de42 cdbf 79b9 551d b462 d53f
00000550: bf05 699c 1231 e03f 79a4 0c47 4c18 e53f
00000560: ba22 e44f c189 d4bf 504f 58b7 4b4b b0bf
00000570: ff51 627c 88d4 cc3f 3c2a d211 0f38 c3bf
00000580: dd24 cb6c d579 d43f 428d f348 e050 d1bf
00000590: 7a12 7861 8881 d4bf 2cd3 d4b0 02f4 e33f
000005a0: b9da 8b7b 8382 e13f ee67 71b1 d551 cf3f
000005b0: 060b c208 7b26 e33f a11a 8ccc a6f7 d13f
000005c0: bc02 aefa a0f4 98bf 94b4 87eb a70a c93f
000005d0: 000f 7e6d d09c bcbf 79a4 b771 6570 a93f
000005e0: 5d53 fbc4 ef48 babf 8667 2873 4000 d13f
000005f0: 8a44 da6a fb81 dd3f d9f7 ddc7 b6cf b2bf
00000600: 7284 9084 dbf0 c0bf 13e9 9ab1 4db2 bfbf
00000610: 269f c2fc bee5 c6bf 1f88 90be 1ea7 e33f
00000620: a322 62dd ade2 e8bf 880f f320 1907 e53f
00000630: e108 c7e6 5e9f b2bf 30f6 ba89 cc45 c03f
00000640: fe94 8637 44c0 b9bf 9e27 3c6b bc00 e2bf
00000650: 3ace 2723 f2d4 e2bf 0bab 04dd ee3b e0bf
00000660: 2836 16e0 d03f d93f 4dd9 fd7b 7ca8 e53f
00000670: 4daa 053b 5449 dbbf 7318 93b5 1b60 bf3f
00000680: 7df4 e0e2 2a94 8cbf 023d 481a d12e da3f
00000690: c1d1 bc62 1c4f d7bf 9cf5 b991 6deb e2bf
000006a0: 66ff 578e 4870 c53f 9565 362f 3d96 aebf
000006b0: efc1 6d62 0f4b c93f c521 10cc 9254 e53f
000006c0: b69d a310 a310 cdbf 7483 b448 8da3 debf
000006d0: 6e19 5aca bf99 e73f db62 aef1 eb44 dbbf
000006e0: 3a23 54a7 f21d d43f 8376 54da fcf5 de3f
000006f0: 615a d365 643c d43f 1496 3b5b 7a7c e4bf
00000700: 33e4 0143 cf12 82bf a516 ed90 03f1 b3bf
00000710: e192 46c4 32b9 e53f 58c4 e1d6 fc30 9fbf
00000720: 29e4 2883 386e e53f 531c 19e7 b8d6 dc3f
00000730: f0a5 86dd b308 d23f 3650 6da4 172e d73f
00000740: 592e 6edc 6bae d53f 7432 de96 60ff dc3f
00000750: 4152 4ac8 ed81 e3bf 14d6 f7ad 0f47 df3f
00000760: a1ac 8528 8e88 cebf 5ff8 e20e f53e ba3f
00000770: 9209 a633 b205 c6bf 931e f429 33bb cb3f
00000780: 4f83 a3ad 2129 e33f 8021 1524 8e20 d0bf
00000790: 7098 a883 6718 e7bf b8bb 86e3 eae0 d73f
000007a0: d61a c0ee 49f5 cd3f 0455 e18f 3e88 803f
000007b0: 414f 5ccc a5c6 cc3f 0483 a64a 094b d1bf
000007c0: 4274 b954 518b c63f 2ce1 beab 5ccf debf
000007d0: 6a2f 04bb e0fb e13f 2322 8961 6487 c4bf
000007e0: 0a3b cf7a 1189 dbbf 153d 8a25 4c7a e03f
000007f0: fa17 c1ab 30f1 d33f 30d6 31de fe8b e2bf
-0.09471938023090938 -0.07501907028318941 0.2019799110490811 -0.6581578712408978 -0.4610748462239462 -0.14730714658188218 -0.053366150609308875 -0.14624113854652085
-0.02886710045382569 -0.4423551559892392 -0.12688694448699306 -0.43740782321894983 -0.5084719267512812 0.18602290037034874 -0.37834874957925674 -0.15213691252148903
0.649586649727017 0.02592161268893959 0.4241362809084105 -0.09448502409420338 -0.07386867802825323 0.6427689141052154 0.6159640097791858 -0.102672138880817
0.36560163165822274 -0.28217998470700056 0.5388061799990732 0.1692629524260668 0.6293634560690138 -0.24681909692338153 -0.515718245948732 0.011449168631790045
0.6383194407119501 -0.5492215512097117 -0.009207877195425075 -0.6396946709059258 -0.27755991366099336 -0.06826807789058577 -0.4096203007318948 -0.69556998135154
0.6745425990966604 0.032654332170700316 0.4101049075757399 0.26457794442784166 0.5544747078305852 -0.1403950010035882 -0.07593840168313076 -0.6609677162404614
-0.21204657428789747 -0.00960094339294867 -0.5547597581437216 0.4242353369040413 -0.29308471734847735 -0.5207440696416201 -0.6929241915728661 0.3430499084411362
0.5507418055661211 -0.46237315274933305 0.4198920689958133 0.23203290760168718 0.08320030026253214 -0.6416715824915131 0.16767444341650828 -0.4596728120147959
-0.6806982955312917 -0.5933668160046222 -0.23537259265709767 -0.3917676395192227 -0.5108026541388409 -0.7228632001946006 -0.016226541254898613 -0.3362119787101897
-0.3747739471291175 -0.18318296163379139 0.25586372050249334 -0.4386879472527565 0.7478814164346255 -0.25869205465403944 0.4796200045632144 -0.6698304931994806
0.6083001337813784 -0.50703282531615 0.7271994606515058 0.6879165257772206 -0.06480172462094297 0.15450899876411525 -0.07234055760923877 -0.3094834152504025
-0.4159015179729691 0.49315258330399125 0.6056878328846432 0.4344675439598297 -0.6525392600676956 -0.3348607003338345 -0.07454095216969864 -0.6798391629450911
-0.5474807216855896 -0.4022679846043409 -0.21440048322416527 0.5414673761311365 0.009052666689057123 0.5277822408760332 0.25193821046083964 -0.5838098041524784
-0.6379712214117639 -0.3672803169125274 0.28226398964271454 0.7537533503617962 0.6594149114059769 -0.2797839437759472 -0.014949434742662129 -0.07945504946227167
0.5079351402566814 0.7649521472025205 0.5000837711012025 0.36117490297603055 0.40513970083341555 0.4750837300530615 -0.3809884287091497 0.2328093567323698
0.3837185826719498 0.08856913354257322 -0.5396170310788247 -0.2847445127492915 -0.18881537394633355 0.4742680854703423 0.5309708902652692 0.3167457068650735
-0.5873061180533472 -0.6543341676672664 0.7392306938196295 -0.35514803406937523 -0.5867187255442432 -0.14824346198312302 0.6320281285504715 0.4588774115059719
-0.47623789799840366 -0.357044341994633 -0.3722836584737272 -0.5718680871037178 0.29892627174312625 0.7000048876910167 0.6154387016127588 -0.022333087826413148
0.5061543921909473 0.45435154489214785 -0.20000890300297824 0.6135854490832408 -0.42956626517168484 0.051801607832983904 0.4252883937767979 0.5060105179704875
-0.6757095083269223 -0.2759549105815848 -0.6996775608707836 -0.7070759650594993 -0.5494418660232546 -0.6090789778336179 -0.03263391366142638 0.5472941446255983
0.001732557111482832 -0.7374298345191244 0.506264485776601 -0.4206375762564511 0.6583402713879472 -0.16074447852713347 0.31900253858834693 -0.4252711925441924
-0.22860322416715004 0.33414938797695687 0.5059903197181298 0.6592160594638151 -0.32090790559645266 -0.06364892221637075 0.2252359969467221 -0.15014828081287301
0.31993613838547025 -0.27056128620298037 -0.3204060508581176 0.6235364392983676 0.5471818364156525 0.24468489803513144 0.5984473391584693 0.28074045157738153
-0.024370684910084192 0.19563769340985415 -0.11176779435305306 0.04968564046050345 -0.10267542418598681 0.2656403660381489 0.4610584777338508 -0.07348196391646357
-0.1323503873145771 -0.12381444536268686 -0.1788862928562988 0.6141504022564311 -0.7776707958119754 0.657116474489599 -0.07274430402961542 0.12713009572137102
-0.10059000354393174 -0.5625898451264566 -0.588494366324489 -0.5073160473596955 0.394520014605265 0.6768171712599639 -0.42635064853553645 0.12256024535153802
-0.01395448212508143 0.4091074711477206 -0.36420354502049795 -0.5912387701243236 0.16748911810281725 -0.05973998261761008 0.19760315233317224 0.6665739045720832
-0.22707022011239325 -0.47873241520033294 0.7375182106195959 -0.4260816440742425 0.31432787266435336 0.48376389809877923 0.3161860460653881 -0.6401950628175563
-0.008824938995745856 -0.0778963307212402 0.678857215262351 -0.03046031056914375 0.6697046815598969 0.4506056076829214 0.28178116448779544 0.36218825394940113
0.3387708332672666 0.4530869935340782 -0.6096104537887826 0.48871223439286493 -0.2385423372137199 0.10252315152590218 -0.17204883119491093 0.21665038631930553
0.5987709418660446 -0.2519870140427187 -0.7217290469605029 0.373102876847891 0.23404812009558523 0.008072365537524558 0.22481224516433865 -0.27020485200959876
0.17612663876471585 -0.48140637180360346 0.5619968083060318 -0.16038183939441905 -0.43024098389734944 0.5149288876727122 0.31159607670667777 -0.5795893039455162

fc2.weight f8 [1, 256]
00000000: 5276 82a0 a7db d2bf 186a 478c c287 fe3f
00000010: 73d1 986b 0ea3 ba3f 7814 85a3 bd98 d43f
00000020: 0000 44fd 41d5 abbe b098 8682 4165 0740
00000030: 9cdf e037 822b f1bf c242 b09f 381a c8bf
00000040: aea5 f3d3 895a f5bf 0000 8040 e449 a3be
00000050: 0b65 8a00 31cf 0640 34b1 e039 1d63 c03f
00000060: 0000 8041 b22a acbe af25 3ae5 8a33 0840
00000070: 3068 148d 5b8c c0bf 8834 5598 6075 9dbf
00000080: c78c f80e bcc6 04c0 75d8 de08 cfde 11c0
00000090: 40ce 15fc 03dc 2a40 3cdb 6f02 1dc0 11c0
000000a0: 4946 7110 412e f7bf 7c76 2c78 af4a 2040
000000b0: 0a65 888d 6b48 2ec0 0000 0000 8eea 153e
000000c0: 7e31 a690 ef32 0c40 accd 5080 a6db f4bf
000000d0: 6404 180d 9b4b 0140 7489 8007 0693 f33f
000000e0: 0c81 9746 2767 0dc0 0b7e 0d1e 386f 05c0
000000f0: eeaa f3df b5e1 ec3f 38e3 8e68 877a e2bf
00000100: e065 fbea 5cb0 9d3f 0000 00d0 47ee dbbd
00000110: 0000 0020 a4c9 c13d 0000 0000 00e8 cebd
00000120: f0e1 a94b d509 debf d7d4 9a22 42c0 f9bf
00000130: 0c9b ca15 5e56 d2bf 0000 0000 94ae c33d
00000140: bac2 952f e667 2ac0 5000 4b2f b2a8 0740
00000150: 5710 faa1 f154 22c0 1211 6df0 9f42 04c0
00000160: d2c2 3836 f3cf e43f 46ba ee1a ab9c d33f
00000170: 2d67 4c7f e8d2 fd3f 0000 0000 9094 c1bd
00000180: 3650 eac3 ef21 da3f f951 23f2 af84 0bc0
00000190: 0000 0000 8f6f d2bd 785d 9e87 1dcd ed3f
000001a0: 36f6 2c83 9bc8 0240 0000 00c0 71a6 d1bd
000001b0: deb4 286a b69e fbbf cacf 96f2 1cab 1ec0
000001c0: cf50 9f8f 371b 0440 e1c8 bd5b 58e5 f7bf
000001d0: ba1d b031 8966 f6bf 10cd 0bdc 82aa e33f
000001e0: a836 74e0 3e13 cb3f 5406 fe67 a5ae 00c0
000001f0: d0a2 c0b7 33ad bcbf c68b 250d 3703 e7bf
00000200: 1a2e 9573 673e e7bf 611a bb23 64e6 f53f
00000210: accd 4667 0c01 0440 0660 a923 eea7 f3bf
00000220: 907a 8cf5 52cd e93f 5936 d8fb deec f83f
00000230: 4166 2266 5c2d 02c0 6c96 4fc9 5702 e93f
00000240: fc38 e350 01a6 f5bf de8f 4fd6 8c09 fb3f
00000250: 6b61 03cb 1265 f93f 09e7 99f1 ece6 e6bf
00000260: 313c a5b2 9930 0c40 f3b7 e853 1799 e33f
00000270: 0e17 9e01 4ce1 fc3f 7c6e 68b1 4792 f8bf
00000280: 66c2 195b 9ab0 0440 2285 11ae eb97 d7bf
00000290: 7294 7cbf 9c90 f53f 6abf 626e f8f7 e6bf
000002a0: d9f9 7112 5532 00c0 f2c2 59c3 58d7 e93f
000002b0: 0a8f 20ea e708 d2bf 0180 6a23 d612 f0bf
000002c0: dac4 61ea 24e5 ebbf 28b0 ab7c da46 fbbf
000002d0: d4ae b691 09cc e13f 03e6 03a6 93ac f0bf
000002e0: 018b b085 fa0d 03c0 15d7 54bb e7f3 f33f
000002f0: 8908 fe9b b115 f13f 12e0 1938 da22 cabf
00000300: c87b 3df1 88f5 ccbf ce38 6743 caf4 c03f
00000310: 8a80 18e3 4e19 0040 97a0 9f3b 385e f93f
00000320: e035 4895 6c6a 813f 3ff2 f152 04c9 f53f
00000330: f648 d83f a9a7 dcbf c4e5 bc95 b63e e0bf
00000340: b664 b21b c6c2 e23f 8cac aacf 4438 fcbf
00000350: 3335 f39d 3b90 df3f cc3e ecda fc0c f63f
00000360: 59f6 7b1d e28b ecbf faa1 fcd5 2a24 0540
00000370: 0a5e 88ba 7932 d83f c491 9513 e282 e0bf
00000380: 0d94 51b3 ae1d f83f 4362 fc46 6072 0e40
00000390: 5a2b f7ed 550f c33f 4d15 afe3 8028 f8bf
000003a0: a084 4d40 c757 a33f e45f c9e5 2d51 d23f
000003b0: 4fff 7fd4 c554 00c0 a408 b279 a1c8 fd3f
000003c0: c403 d72f 8a7b c03f eeab 7c28 7034 bfbf
000003d0: be89 73f5 b23a 0140 07f3 0d55 3df2 f43f
000003e0: c156 e95d 27d3 f03f a24d 4f13 f322 e6bf
000003f0: 4303 47aa 367c de3f 6249 9cf9 014c f3bf
00000400: b08d 4d2a 99ac f93f ca65 52d8 1489 f0bf
00000410: 3a0f 0d13 c459 0340 014a 3b1b b70a e13f
00000420: 645c d145 3a7d fbbf 9038 7cac 8568 e73f
00000430: 62ec 0fcd 83dc f2bf 5a37 73ca afb8 f5bf
00000440: 52f4 5b49 3e23 dcbf 5cb8 bc9a 136e efbf
00000450: 0acd 2f51 7931 edbf 7ee7 d35c 5589 fc3f
00000460: 9499 4320 ede3 e23f 1523 8a4d 6d75 d03f
00000470: 9723 d62b 19f7 ff3f 36f0 0dda e94b f1bf
00000480: 9933 0e8e 66bf f83f 543c ed87 15e1 f33f
00000490: ce3a 547d d619 c6bf 6c72 5555 d94e ec3f
000004a0: 4069 8d8f 4975 8fbf 06f8 94f8 8223 0bc0
000004b0: aef3 f931 bb4a e1bf bbe0 c798 5859 0240
000004c0: 1d51 4109 34f6 01c0 7c4b 4f72 2e6b b83f
000004d0: ec75 eed5 cd27 f6bf 1894 0fb5 c445 f23f
000004e0: fb20 d0f3 ec7a fabf 723d 1cfe fbb8 e13f
000004f0: 5873 9f38 04c4 b8bf 0111 3e81 0794 f43f
00000500: a0f7 42a6 6024 8c3f ae81 521f 28b0 c63f
00000510: 59f0 db99 810d e43f ad8f 9b8b c6e1 f1bf
00000520: 633d 2baf e205 f6bf c29d 9ee9 31d7 c63f
00000530: cd8b ef49 ed25 dd3f b835 df03 64c8 c93f
00000540: 98f1 c91d 1283 d93f 76b7 24e7 71f2 df3f
00000550: 801a 0fa2 ab52 b5bf f868 d418 9986 d33f
00000560: 441f 4255 dae6 bf3f 80ec c699 1f9a ee3f
00000570: 90a5 f925 a802 8cbf 607e 7499 60c8 e73f
00000580: 4170 8812 fa5b f0bf 76be d885 6b01 cebf
00000590: fe94 b697 72c7 cb3f 832f 3ece ba88 f2bf
000005a0: e577 16ff 4e39 dc3f 06fc e572 bf98 d6bf
000005b0: 4901 3b15 e5e9 e23f 80d5 3eb7 f88b b13f
000005c0: 3c83 07b5 19b5 b53f f5ff 1f45 3678 fb3f
000005d0: a060 e5d9 0abd 8b3f 96b5 f5ae 8e21 e2bf
000005e0: 85b0 b145 49d1 e93f cf3c 27ed 9124 ec3f
000005f0: b102 929c d4ca e0bf 9227 4fad fe27 efbf
00000600: a09e 15d2 75ed b5bf 6aa1 49bd 99e5 d3bf
00000610: 41f2 c4c0 a55b f13f 7298 8832 e453 e63f
00000620: 548e 25ca d9a8 fd3f 6caa c36a 1b9b d73f
00000630: b400 c2ea 1a33 ce3f f226 0a61 2a98 d3bf
00000640: cbd3 b45e db65 febf 8fbc 5ee9 493a e6bf
00000650: c1f9 acfd ba03 ca3f f4b8 c0f9 fa9a c83f
00000660: 62a8 75ea 8f15 f3bf 2f33 37ff b4fc c13f
00000670: 7dec bec4 3d95 e73f b0a4 dec0 52ff a6bf
00000680: cb49 2281 3d4d c2bf 8812 d0e7 f52e b73f
00000690: 8535 6263 a167 e7bf a084 ec57 805d 9bbf
000006a0: e0b6 be04 29a0 e73f 1bb0 d24a aa31 c8bf
000006b0: 2ffa 2855 9dcf db3f 3593 a352 6900 f7bf
000006c0: 3cab 177b d6cd cc3f c223 ee82 77f8 d43f
000006d0: f51b eda1 62bf fa3f 22bb b9b8 3811 d2bf
000006e0: 4c0a e040 7e07 f4bf e0aa 867a d8b7 efbf
000006f0: 701f 2edd 3540 abbf 846c 1311 e62b cdbf
00000700: a047 e508 8293 b2bf 5c26 28dc b7ae d6bf
00000710: 50b6 4ea5 a465 e5bf f2c8 dfdf 5661 edbf
00000720: 39b5 fb81 37da fdbf 71d3 8aaf 384f c6bf
00000730: f8aa da82 33dd fb3f 5ca9 c70e caf1 ce3f
00000740: 8fcc 822b 29a7 e43f 3431 6f06 b2ed cebf
00000750: b0da 400f 03a1 d5bf f426 4a69 5021 c3bf
00000760: b61c 1e08 4bcb dabf b8ee fbd8 8a6b dfbf
00000770: ee45 78b7 7281 d93f b2ab aaca 11c7 f13f
00000780: 9c52 29dc 93fe babf 34e2 be2f dc9a ccbf
00000790: 08e0 1685 a9bd f03f c886 4634 85d1 c03f
000007a0: e5d8 0057 953a e63f ba47 2892 61b6 d83f
000007b0: 0b13 5f15 afb2 d93f 32d6 111d 0667 c13f
000007c0: ccb9 efb2 ed53 d0bf bf25 04fe 1799 e1bf
000007d0: 6877 7a99 b06e bbbf a6e7 ff9c 183b bcbf
000007e0: 1155 5d61 0af0 f0bf 5858 6048 ddc1 c4bf
000007f0: 6c2d f424 8bfc c6bf f6f0 589e 43a9 e73f
-0.2946566646076906 1.9081445197722413 0.10405054213408053 0.3218225571511719 -8.294891764848433e-07 2.9244413564038823 -1.073122232699439 -0.188300207112226
-1.3346040992131338 -5.748462408305954e-07 2.8511676828608237 0.12802472425517808 -8.394355317520308e-07 3.025167265736591 -0.12928337467821072 -0.028768071458490613
-2.5970383805848516 -4.467586649514591 13.429717900907349 -4.437610662533924 -1.4487925188335729 8.14586997549781 -15.141445563220731 1.2756924405721293e-09
3.5248709965437106 -1.303625584824526 2.161916830344625 1.223394421868389 -3.675367881296671 -2.6793062541835346 0.9025525449809189 -0.5774571458960969
0.028993083803333763 -1.0161159760824212e-10 3.2355566143005277e-11 -5.6218141253339127e-11 -0.4693501700308209 -1.6094380714178464 -0.2865214550787847 3.580125085278496e-11
-13.202928053885774 2.9573711104167515 -9.165906011367197 -2.5325316222462186 0.6503845271127722 0.30643727903489937 1.8639912579150846 -3.197841991209316e-11
0.40832132465698423 -3.4397887150792 -6.706896149566433e-11 0.9312884949494409 2.3479528663727036 -6.421095599673521e-11 -1.7262481829487153 -7.667102613882841
2.513289567994526 -1.4934924682279915 -1.4000331822333991 0.614564351823363 0.21152482947984663 -2.085276424827308 -0.11201785312790524 -0.7191424614687711
-0.726367688891915 1.3687478442895087 2.5005119389040456 -1.228498591712197 0.8063139720796517 1.55782984139241 -2.272148893284595 0.7815360004285146
-1.3530285987540642 1.6898315783992 1.5871761255458192 -0.7156891554616048 3.5237306553531416 0.6124378813599364 1.8050041258988503 -1.5357129030225272
2.5862319104419838 -0.3686474990737044 1.347805736536682 -0.717769828412185 -2.024576324561377 0.8075374427263269 -0.28179357398970295 -1.0045987494886506
-0.871721704270523 -1.7047982091853644 0.5561569066971637 -1.0421329960794317 -2.3818254894734996 1.2470471685059625 1.0677963345956718 -0.204188611405471
-0.22624313144021202 0.13247040072605504 2.01235749643826 1.5855028466267294 0.008503769212462708 1.3615763893168518 -0.4477332232937806 -0.5076554226463306
0.5862761059717261 -1.7637374984722411 0.49317827629859606 1.378170828978841 -0.8920755935539076 2.642659827968825 0.37808078018267166 -0.5159769423012723
1.507246685470139 3.805847696854728 0.14890550727281032 -1.5098885435011937 0.037779070472205634 0.2862047904977756 -2.0413929559289623 1.8614821199157996
0.128770135268523 -0.12189389217807875 2.153661649311487 1.3091405222359656 1.0515512150208652 -0.6917662980217083 0.476331392561452 -1.2060565710458708
1.6046382572611542 -1.0334671449730757 2.4188310135231434 0.532558015047755 -1.7180731513269842 0.731509053120833 -1.178836632751676 -1.357589522190628
-0.4396510807417303 -0.9821870825014787 -0.9122892938306972 1.783528673752215 0.590323031440493 0.25716717312074994 1.997826739536526 -1.081033565306837
1.5467286633531556 1.242452174152068 -0.17266350860196272 0.8846251169848762 -0.015360426610346978 -3.3923396511518176 -0.5403724647618355 2.2936260162351494
-2.245216438585102 0.0953854588581588 -1.3847177845667558 1.1420332977952565 -1.6550111316628875 0.5538310969440501 -0.09674097425836459 1.2861399696858486
0.01374125964536771 0.1772508767071605 0.6266487126408818 -1.1176209882187138 -1.3764368860755318 0.1784422293396642 0.45543987484250864 0.20142793835695527
0.3986249247461955 0.4991726643810276 -0.08329270082968243 0.30509021210458753 0.12461628514767847 0.9563138965089735 -0.013676942500029182 0.7432101246994982
-1.0224552844947683 -0.23441833529931316 0.2170241585528529 -1.1583812767375725 0.4409978381244158 -0.3530729887060605 0.5910516180665947 0.06854204629674676
0.08479462308561109 1.7168486309237754 0.013544163489015937 -0.5665963570769914 0.8067976342404256 0.8794641143703305 -0.5247595842375486 -0.9736321816392197
-0.08565460566534933 -0.3108887051116854 1.0848748712588903 0.6977406489356908 1.8537233253818117 0.36884198595240636 0.2359346052435335 -0.30616244770554524
-1.8998674106089648 -0.6946153219231678 0.20323884378917792 0.19222962565385837 -1.1927642019823215 0.1405245062036555 0.736967930096753 -0.04491671184889279
-0.14298218541496363 0.09056031140796439 -0.7314001980864054 -0.02672386681218042 0.7383008091616965 -0.18901566174952297 0.43454678837216226 -1.437600443657357
0.22503167162298066 0.3276652124991949 1.671724922680139 -0.2823011211357188 -1.2518293890176606 -0.991192092236215 -0.053224261521846894 -0.2279021819475454
-0.0725632926671822 -0.3544139528245063 -0.6686576107656013 -0.9181322453062235 -1.8657755925626829 -0.17429264613533804 1.7415042029849115 0.24175382348705454
0.6454053735564161 -0.2416288882653902 -0.3379523896177643 -0.14945416585060622 -0.4186580256723106 -0.4909388655648672 0.39852588574384995 1.1111009518306045
-0.10544704556498136 -0.22347595530824693 1.0463042448809592 0.13139405300630913 0.6946512889178648 0.3861316611593072 0.40153100096749544 0.1359565393392344
-0.2551225898195326 -0.5499381982091832 -0.10715774294882652 -0.11027673562048665 -1.0586036494544866 -0.1621662715339791 -0.17958201698671006 0.739412125847166
