nonlinearPDEs/data-revision1-old/model_CGA_1D_gabor1d-m4_neuron_256_N_512_randomized_trial_2.pt (torch, 7911 bytes, 3 tensors)

fc1.weight f8 [256, 1]
000000 f6 ec 4f c6 3a 74 ec 3f 46 4c f6 55 86 77 ec 3f
       0.8891881821904508 0.8895904234835903
000010 c5 da 17 ce 2d 31 da 3f 6a 42 c7 a1 c8 5f 84 3f
       0.40925164343154236 0.00994831794460645
000020 57 3f b4 4e 75 22 ee 3f 49 88 7d 44 19 b1 ef 3f
       0.941706327170304 0.9903684938146934
000030 fd b6 02 b2 25 13 eb 3f d4 1c a5 08 e2 f7 ee 3f
       0.8460873104829428 0.9677591484877675
000040 71 0d 1f 81 89 bc e9 3f 3a 78 8e 2f 4d fc ef 3f
       0.8042647859478348 0.9995485237921067
000050 87 8f 92 a5 fe 89 e8 3f 38 56 20 bb 6b 85 ed 3f
       0.7668450578535023 0.9225367216883518
000060 08 c1 b0 13 a1 b8 eb 3f e5 3c 0c f3 4b 5a ef 3f
       0.8662877449587834 0.9797725436236787
000070 9f cf 0e b7 54 54 ea 3f 4d 0a f5 66 be 8c ee 3f
       0.8227943015431157 0.9546806345827662
000080 3b 0b b3 0e bf 09 ed 3f f9 32 dc 37 16 d8 e7 3f
       0.9074397360894645 0.7451277819651231
000090 7f 0d 2e 6e 78 e1 ef 3f 2c ca 63 ea 55 2f e9 3f
       0.9962732459975284 0.7870282724309781
0000a0 78 3f 7f af 65 f8 ed 3f 72 76 5b 2d 78 5c eb 3f
       0.9365719249417301 0.8550377736934947
0000b0 0e fb 33 a6 ff b5 ec 3f ca d3 69 d2 50 c4 ee 3f
       0.8972166296151458 0.9614643201481325
0000c0 43 e7 ec 5d 24 8d ef 3f 09 47 58 6a 18 30 ec 3f
       0.985979255149893 0.8808710171744859
0000d0 6f 1b 3a 82 51 cc ed 3f 40 55 dd da 60 2e ef 3f
       0.9311912101264691 0.9744114184092396
0000e0 9c b5 26 a5 0a 17 ea 3f dd 84 05 cf a9 c5 e8 3f
       0.8153126931771797 0.7741288226499382
0000f0 56 37 8b 5b b4 51 e7 3f c6 28 d4 4e ed 91 ea 3f
       0.728723696514616 0.8303133525489776
000100 41 43 dc 11 21 40 ed 3f ba 06 db c9 99 5f ee 3f
       0.9140782688938104 0.949170011758006
000110 d7 db e4 dd 93 d2 ef 3f 39 4d 56 2f f7 ff ef 3f
       0.9944552739970004 0.9999957966378253
000120 88 5a 95 28 bf d9 ec 3f dc 9a dc 91 1c f1 ef 3f
       0.9015804093022135 0.9981825684415884
000130 71 44 2b ba 6c 80 eb 3f 34 76 40 f9 59 fc eb 3f
       0.8594268451798951 0.8745546215247431
000140 fc 45 23 d9 bd 75 e9 3f 9e c0 00 12 19 76 ef 3f
       0.7956227532360454 0.9831662513370423
000150 c3 7d 86 f1 43 ae ed 3f 21 6f 8c 16 6a 93 e7 3f
       0.9275226323406333 0.7367449226762554
000160 49 0c 43 46 b2 f8 e8 3f bd 63 17 c9 4a 2e e8 3f
       0.7803584453871589 0.7556508948865638
000170 ce 8a 09 2c a0 aa ee 3f 6f 1f 20 73 95 c2 ef 3f
       0.9583283290961278 0.9925029037994885
000180 3c 6f 33 39 69 5e ed 3f 7e 9b d1 34 b5 e2 ee 3f
       0.9177747838216201 0.965174296533277
000190 60 37 14 57 dd e8 e9 3f 8e 4c e2 cb 2e 2c eb 3f
       0.8096758557091839 0.8491434080227849
0001a0 97 75 55 e2 3e c4 ea 3f 49 30 ef f9 71 43 ef 3f
       0.8364557667334108 0.9769830590753453
0001b0 2d a2 31 f5 3b 95 ec 3f f5 d0 60 3d 14 3b ec 3f
       0.8932170666640268 0.882211799506449
0001c0 56 1f 31 2a ae 5d ec 3f c2 07 f0 8d c3 9d ef 3f
       0.8864355873165362 0.988008286687766
0001d0 1b ca 48 a9 eb e9 ea 3f 85 52 f0 c1 20 d7 eb 3f
       0.8410547548613211 0.8700107372156515
0001e0 60 45 e4 2e 4c 75 ee 3f 0b dd 06 32 da 05 e8 3f
       0.9518185535290904 0.7507143952451839
0001f0 61 76 3c 9c 6b 41 ee 3f 67 b9 f0 82 d4 e2 ed 3f
       0.945485882900993 0.9339392239979077
000200 52 45 10 6e 67 eb ef 3f 3c 87 70 47 00 9e eb 3f
       0.9974858426741469 0.8630372424415564
000210 9b be 10 ba a9 72 ea 3f d4 31 93 89 92 53 e9 3f
       0.8264969476785667 0.7914517104159651
000220 d5 46 85 9c 5f 35 ea 3f 6a f2 fc 25 c9 05 e7 3f
       0.8190153176348881 0.7194562665896005
000230 e2 d1 9e e1 ca f0 ec 3f f6 85 b5 f6 01 05 ee 3f
       0.9043936163566821 0.9381112879311206
000240 77 9d 2a b6 18 93 ed 3f b2 bc c4 a2 ef 67 ef 3f
       0.9242061193407797 0.9814375094482755
000250 1c 4f d0 db c1 f8 ef 3f fe 95 42 13 01 44 eb 3f
       0.9991158765064685 0.8520512939618923
000260 25 ca a0 08 c4 72 ed 3f c1 78 8c 21 6c d2 ee 3f
       0.9202594917790675 0.963186326527442
000270 d8 e1 22 e0 49 16 ec 3f 17 d9 5e 91 97 0e e9 3f
       0.8777207734738637 0.7830312575595454
000280 4a 44 c6 f2 ea 27 ed 3f 52 88 fe f3 bc 22 ef 3f
       0.9111227742852261 0.9729904904854811
000290 e0 85 0b d8 50 ff e9 3f 62 b2 23 33 c4 b7 e7 3f
       0.812416479075349 0.7411824225251389
0002a0 03 b0 87 18 1b 82 ef 3f 23 cc c4 96 8b a5 ea 3f
       0.9846320609190119 0.8327081627561522
0002b0 b9 7f e0 2f f3 da ef 3f f6 6c 7a ec 29 9e ee 3f
       0.99547728873221 0.9568071001735052
0002c0 95 e3 0e 9a b7 09 ef 3f 21 9e 42 f7 40 63 e8 3f
       0.9699361809681358 0.7621159390736844
0002d0 00 44 0f b3 64 a7 e8 3f be a1 89 f7 33 d9 e6 3f
       0.7704337594278741 0.7140140375823234
0002e0 87 24 b1 8c 7d e1 e8 3f e2 dd a0 bb 70 c7 ec 3f
       0.777525687016479 0.8993457474343212
0002f0 d4 0f 02 7d da 4f ef 3f ab ae 27 a9 11 72 e7 3f
       0.9784977380336337 0.7326744369324464
000300 86 91 2b a6 3e ff ef 3f 70 41 32 0e 77 ba ed 3f
       0.9999078031074056 0.929011848189516
000310 25 46 78 67 fe 6c eb 3f 53 27 52 f5 c8 b8 ee 3f
       0.8570549031157425 0.9600567618774484
000320 70 70 d9 ec 83 a6 ec 3f 73 5e 0a 35 bc 86 ec 3f
       0.8953265787090583 0.8914471660563791
000330 8c 64 70 fe 8e 95 e9 3f 79 76 12 4c 7f fa ea 3f
       0.7995066613685977 0.8430782781394576
000340 e7 9c 80 55 89 c8 ef 3f bb 85 41 73 3a d5 e9 3f
       0.9932295484512935 0.807278847798606
000350 d3 da f6 1e c1 4c ec 3f 49 3a b4 2d 20 ba ef 3f
       0.8843694309969926 0.9914704220444231
000360 41 e8 1c 7a 05 e7 ef 3f bd a7 f8 02 a4 9e ed 3f
       0.9969508538263271 0.9256153162034405
000370 5c 8e 00 fd 5c 4a ee 3f b1 3f 1d 1f 00 3a e7 3f
       0.9465775433968235 0.7258301360798126
000380 a9 7b fe 3e 5e 15 ee 3f 8a ff 4d 92 aa 3d ef 3f
       0.9401084165909782 0.9762776238930979
000390 26 00 a7 09 da 92 eb 3f f6 95 bd 6c 75 80 ee 3f
       0.8616762341043838 0.953180992492604
0003a0 e3 0b 49 a4 83 d4 ea 3f 9e 05 6d 58 32 ef eb 3f
       0.8384416779230118 0.8729488112514223
0003b0 98 71 ed e3 50 4f ed 3f f6 92 c3 c6 7b ed ee 3f
       0.9159321262082356 0.9664896852596871
0003c0 27 87 2f 94 a0 f5 ef 3f 75 05 66 f9 f8 92 ef 3f
       0.9987337965251059 0.9866909857811793
0003d0 74 4c 3a 30 df 1b ed 3f 48 01 5d 4b 38 f4 e7 3f
       0.9096523229549249 0.748561999505946
0003e0 7d a2 4d c8 d8 c6 eb 3f 88 58 2e 07 12 68 ec 3f
       0.8680232917950687 0.887703908944574
0003f0 17 c3 93 4d 53 a5 ef 3f db f4 08 44 25 16 ef 3f
       0.9889313235454179 0.9714533165748905
000400 cf be e9 30 41 84 ea 3f 91 64 49 d3 17 ac eb 3f
       0.8286443667729716 0.8647574545567683
000410 da 81 54 a7 f7 a7 e9 3f 2f e6 20 a9 b7 6b ee 3f
       0.8017538326421871 0.9506490996638542
000420 5a 44 76 d9 49 2d ee 3f d5 08 f0 48 d4 fd ef 3f
       0.9430283782295519 0.9997350143969707
000430 3a 52 8b f5 fd 65 ea 3f cc cc ff 7e bc fc ec 3f
       0.8249501987252821 0.9058516006902209
000440 a4 26 6a bd 1c 46 ea 3f ca 7d bc bc 78 23 ea 3f
       0.8210586261277126 0.8168300329452276
000450 53 3c e2 e4 15 d6 ed 3f a6 82 2b 3c 12 ea ed 3f
       0.9323834867844972 0.934823148269136
000460 2b 1a 87 bc d6 e3 ec 3f 6a 5d 6e 88 c1 96 ee 3f
       0.9028123552496415 0.9559028305692838
000470 da be 8a e6 f8 6f e8 3f c2 92 d3 29 b4 44 e9 3f
       0.7636684897206252 0.7896366898463258
000480 05 d0 12 07 44 20 ec 3f bb 3e 8b 70 bd 1e e9 3f
       0.8789386881021534 0.7850024412272981
000490 c2 20 7a e0 15 20 e8 3f 5e e7 f8 ca f0 52 eb 3f
       0.7539166817014336 0.8538745846083022
0004a0 da 54 68 db 5a 70 ef 3f 96 d1 e4 c6 eb 61 ef 3f
       0.9824651990226372 0.9807032475132924
0004b0 a8 c6 a9 19 55 56 ee 3f 7c 52 62 b3 56 34 ef 3f
       0.948038625834859 0.9751389983744754
0004c0 d3 38 c2 d8 2a 66 e9 3f 26 5c 47 4d 73 ce ef 3f
       0.7937216027801476 0.9939514645910819
0004d0 ab ff 9d 97 38 a5 ed 3f f6 18 89 ae f0 b1 ea 3f
       0.9264185868523688 0.8342212113282403
0004e0 68 25 70 93 6c c0 ed 3f 43 b5 bb ae 87 24 e7 3f
       0.9297392730378933 0.7232092297323692
0004f0 42 f2 9c 17 b4 01 ef 3f 2d 3f 85 c6 5a dc ee 3f
       0.9689579449837498 0.9643987538674758
000500 31 0a 26 81 ae c4 e6 3f 6a cb 0e db 3e 34 eb 3f
       0.7115089914735276 0.8501276281807411
000510 a3 cc 32 b3 dc d4 ef 3f 9e 57 1c 02 b3 7a ef 3f
       0.9947341442079004 0.9837279359078257
000520 e8 09 3b 39 25 1f eb 3f ff cb d4 36 19 cb ee 3f
       0.8475519292626901 0.9622922964975941
000530 dc 4a d4 0c b4 a2 e7 3f a5 54 f4 26 26 01 eb 3f
       0.738611245209849 0.8438902626827668
000540 b6 4c 30 42 f7 dd eb 3f 3c f1 59 4d 17 67 ed 3f
       0.8708454411265822 0.9188343535202317
000550 fc c9 68 49 dc 0e ee 3f 7a 4b 0b 16 e1 86 ef 3f
       0.9393140252853409 0.9852147512959697
000560 f4 fb 97 1a 52 d2 ec 3f 79 88 dc ae d3 77 ed 3f
       0.9006739158065771 0.9208773055327263
000570 8e 54 5a f1 4d 97 ef 3f 7e ca a0 ca 37 c0 ec 3f
       0.987219783203402 0.8984641034679297
000580 d6 1b 85 e3 08 0f ea 3f 14 85 61 fd 33 ee ef 3f
       0.814335293173708 0.9978275250288413
000590 46 c6 39 d1 f5 48 ef 3f a3 d0 73 9a 19 f5 e9 3f
       0.9776562773169608 0.811169435181473
0005a0 fe e1 ae 7b 49 f1 e6 3f 53 93 18 d4 24 d4 e8 3f
       0.7169539848028419 0.7758964674472771
0005b0 6e 5b 1a ec bc b9 e8 3f 01 e2 90 d1 bc 9e ec 3f
       0.7726730929742709 0.8943771451077397
0005c0 9e 24 ac 29 2d b2 ee 3f 0c 22 54 67 27 cb e9 3f
       0.9592500509180757 0.8060490625512684
0005d0 1c 01 90 7f 90 9c e8 3f aa 2c db f2 d2 80 e7 3f
       0.7691118709044846 0.7344755881580529
0005e0 1a 70 6b 4d 12 ce e7 3f 1d 2f 60 bc 0c f3 ed 3f
       0.7439052116492377 0.9359191588605175
0005f0 05 a7 d3 14 53 8c eb 3f b1 cc 16 0d c5 72 eb 3f
       0.8608794600270079 0.8577599769254417
000600 51 18 60 2c df 3d e8 3f a8 19 66 43 03 56 ec 3f
       0.7575527064043489 0.8854996029265765
000610 01 53 92 d2 21 66 e7 3f 8b 93 09 ea 41 41 ec 3f
       0.731217299721351 0.8829660006564252
000620 fe 63 b3 4e 5d 13 ed 3f bb 3b e0 31 a2 54 ef 3f
       0.9086138283847729 0.9790812467707534
000630 ad a4 31 bb 75 e8 e7 3f 2f 40 44 0d 8f 83 e9 3f
       0.747126451123355 0.7973094233620993
000640 52 31 c4 04 f0 66 eb 3f 95 fb 92 d0 a2 a4 ee 3f
       0.8563156216710388 0.9575971673692601
000650 88 33 a7 ce 37 32 ed 3f 81 22 21 37 14 4e e8 3f
       0.9123801265901514 0.7595311238047345
000660 41 89 44 c5 ce ad ec 3f f5 34 35 11 41 9e ea 3f
       0.8962167599568504 0.8318181358423816
000670 78 35 2e 4c db de ef 3f 8f d6 2b 06 f8 f2 ef 3f
       0.9959541786098915 0.9984092827350696
000680 ed b4 5c 34 29 c0 ee 3f e7 38 38 50 9e e4 ef 3f
       0.9609571478555644 0.9966575209416789
000690 e0 d4 8b fc c2 79 ea 3f 09 52 bc d7 da b3 ed 3f
       0.8273634846251774 0.928204938276907
0006a0 e6 79 4a 11 04 de ed 3f 34 d2 bd 40 9b ab ef 3f
       0.9333515489304858 0.9896980537874414
0006b0 fb c8 ed 1d be 09 eb 3f 22 0a 26 a7 33 87 ee 3f
       0.8449392876193821 0.9540041222210827
0006c0 55 40 10 66 ff ce eb 3f 5d b9 52 da 76 56 ed 3f
       0.8690182679583908 0.9168047203182074
0006d0 00 ed 79 c9 43 ea e8 3f 06 13 6e 84 53 bd ef 3f
       0.7785967764934014 0.9918611132166866
0006e0 df db 1a 85 53 03 e9 3f 1a 3e 2a 5c 9c 8f ec 3f
       0.7816560363488597 0.8925306129548887
0006f0 d2 88 23 ec a7 d8 ef 3f 52 4f 15 65 2c e0 e9 3f
       0.9951972591482223 0.8086149191171705
000700 eb 02 08 06 4b e6 ee 3f ed 00 b0 a0 80 3e e9 3f
       0.9656119458960267 0.7888796938350687
000710 94 a6 08 00 55 2a ef 3f 98 35 78 94 ac 1b ef 3f
       0.9739174843463894 0.9721281909748312
000720 08 30 dd 1f ae 70 ec 3f ca 08 dc 42 46 7b ec 3f
       0.8887549040168787 0.8900481515741145
000730 b4 80 df 19 3c 7e ed 3f 59 21 d2 7c 46 13 e8 3f
       0.9216595177968174 0.7523529470354716
000740 ed 27 b3 6a 03 61 ea 3f 22 ad d0 e4 af 8c ed 3f
       0.8243424495678916 0.9234237164540995
000750 36 c0 11 49 02 7a e8 3f 82 e8 7d 13 00 68 ee 3f
       0.7648936679015665 0.9501953488063608
000760 a3 93 4d 9d d3 fe ef 3f b3 16 8a 0e c5 fd ed 3f
       0.9998567650151141 0.9372277530644254
000770 83 4c d9 b7 0f b6 ef 3f 8e 97 f0 c5 1a e5 eb 3f
       0.9909742918774928 0.871716868020245
000780 20 52 8e f6 58 1d ee 3f 95 b5 7d 09 06 e9 ef 3f
       0.9410824599786487 0.9971952615139111
000790 59 5d 50 97 f0 ff ef 3f ed 18 4d 93 83 0c ec 3f
       0.999992652449616 0.8765275837875187
0007a0 2d 05 e5 89 f0 49 ed 3f 21 de 3e 1f c1 ff ef 3f
       0.9152758305791956 0.9999700174584555
0007b0 e6 ba d1 f2 4b 6c ef 3f 0a 98 57 e3 57 fa ef 3f
       0.9819698088229785 0.9993094864155421
0007c0 c4 21 ab a5 f4 bf eb 3f 41 82 58 97 81 2d ea 3f
       0.8671820865356996 0.818054957959312
0007d0 27 b0 78 cd dd d6 ee 3f ad d4 af dd 9b 7e ef 3f
       0.96372881060734 0.9842051820584367
0007e0 e0 25 10 61 1c dc ea 3f 46 68 32 42 37 7b ee 3f
       0.839369000984501 0.9525409977825425
0007f0 b0 0d 30 e5 20 c4 ed 3f 47 7c fa eb 75 3b eb 3f
       0.9301914669344367 0.8510083779291414

fc1.bias f8 [256]
000000 5e fd 9f d7 5c 48 dd 3f 94 61 b4 88 8a 3b dd bf
       0.4575416665756701 -0.456759103298759
000010 4e f6 dd af 8e 32 ed 3f 78 c4 8b 38 98 ff ef 3f
       0.912421554079353 0.9999505142606173
000020 bf 25 49 ee 2a 88 d5 bf f0 bf 73 a3 f2 b8 c1 bf
       -0.3364360167512039 -0.1384566591364087
000030 c8 f4 3f fe b2 0e e1 bf 0e 0b 73 6f c2 1e d0 bf
       -0.5330443349663705 -0.25187741168717614
000040 ef 2c a9 d9 44 04 e3 bf 64 19 14 d1 51 c4 9e bf
       -0.5942711116016691 -0.030045774828090357
000050 f8 3c d1 d1 e3 89 e4 bf 67 ec a1 f8 bc b2 d8 bf
       -0.6418322656626563 -0.38590931206244367
000060 4f 6f 7a 00 8d f8 df bf f1 a2 52 0a 59 9d c9 bf
       -0.4995453362150685 -0.2001143741993228
000070 95 3e a7 db d5 2f e2 bf 0a 19 36 a4 67 0c d3 bf
       -0.5683392801383486 -0.2976321319223564
000080 52 8a 46 1a 44 e4 da bf 88 44 3e 3b 6c 57 e5 bf
       -0.42018225255939 -0.6669217259497069
000090 0d 72 aa 08 b1 14 b6 bf e5 49 c8 92 c8 bd e3 bf
       -0.08625322782103968 -0.6169169298976241
0000a0 9d f0 1d 83 30 6e d6 bf 8f 00 d2 22 17 98 e0 bf
       -0.35047543339147486 -0.5185657196125407
0000b0 e8 a5 1d 83 05 43 dc bf e0 bf d4 e6 72 98 d1 bf
       -0.44159066967276184 -0.27492973844618795
0000c0 57 a8 2e b6 ed 5b c5 bf 03 70 f3 81 78 4b de bf
       -0.16686793704622246 -0.47335636797447495
0000d0 97 56 fe 4a 7a 54 d7 bf e5 ec 50 ff 52 c5 cc bf
       -0.36453111003479804 -0.22477185694319882
0000e0 c6 81 26 db 56 87 e2 bf 82 d5 5c 21 c4 41 e4 bf
       -0.5790209083825679 -0.6330280925382541
0000f0 ff 07 33 20 f2 e9 e5 bf bf e5 ab 1f 60 d5 e1 bf
       -0.684807837380731 -0.5572968119224057
000100 b2 fb c6 df 54 f4 d9 bf bb e5 3d 53 17 25 d4 bf
       -0.4055378136944753 -0.3147638619335244
000110 29 56 f1 9b ca eb ba bf 2a a6 b8 c5 8c c0 67 bf
       -0.10516039187617622 -0.0028994321308075848
000120 b7 65 21 6a e8 af db bf d2 b4 d2 7e b7 da ae bf
       -0.4326115642957932 -0.060262426596958144
000130 10 28 41 49 3b 5c e0 bf f9 d1 1f 56 0b 09 df bf
       -0.5112587385895058 -0.48492701922012277
000140 90 3c 70 bf a6 62 e3 bf f7 57 db 9c 25 63 c7 bf
       -0.6057924021751138 -0.1827132240202329
000150 92 f7 e1 66 cc eb d7 bf d2 30 6a e5 30 a3 e5 bf
       -0.37376699492585275 -0.676170776439472
000160 c8 6e e7 3c b9 02 e4 bf 9c 20 30 4a 8d f5 e4 bf
       -0.6253324689418713 -0.6549745987877205
000170 91 88 f2 e4 66 48 d2 bf 1e 6c 35 04 e1 49 bf bf
       -0.28566906316894697 -0.12222105362654687
000180 b2 13 34 97 1b 6a d9 bf 88 b5 99 21 2e be d0 bf
       -0.3971013046832993 -0.2616076782349741
000190 98 68 25 fb b2 c7 e2 bf 4f d6 e4 bc b4 e6 e0 bf
       -0.5868773369977758 -0.528162354405774
0001a0 3d 61 04 87 7f 89 e1 bf a4 fb f1 e6 f7 4d cb bf
       -0.5480344426205545 -0.21331690575240458
0001b0 ee df 49 e1 aa c6 dc bf c1 75 43 b3 73 22 de bf
       -0.44962570191228124 -0.4708527804012555
0001c0 cf da 75 e2 5d 9f dd bf 3f 89 2a 49 68 c3 c3 bf
       -0.4628519736792613 -0.154400859571135
0001d0 16 5d 45 5e 76 4f e1 bf 1e 63 04 57 d9 8d df bf
       -0.5409499970654987 -0.4930327749039395
0001e0 04 99 3b b0 58 a0 d3 bf b2 3c 93 04 db 23 e5 bf
       -0.3066617699645493 -0.6606268967970179
0001f0 ad b0 65 fb a9 d7 d4 bf 03 1a 4c d4 29 e0 d6 bf
       -0.32566308546553097 -0.357431847878985
000200 72 78 c8 a0 46 24 b2 bf 88 eb 24 fb 1b 2a e0 bf
       -0.07086602616661411 -0.5051402955208326
000210 e2 70 d6 43 9d 03 e2 bf cc e4 c7 c7 35 8f e3 bf
       -0.5629412007288261 -0.6112316991776878
000220 91 75 7b 5e 56 5c e2 bf dd d2 0d 39 a7 39 e6 bf
       -0.5737716527325337 -0.694537745889274
000230 5b 88 67 0f 0a 4f db bf 3b 71 50 e9 55 2a d6 bf
       -0.4266991758760292 -0.3463339594325309
000240 f7 5e b1 a6 f3 70 d8 bf d9 5d 37 c2 51 8c c8 bf
       -0.38189402845954085 -0.1917822073289546
000250 ce 9c c7 b5 6d 86 a5 bf ba 7d 3b 9f 2b c0 e0 bf
       -0.04204123348227427 -0.5234583005912363
000260 b6 30 e2 7a 33 0b d9 bf 55 5c 0d 7e 96 34 d1 bf
       -0.3913086605105137 -0.2688347083071155
000270 d5 63 49 f4 c2 aa de bf 53 00 12 8a 47 e7 e3 bf
       -0.47917245727654506 -0.6219823548017395
000280 49 54 42 a4 6b 60 da bf d3 f5 da df 55 8c cd bf
       -0.41213503876617047 -0.23084519796786526
000290 7c 13 3f 50 92 a8 e2 bf 31 36 37 d5 51 7b e5 bf
       -0.5830775801956487 -0.6713036693924491
0002a0 5a 84 9d 4f a8 5a c6 bf 23 ad b6 7c 02 b8 e1 bf
       -0.17464164626565798 -0.55371212347146
0002b0 49 2e 21 a9 e8 51 b8 bf ef ce 5f e1 36 9b d2 bf
       -0.09499982957020693 -0.29072353371814946
0002c0 96 d2 35 bc 66 26 cf bf e4 cb d3 4a d5 b7 e4 bf
       -0.24335941495850894 -0.6474405728789603
0002d0 14 5a 1b 76 90 66 e4 bf 83 91 5e ee 79 67 e6 bf
       -0.6375200564169199 -0.7001313834812638
0002e0 6e df 47 82 8c 1f e4 bf bf 83 8e d9 b5 fb db bf
       -0.6288511795564611 -0.4372381805970313
0002f0 54 61 80 ba a5 66 ca bf a7 b3 e8 37 4e c7 e5 bf
       -0.20625754934804752 -0.6805792896244512
000300 fa d2 1f fa 3a cf 8b bf 0f 02 ec 19 e6 ae d7 bf
       -0.013578854330242408 -0.37004997760235
000310 5f 67 c9 53 b9 7c e0 bf cc 78 a9 8c 54 e8 d1 bf
       -0.5152250896892204 -0.27980531441234
000320 0f 5b 63 1e 9a 81 dc bf c0 11 32 8a fe ff dc bf
       -0.4454102799185628 -0.4531246518675083
000330 0c f9 9c 7e 95 38 e3 bf 2e b7 61 31 95 35 e1 bf
       -0.6006572220719888 -0.5377908672796587
000340 36 41 66 f3 33 bd bd bf 75 c3 1c 9c ac e2 e2 bf
       -0.11616825764054259 -0.5901701973981363
000350 a7 b8 f4 4d d9 df dd bf cc a9 06 28 b7 ae c0 bf
       -0.4667876492775442 -0.1303318925323097
000360 be 3d ef ef e7 f9 b3 bf d5 10 83 33 c8 38 d8 bf
       -0.07803201301361803 -0.37846570044008604
000370 50 53 5e 92 73 a3 d4 bf ea 6e 73 4b 10 03 e6 bf
       -0.3224762849215965 -0.6878739808703049
000380 ae 54 59 d5 e7 d0 d5 bf 82 74 3d 88 02 b7 cb bf
       -0.34087558588846434 -0.21652251865717537
000390 da e6 16 7b 19 3d e0 bf 16 34 c4 29 87 5a d3 bf
       -0.5074584392634407 -0.3024003894686883
0003a0 ef 0a d2 a9 91 70 e1 bf 8d 16 b3 12 4f 38 df bf
       -0.5449913327032315 -0.48781182123307404
0003b0 d8 6e e3 75 71 af d9 bf 38 9d 96 b2 dc 6d d0 bf
       -0.4013332034353261 -0.25670545044200166
0003c0 df 6a 91 f4 d9 c1 a9 bf 13 c2 25 d3 4a d0 c4 bf
       -0.05030709371995611 -0.16260657606063997
0003d0 17 60 1b 25 6e 95 da bf a2 f6 77 ad d3 37 e5 bf
       -0.4153704988834774 -0.6630648029383404
0003e0 25 dc ad 69 0a c7 df bf 95 81 24 8e 6f 77 dd bf
       -0.4965234787009101 -0.4604147804366446
0003f0 67 f2 46 23 eb fd c2 bf fb 32 72 35 94 5d ce bf
       -0.14837397787586612 -0.23723080262825377
000400 7c 28 b1 20 ae e9 e1 bf 16 bb f6 3c f0 11 e0 bf
       -0.5597754133716673 -0.5021897497843806
000410 33 3d 48 23 fc 1f e3 bf ef 6e b7 b3 6e db d3 bf
       -0.5976544083695557 -0.3102680926365186
000420 e2 75 2a 8d 28 4b d5 bf e8 4e 33 c1 71 92 97 bf
       -0.3327123049328674 -0.02301957837774085
000430 99 10 a5 ae 29 16 e2 bf 19 ef 7c f6 2e 1c db bf
       -0.565205422499747 -0.4235951811894992
000440 16 56 1d 61 5a 44 e2 bf 21 dc db b4 c9 75 e2 bf
       -0.5708438774842672 -0.5768784077071168
000450 f4 28 27 cf 55 22 d7 bf 8a 92 92 77 2e ba d6 bf
       -0.36147065381795973 -0.3551136176777524
000460 3a 87 27 4d b0 85 db bf 1b 80 69 4f b4 cb d2 bf
       -0.430034709306813 -0.29368312602127994
000470 42 a8 d2 52 d3 a8 e4 bf 58 95 74 62 67 a2 e3 bf
       -0.6456085794100164 -0.6135746882397752
000480 7f c4 8f 72 19 86 de bf 2c b4 52 4a e2 d2 e3 bf
       -0.4769347780957744 -0.6194926692602443
000490 cc 10 00 0a e6 05 e5 bf bc 25 7c 2e c3 a7 e0 bf
       -0.6569700427358156 -0.5204788120183177
0004a0 75 3f be e5 76 dd c7 bf 51 b2 07 f7 37 06 c9 bf
       -0.18644605844428566 -0.1955022770120132
0004b0 d9 97 d6 d7 a7 5c d4 bf 26 30 76 d3 31 5d cc bf
       -0.31815525129274885 -0.22159407449032748
0004c0 1b 79 28 22 0a 77 e3 bf a8 95 4c f5 2d 1d bc bf
       -0.6082811991834974 -0.10982024420498837
0004d0 53 80 bc 22 7f 18 d8 bf 5e 07 d2 62 50 a5 e1 bf
       -0.37649515526027705 -0.5514299326025414
0004e0 fc 27 9b 71 e4 90 d7 bf 6b 18 e7 fa a1 19 e6 bf
       -0.368218527739941 -0.6906289959376982
0004f0 df 5d d1 b4 16 a5 cf bf 10 80 d4 88 c9 ec d0 bf
       -0.2472256071948626 -0.26445234644234095
000500 e6 05 86 75 54 7c e6 bf bf da 86 5e b7 d9 e0 bf
       -0.7026769919759175 -0.5265766950822907
000510 e0 a5 8a 0b b7 3c ba bf 6b 90 d5 6c 3f ff c6 bf
       -0.10248893768098055 -0.17966454328700662
000520 97 45 7b b8 98 fb e0 bf 23 c1 c8 35 bc 68 d1 bf
       -0.530712471309175 -0.27201752903330795
000530 5a 46 9b 74 7c 92 e5 bf c8 1b 4e 39 23 2b e1 bf
       -0.6741316106292274 -0.5365158194771249
000540 d0 f7 0f 35 ab 75 df bf 5e 3c 20 7c d6 41 d9 bf
       -0.49155693227646413 -0.3946434223334502
000550 2f 9d 88 ce ab f4 d5 bf 4f 2c 82 68 f1 ed c5 bf
       -0.34305854005147557 -0.17132394411996407
000560 57 51 c0 f9 c6 ce db bf 4f 0a 06 fd 57 f3 d8 bf
       -0.43449568166513103 -0.3898525210317176
000570 b7 b8 b9 c9 0f 66 c4 bf 63 1a 2e 86 58 19 dc bf
       -0.15936467504383753 -0.43904698470615794
000580 8c 26 51 f2 97 92 e2 bf 2c c8 73 1b 8a dd b0 bf
       -0.5803947193864629 -0.06588042421552193
000590 08 63 de 79 28 e8 ca bf fa 22 dd fd c5 b6 e2 bf
       -0.2102099032461171 -0.5848112066533695
0005a0 05 8e 96 a3 cf 4e e6 bf 99 23 e6 dc 01 30 e4 bf
       -0.6971204943733375 -0.630860263293573
0005b0 82 30 91 c3 50 50 e4 bf 7a 62 74 87 c9 a0 dc bf
       -0.6348041362448529 -0.44731367328635196
0005c0 0f 52 92 7f 70 15 d2 bf b5 77 b4 ba 6c f0 e2 bf
       -0.2825585599723874 -0.5918487211781583
0005d0 4a 0c 92 92 9f 73 e4 bf b1 97 94 f9 60 b7 e5 bf
       -0.6391141760544852 -0.6786351084344827
0005e0 fa 01 b2 87 97 62 e5 bf 8b 36 6c 51 b0 8a d6 bf
       -0.6682851457881605 -0.35221488906322723
0005f0 5c 9e 15 b9 29 48 e0 bf e8 08 5e d7 19 73 e0 bf
       -0.5088089575701349 -0.5140504080193553
000600 e1 52 82 4d 86 e3 e4 bf 79 e9 ef f7 a9 bc dd bf
       -0.6527740014886058 -0.4646401330243389
000610 d2 63 98 eb 20 d4 e5 bf b7 4a 68 3d 41 0b de bf
       -0.6821446038694552 -0.4694369411164802
000620 66 6d cb c7 91 ba da bf 07 cf cd 6a 4b 0b ca bf
       -0.4176372958297264 -0.2034696837905516
000630 65 61 20 09 13 45 e5 bf de 03 c2 a9 73 50 e3 bf
       -0.664681928467911 -0.6035707774718693
000640 2e d3 ae 25 c8 86 e0 bf 12 97 cb 0e 67 70 d2 bf
       -0.5164528594965299 -0.28811050839282004
000650 e9 51 af 25 b1 32 da bf 15 6e 6b 7a a8 d0 e4 bf
       -0.40934399299774654 -0.6504709616669425
000660 d9 ad 2b 15 36 64 dc bf 0c ca 3b 9a f4 c2 e1 bf
       -0.44361640994494916 -0.5550482761739786
000670 6f 25 fb 0e 3b 01 b7 bf 14 8a ad 50 12 de ac bf
       -0.08986252895114942 -0.05638177141988279
000680 62 e5 0d 52 68 b5 d1 bf 41 56 f3 2e d9 e9 b4 bf
       -0.27669723523248113 -0.08169324299100202
000690 b7 02 a7 c8 2c f9 e1 bf cf 64 0a ea fb cf d7 bf
       -0.5616668623916529 -0.3720693383743993
0006a0 fc 89 80 94 42 f9 d6 bf 2e ab 93 54 68 53 c2 bf
       -0.3589636278358339 -0.14317039613464416
0006b0 73 a0 c8 62 97 1d e1 bf 09 61 71 05 d1 2f d3 bf
       -0.5348622254723651 -0.29979348689586566
0006c0 df 95 5d bd 79 aa df bf be 2b 10 de b7 8e d9 bf
       -0.4947800015709997 -0.3993358295999164
0006d0 cd 89 f0 5c ae 14 e4 bf c8 dd af 71 2b 4c c0 bf
       -0.6275245490290274 -0.12732451487657515
0006e0 1e 9f 65 21 6e f5 e3 bf bd a8 85 ca f7 dc dc bf
       -0.6237097408565864 -0.45098681237744725
0006f0 50 e5 22 87 4e 0f b9 bf 80 05 38 c4 aa d3 e2 bf
       -0.09788981246210438 -0.5883382637404537
000700 96 60 93 2c a3 a3 d0 bf c1 e7 ab db 5f aa e3 bf
       -0.2599876342114923 -0.6145476618250926
000710 9e bd 3a ed 23 0b cd bf 1e 01 a8 bf 74 02 ce bf
       -0.22690247615308307 -0.23444995268074192
000720 b4 df e5 7c 24 56 dd bf 8d ea 2f c9 ea 2c dd bf
       -0.45838272282662307 -0.45586652419266543
000730 a0 8e 9e 82 fc d4 d8 bf 13 85 78 56 90 14 e5 bf
       -0.38799965625569577 -0.6587602318651612
000740 82 42 2d cf 6b 1d e2 bf aa c3 97 77 e2 8f d8 bf
       -0.566091446535282 -0.3837820213221287
000750 d1 f5 17 39 ee 9c e4 bf 28 cd 64 8b 27 f2 d3 bf
       -0.6441565623387594 -0.31165493595763616
000760 8b dc b5 49 bd 54 91 bf 28 05 49 ac 64 51 d6 bf
       -0.0169248176802879 -0.3487178499672887
000770 4d 53 31 1f 9e 28 c1 bf b3 dd b4 7b 52 5c df bf
       -0.1340520527179713 -0.4900098999091497
000780 37 c9 9f e3 b1 a4 d5 bf 18 a5 d8 64 f8 28 b3 bf
       -0.3381771777050235 -0.07484390699450605
000790 84 c3 84 57 3f 67 6f 3f 1d 98 b3 14 77 ce de bf
       0.003833411898221008 -0.48135163327822444
0007a0 c5 ab c8 d2 ed c7 d9 bf b6 03 5d 69 cf b7 7f bf
       -0.4028276976047745 -0.007743654443232486
0007b0 5b 5d 3a 1b 64 32 c8 bf df 31 c9 5b 14 06 a3 bf
       -0.18903781251422455 -0.03715575809892235
0007c0 c6 85 6e 74 16 df df bf d2 aa 34 1f 8c 67 e2 bf
       -0.4979911934879876 -0.5751400575148529
0007d0 12 76 e2 59 9e 14 d1 bf 3f 62 a1 09 f8 a8 c6 bf
       -0.2668834569720683 -0.17703152151331555
0007e0 ce ff a3 32 dc 64 e1 bf 1f 12 64 74 75 7b d3 bf
       -0.5435620297503136 -0.30441032758997894
0007f0 08 c3 22 e1 26 7e d7 bf c5 2d 49 cd 0b ce e0 bf
       -0.367074699267548 -0.5251521119584416

fc2.weight f8 [1, 256]
000000 2a 1d 84 6b 76 d4 c3 bf b8 2d 10 ba ce 3a 4a 40
       -0.15492134332473856 52.45943380155535
000010 e2 af 92 ba c0 23 c6 3f 6f 6b fe 10 a7 d9 bc bf
       0.17296609029779036 -0.11269611515892362
000020 4f 61 bb b1 19 3b 51 c0 b9 82 ef 2c d7 17 08 40
       -68.92344325350608 3.011640883502278
000030 d7 3c 7f 37 87 21 6d c0 c3 c0 88 51 2d 28 55 40
       -233.0477559552298 84.62776602129729
000040 09 54 00 46 39 f9 64 40 56 79 f8 ae 6a c4 00 c0
       167.788241387025 -2.0959066075876462
000050 a1 40 9e d8 61 f0 57 c0 9d 80 b7 4b 7c f7 70 c0
       -95.75597205595342 -271.4678456466734
000060 b5 be 4c dc 39 54 74 c0 1f 30 29 6e e7 34 56 c0
       -325.2641261098718 -88.82662538549674
000070 14 8d fc 84 1e 91 75 40 a1 de be a8 43 0d 6a 40
       345.0699510445859 208.4145091751025
000080 c3 7c 09 c4 44 67 6c 40 be 91 15 a9 56 bc 43 40
       227.22714425900458 39.471394668132675
000090 4c 08 83 35 da 8d 2c 40 ab cb 23 a2 1c ca 66 c0
       14.27705542778508 -182.3159952830441
0000a0 59 d5 fb 04 6b 59 59 c0 93 8c f6 96 b4 ee 73 c0
       -101.39715694993119 -318.9190892821145
0000b0 67 14 90 42 e8 d7 7b 40 03 3a 9b 71 f0 1f 57 40
       445.4942041042436 92.49905052336548
0000c0 d4 a9 ee 94 76 b3 46 c0 fc f5 8e 1a c4 90 70 40
       -45.402056328329905 265.047876890603
0000d0 c6 41 00 22 ad 40 75 c0 e1 4e 71 c8 a6 f8 2d c0
       -340.0422687540089 -14.985647453147466
0000e0 c1 c4 48 e5 ee e4 66 40 43 cf 65 f3 15 53 5a c0
       183.15416206562625 -105.29821476881357
0000f0 a0 f1 53 b9 c0 db 3f 40 6c fe e6 01 c4 78 6d 40
       31.858409483903984 235.7739266883467
000100 77 a0 6d ec cb 87 56 c0 7f 2d 82 4a e2 4a 5f 40
       -90.12182150560135 125.1700617095248
000110 49 33 d6 7c 9d 86 29 40 e7 ba b8 29 63 d4 06 c0
       12.762920285365583 -2.853704763364806
000120 8d eb b7 86 78 40 6f 40 40 cc 13 38 d1 a0 1f 40
       250.01471267625712 7.907048107345929
000130 e7 0f 8d e4 3f 21 81 c0 39 d2 3f 05 07 5a 53 c0
       -548.156197645233 -77.40667849762475
000140 9b 1e c7 3a e5 36 4a c0 b7 80 74 a0 c4 a3 4d c0
       -52.428870532251686 -59.27943807304967
000150 f1 2c 25 2a cf 07 75 c0 b4 84 f1 ea ca b6 47 40
       -336.488077302186 47.42806755822076
000160 bd 90 a9 80 5f 99 64 c0 ff e5 b5 bf 30 b3 36 40
       -164.7929080306839 22.69996259871368
000170 12 8e 51 29 89 9b 64 40 9a c9 f5 a6 a3 06 36 40
       164.86049333504394 22.025934634215083
000180 5d 5a 88 65 33 2a 62 c0 b9 96 f7 af 2e 23 52 40
       -145.3187740004677 72.54972457102384
000190 2f 20 e7 5b 89 55 6a 40 37 a1 ec 21 51 aa 74 c0
       210.6730174554991 -330.64480774339194
0001a0 cf ca 3c b3 ad 86 50 40 53 1f 07 c6 2c bc 45 c0
       66.10435181557408 -43.47011638019344
0001b0 93 23 bc e4 8d 53 77 40 92 fe c6 ea 0d 7f 60 40
       373.2221419667414 131.9704488646135
0001c0 f7 3d 74 a8 ef 47 75 40 45 a7 e5 2e 2b 51 3a c0
       340.49601025969554 -26.317065173213695
0001d0 28 e8 01 d7 89 f6 63 c0 ff 29 6c c9 b9 46 64 c0
       -159.70432615635332 -162.21017905355254
0001e0 c9 a0 77 cf 8c 27 66 40 63 96 88 bf e9 ad 4b 40
       177.2359387718664 55.358695928280916
0001f0 78 81 94 11 4b 18 38 40 48 5f 54 e6 8f 7d 64 c0
       24.094895457035335 -163.92381588438934
000200 47 eb a5 9d 39 b5 26 40 7d 21 40 eb 80 74 7f c0
       11.353955198768416 -503.28147435237025
000210 2d 4e e4 05 21 f0 70 40 4a 4d c6 38 3b a3 62 c0
       271.0080622595004 -149.10097922068445
000220 e3 d7 5f e7 4d 46 79 40 3b b2 f0 e5 59 56 d7 bf
       404.39401948393623 -0.36464545683955735
000230 c5 e4 9c 99 48 33 76 40 8e c5 80 4d fe 89 67 c0
       355.20522462164473 -188.31229281569216
000240 ce 8c 7d db 5c ec 77 c0 33 fd bf 4f 4e b5 4d c0
       -382.77267025988556 -59.4164523780295
000250 d9 c0 95 92 4d f2 03 40 b0 e8 10 c2 8b 72 7f c0
       2.4933120204878887 -503.1591206226831
000260 d9 3c 86 18 bf ec 71 c0 9a fb 87 f0 ac c9 5b 40
       -286.79665424763294 111.15118039397785
000270 13 ea fb 3e 2d 9d 42 40 88 5e b1 47 4c 0c 66 c0
       37.22794329929834 -176.38431152956423
000280 c8 35 93 2b 12 71 4a 40 4f c8 10 d1 57 b7 3f c0
       52.88336701095574 -31.716183725926665
000290 cb 38 10 39 b4 d6 72 40 e6 fb f2 32 6f b8 54 40
       301.4189997323671 82.88178704956917
0002a0 e0 5f 58 bb 1e d8 40 c0 9d 25 34 e1 47 fb 57 40
       -33.688437860633485 95.92626218883966
0002b0 44 79 5c 5f 60 c9 32 40 fd 94 af e2 e5 ef 62 40
       18.786626777721963 151.4968121938072
0002c0 4d a4 ec 49 1e b0 35 40 5f 6c 0f 3b 8e 4f 3c c0
       21.687962169908406 -28.31076401831194
0002d0 b4 eb 14 3b 7a c2 5b c0 fa 0b 27 be b9 8d 25 c0
       -111.0387103752426 -10.776807729975179
0002e0 b7 dd f2 61 53 d9 58 c0 f8 c7 ee b7 8b 46 77 40
       -99.39571427075758 372.4091109588039
0002f0 f4 21 d9 e3 09 40 52 c0 27 06 e2 6e 19 d0 35 40
       -73.00060363964423 21.81288807886281
000300 66 73 f5 9f 71 4e 0a c0 c7 a3 d2 7e b0 06 72 c0
       -3.2883026596813805 -288.4180896976581
000310 69 a0 eb 5a 17 a0 3b 40 37 c3 2e ee 66 b8 63 40
       27.62535637142756 157.7625647462207
000320 dd ed be 90 5f 79 74 40 7c fc 28 95 f6 bf 7e 40
       327.5858313997431 491.9977008439089
000330 1b 50 b0 f2 b1 bf 35 40 e9 73 eb 2a 48 41 6a c0
       21.748809021039147 -210.0400595282256
000340 76 f0 dc 40 81 8d 3c 40 d4 fb 02 13 ec ce 63 40
       28.552753499927768 158.4663176592136
000350 76 81 96 7b f6 db 74 40 35 26 68 d0 a6 b0 1b 40
       333.74767645636837 6.922511345249906
000360 9d 41 28 96 d3 94 22 40 81 cc e6 7b 6a 81 76 c0
       9.290676777280902 -360.0884970679836
000370 2d b7 18 8d 70 27 54 40 0a bf fa 49 6b 7b 33 40
       80.61624457753778 19.482105849950166
000380 f6 30 60 b7 08 f2 56 c0 8d e2 27 54 8f 3e 54 c0
       -91.78178200143506 -80.97749809165016
000390 6f b7 6b 4c 13 1f 72 c0 fd cd 9b fa 64 dc 64 40
       -289.9422115523984 166.8873265307483
0003a0 b0 e4 d9 25 85 cb 3a c0 1f 5d bd d9 13 95 60 c0
       -26.79500042504941 -132.6586731623183
0003b0 a3 37 bd 9b 51 7f 52 c0 cd 07 47 6d f8 26 5a 40
       -73.98935597875838 104.6089127725274
0003c0 49 af ae 94 4d 57 18 40 22 cc 92 8e 0b e6 3b c0
       6.085256884729298 -27.898613844718177
0003d0 56 64 82 0a e1 c3 59 40 aa 00 41 fe 42 f8 47 40
       103.060610415779 47.93954446958499
0003e0 88 d0 21 41 15 35 6b c0 b3 80 c2 ed f2 59 77 40
       -217.65884453396234 373.6218087766421
0003f0 33 d4 be 4d e8 ff 2b c0 76 e6 69 60 f6 a5 e4 bf
       -13.999819211525482 -0.6452590830878779
000400 7a 53 2d 31 df bf 70 40 fc 51 f7 9a f0 ee 7d c0
       267.9919902582693 -478.93374153718446
000410 42 75 41 22 e5 52 5a 40 15 32 c1 01 9e 67 60 40
       105.29523521797549 131.23803794606707
000420 2e 71 9c ed 33 a1 4a c0 ef ed 05 2b 0d b9 0e c0
       -53.25939722193503 -3.8403571473297613
000430 b8 eb c0 77 62 40 6a 40 11 ed ec a0 94 34 72 40
       210.01201999358977 291.2862862830089
000440 0e e5 c0 f5 72 60 7a 40 e4 fe 73 0c 3f 8a 76 40
       422.02806640004644 360.6403927355843
000450 93 53 27 97 fb 17 74 c0 10 da 71 a6 c4 28 70 c0
       -321.49892344819926 -258.54801029656755
000460 91 a2 96 ed c3 19 7a 40 12 45 5a ff 36 d8 6b 40
       417.6103340038472 222.75671355849096
000470 42 4d 6e ca 39 07 3b c0 c7 c3 2b cb 73 bb 53 c0
       -27.028225566796444 -78.92894248269941
000480 b6 e2 60 07 c7 20 65 40 a0 b1 63 02 40 95 68 c0
       169.02429551051108 -196.66406363936858
000490 76 6f c9 e1 4e 7e 40 40 2d 3c 7a 15 9b bd 7f c0
       32.986782286984564 -507.85036227939673
0004a0 f7 d1 43 f2 de 56 4d c0 89 93 bc 7b 30 df 55 c0
       -58.67867878257305 -87.4873341886106
0004b0 4f 63 21 2a f8 58 5d 40 66 44 1f 83 0c d0 52 c0
       117.39014676342525 -75.2507636838287
0004c0 d1 85 76 56 dd 0e 5b c0 ae a9 56 95 80 aa 3c 40
       -108.23225938391194 28.66602452626983
0004d0 d6 d2 26 4f 4a f8 6e c0 95 f7 56 7f 9a 89 62 40
       -247.75907094557505 148.30010954843297
0004e0 84 f7 12 f1 77 de 5e c0 32 0e c8 a7 0e 9d 20 40
       -123.47607066013558 8.306752436800796
0004f0 99 8e 16 49 cb b8 45 40 65 14 e5 ac 33 ba 59 40
       43.443703781141444 102.90940401431142
000500 84 ab 0d 35 b1 e3 32 c0 c6 ed e1 a0 44 1e 6f c0
       -18.889422717893027 -248.9458774960205
000510 43 4f 5b 6d 41 57 34 40 c6 cd 34 8f 7c ee 43 c0
       20.34084208945502 -39.86317625120459
000520 d8 dc ad 65 4f 8e 76 c0 f2 59 a2 25 a6 18 63 40
       -360.8943840781699 152.7702816172528
000530 20 8e 27 cf 55 44 4c 40 4e 79 87 1b b0 f3 4f c0
       56.533868688882876 -63.903811875485744
000540 af c7 03 a6 25 ff 5c c0 ff 2a be d9 b4 b1 70 c0
       -115.9866728817858 -267.1066529682575
000550 d3 72 b8 a6 cf 63 62 c0 64 7e 8a 13 d9 c4 47 c0
       -147.11909805321793 -47.53787464392079
000560 f3 0e 35 15 76 81 78 40 35 eb cd 10 72 f8 55 c0
       392.09132881856857 -87.88196201428657
000570 a0 60 a3 ae 57 51 39 c0 ad 27 2f 6c 0d e0 75 40
       -25.317744173895903 350.0032770006172
000580 76 00 80 ff 8e 4e 73 40 d1 09 2b 62 21 e6 27 40
       308.90991163254455 11.949473445657448
000590 c6 ae 65 3f 96 50 53 c0 6c da 34 aa 14 e9 66 40
       -77.25917038850739 183.28377256701367
0005a0 bc 77 aa fc 4d a3 24 c0 f7 53 79 6f 91 93 64 c0
       -10.318954368409202 -164.61150335022805
0005b0 41 9e 3f f4 a3 9e 61 c0 07 c8 65 fc 9b e7 79 40
       -140.9575139277022 414.47558250196784
0005c0 2a f4 c2 3e 68 a8 64 40 60 c2 75 12 07 84 5f 40
       165.2627252395335 126.06293164730005
0005d0 7f 82 21 48 fd 28 54 c0 2f 32 61 a8 99 f6 47 40
       -80.64045909187733 47.9265642618742
0005e0 e9 b9 d6 de f3 29 50 40 ed 27 ed 26 8e a3 6a c0
       64.65550967187268 -213.1111025459244
0005f0 68 7a 9c 26 d5 0e 76 c0 b4 41 f8 eb a6 d7 80 c0
       -352.92703877567556 -538.9565047640849
000600 1f 59 eb b4 19 d4 2d 40 89 1e c0 18 43 d3 6c 40
       14.91425862667944 230.60194051287934
000610 ed 10 2e ca cc a1 3f 40 37 07 e4 3f 83 58 6f 40
       31.632031093832598 250.76602167641406
000620 52 75 ad 1f 18 ea 57 40 b9 c0 b5 d4 66 7d 48 c0
       95.65772239627157 -48.97970064997339
000630 bd b7 43 06 09 5b 4b 40 2d 03 da 91 12 0c 36 c0
       54.71121290499239 -22.047158351636586
000640 38 46 89 05 e2 12 7e c0 d7 7b d7 96 e3 2f 62 40
       -481.18018106100817 145.496531887881
000650 d6 a7 ff 9e ce 22 3a c0 6f fc b6 2f 4a a7 1e c0
       -26.13596528760521 -7.663368936103423
000660 04 ce 8a 90 cd cf 73 40 97 7d 86 73 6b f1 61 40
       316.98768667431455 143.54436661021893
000670 26 1c f3 b5 b8 f3 33 40 b2 99 f6 1a 8d ed 15 40
       19.95203721223165 5.481983586598675
000680 b9 e9 03 4b 6a b6 60 40 b6 24 e9 d1 5b dc 30 40
       133.70047522320036 16.860776061458374
000690 77 2d 74 69 2c 4d 60 40 8f b5 71 54 a1 6f 64 c0
       130.41167137804925 -163.4884435864337
0006a0 4d 7e cd 54 82 23 68 c0 2a ca fa 89 ad 5b 03 c0
       -193.1096595777075 -2.4197645930919593
0006b0 8b cc 9c 7f 80 5d 69 c0 79 b4 ac 8b 60 c6 57 40
       -202.92193585037998 95.09964267602653
0006c0 bd aa 15 07 7f a9 68 c0 e1 41 8c 2c 27 c3 62 c0
       -197.29675630790544 -150.0985319842721
0006d0 ec 3a cc d0 4f 8a 61 c0 b9 6c a2 0c 6c a4 2a 40
       -140.32224311722473 13.321136851145967
0006e0 a2 d4 88 2a e0 5d 59 c0 92 32 93 86 27 48 6f 40
       -101.46680701601375 250.25482491254348
0006f0 85 d7 49 53 7c f3 2f 40 0e 00 a8 d4 a3 51 60 40
       15.975557902110959 130.55124886333982
000700 18 99 5f 9e 21 a6 4a 40 3d fe ee 7b e6 02 5c c0
       53.29790095966217 -112.04531763400242
000710 0b 65 68 48 ec d1 45 c0 f0 61 31 34 8c ad 31 c0
       -43.64002328011892 -17.677920591408053
000720 49 56 85 21 f0 3d 75 40 41 a0 22 3d f8 2e 7c 40
       339.87112571797167 450.9356051781252
000730 1a 4a 86 ef b7 6a 6c c0 68 5a ef 01 b9 68 3d 40
       -227.33495308140192 29.409072991309955
000740 69 97 30 8e 6c 38 6a 40 29 a3 d1 84 9b 19 63 c0
       209.7632513951351 -152.80023423142237
000750 fb 52 dd 11 15 f2 43 c0 3b c5 24 21 39 97 52 40
       -39.89126799876063 74.3628619059645
000760 ef 52 d4 9c c2 05 06 c0 01 a0 a0 83 0f 61 61 c0
       -2.7528126003547793 -139.03314381954263
000770 4b 58 ec f9 f4 68 20 40 4d c5 fd 27 02 63 60 c0
       8.204994020558066 -131.09401320995894
000780 db 6b fa db e3 b4 51 c0 56 e8 94 3c 6b c0 25 40
       -70.82640742736059 10.875818150689309
000790 bd 11 8f 52 14 d1 36 c0 7e d3 28 06 e6 55 36 40
       -22.816716346673036 22.33554113861782
0007a0 76 65 a8 42 22 53 56 c0 e2 f2 9b 01 94 e5 11 c0
       -89.29896608777003 -4.474197411673886
0007b0 07 b3 05 75 4c 3f 45 c0 a9 db 8d 3f a6 9a e5 bf
       -42.49452078607833 -0.6751281014720593
0007c0 84 b1 78 46 58 bb 63 c0 ea 93 91 6b e8 f5 57 40
       -157.8545257909101 95.84231080261785
0007d0 61 07 8c 0b b9 c9 50 40 13 0d dc 3b a0 f0 41 c0
       67.15191925692262 -35.87988994831735
0007e0 ba d5 d9 ca b7 1b 41 c0 8a 5b f9 1a d6 d1 50 40
       -34.21654639851063 67.2786929545529
0007f0 57 a5 c6 b0 20 9d 6c c0 22 e8 44 bc a4 d8 64 c0
       -228.9102405433466 -166.7701093049846
