L2minimization/data-non-smooth2/model_OGA_2D_cone2d_relu1_neuron_1024_N_4096_randomized_trial1.pt (torch, 34550 bytes, 3 tensors)

fc1.weight f8 [1024, 2]
000000 98 3f 57 81 ee 67 9b 3f 35 17 17 0a 92 98 a2 bf
       0.02676365532334976 -0.036320270282472235
000010 d5 ff 1b 9b 8b 98 c6 bf 70 72 e7 77 49 79 ef 3f
       -0.1765303141946776 0.9835555402638203
000020 53 7a 4e 6b 4b ca 9b bf 4b 65 e4 01 82 73 ef bf
       -0.0271388801808093 -0.9828500782925088
000030 ac 0a 07 b2 ea c4 ef 3f a6 90 cd 7a f9 75 b2 3f
       0.9927876927470911 0.0721126484691604
000040 1c 70 e1 fa 0f 28 ef bf 97 d5 66 1d 9e 70 bf bf
       -0.9736404323589372 -0.12281215875449046
000050 18 91 69 53 6a 1f e8 3f b5 98 4c ae 9b 06 e5 bf
       0.7538348797939163 -0.6570566562920904
000060 03 6c 37 a7 95 9f e4 3f df ff e6 ad 91 77 e8 3f
       0.6444805398890597 0.7645958324937928
000070 a9 87 91 66 1a 4c ee bf 61 a9 c5 8e d3 0e ca bf
       -0.946789932564788 -0.20357746573729243
000080 ba 6f b3 5f f2 91 d1 bf e4 8f 74 c5 14 87 ee bf
       -0.2745328840808231 -0.9539893967198592
000090 04 82 c9 d2 8c 16 ee bf 6a 0c b3 38 89 b3 d5 3f
       -0.9402526966987925 0.3390830091195257
0000a0 ac 9d 68 87 d3 b9 ea bf 25 e9 6f a7 b1 94 e1 bf
       -0.8351838726711569 -0.5494011183029995
0000b0 d1 f3 7f 0c 24 ab e8 bf 79 00 43 d0 b7 75 e1 3f
       -0.7708912128579134 0.5456198756801448
0000c0 eb 79 66 b2 c8 b5 e1 bf f3 f8 bf 57 1d a3 ea 3f
       -0.55344042629059 0.8324114526619993
0000d0 e1 32 a4 c5 b7 c5 e3 bf ed ea 9d cd 85 03 e4 3f
       -0.6178854808982487 0.625430013270799
0000e0 13 be 90 78 0c 2b d7 bf 4e b0 51 85 93 b9 ed bf
       -0.36200248502697824 -0.9289033512009242
0000f0 55 ba f6 96 d7 5b e7 bf 06 5f 56 6d c9 58 e2 bf
       -0.7299611996184675 -0.5733382354255532
000100 cd 8e 63 10 d5 4e ee 3f a2 01 0d 45 a5 03 d3 bf
       0.9471230812163981 -0.29709750884287633
000110 50 63 b8 98 77 a5 ed 3f 0d 62 36 03 f7 e7 d7 3f
       0.9264486296479877 0.37353301347460005
000120 d5 48 4d 4a 2c c7 ac 3f 5a 55 64 91 a8 2b ee 3f
       0.056207069463782545 0.9428294028936464
000130 0d 67 fb 6b 62 53 e0 3f a0 ea df 49 e3 39 eb bf
       0.5101787671112291 -0.850816387449715
000140 53 b6 89 d2 54 ce ed 3f 8b ba 14 61 a0 c6 bb 3f
       0.9314369308537586 0.10849954958096412
000150 38 93 33 09 81 3e d2 3f 5a 1e 32 c6 8c d5 ec 3f
       0.2850649442537363 0.9010681029330485
000160 cd 94 8f ef c5 cd ef bf 9b ee 32 80 1e 7e b7 bf
       -0.9938687971995478 -0.09176817540986308
000170 e5 2f 95 99 db 49 c5 3f c0 ee 30 17 4c 8c ef 3f
       0.1663164615550833 0.9858761265708935
000180 6a fe ef 3f dc 22 d0 3f 50 f9 b2 42 f2 bf ee bf
       0.2521277069463169 -0.9609309485165713
000190 a6 0c 93 d0 4c 65 e6 bf fa b7 4b fe f3 c0 e5 bf
       -0.6998657296866397 -0.679803845092237
0001a0 22 11 ad 5f 61 4a d9 3f 34 4e 75 01 de 63 ed bf
       0.39516481726993125 -0.918440821502776
0001b0 f3 c2 cd 89 67 2c dd bf e1 bb 42 6d 45 75 ec bf
       -0.45583523232839623 -0.8893153318402903
0001c0 10 2b 9a c4 4e 4c ea bf 1e 6f 90 8e b9 b4 e1 bf
       -0.8218149032485105 -0.5533111366707748
0001d0 24 e7 3a 12 c9 14 ef bf d5 64 7f 37 65 1e c1 3f
       -0.9712872844749865 0.13374009332509354
0001e0 7e f8 63 e6 93 50 eb bf 0d 09 3e 13 a2 ab e0 3f
       -0.8535861491980226 0.5209513068987534
0001f0 8e a2 00 70 36 f3 91 bf 9c 8a 01 9a 99 a7 ed 3f
       -0.017529345117653743 0.9267089851312735
000200 05 9c f0 65 69 2b e6 bf 99 7f 54 b7 81 30 e5 3f
       -0.6927992812169356 0.6621712284722775
000210 9e 80 7c 08 d5 d8 ee bf d3 92 7e ca 9f e5 c2 3f
       -0.9639687696217327 0.14763257396147952
000220 20 3b 66 72 26 fb e4 3f c2 b0 ff d7 2d 4e e0 3f
       0.6556579813348868 0.5095433443762192
000230 c7 81 85 d3 ef 7f ae 3f bb 2c 7d b3 cc eb ef bf
       0.05956983048486424 -0.9975341325420212
000240 1e 39 5e 87 e7 5e ea 3f 20 06 64 f3 5e a7 df bf
       0.8240850109012035 -0.4945905091154561
000250 a9 30 da a3 81 71 ed 3f f6 94 2c 0f 76 c5 d8 3f
       0.9201057625046093 0.38705207330561053
000260 e7 8a f7 61 ce 45 e7 3f 9b eb cb 4e 1b f6 e5 3f
       0.7272712624947787 0.6862923182483088
000270 a7 0f b6 3d ba 57 ef bf cb 11 e7 8e 33 75 c9 3f
       -0.979458923844949 0.19888920285860787
000280 2a de 2d 0f c3 12 e5 bf 72 ba ba b5 d7 10 e8 3f
       -0.6585402771442592 0.7520559834864129
000290 7f 29 8a 2e 60 d7 de bf 83 97 af 24 f0 f7 eb bf
       -0.48189549012081295 -0.8740158764382929
0002a0 d7 b6 e9 d6 55 24 da bf 4b 3d 30 22 01 72 e7 bf
       -0.408467731357502 -0.7326665561430813
0002b0 d7 a0 68 79 fc ef ef 3f d1 23 fa d1 82 ff af 3f
       0.9980451937927012 0.06249626935193187
0002c0 64 e6 4a 2b 80 ca e5 3f b0 a0 ad 03 8e 3e e6 3f
       0.6809693189199604 0.695136077102708
0002d0 ed bb ac e0 a6 7f e5 3f 98 95 bc 8c e2 65 e7 bf
       0.671832503145081 -0.7311871289027065
0002e0 9a 90 b8 8d 56 88 d3 bf e7 e2 d7 2b 6d 78 ee bf
       -0.30519641723572877 -0.9522004944147654
0002f0 c2 f6 e7 2b d9 e8 91 3f a5 6b 6a 20 3c ee ef bf
       0.017489808373275968 -0.9978314049834479
000300 47 94 da 03 81 9f d8 3f 06 2b cd d1 a4 75 ec bf
       0.38473534942960835 -0.8893608186420756
000310 a9 6c fd 92 6e 7b cf bf 90 b7 c9 c9 c3 01 ef 3f
       -0.24595434357874993 0.9689654294177092
000320 6c 4b c4 be b1 f9 ee bf 9e 3a af cf 96 10 d0 bf
       -0.9679802633203116 -0.25101251870811747
000330 5f 0c 11 9e b2 12 eb 3f b1 b0 fa d5 14 00 e1 3f
       0.8460324370611366 0.5312599353105921
000340 fa b7 2e d8 cb 84 ef 3f f6 2e 29 46 4c a5 c5 bf
       0.9849604818643904 -0.16910699296783321
000350 df 3b 14 1d 87 c4 e1 3f 90 a5 f5 fb d3 45 ea 3f
       0.5552402084302875 0.8210239335141285
000360 b0 14 92 4c 79 98 ed bf 1a 29 f6 66 49 4f d8 3f
       -0.9248625274200517 0.3798392777904539
000370 dd f5 84 9f 33 ed e1 3f 16 73 6b f1 00 75 ea bf
       0.5602052798855613 -0.8267826762417794
000380 0b e2 16 98 f7 4a d8 3f 36 b5 79 aa 47 7c ed bf
       0.3795756325958172 -0.921420891723449
000390 5b ca eb ca 7c 8f e5 3f a8 a0 62 90 33 34 e7 3f
       0.6737655604650387 0.7251222438835798
0003a0 f1 5e a5 2e 76 76 ec 3f 16 d4 69 dd 0f 0b db 3f
       0.8894606505445762 0.4225501692047272
0003b0 74 cc ec 07 d2 37 d3 bf 93 33 dc a8 37 d5 ea 3f
       -0.3002820088760878 0.8385275171327627
0003c0 3f fb 4f d0 bf 9a e0 bf 45 3b e2 03 ab be ea bf
       -0.5188902920343493 -0.8357749057630391
0003d0 32 49 6c ed f0 d3 ec 3f f7 49 f5 1a 0d 1a da 3f
       0.9008717190902529 0.40784003861077117
0003e0 b0 2c ed 52 f0 6e a5 3f a4 5a 7a e3 3c 62 ef bf
       0.04186202060972144 -0.980741924565184
0003f0 40 17 a1 bb f4 80 c7 3f d0 ce 6d 6e 95 69 ef 3f
       0.1836229244383336 0.981638637238996
000400 80 31 5d 72 4b 36 e5 3f 4a a4 a9 7e 12 f0 e7 bf
       0.6628777726814832 -0.7480556939964427
000410 aa 6e 99 a4 73 1c df 3f 59 d2 92 5b cb bb eb bf
       0.4861115558066823 -0.8666741169495921
000420 a8 65 b0 39 b2 28 ec bf 60 37 b4 69 c5 78 9e 3f
       -0.8799677969683914 0.02975758035341103
000430 86 0f 07 01 7a c4 e1 bf f7 e2 4e 2c 32 9d ea bf
       -0.5552339572973188 -0.8316889634507721
000440 e7 76 d2 b1 41 2d 95 3f 66 b8 b0 24 38 fe ef 3f
       0.020680452803040785 0.9997826305968942
000450 1b bd 04 7d 65 9d eb 3f bf 07 e2 ec 4f 15 df bf
       0.8629634324806007 -0.4856757939634199
000460 f7 1c 72 e9 72 c7 e8 bf 1e b6 93 14 8e 3a e4 bf
       -0.7743467864501373 -0.6321478273291097
000470 26 2d 1b be 92 ec e9 3f 5b 5b 05 b8 55 bd e2 bf
       0.8101285660754101 -0.585612162986631
000480 50 49 a2 bc cf a8 ea bf f5 5e 8f dd 20 0f e1 3f
       -0.8331068691498249 0.5330967261643013
000490 13 64 1a 5c 33 ef ef 3f 25 40 c0 a2 e6 19 b0 bf
       0.9979492949379413 -0.06289521668827598
0004a0 4f 9f 83 86 3b d3 da 3f 00 56 af fa 06 0d ed 3f
       0.4191426099409811 0.9078402420224734
0004b0 d6 b2 12 3d d0 f3 d2 3f 67 24 d4 5b d8 a4 ed 3f
       0.2961311909119052 0.9263726991204181
0004c0 c0 e6 18 ae 48 5a d0 bf 5c 6e c0 fd 3a 55 ee 3f
       -0.25551049234091394 0.947904105767019
0004d0 cb a5 0a e8 d4 67 ed bf b9 57 15 ea 60 3e d9 bf
       -0.9189247638761854 -0.3944322858782204
0004e0 84 5d 2f ac d0 4f ed 3f e9 43 a4 02 99 9a ca bf
       0.9159930575359998 -0.20784294728267064
0004f0 64 e5 49 8a c8 98 ea bf fc fd 94 3d 3d 62 c8 bf
       -0.8311503125143358 -0.19049802309926622
000500 28 2d be fc 5f 78 c1 bf e7 b4 4d 5e 5c 6d ef 3f
       -0.13648605195008057 0.982099708735089
000510 c7 94 c3 50 fb a1 ef bf 3b c5 09 d4 a2 85 bc 3f
       -0.9885231568738612 0.11141412426674872
000520 99 b3 77 45 4a 79 ef 3f c9 0d dd 2e 3b 18 c7 3f
       0.9835559231556658 0.18042697704559732
000530 34 37 55 2d b8 19 e9 3f 93 9b d7 24 00 af e3 3f
       0.7843895802886665 0.615112373311478
000540 97 c9 c7 38 d7 35 ca bf 81 1f 7b 72 44 0b ef bf
       -0.20476808807832178 -0.970125411601643
000550 84 35 6e df f2 d8 ee bf a4 4e 61 b4 8b 48 cf 3f
       -0.9639829982640298 0.24440141971228002
000560 a4 4d 3c 4d 41 7b ee bf 30 4d 3e 58 3c c1 cf 3f
       -0.9525457867152238 0.24808458622701712
000570 c6 77 bd ec 7b b3 c0 3f 59 bf ac 38 e8 b9 ef bf
       0.1304774194676936 -0.9914437395982346
000580 ab 49 de 36 00 a1 d2 3f c6 e7 52 ca ca 9c ee bf
       0.2910767112563472 -0.9566396667134931
000590 ac ce bf 32 c7 b1 dd bf f6 56 c9 ab d6 58 ec 3f
       -0.4639757152174109 0.885844550629115
0005a0 0e 97 88 d1 12 5a ea 3f 95 8e c0 a2 c0 0b e2 bf
       0.8234953014805073 -0.5639346293214255
0005b0 65 ef 85 70 df 1a e7 3f 23 1a d0 58 f3 14 e6 3f
       0.7220303724020424 0.6900574431063585
0005c0 7b a3 d8 1d f6 af e6 3f a3 45 1a ad ff 42 e6 3f
       0.7089796622213805 0.6956785565291067
0005d0 8c 0f 91 bd bf 0d ef 3f d8 cc 81 18 3a b5 ce bf
       0.9704283430551057 -0.23990560719139498
0005e0 c4 23 7b 3c 0b cd ec 3f 3c 23 8e d9 43 dc db bf
       0.9000297719259085 -0.4353189110338922
0005f0 52 7f 4f 5b 67 78 e7 3f f5 5e 00 38 54 55 e5 bf
       0.7334477218064228 -0.6666661351946163
000600 5d 23 21 6d ff 54 ec bf 2f 9f 02 ce 59 c0 dd bf
       -0.8853757029947747 -0.4648651611155285
000610 19 d1 43 00 8c fa e8 bf 94 d4 a4 78 4b fd e3 bf
       -0.7805843358205805 -0.624669776566082
000620 27 e6 41 53 68 e9 ef bf 84 d3 86 43 d8 31 ac 3f
       -0.9972421289559791 0.05506778549480543
000630 33 56 9b ea 96 c6 e9 bf e7 7e a6 03 a1 f5 e2 3f
       -0.8054918844379187 0.5924840041443219
000640 80 27 9b 5e a3 3e e2 3f 7d 07 50 57 8c 49 ea bf
       0.5701462600493272 -0.8214780526470659
000650 0b a7 0b 54 00 c6 e4 3f 9b 9f a8 c1 0f 50 e8 3f
       0.6491700784219757 0.759773138274784
000660 f5 c2 a8 23 cc 97 e6 3f 5a 53 12 b4 41 a8 e6 bf
       0.7060299583882556 -0.7080391423247463
000670 39 49 8f 42 a3 ff d8 3f 65 6b 3b f1 82 72 ed bf
       0.390602889060705 -0.9202284537853812
000680 b5 84 ee e7 74 28 df 3f b9 b8 7d c3 99 f2 eb 3f
       0.48684427880841535 0.873364335840754
000690 7f 33 e6 6b fd 13 e4 3f 17 cd c7 55 31 c2 e8 bf
       0.6274401767164902 -0.7737051654243342
0006a0 37 c9 34 ef 61 4c ee bf 60 17 f0 11 00 97 d4 bf
       -0.946824042510605 -0.32171632529968086
0006b0 69 db 01 99 88 a6 d5 bf d9 e1 21 d2 16 11 ee bf
       -0.3382894033633677 -0.9395860771319874
0006c0 e9 e8 7c 22 a2 7e ec bf 43 f5 eb 87 dd 15 dd 3f
       -0.8904581712334024 0.4544595553741894
0006d0 16 f6 70 b4 96 06 ef 3f 27 7d 62 f1 32 b5 cd 3f
       0.9695542835467588 0.232092254508623
0006e0 db 1b b6 97 c5 b9 bd 3f 91 ef d7 9f d0 ac ef 3f
       0.11611590341463744 0.9898455736106248
0006f0 83 ab ab 80 c8 7e ee bf 84 5f 61 e6 13 65 d3 3f
       -0.9529764664742831 0.3030442952926864
000700 49 40 93 a9 43 b0 ea bf 1a 3b df 88 b5 a7 e1 bf
       -0.8340166389480227 -0.5517223046570934
000710 79 3a 53 d9 71 37 e7 3f 69 8b 2f 63 05 ef e5 bf
       0.7255181545859407 -0.6854273736210931
000720 45 09 be 16 bf e1 af bf 30 c6 bc e7 08 f0 ef 3f
       -0.06226918366066284 0.998051121341808
000730 08 63 87 3e 35 ec 9f 3f e2 ff da ed 6d c1 ef bf
       0.031174499455889154 -0.9923619886030759
000740 68 76 9b 3a 6c 9c ca 3f 49 98 d4 cc 64 4c ef bf
       0.20789864408191083 -0.978075408992262
000750 fd a5 48 c4 5f 98 e2 bf bd 4e cd 8a 37 ec e9 bf
       -0.5811003526370652 -0.810085078332541
000760 51 e5 63 75 1f 2f df 3f 74 cb 53 7a 3f ab eb 3f
       0.48725115264786206 0.864654292030862
000770 2a 38 7b 1c 3f 03 e6 bf fa 69 10 86 d3 39 e7 bf
       -0.68789630472907 -0.7258088701667582
000780 c9 f8 6b a2 6b 69 ef 3f 5a 05 df 1a 5b 69 c8 bf
       0.9816187069225403 -0.19071520626134025
000790 2b 30 2e 65 ca c4 c0 bf b4 c3 a5 6d 36 8b ef bf
       -0.13100557270479504 -0.9857437268784595
0007a0 51 da e5 21 60 85 eb bf e9 11 5e ef 49 2a e0 3f
       -0.8600311910693766 0.5051622080941885
0007b0 83 ab bd 97 14 7f e1 bf c3 bd 1d 9e ce d3 e9 3f
       -0.5467627490701122 0.8071053589064195
0007c0 40 af 8f 40 af f6 cc bf 33 57 48 d6 84 2b ef bf
       -0.22627821590810449 -0.974062365074792
0007d0 aa de df 5d ef 86 b6 3f 39 da 78 99 31 e0 ef 3f
       0.08799644510133456 0.996117400884777
0007e0 49 2e 23 02 d0 68 d4 3f ed 92 a2 ad e8 53 ee 3f
       0.3188972493050853 0.947742785578695
0007f0 50 e5 65 ec 3a ec e2 3f 3f b2 6e 63 38 ce e9 3f
       0.5913366906308202 0.8064233724631505

fc1.bias f8 [1024]
000000 73 30 50 95 a8 f7 ef 3f a5 b8 41 80 9c 88 a3 3f
       0.998981753947659 0.03815163674959025
000010 e3 33 f6 54 d5 58 c7 3f 86 92 60 28 8b 84 b8 3f
       0.18239847801706252 0.09577245460293157
000020 f0 2b 7d 78 10 9a c8 3f 7c 22 4c 6e 29 48 69 3f
       0.19220167048692316 0.0030861672588609595
000030 93 7c a7 68 d2 43 79 bf f3 b2 7d 43 b4 e8 cf bf
       -0.0061681956380815915 -0.24928906722507058
000040 5c 60 b3 8d 59 dd be bf ca 90 e4 1a 85 85 9f bf
       -0.12056503018846015 -0.030782775656135887
000050 84 c2 67 fb 76 a0 99 3f 60 a8 55 df f8 08 d5 3f
       0.025026187033236016 0.3286726170541723
000060 f1 8a 25 4f bb de 9c bf d2 4d 20 37 05 7f de bf
       -0.028193403917053442 -0.4765027082769083
000070 49 5a c8 25 7d fb b3 3f 84 84 c4 46 14 d0 d7 3f
       0.07805616543223794 0.37207514677908926
000080 fd 78 5e 58 5e 07 bf bf f4 c6 d3 52 2a d4 a7 3f
       -0.12120618493506537 0.046540567980526776
000090 c9 9e 45 bb 2c 06 d5 3f 6d 34 31 41 aa 1a c0 bf
       0.32850187576557893 -0.1258137529679603
0000a0 22 16 f5 f2 01 3b d6 bf c3 0c df 4a b1 ea d4 bf
       -0.3473515389090115 -0.3268244963803221
0000b0 41 69 c3 95 73 93 af 3f 8b 50 90 56 a1 25 94 bf
       0.06167184069791399 -0.01967479792445252
0000c0 f1 56 80 51 b2 3c bd 3f bb 3b 26 af 32 0f cc bf
       0.11420740594652636 -0.21921380569662383
0000d0 3e a5 b3 f4 a0 10 92 3f 44 91 af 2e 8b b0 a2 bf
       0.01764155858555693 -0.036503171395255524
0000e0 4f fa 51 88 f5 64 c1 bf 2f 89 f4 a8 70 2f c9 3f
       -0.1358935275674917 0.19676025628820912
0000f0 40 11 90 ab ac 47 45 3f 0d 1e b8 eb 12 06 d8 bf
       0.0006494134059953707 -0.375370722002544
000100 8c 94 4d 93 03 47 d2 bf cc 74 fc ea 32 53 cc bf
       -0.2855843485361411 -0.221289028872809
000110 4b 75 23 0c a1 d4 e1 3f 57 40 cf c3 f8 ff a2 3f
       0.5572056996422047 0.03710915937665565
000120 46 7f 90 4d 99 ac d1 3f d8 20 ca 0c 09 b4 ae bf
       0.2761595971551184 -0.05996731072542766
000130 28 08 96 6a b7 3e 82 3f bd 6f 38 6c af 01 a1 bf
       0.008908684673546288 -0.03321598239946819
000140 03 d6 61 7d 35 ca 9b bf f5 6b 2d 39 0b dd af 3f
       -0.027138553407402465 0.06223330567328126
000150 ca 76 8f c8 97 6b e1 3f fc 7a bd 0b fb a5 16 3f
       0.5443838994212566 8.639664423302698e-05
000160 6e fe 14 f8 7f 7c cd bf f3 fd 3d a2 1d 4c be 3f
       -0.23036193478945982 0.11834893427839414
000170 8f ea f3 6c 1b a7 8a 3f d8 ba 40 c0 9d 3e b0 bf
       0.01301404405829956 -0.06345544761345978
000180 be 26 6f ce 29 9e cf bf a6 f5 85 fb 81 57 99 bf
       -0.24701426105302987 -0.02474787805248515
000190 a5 28 32 f6 d8 8e 65 3f ae 64 c6 52 fa d9 a6 3f
       0.0026315915616282486 0.04463178883015338
0001a0 d2 6a b4 ce 99 24 a2 bf da 9a 26 dd 9f fe c0 bf
       -0.03543549202205089 -0.13277052210215495
0001b0 d5 6e 20 3c 43 32 93 3f d7 b8 9e 4e f7 1b aa bf
       0.01874642424091529 -0.050994613978547036
0001c0 a0 8a 03 d9 25 46 b5 bf ab 83 11 48 8d 35 c2 bf
       -0.08310162113370234 -0.14225927370992272
0001d0 63 d4 6c c6 ef 48 c6 bf de c3 7e 75 e8 18 dd 3f
       -0.17410084904409748 0.45464526628626156
0001e0 33 66 e5 0a 09 fb c6 bf e0 ce 7f ac f1 06 c3 3f
       -0.17953599006686857 0.14864941523375474
0001f0 7e 33 d1 2d 1f 6b c8 bf 50 93 26 f2 7b 72 aa 3f
       -0.19076909768264366 0.05165469485226615
000200 96 e8 ec c2 bb 3c a0 bf 86 25 25 09 15 b4 bc 3f
       -0.031713359398467464 0.11212283585805069
000210 ff ce 2a 16 a9 57 de bf 52 71 0d e7 13 31 68 bf
       -0.4741003719784515 -0.0029530895921380607
000220 31 b8 64 9a ac b0 65 bf 1e 51 ab 6f 99 d5 c1 3f
       -0.0026477214006695106 0.13933103516195272
000230 c8 27 59 e3 53 87 9c 3f ce d7 0a aa 97 0b 9c bf
       0.02785998416064908 -0.02738797164302991
000240 89 29 30 fb 90 df c2 3f 49 56 e1 37 52 5a 88 bf
       0.14744770302816004 -0.011891023950890605
000250 9d f3 b9 15 9b b5 88 bf 36 5a fc 8b 74 c8 cd 3f
       -0.012065135574852276 0.23267990908853314
000260 e4 47 93 71 dd 59 c8 3f c0 88 c5 14 73 fc 45 3f
       0.19024246259374344 0.0006709634704231901
000270 1f 5a c4 ba 50 f6 d5 bf aa 74 f5 fd 7b b7 e0 3f
       -0.34315889586415155 0.5223979911931071
000280 6b a7 90 37 c0 9d c0 bf 30 78 95 c7 3b 1e ba 3f
       -0.1298141738237136 0.10202382681515654
000290 6a cb 88 6b 73 5d 80 3f e8 ad a0 0e 7a 6e b4 bf
       0.007990743369281812 -0.0798107419693036
0002a0 33 98 3a a8 34 a7 c0 3f eb 98 73 24 f3 da ba bf
       0.13010271276761073 -0.10490340843134376
0002b0 fb 88 cf 52 ae 93 c6 bf 40 f8 7c b6 d4 ad 6f bf
       -0.1763818649624865 -0.0038670687244169166
0002c0 e2 10 25 47 d3 f3 85 bf 7e eb b8 4f 27 03 64 3f
       -0.010718966110865261 0.0024429099846918203
0002d0 c6 31 44 49 10 b3 af 3f 3e f8 87 4c 3e 90 a9 bf
       0.06191302198758168 -0.049928614465884355
0002e0 30 4c 8e 26 72 9c bd 3f 17 d2 cb 1e 55 5d 9b bf
       0.11566842500023777 -0.026723222736977883
0002f0 5b b0 e0 22 d1 92 95 3f 85 12 b1 f5 7c fc c0 bf
       0.021067874673619574 -0.1327053260485124
000300 6b c8 ae 66 06 39 6a bf 60 5a e3 f5 e4 55 96 bf
       -0.0032010197660037785 -0.02181203604490134
000310 01 66 cb 9c a3 79 a9 bf 22 72 5b 99 c4 b4 88 bf
       -0.04975615777011556 -0.012063537530985494
000320 22 3f f6 e9 92 30 85 bf 82 bb 54 e6 77 9f a2 3f
       -0.010346553578329646 0.036372897020888764
000330 31 fe 5d 87 86 20 8d 3f 35 bf f4 c4 0a 45 99 bf
       0.014222193723752859 -0.024677437087290605
000340 b6 1e f3 12 18 32 8e bf ca c5 84 ab 70 76 b6 bf
       -0.01474398429708344 -0.0877447527643859
000350 78 b7 bc 23 1d 93 73 bf c8 a9 5e b9 d0 ca aa bf
       -0.004778970552974708 -0.05232860815825152
000360 02 47 f9 3e 0e 08 98 3f 92 74 29 e5 8c fd b3 bf
       0.023468229859935803 -0.07808762163900188
000370 53 1e 3e c5 7c fd b4 bf b5 65 9b d0 26 77 19 bf
       -0.08199291053289785 -9.71429291455526e-05
000380 84 c4 92 2e cd bb 71 bf 94 02 f7 e4 55 9d af bf
       -0.004329492084410028 -0.061747249793829756
000390 76 5c 27 c8 5c a4 70 bf 53 ba 5c f2 1b 8e be 3f
       -0.004062998227218553 0.11935591380163517
0003a0 9c 07 2d 98 0a cd 88 bf d4 81 e8 91 09 f8 b3 bf
       -0.012109835404434048 -0.07800350010121032
0003b0 04 00 c3 49 95 4f bf bf a3 8f 35 29 47 0b 3a 3f
       -0.12230809260199754 0.0003974007351727987
0003c0 88 e2 6c 48 2d a8 7d bf c7 f0 c7 4c 33 07 bb bf
       -0.0072404641021469665 -0.10557861923729482
0003d0 c3 f1 f6 68 83 62 b2 3f 7f 1c e4 a4 17 84 cc 3f
       0.07181569397557212 0.22278113890954285
0003e0 18 c7 57 82 fd fa 4a 3f 51 c3 fd a3 47 48 65 3f
       0.0008233774030357048 0.0025979422788896885
0003f0 a6 de eb e4 a2 3a 83 3f bf 9a f2 31 21 a5 58 bf
       0.009389183627248453 -0.0015042137309052986
000400 c1 55 4d 87 2f cd 86 3f 2e 66 49 08 64 29 6f bf
       0.011133548084823698 -0.003803916335795041
000410 97 c3 a3 b9 e5 10 80 bf 92 59 ea ca c7 eb cf 3f
       -0.007844729163908144 0.2493829479978556
000420 7b c7 c6 81 35 6a b0 bf da 33 f7 fc c4 16 d0 3f
       -0.06412062090273977 0.25138973907161033
000430 a0 dc ca 90 88 09 8f 3f d6 7b 51 21 b2 68 54 3f
       0.015154902380670798 0.0012456645538560982
000440 f1 9e 18 02 3b 80 b8 bf 0a 8f ca 70 72 42 75 3f
       -0.09570664216209558 0.005190321954305474
000450 07 20 43 05 30 ad 8c 3f 6d a5 91 c7 d2 38 df bf
       0.014002204094495608 -0.48784322251466145
000460 dc 9a 51 c7 e5 84 7c 3f b3 35 fc 9e 1b d8 9a 3f
       0.006962678501713806 0.02621501119488352
000470 26 3e 78 c5 db a5 df 3f 90 b8 8b 1c 20 2a 7e 3f
       0.4944981983580611 0.007364392695974456
000480 70 0f e4 c0 f9 38 b6 3f 9e e4 5e 57 c4 f8 a2 3f
       0.08680687865495229 0.037054191270223344
000490 6d b4 aa a8 e3 ab a2 3f 46 6c b5 78 c1 8c c5 bf
       0.036467661227427374 -0.1683580245397442
0004a0 6d c0 69 e3 9f 86 81 3f 8a 45 de 74 8f a5 d5 3f
       0.008557557227703872 0.3382300034800997
0004b0 a7 c1 50 43 f9 77 a6 3f f8 f2 b0 ad 90 01 ba 3f
       0.04388407656404363 0.10158638229854577
0004c0 42 c8 99 5d 0d e3 95 bf 81 eb 86 73 23 c3 82 3f
       -0.021373947942670897 0.009161259615998453
0004d0 47 c6 67 42 15 e3 a7 3f ba 7f 3f d4 9c 34 84 3f
       0.04665438113796632 0.00986597559671042
0004e0 d1 83 35 57 b2 f6 74 3f ec 10 e4 fa 41 29 6e 3f
       0.005118080752567659 0.00368178259589246
0004f0 d9 07 93 97 0b 1c 63 bf cb 4d e4 91 bd 6a b3 3f
       -0.0023327089698747913 0.07584748088657205
000500 ac 7f 02 e5 c5 39 cc 3f 02 e2 b4 90 63 93 b4 3f
       0.22051309282414644 0.08037397654414494
000510 42 ea e0 d2 87 98 94 3f aa a7 36 6a 14 1d a9 bf
       0.020113107915884727 -0.049049985852732306
000520 cb bd 5d 7e 4f 86 96 bf 36 65 62 8b 9b 0d 98 bf
       -0.02199672898080766 -0.023489408857675552
000530 f5 07 87 b7 22 ea 95 3f 15 f5 06 a4 47 92 6e bf
       0.0214009689823413 -0.00373186104135804
000540 b5 a9 5a f2 48 dc d3 bf fc 73 09 b3 2a 9c d4 3f
       -0.31032012622258814 0.32203166469645317
000550 71 3d ce 7f e2 97 78 3f 2b 90 b7 05 08 f5 99 3f
       0.006004223597201417 0.02534878287214341
000560 51 3d a4 08 09 1f b4 3f 70 e7 7b 37 58 d7 a9 bf
       0.0785985609147606 -0.05047107388777661
000570 54 9d 3a 9c d1 d7 65 bf 4f 1c 32 6f a2 da 6f bf
       -0.002666386981065175 -0.00388843274555798
000580 4f ed 38 3a bb ff be bf 7b 94 be 9d f9 51 51 3f
       -0.12108965083546262 0.0010571420343492832
000590 ef cf b2 b0 0b 7c 92 bf 71 85 4a e4 dd 6c ac 3f
       -0.01805132165891615 0.0555180874992044
0005a0 5f ee 0b ed 39 7e 8c 3f f0 e4 fb 51 04 67 a6 3f
       0.013912632509792631 0.04375470639019763
0005b0 ed e2 67 61 ab 56 a6 3f 24 54 ce f7 b5 d0 9b 3f
       0.04362998546634409 0.02716335606563204
0005c0 20 5f 3d 6b dc 54 ca 3f 22 a1 f3 53 15 99 d2 bf
       0.20571475254359317 -0.2905934638825035
0005d0 e8 31 72 33 80 1b 6c bf e3 77 f5 68 d7 0f be bf
       -0.00343108214617004 -0.11742922127220327
0005e0 dd 40 c0 2f 56 2f b1 bf fa 56 cd 31 9d 8f 99 3f
       -0.06712855020328186 0.024961906590156048
0005f0 bf a5 7b 74 3c 61 ac bf f4 1a 39 eb d3 f4 b7 bf
       -0.05542935296928019 -0.09357952587843582
000600 2c 82 a4 20 7e 2e 89 bf 9d 22 2f 99 4b 99 8b bf
       -0.012295709010289611 -0.013475981342609794
000610 f3 79 02 44 06 93 af 3f dd 81 74 0d 91 a1 99 3f
       0.06166858272739608 0.025030390211329013
000620 f1 55 d0 9a 61 10 7d 3f 3c c2 bd 8c e8 45 c2 3f
       0.00709570052005891 0.14275843498355012
000630 3a aa 94 3e a2 fc 86 bf cb 41 1b 5b 23 cf a7 bf
       -0.011224048170864188 -0.046502213355441656
000640 51 d9 02 61 66 28 a6 bf 01 be 1a f7 15 26 81 bf
       -0.04327697691171529 -0.00837342415192577
000650 16 b2 ee 40 82 79 90 3f 53 4a 46 42 69 b1 4e 3f
       0.01608851929965923 0.0009366764029883991
000660 08 fc 9a db 25 22 80 bf 2d 30 8e f5 e2 0f d8 bf
       -0.007877631916356279 -0.37596963863393534
000670 83 f8 c3 bd 5a 61 bf bf 3b 9b f3 65 eb 96 c6 3f
       -0.1225792611403183 0.17648069837670186
000680 84 81 b0 ae ce 00 94 bf 63 7e e7 5f 1a 29 91 bf
       -0.01953432980747173 -0.016758358100445025
000690 03 8b 81 fb 41 3c 85 3f ba 8a 39 11 91 02 9c 3f
       0.01036883877549633 0.027353541065518107
0006a0 9c 32 07 4d 59 3f 73 3f 19 64 b3 16 9b 98 d7 3f
       0.004699086028676771 0.36868931977147806
0006b0 46 c2 24 54 25 91 6e 3f 16 9a d4 45 cd 7f b0 3f
       0.0037313202930351645 0.06445010142179117
0006c0 c7 0a 3c 55 94 99 d9 bf 5d 83 83 02 67 1a 98 bf
       -0.39999874423680776 -0.023538217094827164
0006d0 9c 93 bd 2f e4 3a b2 3f fc 6a c1 b5 22 d5 c4 bf
       0.07121111074009295 -0.16275438189298785
0006e0 aa 5c f4 b3 dc 58 98 bf 1e a6 14 d7 d7 3d 74 bf
       -0.02377648208957043 -0.0049417907005504785
0006f0 fb 37 8a d4 44 ea 7c bf d9 30 f9 d6 7e 58 a3 3f
       -0.007059353702642208 0.03778454183756858
000700 79 16 2c ab 88 16 c3 3f 83 7d 2c 1e 10 53 8f 3f
       0.14912517889040425 0.015295148773985861
000710 c6 6d 0a 4e 42 0f b0 3f 0b b2 b4 a5 3e 6f 84 3f
       0.06273283391276782 0.00997780745691392
000720 f0 e3 e1 f4 bc 4f 79 bf d5 8e e9 31 1d 66 bf bf
       -0.006179559814079902 -0.12265188664019473
000730 9c af 55 71 f6 19 7b 3f 20 ca 8b 68 b9 f2 63 3f
       0.006616556803560682 0.002435075879810414
000740 e1 2b 05 11 f7 6b d4 3f 34 14 0b 7b 1e a7 e0 3f
       0.3190896669590853 0.5204002764882092
000750 9b 07 4f e7 60 26 a6 3f d7 1a 9c eb 88 16 c6 bf
       0.04326155494301461 -0.17256270889648448
000760 ae db 27 6a 54 fe c7 3f d7 81 53 4d b4 a6 99 3f
       0.18744902785667023 0.02504998895608587
000770 d2 c2 10 3a d1 37 77 3f b4 11 fa a6 39 67 df 3f
       0.005668465893038559 0.49067536646205245
000780 8c 8f 34 81 83 91 81 bf ec f7 b5 f8 57 a4 80 3f
       -0.008578326588185602 0.008125960614730553
000790 c0 23 fe 05 12 0c a6 bf 77 45 ac 66 32 92 8b bf
       -0.04306083987382392 -0.013462442167596162
0007a0 93 b5 76 eb 30 82 76 3f 46 fb 86 48 51 96 a8 3f
       0.005495253651515058 0.04802183161108657
0007b0 5d 43 cc d1 12 81 c8 bf ee 18 a7 91 5a e1 b7 bf
       -0.19143901104009844 -0.0932823758695098
0007c0 55 0b 91 63 d1 7b b1 bf 93 b1 9a f6 0e 6f c6 3f
       -0.06829556160759627 0.1752642349359915
0007d0 58 a2 e4 33 49 11 a2 3f 54 99 8d 70 c8 c4 81 bf
       0.03528813131771774 -0.008676114973877581
0007e0 ff af b7 2f 91 cc 89 bf 6a d5 93 6e 59 46 a9 bf
       -0.012597212094043185 -0.049364847896792366
0007f0 a0 7c 51 a1 a2 39 a4 bf a9 d0 89 29 5a 91 92 3f
       -0.039502222244430785 0.01813259962587269

fc2.weight f8 [1, 1024]
000000 0a 00 c3 7b a2 1e 25 3f c7 48 35 6b bc 41 27 3f
       0.00016113027039033084 0.0001774351600070721
000010 00 00 4a 86 e1 8e d8 be 14 e3 13 37 65 fd 21 3f
       -5.855114157626851e-06 0.00013725147758927218
000020 39 b8 54 b4 67 49 e3 3e 71 50 68 15 9c 49 75 3f
       9.19663365070096e-06 0.005197152806904013
000030 6b 22 b8 04 2a bb 7b 3f f3 2f 63 68 d5 5a e7 3e
       0.0067702905030349965 1.1136445447944266e-05
000040 f1 17 e1 25 97 0d e4 be 75 24 02 56 3c b2 20 bf
       -9.562057297195894e-06 -0.00012738214991639724
000050 31 89 ab 4c 26 f8 52 bf 2c af be fc ae 83 dc be
       -0.001157796289299084 -6.798360072151303e-06
000060 a4 9b f2 81 07 72 3d bf 3e 21 2d f7 df 22 f1 3e
       -0.0004493015603181333 1.634238237649518e-05
000070 8b 21 bf 9d 6f 8a f0 be 5b e5 84 20 33 43 01 3f
       -1.5774503353134467e-05 3.292560365015614e-05
000080 cf fc 7b d1 a3 e0 f6 be 9d 26 91 c8 c7 24 f8 be
       -2.1817683857780497e-05 -2.3025201276538805e-05
000090 d1 a5 32 ab ac da e0 be c3 69 32 16 2d 8c ff be
       -8.036707504227327e-06 -3.0086100548312873e-05
0000a0 c1 73 34 f4 17 19 db 3e 85 c2 d3 96 f6 d0 e5 3e
       6.460671843980368e-06 1.0402804685645233e-05
0000b0 b1 53 44 ee 2a 58 34 3f dd 3d 80 03 fb 92 52 bf
       0.00031043098557975284 -0.0011336756997514165
0000c0 c8 d4 43 64 af f9 09 3f 94 2b 56 87 e5 9b cb 3e
       4.954401495808333e-05 3.291245827601603e-06
0000d0 55 83 9f c2 54 34 59 bf 78 ab 51 3d c9 32 42 3f
       -0.0015383556114942538 0.0005553705801849404
0000e0 68 29 0a a4 d0 a9 ba be 7b 02 18 1e 5d bf e0 be
       -1.5892589006216948e-06 -7.985837274128126e-06
0000f0 5e 08 42 8e 10 db 8a 3f b2 6b 92 3f 95 67 d8 3e
       0.01311314520012646 5.818515085876979e-06
000100 3d d6 9d aa 15 e8 be be bc 9e 95 d9 14 01 f5 be
       -1.8421757581299057e-06 -2.0031189341378498e-05
000110 44 ee 58 18 52 96 d3 3e 3a 8a b2 0c 73 37 2b 3f
       4.669950049381351e-06 0.0002076461736112022
000120 08 42 66 13 47 68 ef 3e f0 09 33 96 bf c3 39 bf
       1.4976184144172892e-05 -0.00039313723955217064
000130 3f be b4 14 a0 70 71 3f 7e a5 e5 9f ed ee 30 3f
       0.004257798496197617 0.0002583818567446146
000140 68 3e f2 87 24 3e 25 3f e2 1d 8d 5a 62 60 15 3f
       0.00016206928191707663 8.154487899247152e-05
000150 30 66 05 3b f2 c7 e6 be b9 7a 5a e2 43 19 8a 3f
       -1.0862846324388628e-05 0.012743501992472305
000160 0b 64 93 65 f7 b9 f3 3e b7 40 ca 14 47 34 e5 3e
       1.8812590813908246e-05 1.0110955053905001e-05
000170 55 2b 7c 63 fa 05 1a bf d0 05 3b b4 fb 4d 19 3f
       -9.927120924772594e-05 9.652947215512482e-05
000180 22 89 24 ea 75 3d f5 be b9 ce 35 46 04 73 0c bf
       -2.025611923629171e-05 -5.426270288469204e-05
000190 5e 56 3a c7 de ab 89 3f b5 d3 15 88 47 46 31 3f
       0.012534847693397907 0.0002635883939413012
0001a0 08 50 2b 41 e7 f7 2a bf 5e d8 e0 48 6d de 13 bf
       -0.00020575235301711924 -7.579366703755602e-05
0001b0 e7 d7 fb e1 1b ee 43 bf 20 73 be 7d 9d d8 01 3f
       -0.0006082187792049138 3.403883576356113e-05
0001c0 70 ba 60 e1 57 b0 14 bf 18 c5 bc 55 2a 93 01 3f
       -7.89216649941056e-05 3.3521394213651366e-05
0001d0 a4 fc a6 93 5e 70 f5 be b6 dd 84 91 0f 59 dc 3e
       -2.044576943105156e-05 6.7586645616161155e-06
0001e0 33 2b fb 31 5c 79 05 bf df 28 85 32 8c 7c 05 bf
       -4.095852477588868e-05 -4.098227356282165e-05
0001f0 59 4f f7 9d d7 f8 b8 3e 5a 7f 84 bd e2 aa 01 3f
       1.4884495768045785e-06 3.36981244706258e-05
000200 c3 b8 88 86 70 7e 2f 3f c3 d5 fc af 4a 48 13 3f
       0.00024027942278465582 7.355647903469543e-05
000210 93 86 3a 03 5c 91 cf 3e f3 84 bd 8e db a9 85 3f
       3.763176232699663e-06 0.010577884000385817
000220 80 00 2d af 3a 17 8f 3f 5c 00 c2 3b bb f6 d8 be
       0.015181025000515769 -5.951832403039503e-06
000230 49 ce 18 2d 88 26 35 3f 27 40 d3 68 a3 20 33 bf
       0.00032273125279689126 -0.00029186238755318994
000240 46 a9 a5 cc 91 49 05 bf 33 fe 5f c9 d5 46 4e bf
       -4.060245699373742e-05 -0.0009239715461716924
000250 9c f4 9d a3 cf e0 49 3f 10 f1 01 f3 85 86 fb 3e
       0.0007897390234884618 2.6250344661069935e-05
000260 f4 62 8e fc c2 b6 c7 be 26 8b 4f c2 8d c2 90 3f
       -2.8269186924219796e-06 0.01636716364363191
000270 f7 78 a8 fa 9d a7 b0 3e 88 64 6b 34 0e 82 e1 be
       9.927007150810701e-07 -8.348478912111623e-06
000280 f6 15 0b 5d b4 63 fe 3e 68 56 d0 9e ce 9a 01 3f
       2.898165786537583e-05 3.357832961385366e-05
000290 f9 0d ce 84 8d 6a 6a bf 00 c0 78 96 a3 07 e7 3e
       -0.0032246364630184013 1.0981483412469961e-05
0002a0 1b 9c 15 a1 c0 43 13 bf ca 33 18 44 8d f3 13 bf
       -7.348883834411327e-05 -7.610845298007467e-05
0002b0 2d b5 7d ff 79 6f 06 bf 08 6b 98 4d 20 14 8a 3f
       -4.279223497758787e-05 0.012733700149558227
0002c0 0c ec f9 56 4e 67 77 bf f1 c5 6f 57 e7 c8 91 3f
       -0.005713754667904258 0.017367949210841564
0002d0 e1 dd ac 4a 4a 99 01 bf a7 51 51 05 5e 62 1e 3f
       -3.356702776218988e-05 0.00011590670449496705
0002e0 79 0d 7c 40 b7 e9 f1 be 5b f4 07 44 69 ad 0b 3f
       -1.708312268445869e-05 5.279042716564076e-05
0002f0 15 2f 14 7c 2c c4 19 3f 82 a6 9e 5d 98 16 10 bf
       9.8290648583962e-05 -6.137185064738519e-05
000300 45 b8 06 8c 27 38 6d 3f 6c dd 46 9d 39 25 58 3f
       0.0035668156053452493 0.0014737188949832348
000310 2c b6 0e 12 b6 e6 2b 3f d0 15 aa 65 45 42 49 bf
       0.0002128693822930778 -0.0007708395817906336
000320 36 5b 42 fd 30 bd 68 3f c1 ee 58 cf b2 82 1f 3f
       0.0030199009725707894 0.00012020317429855665
000330 95 85 fc d6 06 b7 3c 3f a3 df 4c b0 07 b8 4b bf
       0.00043815533625676226 -0.0008459126989697096
000340 32 37 7f c4 c7 43 53 bf fc a2 ce 86 55 d8 13 3f
       -0.0011758280615938419 7.570287716752647e-05
000350 c5 0f 16 32 b7 30 79 3f 07 ce 67 69 de e6 16 3f
       0.006149974449161937 8.736355298549085e-05
000360 64 92 ea 15 8e 15 4c bf d6 25 7e a2 c4 b9 24 bf
       -0.0008570617463488747 -0.00015812421156295606
000370 dd b6 64 6a 6b 61 00 bf f0 fa 24 c2 85 c7 90 3f
       -3.124341064829142e-05 0.016386117910992704
000380 27 8b 5c 1e 89 30 82 3f 60 f4 d1 b1 dd e1 01 3f
       0.008881636847552677 3.4107759554460144e-05
000390 35 9a 19 3a a6 49 7e 3f 66 bd 2d 53 a2 50 0d bf
       0.0073944562187536105 -5.5913881076170496e-05
0003a0 bd 16 70 a0 33 d0 54 bf 24 67 82 e3 41 01 0b bf
       -0.0012703422705739175 -5.150778128033679e-05
0003b0 73 3c 2b ab 93 34 e3 3e 55 73 75 8c 82 b9 8d 3f
       9.157837984301157e-06 0.014513988410436754
0003c0 cb b7 89 ae da ae 4f 3f 00 f8 d2 73 f6 c8 0a bf
       0.0009668891699001701 -5.1088353282477406e-05
0003d0 4f 9c 12 f2 ad 83 0c 3f 5a 47 bd 4d 12 89 f4 3e
       5.438685026009552e-05 1.9584117452459963e-05
0003e0 c8 50 e3 93 70 47 83 3f 66 48 46 24 49 86 93 3f
       0.009413604272062406 0.019066946829817154
0003f0 56 37 d3 59 c6 25 61 bf b1 ef 2c ff 82 70 8b 3f
       -0.0020932077446564152 0.013398192798938032
000400 4c c7 70 f2 a4 1a 5b 3f aa 03 ed 37 51 aa 89 3f
       0.0016543017207024278 0.012531885642262559
000410 84 a2 e3 79 a3 58 5c bf 08 6a d3 80 9d 45 fa be
       -0.001730117458970921 -2.505486923074822e-05
000420 37 ca 01 a4 ed 54 0d 3f b8 cc 72 23 aa bc 00 3f
       5.594587537495861e-05 3.1923238958419945e-05
000430 08 76 73 3e 33 01 26 bf 34 b5 df ff 48 e4 84 3f
       -0.00016788244759073667 0.01020104437699363
000440 58 cb ad a4 5c 07 1c bf 32 91 24 d7 2e ba 82 3f
       -0.0001069212241143041 0.009144178333891338
000450 90 ca 5c 1c 72 91 6b bf d2 5d 9d 94 a8 6c f0 3e
       -0.003365252373350565 1.5663573584260623e-05
000460 9c c4 01 9f cf 91 5b bf c0 77 55 4c fa ea 2a bf
       -0.0016827132749564272 -0.00020536713979429737
000470 4f 6b 8a 9e 16 fb e2 be de 60 70 71 09 5f 6a 3f
       -9.050757357178438e-06 0.0032191452442128362
000480 d2 2c 46 a8 a6 9c 08 bf c6 aa 20 ae 72 8b 36 3f
       -4.694350812702867e-05 0.00034400510606029074
000490 69 7c 29 7c 54 79 2e 3f f8 1e c4 8a 80 e2 10 3f
       0.00023249775229581 6.441030081216412e-05
0004a0 b3 85 4a 9e 00 9a 6a 3f 24 50 0a 7e 6f f8 c4 3e
       0.0032472621990826344 2.4998725936618296e-06
0004b0 c2 fb 20 85 aa 15 02 bf c5 b4 46 e2 c5 da f4 be
       -3.449370036933505e-05 -1.9888479202802263e-05
0004c0 be e0 69 a1 4d 4d 48 bf 0b e9 5f 80 da 8b 4d bf
       -0.0007416371398241345 -0.0009016816045453192
0004d0 00 14 c3 53 9d 88 22 3f fc 2b 0f 4a 4e 05 62 3f
       0.00014140053270331188 0.002199795635964728
0004e0 ff d8 ac 3f 13 63 81 3f 91 34 4a 30 1d ee 87 3f
       0.0084897521788716 0.011684635196866718
0004f0 85 62 71 92 da 69 8f 3f 84 02 73 82 ad 82 ee be
       0.015338618845065053 -1.454852106375191e-05
000500 88 7b ee a1 12 48 f0 be 52 ab cd 32 ba f9 12 bf
       -1.5527281103207567e-05 -7.23857780948027e-05
000510 bb 40 e7 1d 84 6d 4c bf 65 36 3f 68 8c cf 2a 3f
       -0.0008675475217448028 0.0002045496840978211
000520 a8 27 4e 94 03 6d 2e bf 25 76 19 62 4b 97 35 bf
       -0.0002321307057651632 -0.0003294524231927962
000530 8b 4a 7b 23 9b 38 49 bf 8b 7e 30 e8 94 db 81 3f
       -0.0007696874153800421 0.008719600044116113
000540 d3 3e 66 3b bd e2 00 bf e8 63 a5 77 b1 3e ef be
       -3.2206916716790615e-05 -1.4898727148592334e-05
000550 78 84 9f 38 3c 13 74 3f 53 05 69 bc c6 4d 37 bf
       0.004901156653404397 -0.0003555879779107613
000560 77 ef 62 12 31 5e cf be aa 8e 07 97 d4 db f8 3e
       -3.7393493982056217e-06 2.3707115760175875e-05
000570 69 8e 0e 23 88 07 8a 3f 72 83 c6 98 48 f3 67 3f
       0.012709678239679794 0.002923623838981753
000580 ad e2 77 91 07 f3 01 3f 7e e8 77 d6 ae f3 8a 3f
       3.423563810750949e-05 0.013160100860649001
000590 9f 5c 68 2e d5 c7 5a bf f8 05 63 dd 05 cd 2c 3f
       -0.0016345579002796996 0.00021973320571615196
0005a0 b0 8b 5a 55 a2 27 77 3f c7 3e 2c 7a e7 0b 12 bf
       0.0056530324124279135 -6.884193730293939e-05
0005b0 48 fa b2 e3 bc 84 29 3f 18 3c c6 e1 24 25 39 bf
       0.0001946907594625061 -0.00038368368566294017
0005c0 56 0d 1f 66 e5 58 e5 3e d3 70 09 64 c5 f6 e5 be
       1.0179162192153434e-05 -1.0473227235845508e-05
0005d0 54 26 d9 8e 9f 82 87 3f 71 5c d8 8e 5d 53 03 bf
       0.011479612872011526 -3.686074510882924e-05
0005e0 c0 2d 35 60 7f ab 03 bf 51 83 b9 1c 57 c1 3a 3f
       -3.751738042953199e-05 0.00040825249445757434
0005f0 b8 47 6c b0 ff 22 2c 3f 22 e6 7a 71 f9 ce fa be
       0.00021466609197112545 -2.55665719055329e-05
000600 f0 fc 49 4b e3 14 72 bf 26 a4 67 db ca 7c 4e bf
       -0.004414451472825251 -0.0009304037583294275
000610 9a 8e 49 49 d6 bc 21 3f 42 68 91 ad ea 99 48 3f
       0.00013532748984622784 0.0007507701767608471
000620 1a 58 c1 bb 03 25 63 bf 35 a7 8c 43 79 29 01 bf
       -0.0023369858663882083 -3.2733929805252316e-05
000630 36 25 e7 99 5a be 61 bf 66 f9 44 e4 d8 a9 34 bf
       -0.0021659631304130856 -0.0003152994652459079
000640 99 5b ce 61 99 2a 3b 3f 66 db 22 d4 fa fe 60 3f
       0.0004145264118106617 0.002074708842964612
000650 77 03 76 7f 44 37 46 bf 51 81 74 c5 5a f6 8c 3f
       -0.0006779751264930207 0.0141417590626253
000660 df 14 41 70 f0 f7 72 3f dc 52 a2 91 0f d2 e7 3e
       0.004630984509337937 1.1358523398544004e-05
000670 66 6e 41 23 db 4d 13 bf 1c c0 8b f6 3a 73 f6 be
       -7.363939295273458e-05 -2.1410101370855734e-05
000680 f9 cf 7e cc 99 2f 48 bf 9b 34 51 5f bf 87 60 bf
       -0.0007380963297607394 -0.002017854475104897
000690 aa 7b 10 00 84 79 71 bf cf 22 9a 16 87 8f 17 bf
       -0.004266276956541507 -8.987676633343964e-05
0006a0 a8 2e 92 b2 ac a9 59 3f 7b cc 4f 1b 4d 72 c7 3e
       0.0015663324832386003 2.795039302666523e-06
0006b0 f7 8e 41 d3 f7 36 67 3f 79 13 7c 2a 67 b6 3b bf
       0.002833828004485169 -0.00042285937023250165
0006c0 35 cb 72 f5 1f d5 98 3e 68 e9 ae 7b e5 2a 45 bf
       3.700333670128348e-07 -0.0006459827921994456
0006d0 65 fe 71 09 d9 2a 30 bf 1b 05 f2 47 1f c8 19 bf
       -0.0002466945529206787 -9.83494846753707e-05
0006e0 28 99 f0 6b 5b 69 4b bf 32 11 5e e6 c6 17 6f 3f
       -0.0008365341562963967 0.0037955174220220206
0006f0 de af c9 bb 91 b5 2c bf 80 14 e2 c9 bc ff 0b bf
       -0.00021903423284486042 -5.340380560973305e-05
000700 e9 11 f4 23 6e 30 ec 3e d2 d8 da 21 9d b2 52 bf
       1.3441648774045185e-05 -0.0011412176603875957
000710 fc 2b 40 ca 3a 59 37 3f c8 ec 66 18 74 7a 64 bf
       0.00035627064994575553 -0.002499796627686377
000720 17 28 fa f7 70 d6 54 bf 7b 36 b2 f0 70 bb 17 bf
       -0.0012718299111917958 -9.05311282386137e-05
000730 9e 5c 43 f6 a7 fb 5a bf 0c 5e e2 5c 67 aa 89 3f
       -0.001646913552624508 0.012532050630667
000740 e1 d0 e5 b0 51 69 d9 be ce 73 ce 6a b8 59 d0 be
       -6.058550538024839e-06 -3.8982558806772906e-06
000750 40 f9 e6 b0 bf bd f8 be 84 09 ae a0 c9 69 91 be
       -2.359505293169609e-05 -2.594773895124482e-07
000760 25 e2 4b e9 21 e0 b3 be 62 2f 32 1d 56 b9 20 bf
       -1.1846731570714277e-06 -0.00012759376713622055
000770 df 73 c7 39 bc 4c 1c 3f 14 f8 fa ad 94 76 93 be
       0.00010795496786593317 -2.9002437250045065e-07
000780 05 63 3b 3d b7 64 6a 3f 4d b5 d9 a3 b9 83 74 3f
       0.0032218531504039105 0.005008435398491895
000790 65 90 cd cd 0b 5a 2c bf 99 77 ff 0d f7 07 62 bf
       -0.0002163066300467947 -0.002201063660307545
0007a0 8f d4 d8 90 65 73 41 3f d2 f3 ac 32 70 dc 3c 3f
       0.000532555191688504 0.0004403852387218607
0007b0 eb d9 f8 e4 e7 14 e6 3e 91 f4 76 95 23 2e 12 3f
       1.0529357637440034e-05 6.935207544863017e-05
0007c0 17 cb da 07 ab d8 0f 3f 00 43 28 7e ef 69 f0 3e
       6.0742110674102765e-05 1.5653429622788755e-05
0007d0 b7 a4 84 3a 6a b7 37 3f 52 78 b9 9b f9 33 6e bf
       0.0003618845317015606 -0.0036868930017553226
0007e0 a9 6c 2d 78 f5 8a 40 3f 4e 39 5e e2 e8 8a 25 bf
       0.0005048464375748868 -0.00016435711694069228
0007f0 92 b9 80 05 10 03 35 3f bf 55 40 e1 b7 40 63 bf
       0.0003206171145419208 -0.0023501960186062816
