L2minimization/plot-figure-data/2d/data/model_OGA_2D_gabor2d_neuron_512_N_512_randomized.pt (torch, 18800 bytes, 3 tensors)

weight f8 [512, 2]
0	0xbfefc3b430724ae2	-0.9926396318645312
1	0x3fbf00c674efae52	0.12110557894600874
2	0x3fcce74a364e0515	0.22580840732192856
3	0x3fef2c6a3222caef	0.9741717318741773
4	0xbfeff9c7c31d4946	-0.9992407618358718
5	0x3fa3f2988b849ef0	0.038960234671604144
6	0x3fe84d8d328594a7	0.7594667422059914
7	0xbfe4d1461e343b47	-0.6505461301729633
8	0x3fee7ad10cf717dc	0.9524922612406459
9	0x3fd37df4ec4a1607	0.30456278872620185
10	0x3fea9a6b10995808	0.8313498806189736
11	0xbfe1c8b2edc06ddc	-0.5557493823611668
12	0xbfeffd79f240fdb2	-0.9996919375916404
13	0xbf996a66a4dcbbdb	-0.02481994992484347
14	0xbfe784a9cc88b7c4	-0.7349442477040999
15	0xbfe5b33883c9d031	-0.6781275342932586
16	0x3feec1d9aa52166f	0.9611633612227716
17	0xbfd1a9a84416b290	-0.2759800591400472
18	0xbfeefae7beec6b4d	-0.9681280831312989
19	0x3fd00776fbf43aaa	0.2504556141365507
20	0x3fe369b6b3fac602	0.6066545024133918
21	0xbfe9705bb5e50687	-0.7949656059865483
22	0x3fed61ac617248e5	0.9181730178118214
23	0x3fd95b01dc485358	0.3961796427914144
24	0xbfe5451ab86fa53a	-0.6646855928676481
25	0xbfe7e86ee4f74820	-0.7471231910697078
26	0xbfee53cba0be1a5a	-0.94772893328702
27	0xbfd46bc03598abf0	-0.3190765880014501
28	0xbfe3f67311364252	-0.6238341652079475
29	0xbfe902834693137c	-0.7815567377480046
30	0x3fcdf9339812554f	0.23416752744075572
31	0xbfef1c3b550ff847	-0.9721962605833675
32	0x3fefae014758051a	0.9899908441003931
33	0xbfc21099abd0da5e	-0.1411316002792828
34	0x3fed556ba1c421b7	0.9166772994513427
35	0x3fd99382514708ea	0.3996282380795849
36	0x3fee99629d0becbd	0.9562237803760564
37	0xbfd2ba8e293312bc	-0.29263643287076113
38	0x3fefff38a5953973	0.9999049409905595
39	0xbf8c3ce238cbae48	-0.013788001402153985
40	0x3fee37f8f02fb4ea	0.9443325701846821
41	0x3fd50e361fcaa9af	0.32899239639905437
42	0x3fefdfd047d4414c	0.9960709956085707
43	0xbfb6abc1a718534f	-0.08855829553097049
44	0x3fec76474c44facc	0.889438294376157
45	0x3fdd4064c00e87b0	0.4570552707247044
46	0x3fefb265be2d9360	0.9905270304121636
47	0x3fc193a1ec6260e1	0.1373178867550058
48	0xbfeffd55c34be5e3	-0.999674683988982
49	0x3f9a1e176c3e324d	0.02550541494524543
50	0xbfc4c13b07ec2fe7	-0.16214692961545937
51	0x3fef93979a2ae7a6	0.9867666255079157
52	0x3fee9ccde9ec6e49	0.9566411560840119
53	0xbfd2a42738e76c12	-0.291269116945558
54	0x3feffc84ba4ccdd4	0.9995750082657033
55	0x3f9dd9dbdfe8b7fa	0.029151378194164558
56	0x3fefc2952aacc56b	0.9925027688497442
57	0x3fbf49f366e6641e	0.12222214948850804
58	0x3fc5ce70480ace18	0.17036250608144665
59	0x3fef883eb1af2915	0.9853814573664602
60	0xbfeffc9fc774e48f	-0.9995879073750461
61	0x3f9d6504d5502f0c	0.028705668944936355
62	0xbfef5ec110b62a5b	-0.9803166700742837
63	0xbfc94570148f2403	-0.1974315739046518
64	0x3fef3c654a66735c	0.976122517884146
65	0x3fcbcde341401eb0	0.21722069440897007
66	0xbfe376f76a81860b	-0.6082722740358703
67	0xbfe9663930dff974	-0.7937284426296132
68	0xbfe6d1e311c485cd	-0.7131209704422702
69	0xbfe66eed8830b05f	-0.7010409984554932
70	0x3fd1323b1715a225	0.268690846007788
71	0x3feed2c050826375	0.9632264683196882
72	0xbfefbb564784b33c	-0.9916182896464316
73	0x3fc089b14854cd4b	0.12920204192924198
74	0xbfe5190f9a0cddbb	-0.6593091973108395
75	0xbfe80f55b2c67691	-0.7518719188407933
76	0x3fd1077c2d2c6f56	0.2660818520687277
77	0x3feed8ae9712899d	0.9639504385598233
78	0xbfec7615adb1fac1	-0.8894146339879044
79	0x3fdd4125dbd05596	0.45710131136123644
80	0xbfe4260f9eccbad5	-0.6296461202199121
81	0x3fe8dc37cdcae68a	0.7768820781122525
82	0xbfefdaf584bd2f28	-0.9954784004744157
83	0xbfb8512533326d65	-0.0949881792061454
84	0xbfe9135232bc6815	-0.7836085310875683
85	0x3fe3e151fd0ec3fe	0.621254915478971
86	0x3fefc316c5d9d045	0.992564569880877
87	0x3fbf28fe10d00861	0.12171924505676791
88	0x3fef158502a5ea81	0.9713769008370293
89	0x3fce67d3578ec1c7	0.23754350447917558
90	0xbfeffbe9157c1caa	-0.9995007915139429
91	0xbfa02d0fc8515a35	-0.031593793108801206
92	0x3fecc3d0f8f6b930	0.8989033567975522
93	0xbfdc0a9987d2265f	-0.43814695609817095
94	0x3feff94d1a2551b8	0.9991822729739885
95	0x3fa4b390dfbfe8d0	0.04043247920340465
96	0xbfecf3a482275024	-0.9047415296613548
97	0xbfdb42f1e1bb09b2	-0.4259609894180826
98	0xbfeae3b27cb3aa0d	-0.8402950702268882
99	0xbfe1591f9425b2e1	-0.5421293157101809
100	0x3fefcb6d38314a0a	0.9935823533544987
101	0xbfbcf4d8548a739c	-0.11311103881821655
102	0xbfed8924aceb601c	-0.9229911210377426
103	0x3fd8a0e9495b1745	0.38482124484686536
104	0xbfefee5ca8dabdb9	-0.9978469179094908
105	0x3fb0ca3f21873892	0.06558603828963985
106	0xbfefdc50da31c95a	-0.9956440221415435
107	0x3fb7de5329c3d61d	0.0932361580815599
108	0xbfefd217cd76e26e	-0.9943961155868928
109	0xbfbb105b42182789	-0.10571833003646537
110	0xbfeea70974aba471	-0.9578902510376236
111	0x3fd26069b78aad2b	0.28713457988733876
112	0x3fed7116cd014677	0.9200548175815148
113	0xbfd91314e93fd3df	-0.39178965357069545
114	0x3fc92c9717defc18	0.19667328515603866
115	0xbfef6000b1bbedf5	-0.9804690810555586
116	0x3fefdd8cd7affb0c	0.9957946980137833
117	0xbfb773f10ab83055	-0.09161287795740354
118	0x3febc4f5f2f95502	0.8677930589280154
119	0x3fdfcda1af883d14	0.496925755899569
120	0x3feffb3cd8a1bc77	0.9994186621751301
121	0x3fa174a5bbdd4cfc	0.03409307401912007
122	0x3fee7755dadc19aa	0.9520673060040299
123	0xbfd393add7806365	-0.3058886150843619
124	0x3fef7f4a83542cdf	0.9842884602561773
125	0x3fc699c6fc7d0aaf	0.17656791046655004
126	0x3fefbb7202cc3e2b	0.9916315130848877
127	0x3fc0865d96f41408	0.12910051222584706
128	0xbfefa9f7252ea327	-0.9894977308477778
129	0x3fc2808fe293fb54	0.14454840243703393
130	0x3fe471548a0a5a47	0.6388342567541451
131	0xbfe89e7820fd60e3	-0.7693443912822001
132	0xbfed91134d6017d2	-0.9239593993413513
133	0xbfd87ab9af636543	-0.38249055984268326
134	0x3febee7246916cad	0.8728572252542982
135	0xbfdf3afe58c407e8	-0.48797568005113456
136	0xbfdcd571d9222a2a	-0.45052763180197763
137	0x3fec9182a1073036	0.8927624840812374
138	0xbfe6f1e67a65de16	-0.7170288458427787
139	0x3fe64e2e28fb9624	0.6970434952206159
140	0x3fee235db624570a	0.9418171460590383
141	0x3fd5831539c6bf0d	0.3361256660673327
142	0xbfeffe1f6a9e2f55	-0.9997708399182367
143	0xbf95ebc3fdd26d3d	-0.02140718685823838
144	0xbfefe22c4726477b	-0.9963590039862845
145	0x3fb5d3650cfc0970	0.08525687758450373
146	0xbfe8f81958b74559	-0.7802855236751994
147	0xbfe403780e2a479c	-0.625423457781142
148	0x3fefc3d57ca90b64	0.9926555094501563
149	0x3fbef83ddf53a9e0	0.12097536756815641
150	0x3feffef8449f6a3d	0.9998742428100013
151	0x3f903d43c3743e49	0.015858706287927658
152	0x3fef7042d808fa6b	0.9824537486491186
153	0x3fc7df70f4b924f6	0.18650638532043445
154	0x3fe75c642e44ab85	0.7300282386471372
155	0xbfe5de8d4a33f800	-0.6834169816281701
156	0xbfef1ef9f1755da8	-0.9725312915788225
157	0xbfcdcb7a8e30edde	-0.23277217810560463
158	0xbfec757f8bf410b2	-0.8893430455650757
159	0x3fdd436dfd8fbee1	0.45724057924142697
160	0xbfefffffef6f34bf	-0.9999999691441629
161	0x3f3047c4a90d59ed	0.00024841834333724674
162	0x3fd0c4126d64b3b7	0.26196728403993624
163	0xbfeee1e8a557cee5	-0.9650767545085414
164	0xbfef0f090020d913	-0.9705853464609241
165	0xbfced122bf5ed0a4	-0.2407573160577431
166	0x3fe7f18cbfc6648a	0.748236059723369
167	0xbfe53ad6fa9d4243	-0.6634325880823514
168	0xbfefbb460f1295ce	-0.9916105551134764
169	0xbfc08ba321b2c873	-0.12926139016559865
170	0x3fef5449de0b5b17	0.9790391289523964
171	0xbfca11eea2d5cee2	-0.20367224646508136
172	0xbfeffdcc8b2b6177	-0.9997313230660855
173	0xbf97bc52ffa5f9cf	-0.02317933736184746
174	0x3fef6f0155850f45	0.9823004408176322
175	0xbfc7f9d8412315d7	-0.18731215649147145
176	0x3fdee865e7bbc366	0.4829344523450828
177	0x3fec0560ca6f5004	0.8756565049939131
178	0xbfdd6d3fed9bfa68	-0.4597930736926288
179	0xbfec6ab5aea92f56	-0.8880260859818729
180	0x3fe708a8cbd7b7a2	0.7198070508290935
181	0x3fe636accbd4cbdb	0.6941741925314732
182	0xbfeffffff33ace35	-0.9999999762134794
183	0xbf2c96a3ace0209b	-0.00021811244954528662
184	0x3fee77ca002d0cf2	0.952122688621243
185	0xbfd390da9e2e73b9	-0.3057161850682025
186	0xbfeb364120ebf6bd	-0.8503728526117907
187	0x3fe0d678ac5615d5	0.5261805883353029
188	0xbfef76d0d6db5b1e	-0.9832538792059926
189	0x3fc753acee4103d7	0.1822410739278257
190	0x3fef67164f16a01f	0.9813338799185692
191	0x3fc89dac092b34c5	0.19231176803297081
192	0x3feffeeffcf1ce5d	0.9998702946017591
193	0x3f907e0410b91dc7	0.016105712433526678
194	0x3fef740834a0a82c	0.9829140689737463
195	0x3fc78f7154efc5c0	0.18406502387328594
196	0xbfe790cf46dc8006	-0.7364269622812578
197	0x3fe5a60719b2a590	0.6765170576010622
198	0x3feb4b7bfec7268c	0.852964398968838
199	0x3fe0b3f88704817f	0.5219690930426139
200	0x3fef7548c84d4183	0.9830669319290312
201	0xbfc774a1f9e53652	-0.18324684812471276
202	0xbfeef8f2ec712247	-0.9678892724996978
203	0x3fd0168f392bf8c3	0.2513769205396665
204	0xbfec8cd26ba85d36	-0.8921901800812637
205	0xbfdce7ff016a7104	-0.4516599191499753
206	0x3fefe25ea3c94dce	0.9963830183937092
207	0xbfb5c0f8c41d8fe2	-0.08497576511359697
208	0xbfefb0daf902d3f3	-0.9903387893197063
209	0xbfc1bfe79aceaaa6	-0.13866896685552382
210	0x3fef64c14dd5686f	0.9810492057979568
211	0x3fc8cd1641b30265	0.1937587567135949
212	0x3fefe31382299e54	0.9964692632901895
213	0xbfb57e4ba6aa0fef	-0.08395836657479071
214	0x3fef996622c44ffa	0.9874754599609326
215	0x3fc431e518d8b0d9	0.1577726718254613
216	0xbfeffffea90a43af	-0.9999993611873971
217	0xbf5284e89197f0a4	-0.0011303206614448414
218	0x3fee08b17c1384df	0.9385611937870201
219	0xbfd616543ed13a97	-0.34511285910131434
220	0xbfeffce80d2efae7	-0.9996223695269152
221	0x3f9c23906fea7352	0.027479416685867016
222	0x3fefe21232c20de3	0.9963465682380356
223	0x3fb5dce936029b3b	0.0854020840512079
224	0xbfeeb548a53826bf	-0.9596293665828951
225	0x3fd20049f05c9a47	0.2812676284105788
226	0x3fefd5bfcb9a8b43	0.9948424317011376
227	0xbfb9f779a42827c3	-0.10143242128120193
228	0x3fee0e0842e441bf	0.9392129236676324
229	0x3fd5f9345a22552e	0.34333523561629675
230	0x3fef3e524d559f28	0.976357604068629
231	0x3fcbab2ec3e97e48	0.21616158071536717
232	0x3feff3a0e98379a4	0.99848981483574
233	0xbfac20b8a0202b64	-0.05493714289339982
234	0xbfedfa7a6ea2deba	-0.9368259583343026
235	0x3fd6630e0e3a8d9c	0.3497958315803886
236	0xbfcaa69921ee56eb	-0.20820917279041082
237	0x3fef4c777dce9006	0.9780843217054105
238	0xbfd977da0f39f68b	-0.39794017302470114
239	0x3fed5b6f15fafdc9	0.9174113683038111
240	0xbfe5b992fd95d239	-0.678903098376913
241	0x3fe77ecb78bcdf45	0.7342278822097589
242	0xbfeeb68424cc0df0	-0.9597798079197997
243	0xbfd1f7def761ed81	-0.28075384291124555
244	0xbfeffa824bdb3447	-0.9993297082488731
245	0xbfa2be4365dd5954	-0.03660784357514282
246	0x3fe8a45e1f6af5c3	0.7700644124631072
247	0x3fe46a37f974e56c	0.637966143817875
248	0x3fef9f7e0c74fe91	0.9882192843724217
249	0x3fc396f70eb1d97e	0.15304458825603356
250	0xbfe947455108e78b	-0.7899500448904616
251	0x3fe39f1938033cee	0.613171204948143
252	0x3fefbe1b0e7e8ad6	0.9919562609760202
253	0xbfc033cf468dc00b	-0.12658110566144418
254	0x3fefa3df3f5135a0	0.9887539135613004
255	0x3fc324823c225662	0.14955165802227827

bias f8 [512]
0	0x3fdbe5a82d02f4c6	0.4358921470228093
1	0x3ff5a455f2a98e7e	1.3526210288045202
2	0x3fda4f006fdb8a34	0.4110718815192371
3	0x3ff5dfcfd7ca7368	1.3671415738419572
4	0xbfdb9efc1f287874	-0.4315786651876643
5	0xbfb6ecbb47687b90	-0.08954973691332513
6	0x3fe28b7c38211110	0.5795270057938371
7	0x3fe8c2aec71d018f	0.7737649811679591
8	0xbfbf50655ec1f950	-0.12232049525662103
9	0x3fe4d05f16a3da9f	0.6504359667004173
10	0xbfb9ddff1dfbe940	-0.10104364854843073
11	0xbfe698720fba932c	-0.7061090762332234
12	0x3fdf59670eb4af42	0.48983169971574025
13	0x3fe4171093462a3b	0.6278155209013855
14	0x3ff01e9111272d17	1.0074625654259017
15	0x3fdf8cc3f14e754c	0.4929666382320945
16	0xbfe20b0bc217d2b4	-0.5638483801727348
17	0xbfef93cb084fe45c	-0.9867911493630674
18	0xbfd89e40821935ec	-0.38465893464021295
19	0xbfd8829278577cd4	-0.38296949150203585
20	0xbfe2e10cec05ce14	-0.5899719819848905
21	0xbfe48960a45d8b10	-0.6417697153341084
22	0xbfd582dadeacfcd0	-0.33611175294568074
23	0xbfdf4446ddcfdebc	-0.48854228650405296
24	0x3fd1dde88f5bb6a8	0.2791692161543815
25	0xbfe723939dcd016c	-0.723092849926656
26	0xbfd26c60e5dc4c1c	-0.28786489913290025
27	0xbfe42dbf5e5b4598	-0.6305844157124509
28	0xbfe16dfee9bd7a5a	-0.5446772160756368
29	0xbfdd390e19507bc0	-0.4566073653422187
30	0x3fe82284731718ab	0.7542135475021231
31	0x3fd1e3291e10e518	0.2794897836316337
32	0xbfea08ef9aa73dc8	-0.8135908146450044
33	0x3fd8b023f002d718	0.3857507556780191
34	0x3fe53fd8a78bd40d	0.6640437385927968
35	0xbfd861a99ff82ef4	-0.3809608518792935
36	0x3fc0e4ac7bfd0830	0.13197856954690357
37	0x3fec35ae6b1507f3	0.8815528956840794
38	0xbfe809faa60331a0	-0.7512181513243839
39	0x3fd78d81d7ed1a04	0.3680119141248783
40	0xbfa36820d3eef420	-0.037903810377862834
41	0x3fe95d11192bf970	0.7926106921802738
42	0x3fc2e8bc395330c8	0.14772751616545166
43	0xbfd798359b718a04	-0.3686651247027444
44	0xbfded06366bd6ddc	-0.48146901162337286
45	0x3fd13a71375f87e8	0.2691920319322194
46	0xbfe5e0728c5df294	-0.6836483708899146
47	0xbfdd60db4ee85c74	-0.459036662157309
48	0x3feba768f86293c9	0.8641857959051943
49	0x3fe5463cea26454c	0.664823968241913
50	0xbfd3e4fb9ad355b4	-0.3108510028808624
51	0x3fc182c44df5a2e0	0.13680318647973078
52	0x3fe86e1d422423d1	0.7634416858501202
53	0x3fd200b7800adee8	0.2812937498488126
54	0x3fecdf1137c817a6	0.9022298898205363
55	0x3fe1e5fecbae7929	0.5593255975871091
56	0x3fa50ac4786384e0	0.04109777421559513
57	0x3fd51fd71017f33c	0.3300683648265481
58	0xbfe0aa03469ce844	-0.5207535151632858
59	0xbfe287bf02fe9750	-0.5790705736624009
60	0xbfbc771b5c671f40	-0.11119242673805463
61	0xbfdcbb04b3dfe33c	-0.44891469541430573
62	0xbfe42ae3756a911c	-0.6302354138647703
63	0xbfe245f8220bbb00	-0.5710411705930198
64	0x3fe584af88f964c6	0.6724469828870034
65	0x3fc278af7bf92018	0.14430802873016613
66	0x3fda94082b0f804c	0.4152851505768964
67	0xbfda7e1baa1a03fc	-0.4139470254086175
68	0x3fc9b8034ec67800	0.20092812868546162
69	0xbfc2698bb6ff5ea0	-0.1438460010092415
70	0xbff072f520912c8c	-1.028065802779369
71	0x3fcc3871e4093450	0.22047256121223535
72	0x3fe1dc844571d272	0.5581685406055625
73	0x3ff17f8e650c4816	1.0936416575609704
74	0xbfdc7d2845b29838	-0.4451389961853951
75	0xbfc2c3d3d2791ce8	-0.14660117890364366
76	0xbfe62b22efe05fc8	-0.6927656827056063
77	0xbfd75e016ab1ad34	-0.3651126424726556
78	0x3fe8551e6a6ebbfe	0.7603904799233303
79	0x3fcdb860c7f00900	0.23218927157001445
80	0x3fe12f2dc0a11dda	0.5370091211597654
81	0x3f9c08f62b9ec9c0	0.027377935802812337
82	0x3fec61cf1835f27e	0.8869395707002494
83	0x3fc7ec365e6f9688	0.18689612971427416
84	0x3fe7dc74e8700cbd	0.7456612148092955
85	0xbfd1361d7cc607cc	-0.2689279287807238
86	0x3fe7f5ae0cc7ac1f	0.7487402200325767
87	0xbfd5beef97d41c74	-0.3397788031292699
88	0xbfee141e267e2998	-0.9399557830632146
89	0x3fcff03acda60fb8	0.24951872865142177
90	0xbfe2bf2a43255c74	-0.5858355819172076
91	0x3fe06a8e35751b2f	0.5130072635737174
92	0x3fb1cbabef845f30	0.0695140323408594
93	0x3fd18602a64e87f4	0.27380434265989995
94	0x3fc33bfb40f9dc38	0.15026798889786774
95	0xbfd5b47a8cb1019c	-0.33914054622075596
96	0xbfd4cc59824450b8	-0.3249725124490044
97	0xbfcd81a98d1d6b98	-0.23051947965981578
98	0xbfda6b33d9dbb984	-0.41279312396263657
99	0xbfe76900fda52418	-0.7315678552632816
100	0xbfe00444e72ce7b0	-0.5005211367745144
101	0x3fd79ffd9bcaf684	0.3691400548376367
102	0x3fed8a564cc88355	0.923136854140561
103	0xbfe3b714a1ad7b98	-0.6160987050787865
104	0x3fe0927b546ca334	0.5178810738480935
105	0xbfe53cee7440d918	-0.6636879225323211
106	0xbfd132493cd2c940	-0.2686942190149644
107	0xbfec7a94428b2efc	-0.8899632739716874
108	0x3fd6c79bc3df1328	0.3559331333929543
109	0xbfe23e7990663f70	-0.5701263256359947
110	0x3fed8d6f8e079450	0.9235151075378187
111	0xbfe539a2caa8ebfc	-0.663285632915517
112	0xbfbfd246169a7630	-0.12430227329101551
113	0xbfdf5696489f308c	-0.48965985385871913
114	0xbfe8bad7272097f0	-0.7728076709943235
115	0xbfe96abc63e3fa2c	-0.7942792845713647
116	0xbfdaebdf08e300d0	-0.420646437338303
117	0x3f9f9c6d54cd1c40	0.03087015943608784
118	0xbfd9ef537201c9b4	-0.4052322972630933
119	0xbfe7f25cc1a942ec	-0.7483352453656074
120	0x3fbccd66de5a8da0	0.11250918320234016
121	0x3fe1c3c735ac8306	0.555148701507364
122	0x3fe61a9d596bdeb7	0.6907488581191136
123	0xbfebfc91adf48aa4	-0.8745811841548243
124	0xbfd2bafb69fa1fe8	-0.29266248082467294
125	0xbfd309d1ff12ca1c	-0.2974743834448945
126	0xbfe96b249c38b570	-0.794328980560449
127	0xbfeae0aaa47fcc70	-0.8399251187205561
128	0xbff3e6aefe807612	-1.2438192311741472
129	0xbfdea897c73325b4	-0.4790400929747094
130	0x3fe1db218ba9b512	0.5579993942061796
131	0xbfe3ef8bee3a7bb4	-0.6229915287875571
132	0x3fea3d29a2d29ef7	0.8199661426669697
133	0x3fde1198d6c044ce	0.4698240372827741
134	0x3fe198e0ca11817e	0.5499118754051293
135	0xbfc87656561830b0	-0.19111136630852377
136	0x3fe2383038ad83c1	0.5693589312542074
137	0xbfddf13fa244dffc	-0.46784964415155605
138	0x3fc8ef1631d587c8	0.19479634698205772
139	0x3fce195d92b40748	0.235149094231071
140	0xbfe3b9a374d6a2f8	-0.6164109498978112
141	0x3fcbfe604075b558	0.21870043895197955
142	0x3feb3b71b1811b12	0.8510063616639363
143	0xbfd51bd6f46763f4	-0.3298241984135182
144	0xbfd97c6f413e887c	-0.39821988460074187
145	0x3fa77ddcda736b20	0.04588213125835794
146	0x3fd8fa6fd326d8fc	0.39028545017517025
147	0xbfe0053aee08b0d8	-0.5006384514904552
148	0x3fd76fff08f02478	0.36621070740563466
149	0xbfe1f99439134970	-0.561716186023018
150	0xbfe282064813affc	-0.5783721359016449
151	0x3fe03182852f9c41	0.5060436822212823
152	0xbfcbf886e7d73e10	-0.21852194137908088
153	0x3fd816312d01b1a8	0.37635449786355446
154	0x3fc9664b6aaaaca8	0.19843428333601776
155	0x3fdbf08b4d281252	0.43655664954011286
156	0xbfd7998432eea700	-0.3687448975930323
157	0xbfefa8ef7594774c	-0.9893719955905254
158	0x3fdf495455ccdc7a	0.4888506734745942
159	0xbfea20097bf59c88	-0.8164107724268357
160	0x3fe9c6ff47b70e8b	0.805541648930061
161	0x3f829a3478e56100	0.009083185138181182
162	0x3fd9a57d99676a58	0.40072574597221466
163	0xbfe8d112681f3d4c	-0.77552147232374
164	0x3fea24a61b92fdd1	0.8169737375791845
165	0xbfe50911428502d0	-0.6573568629465516
166	0xbfe571c114fb0d78	-0.6701360139635844
167	0x3fe8131bc78a635c	0.7523325822140623
168	0xbfcba4a687f79530	-0.21596223486918964
169	0xbfc6b9ed7cd4ecf8	-0.17754906268405768
170	0xbfd41d181e96be54	-0.3142757700652272
171	0xbfe515d95d878a08	-0.6589171244380063
172	0xbfef97ace2f91f50	-0.9872650559491181
173	0x3f6a14e21190b800	0.0031837859537722224
174	0xbfe917bb33e80300	-0.784146882419094
175	0xbfd3cdd22b36af64	-0.30943731517867534
176	0xbfdbbba435f4aec4	-0.4333277251159695
177	0x3feb4bbf76bf919c	0.8529965705206908
178	0xbff210958fef1b66	-1.1290488836691224
179	0x3fb37ed939402470	0.07615430495947506
180	0xbfc163ee43f113a8	-0.13586214368311045
181	0x3fcd2d03269cc478	0.2279361666237809
182	0x3fe057213c18babc	0.51063596475236
183	0x3fa973d0e6aece60	0.049711731109167046
184	0xbfe4e0b085c0c5a4	-0.6524279224742497
185	0xbfd3015202e47180	-0.2969555881734536
186	0x3fdbea3f7015f04c	0.43617235132092413
187	0xbfe68017290c5904	-0.7031360437129313
188	0xbfe5750a23000ed8	-0.6705370601270841
189	0x3fe38268cc6fc920	0.6096691124824112
190	0xbfe8be7fdbef89d8	-0.7732543273562511
191	0xbfabcf5ae8db0480	-0.05431636898493597
192	0xbff25e63bbd7caba	-1.1480443322767955
193	0xbfe40476c672fd98	-0.6255449176750743
194	0x3fe4ad405eeef2dc	0.6461488584678494
195	0x3febf168b0855919	0.8732188651727341
196	0x3fdf8c27cdb0928c	0.4929294117630796
197	0x3fce034fb34e8780	0.2344760537644639
198	0x3fdadd81d16d5b44	0.41976972057220885
199	0xbfee50db66693d58	-0.9473702430931707
200	0xbfe5e2dbe5875db8	-0.6839427454933036
201	0xbfd853b3f1545ffc	-0.3801088196501039
202	0xbfe698d930b6c090	-0.7061582518999945
203	0xbfe703558b4d58f4	-0.7191570015664
204	0xbfe73b116b455afc	-0.7259604544768474
205	0xbfd94014544fed88	-0.39453609689345415
206	0x3fe20fdc04436cf4	0.5644359668034711
207	0x3fd4602be0397494	0.31836983582417955
208	0x3fd040c66b0193c4	0.25395355653591545
209	0x3fd05718b1a54a58	0.25531594608506714
210	0xbfda5dec33508534	-0.4119825841063005
211	0xbfe706b841fdae8c	-0.7195702828298223
212	0xbfe1fea3f06ca1dc	-0.5623340316570267
213	0x3fd7f8f5f35d4b00	0.37457035795266336
214	0xbfc46211ef7a3898	-0.15924286072953886
215	0x3fc56c9139ddb050	0.16737571073042767
216	0xbfeb62af75bf1118	-0.8557965564473617
217	0x3fd5ff802d50c3f8	0.34371952462521405
218	0x3fd6195a3132419c	0.3452973823960066
219	0xbfe282d3ab58feea	-0.5784700724252307
220	0x3fb2987a0f0f67e0	0.07263911121063371
221	0xbfcd4b5295b605e8	-0.228861163235748
222	0x3fe01bba009a44cf	0.5033845912713789
223	0xbfe2fb5cb5304e9c	-0.5931838549463069
224	0xbfe053f82378666e	-0.5102501576213407
225	0xbfcd6e0167de48c8	-0.22991960117048493
226	0xbfb9c9658e661250	-0.10072931982546973
227	0xbfccf2d7c61220e8	-0.22616097613741393
228	0xbfe4c90641894d80	-0.6495391159063928
229	0xbf8425921ae11d00	-0.009837285466473222
230	0xbfe09ad72d9031de	-0.5189014329822006
231	0xbfbc7dda48fdc490	-0.11129535943998037
232	0xbfee381ebbda7bc8	-0.9443505925190658
233	0x3fe8abcc38f868ef	0.7709714043333217
234	0x3fc8abf412995f58	0.1927476015869114
235	0xbf95f18562599b40	-0.021429142120179323
236	0xbfe7a67fa111074c	-0.7390745302038595
237	0x3fe2137b6771a5be	0.5648781795873032
238	0xbfc35bac4aeec328	-0.15123513850041914
239	0x3fe64b4a644c8e43	0.696690746208738
240	0xbfea2790eaeea6d8	-0.8173298443336661
241	0xbfdcf1c33e428954	-0.4522560222632326
242	0x3fe287a78e17f0f2	0.5790593886627262
243	0xbfebab7af9019580	-0.8646826613809679
244	0x3fdc6887815cf054	0.44387996323690015
245	0x3fc3c38d186e8438	0.15440524762110086
246	0x3fb8355e913526d0	0.09456435246570583
247	0xbfe397aa5d1f408c	-0.6122638529577826
248	0xbfd6c74d61516d5c	-0.35591444495886093
249	0x3fe20a8e3fca1b0c	0.5637885328186214
250	0xbfe3a0ffead3f8ec	-0.6134032808766086
251	0xbfc09bd356c45b38	-0.129755418173511
252	0xbfe123611c68f7a8	-0.5355687670596483
253	0xbfd2dc75ba6fa128	-0.2947058029808596
254	0x3fdc3f2e801df6fe	0.4413563014166896
255	0x3fdeea706e5c8038	0.48305903222535873

weight f8 [1, 512]
0	0xc00985c7ddf72885	-3.1903226223994943
1	0x3ff5f0cdb500b515	1.3712899275227006
2	0x4016950de429c8a0	5.645560803461336
3	0xc008ab909f6d66a6	-3.083771939779427
4	0x3fe41cb7b9945aca	0.6285055756187259
5	0xbf9e9fe696a0dd87	-0.02990684790003464
6	0x401be754ddb99651	6.975909676029532
7	0x3f7b117b07cbcd2c	0.006608467662533795
8	0xbfd501d96e599208	-0.3282378747592536
9	0x3fc3f7e5a11e0b0a	0.1560027157502975
10	0xbf8c591ca2b94838	-0.013841842380461697
11	0x3fb5993bbac25c14	0.08436940488387307
12	0x3f9ef8d6da42d6e1	0.030246121474838076
13	0xbfe99ae30f601c53	-0.8001570987988863
14	0xbfb5e18a3560955e	-0.08547271540790777
15	0x3f712ed52a01514c	0.004195053741643594
16	0xbff6ba4dd5fbf081	-1.4204843863253986
17	0x3f66dac0f737dddd	0.00278985680210629
18	0x3ff143ea804cb3d2	1.0790810596183644
19	0xc020d6ec7218f195	-8.419772687477954
20	0x3fcb78f936938306	0.21462931790213008
21	0x4011fda9af28f9b1	4.497717606426179
22	0x3fb45ec7e9feef77	0.07957124197758768
23	0x4000467a76da81d6	2.0344132695611092
24	0xbffbbe7ed0e863d9	-1.7340076599559693
25	0x3f9e794fbe485bfb	0.029759641636783112
26	0x3fc80c316d6e92aa	0.18787210315089925
27	0xc01e3cee7f485697	-7.55950354460733
28	0xc0000a272ad519ea	-2.0049575182231267
29	0xbf8a069dadc55e52	-0.012707931390351455
30	0x3ff137653693ee80	1.0760242587993218
31	0x3fe682ae07a4a444	0.7034521245269691
32	0xbfe4e65d21bdf865	-0.6531205805802186
33	0x3f978ce4d7131915	0.02299840510092917
34	0xbfa344f954865464	-0.03763560444637262
35	0x3f72fca487ba6824	0.004635470100447878
36	0x3ff19da8f33f4407	1.1009912015763363
37	0xbf7b28b2f7b70b89	-0.006630610554057345
38	0x3f659bc017cd1d8c	0.0026377441230668926
39	0x3fc105254ad8fe0c	0.13296953348798046
40	0x3f97f7665db58d8c	0.023404693097643967
41	0xc004a8bd3d86ad93	-2.5823921972966644
42	0xbfa210498e43185e	-0.03528051244352136
43	0x4013f2bbfbc812c3	4.98704522522593
44	0xc002c6e941ffb8da	-2.347124591461676
45	0xc007e04ddae19c04	-2.9845234966373955
46	0x3fb5bb6cc2a1acc6	0.08489112617251057
47	0x401b561f1bcad05c	6.8341030447519096
48	0x3fb412828160db49	0.07840743693018938
49	0xbfa681683e2d1de4	-0.04395604857432625
50	0xc00a7f38f377e568	-3.312120344253959
51	0xbfc6cb775685ff7d	-0.1780842945554432
52	0x4000b782c1fd0b90	2.0896048693989044
53	0x4007c535ff02fafd	2.971294395712333
54	0xbfe84fe62035e493	-0.7597532872306537
55	0x3fb8a7c92b1ebff7	0.09631020834672187
56	0x3fa0a79e620469f5	0.03252882906436475
57	0x3f802f8b679684de	0.007903184031251727
58	0x40043fcf0ea37798	2.531156648982641
59	0xbfb806ec8126c24a	-0.09385564950094608
60	0x3fc57816f9e62022	0.16772734834762654
61	0xbfe1c24ed155a746	-0.5549692238393866
62	0x400c5b2ae6581f49	3.544515418590809
63	0xc012c877801a3c10	-4.695768357850298
64	0xbff5edb15d425e7e	-1.3705304758967993
65	0x3f9771714e3909c9	0.02289368667539707
66	0x3fc363f562381e48	0.15148799224719967
67	0x3fc00b3c3c4df3cd	0.12534287399821978
68	0x3f9bf5582066f439	0.02730310151831736
69	0x3f757f655f736ac6	0.005248447406496387
70	0xbfc0e9724d0fcbe4	-0.13212422144678648
71	0x40001ae74b10abd0	2.0131364693129186
72	0xc0173d4527d0ae38	-5.809834119903421
73	0x3fae0995a121978d	0.0586668738549597
74	0xc011104cee3bb180	-4.2659184669431625
75	0xbff2c97aeb68ad53	-1.1741894908580732
76	0xc00b12f82ee1eee8	-3.3842624342631673
77	0xbf7d2e8f970b3200	-0.007124482058042947
78	0x3fe1f80ba6dc9220	0.5615289935126988
79	0xbfd0647ad7037d52	-0.2561328029386988
80	0xbfbbfb56ceedb67e	-0.10930388023344936
81	0x3f519ca8e2058f5a	0.0010749482390446014
82	0xbfc26583e77a18f1	-0.14372299959740745
83	0x3f516a6226aca5db	0.0010629614359437465
84	0x400223d1df9c52eb	2.267490145643355
85	0xbffe9d5d5b53affa	-1.913419110055655
86	0xbffd8fe5cf5cb784	-1.8476312732777567
87	0x40028f10885f3e3b	2.319855752379025
88	0x3f98755ac3465cd8	0.02388517205107807
89	0xbfba07798ccc9d57	-0.10167655646784134
90	0xbf7e2638dd873690	-0.007360670213939394
91	0xc01dfc7e3569e993	-7.496575197781925
92	0xbfc7234a2853f251	-0.18076445550095113
93	0xbfc582ecd84603da	-0.16805801925877867
94	0xbfd2bb838947ef6f	-0.2926949349055041
95	0xbff5d69c0cfb8815	-1.364894915307109
96	0x40122dc7b92a5649	4.544707196435021
97	0xbfe46db78f7be80c	-0.6383931925222455
98	0x3fb1a42f74be57f7	0.06891152000602561
99	0xbfb3241f8c3b8dc9	-0.07476994680069206
100	0xbffb8be540bbef71	-1.721654179446855
101	0xbfe139263393d488	-0.5382262236950206
102	0xbf8de043511e110f	-0.014587903893478442
103	0x40094237ce372b1b	3.157333003100019
104	0x4014c4082a465428	5.191437397520566
105	0x4002256be097a24f	2.2682721658968954
106	0x401018a5a6f75611	4.024069413038448
107	0x3fd502009cd74d2c	0.32824721638208376
108	0xbfffb7c4b38dd1a8	-1.9823653234317167
109	0xbfc19967ea5bd7f4	-0.13749407714175244
110	0xbfb89ebe4c9c9db0	-0.09617223139195263
111	0xc01a58b1cc2f5b68	-6.586615744009443
112	0xbfb1bb7143d2f8a1	-0.06926639467107744
113	0x400b60593ceabd0e	3.4220452078949455
114	0xbfe613d7819c711c	-0.6899220973460021
115	0x3fdab53e523d1ddd	0.4173122218239465
116	0x401dd26798afc43a	7.455473314025818
117	0xbfc17b1429f59452	-0.13656856583398508
118	0xbf601f5ba9e89ea6	-0.001968077688861164
119	0x3fa7610a4360b50d	0.045662232136559046
120	0x3f6a5bed401f7471	0.00321766221985214
121	0x3ff7192206023ea5	1.4436359629361644
122	0x400effb628a8c7e5	3.8748591591365646
123	0xbfaabf0cd5ee2c13	-0.05223884688810911
124	0x3fdf213b923b2b90	0.4864033630407727
125	0x3f96bc7b67f07a16	0.022203376978831534
126	0xbfdf3c32ec38d85f	-0.4880492503028843
127	0xbfd97c6d7ef47450	-0.3982194652360862
128	0xbfa31745011adb7d	-0.03728690756309214
129	0xc008cf8fe48e91ac	-3.101348672486173
130	0x3ffd9c8fbeffd4ca	1.8507230244552368
131	0x3ff3de5e35e0e94e	1.2417890648490189
132	0x3f981bf1d154156d	0.023544100190539142
133	0x400b3a70f0b327e2	3.403535728900338
134	0xc014b39eae2a081e	-5.175410004916584
135	0x3ff8b818f42b3a6d	1.54494567278348
136	0x3ff43cb84545b887	1.2648241716338207
137	0x3ffc2547696e4aff	1.75910130676192
138	0xbff6d428ea10f7d6	-1.4267968314375046
139	0x3fdabba7ec38ae08	0.4177036101197875
140	0xc010920d8f90fd9d	-4.142629855370072
141	0xc005556c9facee0a	-2.6667110895775794
142	0xbfee06b051b716cf	-0.9383164974212493
143	0xc002bdec1c91f236	-2.342735503391192
144	0xbfd0daca88d1b0cd	-0.2633539520381987
145	0xbfb3db6d5b7b43f4	-0.07756694301066586
146	0xbf8ad829a304768e	-0.013107610022923735
147	0xbf85bb04e23a87bd	-0.010610616830778125
148	0x4005ff5255e8c972	2.7496687614122317
149	0x40027f803db9c527	2.3122563192670387
150	0xc0050a698719b9a5	-2.630084090683527
151	0x4000ff8972a06ae1	2.124773879547647
152	0x3f9d3264af2126ce	0.02851254767327909
153	0x4013292960de1072	4.790196908525205
154	0x3fc561ff497863fa	0.16705313765922353
155	0xc00985eee21f662f	-3.19039703996966
156	0xc021a9b8667d9ec7	-8.831484988054752
157	0xbf402ff5aca75bc3	-0.0004939984876796078
158	0xbfc85648e9178479	-0.19013320332945563
159	0x3ff8567175275b59	1.521104295379436
160	0xbf85f475e62cc1c5	-0.010720177733305367
161	0xbf74115c5d093dca	-0.004899369043939792
162	0xc00da94bd7796136	-3.7076641878049044
163	0xbfab96bfbe50b895	-0.05388449857888237
164	0x3fae9e45ac335fab	0.05980127074297966
165	0xbff54ad9d7a2732d	-1.3307741568780316
166	0xbf63745eea8bd361	-0.0023748258430437573
167	0xbfd2e638f498a535	-0.2953016651759584
168	0x3ff3f09715a49418	1.2462378354478059
169	0x3ff7c91348bfe4cd	1.4865906564503348
170	0xbfed0c240aabd697	-0.9077320297644346
171	0xbff7660a54321eca	-1.462412194146895
172	0x3fd43c9f7b52a797	0.3162001327824497
173	0x3fde22f67b37ab14	0.47088396103815566
174	0x3ff0841a52aeaf9c	1.0322516660480465
175	0xbfe325e8a516cfce	-0.59837753528563
176	0x40010be72da47058	2.1308120313461067
177	0xbf8f104a4c8ebc0d	-0.01516778989920733
178	0xbfaf1a693b3f1916	-0.06074837539886084
179	0x3f7822ed5dd4dbcf	0.005892684185986276
180	0x3fd7e0a6b0629965	0.3730866167556058
181	0x3f7a91a1c0fc60c6	0.006486541605930712
182	0xc000963ed50bb422	-2.0733620304295224
183	0xbf5603b89c07be13	-0.001343660624225755
184	0xc013a5df801c2b3f	-4.911985398978515
185	0xc000c7fbd7578fa5	-2.097648317680028
186	0x3fe78ca983ff85ed	0.7359206750954265
187	0x3fd7ba1e00063cce	0.370734691642565
188	0x3fc4af2374bcdc1b	0.16159480285725256
189	0xbfdddb3a3e578274	-0.4665055855566955
190	0xc009322df4100cb7	-3.149501711597249
191	0x3fa69989b684c920	0.04414015152942086
192	0x3fabcc5248a1d54b	0.05429322373030717
193	0xbf76229276b297f1	-0.005404064296419251
194	0x3fd2006ffe36af0b	0.2812767012171526
195	0xbfe4208bfbbb00bc	-0.6289729992495476
196	0xc016a8f8b17efb08	-5.6650111898186495
197	0xc00f57c2eccfce7e	-3.917852258769755
198	0xc0020e3424305569	-2.2569353892565016
199	0xbfafa1ed62d5b15c	-0.06178228217581491
200	0x3feb24262528c573	0.8481627202765324
201	0x40130662d456e162	4.756236379435309
202	0xc002e23a56c67dec	-2.3604628352475086
203	0x4004bae3b7c94d1d	2.5912546499545344
204	0x3fedbb2024e9741c	0.929092475980386
205	0xbfddddf9bfdc0e94	-0.46667331444062055
206	0xbfd8f06ad19a46b6	-0.38967390507705646
207	0xc0110b369526c0b4	-4.260950403681068
208	0xbfa283bccfa11cec	-0.036161327691439954
209	0x3f6d163082c6e68c	0.003550619838475216
210	0xc00dad2a3413f0c1	-3.7095531529031125
211	0xc00ca6d0653955c3	-3.5814521701929336
212	0x4013efbf603bf603	4.984128478679398
213	0x3fe583edf1480e7b	0.6723546707657556
214	0x3fd06b3aeb2cba69	0.25654480901986304
215	0x3fae981c9fee823c	0.05975427105227424
216	0x3ff8c2c238f6a748	1.5475485062729195
217	0x3f89836da32ab5c7	0.01245771078296344
218	0x4013ba150fd130d5	4.9317209693365
219	0xc014c17d02979204	-5.188953438283082
220	0x3fa995de45e757f4	0.0499715290385864
221	0x3ff975ef8596f1ff	1.591292878946774
222	0x401374f20ba8fc0d	4.864204580487251
223	0x40125cba05bf5c3a	4.590553369335845
224	0xbfb1500098b4d7e0	-0.06762698867973382
225	0x3fd0303c19e07bb9	0.2529440167144759
226	0x3fe7553f6f0ae8b5	0.7291562241364519
227	0x3ff5abdabaae9baa	1.3544566433208538
228	0xbfb5460418e245c1	-0.08309960944668317
229	0xbfd2718a6f4a6fa1	-0.28817997806776857
230	0xc0105c1346576054	-4.089917277415299
231	0xbfeb0975e6142a41	-0.8449048513151142
232	0xbfdc99ed38f98817	-0.4468949371713519
233	0x3f7e385d57bb5047	0.007377972240380676
234	0xbfd91049d4b7b37d	-0.39161916516496104
235	0x3fcf0ab56b8a772e	0.2425143027402838
236	0xbff633be3b7a27a7	-1.3876325915648324
237	0xbf7871737bece7f2	-0.0059675704094903515
238	0x3f86f1287333ae2c	0.011202159896547569
239	0x3fdd055acf44b290	0.45345182648706217
240	0x3fbc77f44df09971	0.11120535757854612
241	0xbff5d8b4531271c5	-1.3654063458444494
242	0x3ffb46d153450188	1.7047894718853929
243	0x3fd8eee4c93c182c	0.3895809140379949
244	0xbfb1349b8e8e1740	-0.06720897894237243
245	0x3fa8919ce0b443df	0.047985937528330906
246	0x3f92512b46a0218e	0.017887760339392815
247	0xc00add6b31f59473	-3.3581146147794754
248	0xc01baf1fec9d3e54	-6.921020218942051
249	0xbf696875cc8b7b5b	-0.003101568294695251
250	0x3ff1fe26ca287ce4	1.1245487114718395
251	0x3f9421a0d297a0a2	0.019659531453641528
252	0xc00645f731cd3947	-2.784162892413551
253	0xc00658f16f611896	-2.7934292508608207
254	0x400356d9eee4d797	2.4174078620516855
255	0xc005ef9577155908	-2.741984300936682
