L2minimization/plot-figure-data/2d/data/model_OGA_2D_gabor2d_neuron_512_N_16384_deterministic.pt (torch, 18825 bytes, 3 tensors)

weight f8 [512, 2]
00000000: 0000 0000 0000 f0bf 075c 1433 26a6 a13c
00000010: 059f d52e 0694 d23f dc2d c656 419f ee3f
00000020: 0000 0000 0000 f0bf 075c 1433 26a6 a13c
00000030: 0000 0000 0000 f03f 0000 0000 0000 0000
00000040: c25c e109 105d db3f 72c7 3cf4 7aed ecbf
00000050: 0000 0000 0000 f03f 0000 0000 0000 0000
00000060: 0000 0000 0000 f0bf 075c 1433 26a6 a13c
00000070: 0000 0000 0000 f0bf 075c 1433 26a6 a13c
00000080: 0000 0000 0000 f03f 0000 0000 0000 0000
00000090: 0000 0000 0000 f03f 0000 0000 0000 0000
000000a0: 0000 0000 0000 f03f 0000 0000 0000 0000
000000b0: 0000 0000 0000 f0bf 075c 1433 26a6 a13c
000000c0: 7f6d 79e3 21f6 ef3f 1fd8 0df1 651f a9bf
000000d0: adaf 6a22 dfb5 e73f a2ec 8c34 697d e5bf
000000e0: 3ff6 0638 5d2b debf aebd 80f1 b238 ecbf
000000f0: b0bd 80f1 b238 ecbf 3af6 0638 5d2b debf
00000100: b05c f7cf 9762 ef3f 1ca6 693c b8f8 c8bf
00000110: b05c f7cf 9762 efbf 17a6 693c b8f8 c83f
00000120: 3c6e 1945 8372 eb3f eeff 2299 8773 e0bf
00000130: b05c f7cf 9762 ef3f 1ca6 693c b8f8 c8bf
00000140: d830 92fb 7e0a ef3f 1c5f 217b f919 cf3f
00000150: 4417 156b 80bc e8bf d41d 0925 f34c e4bf
00000160: 16a5 087f 55a7 efbf 3461 8e6e 10c8 c2bf
00000170: 70c7 3cf4 7aed ec3f c85c e109 105d dbbf
00000180: dc2d c656 419f ee3f 069f d52e 0694 d23f
00000190: 73c7 3cf4 7aed ecbf bb5c e109 105d dbbf
000001a0: ebff 2299 8773 e03f 3e6e 1945 8372 ebbf
000001b0: de1f ab75 9a8f d53f e586 f604 2121 ee3f
000001c0: cc3b 7f66 9ea0 e6bf ce3b 7f66 9ea0 e63f
000001d0: 16a5 087f 55a7 ef3f 3a61 8e6e 10c8 c23f
000001e0: e586 f604 2121 ee3f de1f ab75 9a8f d53f
000001f0: 4287 f347 e0b3 e9bf 3470 e1fc f70f e3bf
00000200: 16a5 087f 55a7 efbf 3c61 8e6e 10c8 c23f
00000210: b05c f7cf 9762 ef3f 0ba6 693c b8f8 c83f
00000220: 4287 f347 e0b3 e9bf 3470 e1fc f70f e3bf
00000230: 175f 217b f919 cf3f d930 92fb 7e0a efbf
00000240: e586 f604 2121 ee3f dd1f ab75 9a8f d5bf
00000250: a4a1 0e29 669b eabf c768 ae39 3bc7 e13f
00000260: 39f6 0638 5d2b de3f b0bd 80f1 b238 ecbf
00000270: 3570 e1fc f70f e33f 4187 f347 e0b3 e93f
00000280: b05c f7cf 9762 efbf 0fa6 693c b8f8 c8bf
00000290: d930 92fb 7e0a efbf 1a5f 217b f919 cfbf
000002a0: 039f d52e 0694 d2bf dc2d c656 419f ee3f
000002b0: 2425 d1a3 8dd8 ef3f 2cb4 29bc a617 b93f
000002c0: b05c f7cf 9762 ef3f 1ca6 693c b8f8 c8bf
000002d0: 70c7 3cf4 7aed ec3f c85c e109 105d dbbf
000002e0: 7f6d 79e3 21f6 ef3f 14d8 0df1 651f a93f
000002f0: dc2d c656 419f eebf 069f d52e 0694 d23f
00000300: 2425 d1a3 8dd8 ef3f 2cb4 29bc a617 b93f
00000310: 16a5 087f 55a7 efbf 3461 8e6e 10c8 c2bf
00000320: 019f d52e 0694 d23f dc2d c656 419f eebf
00000330: 2425 d1a3 8dd8 efbf 2bb4 29bc a617 b9bf
00000340: cc3b 7f66 9ea0 e6bf ce3b 7f66 9ea0 e63f
00000350: e486 f604 2121 eebf e21f ab75 9a8f d53f
00000360: dc2d c656 419f ee3f 069f d52e 0694 d23f
00000370: 2425 d1a3 8dd8 ef3f 26b4 29bc a617 b9bf
00000380: 2425 d1a3 8dd8 ef3f 26b4 29bc a617 b9bf
00000390: 2425 d1a3 8dd8 efbf 3db4 29bc a617 b93f
000003a0: 2425 d1a3 8dd8 ef3f 2cb4 29bc a617 b93f
000003b0: e586 f604 2121 ee3f de1f ab75 9a8f d53f
000003c0: 7f6d 79e3 21f6 efbf ead7 0df1 651f a9bf
000003d0: 15a5 087f 55a7 ef3f 5161 8e6e 10c8 c2bf
000003e0: d930 92fb 7e0a efbf 1a5f 217b f919 cfbf
000003f0: e586 f604 2121 ee3f de1f ab75 9a8f d53f
00000400: 0000 0000 0000 f0bf 075c 1433 26a6 a13c
00000410: a0ec 8c34 697d e5bf afaf 6a22 dfb5 e73f
00000420: 438d 32cf 6b90 ed3f 6ea9 aea6 e27d d8bf
00000430: a0ec 8c34 697d e53f b0af 6a22 dfb5 e73f
00000440: 7f6d 79e3 21f6 ef3f 1fd8 0df1 651f a9bf
00000450: 2425 d1a3 8dd8 ef3f 26b4 29bc a617 b9bf
00000460: 3a61 8e6e 10c8 c23f 16a5 087f 55a7 ef3f
00000470: d830 92fb 7e0a ef3f 265f 217b f919 cfbf
00000480: d830 92fb 7e0a ef3f 265f 217b f919 cfbf
00000490: dc2d c656 419f eebf 069f d52e 0694 d23f
000004a0: 0000 0000 0000 f03f 0000 0000 0000 0000
000004b0: 7f6d 79e3 21f6 ef3f 14d8 0df1 651f a93f
000004c0: 2425 d1a3 8dd8 ef3f 2cb4 29bc a617 b93f
000004d0: 16a5 087f 55a7 efbf 3c61 8e6e 10c8 c23f
000004e0: 7e6d 79e3 21f6 efbf 0ed8 0df1 651f a93f
000004f0: 16a5 087f 55a7 ef3f 3a61 8e6e 10c8 c23f
00000500: 2425 d1a3 8dd8 efbf 2bb4 29bc a617 b9bf
00000510: a5a1 0e29 669b eabf c568 ae39 3bc7 e1bf
00000520: c25c e109 105d db3f 72c7 3cf4 7aed ec3f
00000530: edff 2299 8773 e03f 3d6e 1945 8372 eb3f
00000540: 2425 d1a3 8dd8 efbf 3db4 29bc a617 b93f
00000550: d930 92fb 7e0a efbf 1a5f 217b f919 cfbf
00000560: b05c f7cf 9762 efbf 17a6 693c b8f8 c83f
00000570: 16a5 087f 55a7 efbf 3c61 8e6e 10c8 c23f
00000580: 2425 d1a3 8dd8 ef3f 26b4 29bc a617 b9bf
00000590: 16a5 087f 55a7 efbf 3461 8e6e 10c8 c2bf
000005a0: d830 92fb 7e0a ef3f 265f 217b f919 cfbf
000005b0: 438d 32cf 6b90 ed3f 6ea9 aea6 e27d d8bf
000005c0: 0000 0000 0000 f03f 0000 0000 0000 0000
000005d0: 16a5 087f 55a7 ef3f 3a61 8e6e 10c8 c23f
000005e0: e586 f604 2121 eebf de1f ab75 9a8f d5bf
000005f0: 4287 f347 e0b3 e93f 3470 e1fc f70f e33f
00000600: 0000 0000 0000 f0bf 075c 1433 26a6 a13c
00000610: ce3b 7f66 9ea0 e6bf cc3b 7f66 9ea0 e6bf
00000620: 7f6d 79e3 21f6 ef3f 14d8 0df1 651f a93f
00000630: 16a5 087f 55a7 efbf 3461 8e6e 10c8 c2bf
00000640: afbd 80f1 b238 ec3f 3af6 0638 5d2b de3f
00000650: d830 92fb 7e0a ef3f 265f 217b f919 cfbf
00000660: b1af 6a22 dfb5 e73f 9fec 8c34 697d e53f
00000670: 16a5 087f 55a7 efbf 3461 8e6e 10c8 c2bf
00000680: 7f6d 79e3 21f6 ef3f 14d8 0df1 651f a93f
00000690: b05c f7cf 9762 efbf 0fa6 693c b8f8 c8bf
000006a0: 438d 32cf 6b90 ed3f 6ea9 aea6 e27d d8bf
000006b0: 21b4 29bc a617 b9bf 2425 d1a3 8dd8 efbf
000006c0: 0000 0000 0000 f0bf 075c 1433 26a6 a13c
000006d0: 2425 d1a3 8dd8 efbf 2bb4 29bc a617 b9bf
000006e0: 0000 0000 0000 f03f 0000 0000 0000 0000
000006f0: afbd 80f1 b238 ecbf 3ef6 0638 5d2b de3f
00000700: 68a9 aea6 e27d d83f 458d 32cf 6b90 edbf
00000710: b05c f7cf 9762 ef3f 1ca6 693c b8f8 c8bf
00000720: d930 92fb 7e0a efbf 1a5f 217b f919 cfbf
00000730: 4087 f347 e0b3 e9bf 3570 e1fc f70f e33f
00000740: 16a5 087f 55a7 efbf 3c61 8e6e 10c8 c23f
00000750: 7e6d 79e3 21f6 efbf 0ed8 0df1 651f a93f
00000760: 0000 0000 0000 f0bf 075c 1433 26a6 a13c
00000770: b05c f7cf 9762 efbf 17a6 693c b8f8 c83f
00000780: 4287 f347 e0b3 e93f 3370 e1fc f70f e3bf
00000790: 16a5 087f 55a7 ef3f 3a61 8e6e 10c8 c23f
000007a0: 2425 d1a3 8dd8 ef3f 26b4 29bc a617 b9bf
000007b0: 72c7 3cf4 7aed ec3f c05c e109 105d db3f
000007c0: d830 92fb 7e0a ef3f 265f 217b f919 cfbf
000007d0: a0ec 8c34 697d e53f b0af 6a22 dfb5 e73f
000007e0: 7f6d 79e3 21f6 ef3f 14d8 0df1 651f a93f
000007f0: 2425 d1a3 8dd8 ef3f 2cb4 29bc a617 b93f
-1.0 1.2246467991473532e-16 0.29028467725446233 0.956940335732209 -1.0 1.2246467991473532e-16 1.0 0.0
0.4275550934302822 -0.9039892931234432 1.0 0.0 -1.0 1.2246467991473532e-16 -1.0 1.2246467991473532e-16
1.0 0.0 1.0 0.0 1.0 0.0 -1.0 1.2246467991473532e-16
0.9987954562051725 -0.04906767432741809 0.7409511253549589 -0.6715589548470187 -0.47139673682599786 -0.8819212643483547 -0.8819212643483549 -0.4713967368259976
0.9807852804032304 -0.19509032201612875 -0.9807852804032304 0.1950903220161286 0.8577286100002719 -0.5141027441932218 0.9807852804032304 -0.19509032201612875
0.9700312531945441 0.24298017990326393 -0.7730104533627373 -0.6343932841636453 -0.9891765099647809 -0.14673047445536158 0.903989293123443 -0.42755509343028253
0.956940335732209 0.2902846772544624 -0.9039892931234433 -0.4275550934302818 0.5141027441932214 -0.8577286100002721 0.3368898533922201 0.9415440651830208
-0.7071067811865475 0.7071067811865477 0.9891765099647809 0.14673047445536175 0.9415440651830208 0.3368898533922201 -0.803207531480645 -0.5956993044924332
-0.9891765099647809 0.1467304744553618 0.9807852804032304 0.19509032201612828 -0.803207531480645 -0.5956993044924332 0.2429801799032638 -0.9700312531945442
0.9415440651830208 -0.33688985339222005 -0.8314696123025453 0.5555702330196021 0.47139673682599753 -0.8819212643483549 0.5956993044924334 0.8032075314806449
-0.9807852804032304 -0.1950903220161284 -0.9700312531945442 -0.24298017990326387 -0.2902846772544622 0.956940335732209 0.9951847266721967 0.0980171403295606
0.9807852804032304 -0.19509032201612875 0.903989293123443 -0.42755509343028253 0.9987954562051725 0.049067674327418015 -0.956940335732209 0.2902846772544624
0.9951847266721967 0.0980171403295606 -0.9891765099647809 -0.14673047445536158 0.2902846772544621 -0.956940335732209 -0.9951847266721967 -0.09801714032956059
-0.7071067811865475 0.7071067811865477 -0.9415440651830207 0.33688985339222033 0.956940335732209 0.2902846772544624 0.9951847266721967 -0.09801714032956052
0.9951847266721967 -0.09801714032956052 -0.9951847266721967 0.09801714032956084 0.9951847266721967 0.0980171403295606 0.9415440651830208 0.3368898533922201
-0.9987954562051725 -0.049067674327417724 0.9891765099647808 -0.1467304744553624 -0.9700312531945442 -0.24298017990326387 0.9415440651830208 0.3368898533922201
-1.0 1.2246467991473532e-16 -0.6715589548470184 0.7409511253549591 0.9238795325112864 -0.3826834323650904 0.6715589548470184 0.7409511253549592
0.9987954562051725 -0.04906767432741809 0.9951847266721967 -0.09801714032956052 0.14673047445536175 0.9891765099647809 0.9700312531945441 -0.2429801799032642
0.9700312531945441 -0.2429801799032642 -0.956940335732209 0.2902846772544624 1.0 0.0 0.9987954562051725 0.049067674327418015
0.9951847266721967 0.0980171403295606 -0.9891765099647809 0.1467304744553618 -0.9987954562051724 0.04906767432741797 0.9891765099647809 0.14673047445536175
-0.9951847266721967 -0.09801714032956059 -0.8314696123025455 -0.5555702330196018 0.4275550934302822 0.9039892931234432 0.5141027441932217 0.857728610000272
-0.9951847266721967 0.09801714032956084 -0.9700312531945442 -0.24298017990326387 -0.9807852804032304 0.1950903220161286 -0.9891765099647809 0.1467304744553618
0.9951847266721967 -0.09801714032956052 -0.9891765099647809 -0.14673047445536158 0.9700312531945441 -0.2429801799032642 0.9238795325112864 -0.3826834323650904
1.0 0.0 0.9891765099647809 0.14673047445536175 -0.9415440651830208 -0.3368898533922201 0.803207531480645 0.5956993044924332
-1.0 1.2246467991473532e-16 -0.7071067811865477 -0.7071067811865475 0.9987954562051725 0.049067674327418015 -0.9891765099647809 -0.14673047445536158
0.8819212643483548 0.4713967368259976 0.9700312531945441 -0.2429801799032642 0.7409511253549593 0.6715589548470183 -0.9891765099647809 -0.14673047445536158
0.9987954562051725 0.049067674327418015 -0.9807852804032304 -0.1950903220161284 0.9238795325112864 -0.3826834323650904 -0.09801714032956045 -0.9951847266721967
-1.0 1.2246467991473532e-16 -0.9951847266721967 -0.09801714032956059 1.0 0.0 -0.8819212643483548 0.4713967368259978
0.38268343236509006 -0.9238795325112866 0.9807852804032304 -0.19509032201612875 -0.9700312531945442 -0.24298017990326387 -0.8032075314806448 0.5956993044924334
-0.9891765099647809 0.1467304744553618 -0.9987954562051724 0.04906767432741797 -1.0 1.2246467991473532e-16 -0.9807852804032304 0.1950903220161286
0.803207531480645 -0.5956993044924331 0.9891765099647809 0.14673047445536175 0.9951847266721967 -0.09801714032956052 0.9039892931234432 0.4275550934302821
0.9700312531945441 -0.2429801799032642 0.6715589548470184 0.7409511253549592 0.9987954562051725 0.049067674327418015 0.9951847266721967 0.0980171403295606

bias f8 [512]
00000000: 14ae 47e1 7a54 e03f b81e 85eb 51b8 f63f
00000010: 0000 0000 00c0 e13f 7c14 ae47 e1fa dabf
00000020: b81e 85eb 51b8 f63f e07a 14ae 47e1 e3bf
00000030: b81e 85eb 51b8 d63f b81e 85eb 51b8 e63f
00000040: f428 5c8f c275 d2bf 9899 9999 99d9 e8bf
00000050: 400a d7a3 703d cfbf b81e 85eb 51b8 c63f
00000060: b81e 85eb 51b8 d6bf 0000 0000 0000 0080
00000070: d7a3 703d 0a97 e43f 0ad7 a370 3d0a e13f
00000080: e07a 14ae 47e1 d3bf 90c2 f528 5c8f d93f
00000090: f428 5c8f c275 d2bf 6866 6666 6666 dcbf
000000a0: c4f5 285c 8f02 e6bf 9999 9999 99d9 e83f
000000b0: 6666 6666 6666 dc3f 0ad7 a370 3d0a e1bf
000000c0: 14ae 47e1 7a54 e0bf 52b8 1e85 ebd1 ed3f
000000d0: c01e 85eb 51b8 a6bf 5c8f c2f5 281c edbf
000000e0: 08d7 a370 3d0a d1bf f628 5c8f c275 e2bf
000000f0: ec51 b81e 852b e3bf d7a3 703d 0a97 e43f
00000100: eb51 b81e 852b e33f 9899 9999 99d9 e8bf
00000110: 85eb 51b8 1e65 f13f 7a14 ae47 e1fa da3f
00000120: 90c2 f528 5c8f d9bf 0ad7 a370 3d0a e13f
00000130: 08d7 a370 3d0a c1bf a470 3d0a d723 d8bf
00000140: b81e 85eb 51b8 e63f d7a3 703d 0a97 e43f
00000150: 0000 0000 00c0 e1bf a470 3d0a d723 d8bf
00000160: 90c2 f528 5c8f c9bf c01e 85eb 51b8 b6bf
00000170: 9899 9999 99d9 e8bf c01e 85eb 51b8 963f
00000180: e07a 14ae 47e1 c3bf 47e1 7a14 ae87 ee3f
00000190: 08d7 a370 3d0a d13f 3c0a d7a3 703d df3f
000001a0: c01e 85eb 51b8 b63f 3c0a d7a3 703d df3f
000001b0: e07a 14ae 47e1 d3bf 90c2 f528 5c8f d9bf
000001c0: 14ae 47e1 7a54 e0bf a470 3d0a d723 e83f
000001d0: ec51 b81e 852b e3bf 90c2 f528 5c8f d9bf
000001e0: c2f5 285c 8f02 e63f b81e 85eb 51b8 c6bf
000001f0: 5c8f c2f5 281c ed3f d8a3 703d 0a97 e4bf
00000200: 3c0a d7a3 703d df3f 90c2 f528 5c8f c9bf
00000210: 10d7 a370 3d0a b1bf 6866 6666 6666 ccbf
00000220: f428 5c8f c275 d2bf 10d7 a370 3d0a b1bf
00000230: cccc cccc cc4c e5bf 14ae 47e1 7a54 e0bf
00000240: e07a 14ae 47e1 e3bf 6866 6666 6666 cc3f
00000250: 6866 6666 6666 dcbf 703d 0ad7 a3b0 ebbf
00000260: cccc cccc cc4c e5bf 0ad7 a370 3d0a e13f
00000270: b81e 85eb 51b8 c63f 08d7 a370 3d0a d1bf
00000280: b81e 85eb 51b8 d63f b81e 85eb 51b8 d63f
00000290: 14ae 47e1 7a54 e0bf 9899 9999 99d9 e8bf
000002a0: c2f5 285c 8f02 e63f 0ad7 a370 3d0a e13f
000002b0: 6866 6666 6666 cc3f e07a 14ae 47e1 d33f
000002c0: 6866 6666 6666 dcbf 0000 0000 00c0 e13f
000002d0: e07a 14ae 47e1 d3bf e07a 14ae 47e1 d3bf
000002e0: c4f5 285c 8f02 e6bf 90c2 f528 5c8f e9bf
000002f0: 85eb 51b8 1e45 ea3f 703d 0ad7 a3b0 ebbf
00000300: 10d7 a370 3d0a b13f 52b8 1e85 ebd1 dd3f
00000310: 90c2 f528 5c8f d9bf d7a3 703d 0a97 e43f
00000320: ac47 e17a 146e e7bf 90c2 f528 5c8f e9bf
00000330: ec51 b81e 852b e3bf 52b8 1e85 ebd1 dd3f
00000340: b81e 85eb 51b8 c6bf cccc cccc cc4c d53f
00000350: 08d7 a370 3d0a d1bf 400a d7a3 703d cf3f
00000360: 703d 0ad7 a3b0 eb3f 3d0a d7a3 703d ef3f
00000370: 08d7 a370 3d0a d1bf b81e 85eb 51b8 c6bf
00000380: e17a 14ae 47e1 e33f c01e 85eb 51b8 a6bf
00000390: 0000 0000 00c0 e13f c01e 85eb 51b8 a6bf
000003a0: 0000 0000 00c0 e13f d7a3 703d 0a97 e43f
000003b0: f628 5c8f c275 e23f a470 3d0a d723 d83f
000003c0: f428 5c8f c275 d2bf 703d 0ad7 a3b0 ebbf
000003d0: a470 3d0a d723 d8bf 50b8 1e85 ebd1 ddbf
000003e0: 6866 6666 6666 dcbf d8a3 703d 0a97 e4bf
000003f0: a470 3d0a d723 e8bf ac47 e17a 146e e7bf
00000400: 7a14 ae47 e1fa da3f 90c2 f528 5c8f c9bf
00000410: a470 3d0a d723 d83f c01e 85eb 51b8 96bf
00000420: eb51 b81e 852b e33f cccc cccc cc4c d5bf
00000430: 7a14 ae47 e1fa da3f c2f5 285c 8f02 e63f
00000440: f428 5c8f c275 d23f e07a 14ae 47e1 d3bf
00000450: 7c14 ae47 e1fa dabf 50b8 1e85 ebd1 ddbf
00000460: c4f5 285c 8f02 e6bf 3c0a d7a3 703d dfbf
00000470: 3d0a d7a3 703d ef3f 8fc2 f528 5c8f e93f
00000480: 9899 9999 99d9 e8bf 7c14 ae47 e1fa eabf
00000490: 90c2 f528 5c8f c93f 6866 6666 6666 ecbf
000004a0: 90c2 f528 5c8f c93f 10d7 a370 3d0a b1bf
000004b0: d8a3 703d 0a97 e4bf e07a 14ae 47e1 d3bf
000004c0: 3c0a d7a3 703d dfbf 0000 0000 00c0 e1bf
000004d0: 52b8 1e85 ebd1 dd3f 400a d7a3 703d cfbf
000004e0: ec51 b81e 852b e3bf c4f5 285c 8f02 e6bf
000004f0: d8a3 703d 0a97 e4bf b81e 85eb 51b8 e63f
00000500: c01e 85eb 51b8 a63f e07a 14ae 47e1 c3bf
00000510: 0ad7 a370 3d0a e13f 0000 0000 00c0 e13f
00000520: 3d0a d7a3 703d ef3f 08d7 a370 3d0a d1bf
00000530: 90c2 f528 5c8f c93f 90c2 f528 5c8f c93f
00000540: 7c14 ae47 e1fa eabf e17a 14ae 47e1 e33f
00000550: cccc cccc cc4c e5bf 6866 6666 6666 ecbf
00000560: 0ad7 a370 3d0a e1bf cccc cccc cc4c e53f
00000570: e17a 14ae 47e1 e33f a470 3d0a d723 e83f
00000580: b81e 85eb 51b8 e63f 0ad7 a370 3d0a e1bf
00000590: b81e 85eb 51b8 d63f 0ad7 a370 3d0a e13f
000005a0: f628 5c8f c275 e2bf b81e 85eb 51b8 e6bf
000005b0: d7a3 703d 0a97 e43f a470 3d0a d723 d8bf
000005c0: 6666 6666 6666 dc3f eb51 b81e 852b f33f
000005d0: a470 3d0a d723 d8bf cccc cccc cc4c d53f
000005e0: a470 3d0a d723 d8bf 0ad7 a370 3d0a e1bf
000005f0: f428 5c8f c275 d2bf 10d7 a370 3d0a b13f
00000600: f628 5c8f c275 e23f 9899 9999 99d9 e8bf
00000610: 9899 9999 99d9 e8bf c01e 85eb 51b8 b63f
00000620: c01e 85eb 51b8 b6bf c01e 85eb 51b8 b6bf
00000630: 08d7 a370 3d0a d13f ac47 e17a 146e e7bf
00000640: 0ad7 a370 3d0a e1bf e07a 14ae 47e1 c3bf
00000650: 6866 6666 6666 ccbf 50b8 1e85 ebd1 edbf
00000660: ec51 b81e 852b e3bf ac47 e17a 146e e7bf
00000670: b81e 85eb 51b8 d6bf cccc cccc cc4c e53f
00000680: 6666 6666 6666 dc3f 6866 6666 6666 dcbf
00000690: 0ad7 a370 3d0a e13f 6066 6666 6666 bcbf
000006a0: e07a 14ae 47e1 d33f 90c2 f528 5c8f c9bf
000006b0: 5c8f c2f5 281c edbf 14ae 47e1 7a54 e03f
000006c0: 400a d7a3 703d cf3f b81e 85eb 51b8 d6bf
000006d0: a470 3d0a d723 e8bf b81e 85eb 51b8 e63f
000006e0: eb51 b81e 852b e33f f628 5c8f c275 e23f
000006f0: 7a14 ae47 e1fa da3f 400a d7a3 703d cfbf
00000700: ac47 e17a 146e e7bf f428 5c8f c275 d23f
00000710: 52b8 1e85 ebd1 dd3f f428 5c8f c275 d23f
00000720: 10d7 a370 3d0a b1bf 10d7 a370 3d0a b13f
00000730: ae47 e17a 146e e73f 48e1 7a14 ae87 eebf
00000740: 0000 0000 00c0 f1bf ae47 e17a 146e e73f
00000750: 85eb 51b8 1e45 ea3f 14ae 47e1 7a54 e0bf
00000760: a470 3d0a d723 d8bf f628 5c8f c275 e2bf
00000770: c01e 85eb 51b8 b6bf 9999 9999 99d9 e83f
00000780: 0000 0000 00c0 e1bf 400a d7a3 703d cfbf
00000790: cccc cccc cc4c d53f cccc cccc cc4c d53f
000007a0: 3c0a d7a3 703d df3f e17a 14ae 47e1 e33f
000007b0: a470 3d0a d723 d83f e07a 14ae 47e1 c33f
000007c0: e07a 14ae 47e1 e3bf 7c14 ae47 e1fa dabf
000007d0: cccc cccc cc4c d53f 85eb 51b8 1e45 ea3f
000007e0: e07a 14ae 47e1 c3bf 6066 6666 6666 bc3f
000007f0: 50b8 1e85 ebd1 ddbf cccc cccc cc4c e53f
0.5103125 1.42 0.5546875 -0.42156250000000006 1.42 -0.6212499999999999 0.355 0.71
-0.2884374999999999 -0.7765624999999998 -0.24406250000000007 0.1775 -0.355 -0.0 0.6434375 0.5325
-0.31062499999999993 0.39937500000000004 -0.2884374999999999 -0.4437500000000001 -0.6878125000000002 0.7765624999999999 0.44375 -0.5325
-0.5103125 0.931875 -0.04437500000000005 -0.9096875 -0.2662499999999999 -0.576875 -0.5990625 0.6434375
0.5990624999999999 -0.7765624999999998 1.0871875 0.42156249999999995 -0.39937500000000004 0.5325 -0.13312499999999994 -0.3771875
0.71 0.6434375 -0.5546875 -0.3771875 -0.19968750000000002 -0.0887500000000001 -0.7765624999999998 0.022187500000000027
-0.15531249999999996 0.9540624999999999 0.2662499999999999 0.4881249999999999 0.0887500000000001 0.4881249999999999 -0.31062499999999993 -0.39937500000000004
-0.5103125 0.754375 -0.5990625 -0.39937500000000004 0.6878124999999999 -0.1775 0.9096875 -0.6434375000000001
0.4881249999999999 -0.19968750000000002 -0.06656250000000008 -0.22187500000000004 -0.2884374999999999 -0.06656250000000008 -0.6656249999999999 -0.5103125
-0.6212499999999999 0.22187500000000004 -0.4437500000000001 -0.8653124999999999 -0.6656249999999999 0.5325 0.1775 -0.2662499999999999
0.355 0.355 -0.5103125 -0.7765624999999998 0.6878124999999999 0.5325 0.22187500000000004 0.31062499999999993
-0.4437500000000001 0.5546875 -0.31062499999999993 -0.31062499999999993 -0.6878125000000002 -0.7987500000000001 0.8209375 -0.8653124999999999
0.06656250000000008 0.4659375 -0.39937500000000004 0.6434375 -0.7321874999999998 -0.7987500000000001 -0.5990625 0.4659375
-0.1775 0.33281249999999996 -0.2662499999999999 0.24406250000000007 0.8653124999999999 0.97625 -0.2662499999999999 -0.1775
0.62125 -0.04437500000000005 0.5546875 -0.04437500000000005 0.5546875 0.6434375 0.576875 0.3771875
-0.2884374999999999 -0.8653124999999999 -0.3771875 -0.4659374999999999 -0.4437500000000001 -0.6434375000000001 -0.754375 -0.7321874999999998
0.42156249999999995 -0.19968750000000002 0.3771875 -0.022187500000000027 0.5990624999999999 -0.33281249999999996 0.42156249999999995 0.6878124999999999
0.2884374999999999 -0.31062499999999993 -0.42156250000000006 -0.4659374999999999 -0.6878125000000002 -0.4881249999999999 0.97625 0.79875
-0.7765624999999998 -0.8431250000000001 0.19968750000000002 -0.8875000000000002 0.19968750000000002 -0.06656250000000008 -0.6434375000000001 -0.31062499999999993
-0.4881249999999999 -0.5546875 0.4659375 -0.24406250000000007 -0.5990625 -0.6878125000000002 -0.6434375000000001 0.71
0.04437500000000005 -0.15531249999999996 0.5325 0.5546875 0.97625 -0.2662499999999999 0.19968750000000002 0.19968750000000002
-0.8431250000000001 0.62125 -0.6656249999999999 -0.8875000000000002 -0.5325 0.6656249999999999 0.62125 0.754375
0.71 -0.5325 0.355 0.5325 -0.576875 -0.71 0.6434375 -0.3771875
0.44375 1.1981249999999999 -0.3771875 0.33281249999999996 -0.3771875 -0.5325 -0.2884374999999999 0.06656250000000008
0.576875 -0.7765624999999998 -0.7765624999999998 0.0887500000000001 -0.0887500000000001 -0.0887500000000001 0.2662499999999999 -0.7321874999999998
-0.5325 -0.15531249999999996 -0.22187500000000004 -0.9318749999999998 -0.5990625 -0.7321874999999998 -0.355 0.6656249999999999
0.44375 -0.4437500000000001 0.5325 -0.11093749999999991 0.31062499999999993 -0.19968750000000002 -0.9096875 0.5103125
0.24406250000000007 -0.355 -0.754375 0.71 0.5990624999999999 0.576875 0.42156249999999995 -0.24406250000000007
-0.7321874999999998 0.2884374999999999 0.4659375 0.2884374999999999 -0.06656250000000008 0.06656250000000008 0.7321875 -0.9540625
-1.109375 0.7321875 0.8209375 -0.5103125 -0.3771875 -0.576875 -0.0887500000000001 0.7765624999999999
-0.5546875 -0.24406250000000007 0.33281249999999996 0.33281249999999996 0.4881249999999999 0.62125 0.3771875 0.15531249999999996
-0.6212499999999999 -0.42156250000000006 0.33281249999999996 0.8209375 -0.15531249999999996 0.11093749999999991 -0.4659374999999999 0.6656249999999999

weight f8 [1, 512]
00000000: 09eb 3ac8 1c2c 17c0 9dea 8294 6dbb 0240
00000010: ca90 ac28 0905 2540 d487 e39a 7f79 0e40
00000020: 9377 a0a9 ee4e 00c0 707d d854 3fd7 19c0
00000030: 2a03 b68a eb1e fcbf a024 ac01 c329 c93f
00000040: 203d 6abd e0ba f5bf d043 e803 d5d7 fa3f
00000050: 9233 9bb9 312c 09c0 e7c8 9ecd 2725 cabf
00000060: b7a5 028e 64af 18c0 0060 7fe6 ba97 7cbf
00000070: 1041 51b6 aaa7 9b3f e016 f6fb 9be1 bb3f
00000080: 4823 8613 d754 0040 dfd7 94fe 7c1f 0bc0
00000090: 2099 3875 5c20 9a3f adce 282a 5670 0a40
000000a0: a199 4ea2 2a30 e83f 8035 59ab ce1a 603f
000000b0: ae57 c43c cc6a 0cc0 f0b5 c4ca a219 9b3f
000000c0: efb4 0856 2923 e5bf 6073 c114 9e68 a1bf
000000d0: c0e9 70d3 a50a 863f 20fd 622a 6ccf 9dbf
000000e0: 74f7 ddec cab7 ae3f 6d9e 4a3c 088a 11c0
000000f0: 2ebb 7321 9ccc d73f 30f8 a151 30e8 a7bf
00000100: 3a00 2dcb 5eec 0340 bedf 8cdf 3bcb f43f
00000110: c008 358a 1d52 8cbf 001d 5d24 83c7 903f
00000120: 0e37 bdb1 4878 d4bf 1083 e757 664a b0bf
00000130: 985c 2ab5 b4b4 a03f 0056 8c35 b35e 913f
00000140: cf1c c072 7915 07c0 fe6f 0583 bfdd e33f
00000150: c01e 5621 d8f6 84bf 8a01 5cde cef5 0b40
00000160: 4dbf 2ec7 e179 fc3f 1032 bae4 6e70 a4bf
00000170: ae0c e705 400d 03c0 8545 2a1a 65ec ba3f
00000180: c073 411f 8ede 88bf f05d 0c36 df1e a2bf
00000190: 0007 5dec 628b 843f b46d b6c4 e7f3 1a40
000001a0: 807f a9f6 2267 6b3f 6e91 e46d 9fa0 df3f
000001b0: c030 94bb 8364 c43f 3790 e9a3 670b 1840
000001c0: 689e 7716 9209 1340 e8dd 88b4 9684 f23f
000001d0: fe8b 4cb4 32b4 1440 8005 2d2f 2fa2 c3bf
000001e0: c642 a4b7 57b6 0f40 d614 1b3d b711 fbbf
000001f0: 3b85 c5a0 af86 d33f 561b a355 a7fd e3bf
00000200: e2ae 5b36 5b68 1fc0 68f1 3d94 406f a73f
00000210: 90a2 c060 c4ef a6bf 20db 5963 a4fa 96bf
00000220: 0822 fcbf 0f45 0b40 0c34 abbe c56a c1bf
00000230: d048 6260 b386 a0bf e4ae f7c8 df64 edbf
00000240: af63 309e a481 e9bf c22c 2cc6 9a7d edbf
00000250: f3e8 af45 16f2 1b40 99ca 3cda 0543 f0bf
00000260: 5f2d d4bf 6fc3 16c0 9293 8c83 70a9 0fc0
00000270: 20c5 4397 a0ae 0240 d4af 1ba0 b10c cd3f
00000280: 89d1 a74f 6c6f 0640 10fc 8465 a4ea a1bf
00000290: 0004 1fe7 4d3e 7bbf 00b4 1dcd 6fef 55bf
000002a0: e333 6a1a 0ff4 02c0 e7f5 5ddd 0d21 ff3f
000002b0: 7a05 36ae 300d 0140 6346 d079 41bb 10c0
000002c0: 8486 3dc0 e666 16c0 8447 cfa5 5450 11c0
000002d0: 36d5 0409 7cda f83f 1067 dbc8 f1e4 953f
000002e0: b351 4d12 19ae 1240 ba4a 7b6a 8bd3 fbbf
000002f0: 78f0 ff64 60df be3f b070 770f e64b 863f
00000300: b7bc 1cb3 88c3 bb3f 8803 ad8f 4d45 983f
00000310: e820 a448 82a1 14c0 ff4a e507 b246 0140
00000320: 0067 582a 3764 a03f 44ac b47a 9f5d c53f
00000330: 009d 0b34 ce51 78bf 4366 d318 59ac febf
00000340: feb8 8c93 3802 f0bf 1469 678f 3db4 f4bf
00000350: 9c0b 4efd 35bb c5bf 0025 3203 b9d0 6abf
00000360: 1c98 7bd2 0421 e1bf 0e3e 202b b28e dc3f
00000370: 04c7 f8df 5585 12c0 eab9 9314 d513 bfbf
00000380: c043 551e 1ffd a43f c4df 0098 5717 c8bf
00000390: 3008 e2ac b279 0040 10d9 3406 5e43 903f
000003a0: 3dd5 8d8b 3ba0 0ac0 f61c abc9 f7be 0a40
000003b0: 761d ff3e 9655 1640 481f bed4 25fa 09c0
000003c0: 0050 9b76 dd8f 783f ade8 7bee a371 f73f
000003d0: 69a4 6f94 75f7 1540 a4ec 0a2d 45f4 be3f
000003e0: ec49 0ca4 0855 dd3f 8055 46f9 d781 60bf
000003f0: 11f8 41ec ef1f 05c0 bf6d 7619 7a18 0740
00000400: 00a6 1f96 b9ca 7a3f 5d48 0302 57cb f6bf
00000410: 6cb4 5c27 12ff b7bf 8e52 0915 9b1a b0bf
00000420: 1631 a8f9 24bb 0ac0 8816 2eff 022f f7bf
00000430: fc8e 25ba eb37 fc3f 4cc6 0bc0 064f e33f
00000440: 67e6 5d71 b945 08c0 72e7 93ba a9d7 0740
00000450: 25b0 903c 84d7 0ec0 7ea2 ee76 6133 11c0
00000460: 446f 46d5 fe5a de3f c20e 188c ddf3 fd3f
00000470: 5018 34a1 8275 9d3f 0e92 a179 9ba5 fd3f
00000480: ddc1 725c 255d e0bf 97e5 7235 2fe3 ddbf
00000490: b467 bb45 3a60 b23f 0035 cb9d 1b5b 67bf
000004a0: 381b a7de f9d3 bdbf c071 7a24 6000 61bf
000004b0: 1ad0 d9a9 2f41 09c0 8029 e839 45c1 893f
000004c0: 89e5 0604 33e3 0d40 7468 75f6 65d5 bb3f
000004d0: d9e8 cd0f 13ff 0440 11fc da7a 706a da3f
000004e0: 532e c433 caa5 e83f 2603 c0ed 7a7d f5bf
000004f0: 6c89 2588 147b f6bf 802a 4cf1 b335 76bf
00000500: e852 7bc0 6611 b0bf 38ea 5047 355f cf3f
00000510: 38f4 278d 1b09 b0bf 00b0 1e98 0c14 813f
00000520: a89f 5def 3457 863f 4c4a d3b9 3a23 c93f
00000530: 2a9f a749 2cda f0bf 1aa1 55d2 1cd8 fd3f
00000540: 461c fc9c cf8f b8bf 4a14 189d 2f32 f1bf
00000550: df2c 1640 6b7d 01c0 81da 7819 31a7 e13f
00000560: 6cd1 c4dc 0a1b c13f e052 74e3 7ec1 05c0
00000570: ffac 338d 5cde 0b40 e77d d29a f87a edbf
00000580: 7ea9 2aa2 f28e d1bf bfaf ac43 b227 1dc0
00000590: f05d da31 5d70 a5bf 0012 b927 85c7 52bf
000005a0: babb f4e2 333f c0bf d387 bc5f b277 fe3f
000005b0: a0d4 981c c409 cf3f c068 cc09 c769 9abf
000005c0: c04d bbee a904 74bf 505b 9088 ecad b8bf
000005d0: 9f16 70ec d5e4 0ac0 d412 91bc 8845 0240
000005e0: 3ac0 aa47 3635 e23f 6176 aef9 c735 eb3f
000005f0: a001 7a82 c01d 95bf 3e49 fdca e524 d13f
00000600: d03d c38d e705 a0bf 8083 c3cd e940 9abf
00000610: 003c 9a89 0c08 3a3f 9816 69ba 16d7 f23f
00000620: fd19 f2d4 c294 e1bf d91d dc9d 391c e7bf
00000630: f9e7 b3c5 ee9f fd3f e03a e803 103e 8b3f
00000640: e3f7 81b0 d776 11c0 c02c 01f6 6720 883f
00000650: 000f 56b2 e225 613f 8c28 88ab b2d6 c3bf
00000660: a01a 2753 9edf 9fbf 0086 a6e6 9ed0 63bf
00000670: 9a24 e5b2 88ce e7bf 6c70 e8f0 588c 0940
00000680: ca49 81b7 0f5e f7bf 5db1 53d4 ed5e f43f
00000690: b6da 47a5 a445 d0bf b015 9255 33b9 8abf
000006a0: bb0c 353e 1252 01c0 78ac 264b 1e3d e2bf
000006b0: fdfa 5af1 3baa e0bf fca7 155e 80e2 0740
000006c0: 203c 204a 4046 bc3f 4094 5820 39c8 9abf
000006d0: 95d2 fa43 74dd e43f fe71 40b7 d609 f3bf
000006e0: 7a54 f78d 6a5f fdbf efc3 62b5 08de 0040
000006f0: f67f d40d 5b88 e2bf 803e 1ef7 59ce b5bf
00000700: c4ef e83d 9c7d f13f e63f 924d a8bb f0bf
00000710: 5936 c716 cd4f 0640 00a1 3b61 08fb a9bf
00000720: c0de 9a10 96be 893f 32da 9556 a68b c8bf
00000730: 9c30 6ab5 5cb7 c73f c8dd b079 2dc1 aabf
00000740: 5e5d 8fda c293 acbf 6823 40a7 a996 b3bf
00000750: ea62 0266 548b fbbf 600d a2b4 74a8 d4bf
00000760: 66ca fa98 8c6c debf 9c53 b3ca a691 d13f
00000770: 0e5d 5dcc 5f1b cc3f 3041 a43e 4a3d a83f
00000780: 59de a6ba b186 17c0 7abd 07f9 f540 d93f
00000790: b8cd 99fc 3a81 a0bf 5356 af08 b7a5 ffbf
000007a0: d946 e738 6734 eabf 4865 ef0e 9cee f8bf
000007b0: aa5a bf21 afc7 d3bf c0c9 eed3 cbdd 86bf
000007c0: efb5 228e a1df 0740 5fcd 6ca2 d6b7 10c0
000007d0: 9067 27c9 eba7 f13f ce48 2da6 6afe d93f
000007e0: c9bb a45f ee56 eebf 009a 2fc2 a282 6f3f
000007f0: 00ed 6d5b 59aa 8d3f 53bc 44ff af0a f73f
-5.793078545185161 2.3415176012470753 10.509835501732955 3.8093254185377905 -2.038541150292937 -6.460202527726651 -1.757548848953045 0.1965869672933751
-1.358124484922719 1.6776933815601645 -3.146579217957375 -0.2042588953023092 -6.1712820233455465 -0.006980638579953791 0.02700678575303167 0.10891127492331121
2.0414258504210103 -3.390375126759849 0.02551407304249509 3.3048518460944565 0.7558797044810498 0.0019659077177382467 -3.5521473643702484 0.026464980722428366
-0.6605421715118193 -0.03400129321446488 0.010762496485871575 -0.02911156662662251 0.059995976843295745 -4.384797040991185 0.37186339632801235 -0.04669333454602087
2.4904151795490437 1.299617646449391 -0.013828497677085827 0.01638607892462307 -0.3198415504201514 -0.06363525053121699 0.032628676524091904 0.016962814467737175
-2.885485550391969 0.6208188590057941 -0.01023644305929794 3.4950234767749793 1.779756334359223 -0.03992029707032796 -2.3814697705398293 0.10516960037991481
-0.01214324028858893 -0.03539178404588117 0.010031483495939408 6.738188813814691 0.003345077789432993 0.49417863589976363 0.1593174615776487 6.01113754380281
4.759346343089057 1.157370286191389 5.175974671527909 -0.153386972460833 3.9640344950679234 -1.6918251406616966 0.30509558391902986 -0.6247135803795156
-7.851910447450537 0.045770662399237605 -0.044798027811627894 -0.02244049888983135 3.4087214468784204 -0.1360709362983531 -0.032277684703460374 -0.9185637402674414
-0.797075566256458 -0.9215825911100171 6.986413086759273 -1.0163630032444984 -5.690855977368613 -3.9577341344142463 2.3352672402912873 0.2269498855379185
2.804405805882372 -0.03499330271960599 -0.006651214893225621 -0.001338824444668818 -2.3691694320354926 1.9455698630475753 2.1314405069576283 -4.182866957985968
-5.600489619975296 -4.328447905327156 1.5533409454631744 0.021381166347828773 4.670017515153108 -1.7391466292798854 0.12059595552267577 0.010886952731134464
0.10845236180169847 0.023701869863774344 -5.157723555581676 2.159519254384008 0.03201458351050057 0.16691964618198274 -0.00593739078679012 -1.9170771569973943
-1.0005422366771763 -1.2940040208546337 -0.16977572315599054 -0.003273354866511924 -0.5352806197158801 0.44620947085874796 -4.630210399207275 -0.12139636757249375
0.040993664219633796 -0.18821234628717154 2.0594228273849 0.015881985787211284 -3.3282385733279214 3.343246055159052 5.58358095581149 -3.2471424694557847
0.005996575442356544 1.465244227960777 5.491659468950368 0.12091476773905413 0.4583150484114913 -0.0020150392758277458 -2.640594335330214 2.8869516362444467
0.006540989825205568 -1.424643524038877 -0.09373582325925306 -0.06290597213348745 -3.341379118390374 -1.4489774673433278 1.7636525412898996 0.6033967734239893
-3.0340451103955277 2.9803042007815117 -3.855232690015344 -4.300176485362156 0.4743039210095399 1.8720374557896524 0.028768578614311757 1.8529314757553297
-0.5113703542356763 -0.4669912359200565 0.07178081705515532 -0.0028510608084163502 -0.11651574788912178 -0.0020753743918488776 -3.1568291921230527 0.012575665311506112
3.735937148533314 0.10872494952255513 2.6245480761254893 0.41274654386137494 0.770238019090764 -1.343134812079549 -1.405048877547041 -0.005422308827074063
-0.06276552390347556 0.24509302122335597 -0.06263897129243012 0.008339022056894407 0.010908521227704984 0.19638761590484177 -1.053264892305331 1.8652618614378924
-0.09594438154827953 -1.0747524391638472 -2.1862397200362547 0.5516591546537059 0.13363776950576367 -2.719480301844996 3.4835749656100456 -0.9212611221191168
-0.2743498405131034 -7.288765962042759 -0.041872894607134614 -0.0011462021201548156 -0.1269287927802603 1.9042228450493794 0.24248553654039018 -0.025794134114314415
-0.004887260245328873 -0.09640386900023867 -3.3617361518580107 2.2839522105954106 0.5689956092592248 0.8503150822250057 -0.020621307338389294 0.2678770525282238
-0.03129504781247372 -0.025638249572583316 0.0003972082718996517 1.1775119096431919 -0.5494093093009834 -0.722195442504865 1.8515460703624724 0.01330196868823691
-4.366057165081631 0.011780559725727335 0.0020932605427236295 -0.15498956084804083 -0.03112647421383008 -0.0024188140425429605 -0.7439616674465868 3.1935290165839003
-1.4604642074742622 1.2731760305424225 -0.25425068035785203 -0.013048554467114254 -2.165073858255338 -0.5699607341570205 -0.5207805360767847 2.985596404109854
0.11044694719042569 -0.026154415702098754 0.6520329787950511 -1.1899020345946378 -1.8357949777175961 2.108415047718601 -0.5791449804419233 -0.08517992289693588
1.093166581950741 -1.045814803135721 2.7889653949303406 -0.050743352765325156 0.012570545560591895 -0.19176177242089093 0.18528326852936494 -0.052255078415722134
-0.055814828090371846 -0.07651768048539298 -1.721516035531915 -0.32278173103278185 -0.4753753179494765 0.2745148639199273 0.21958539465661214 0.047342605730707255
-5.881537357745025 0.39458989447935944 -0.03223594983583261 -1.9779577578787169 -0.8188968764681831 -1.5582542975810885 -0.3090627507748801 -0.011165230183768027
2.9841948608725413 -4.1795297030360805 1.103496347196117 0.4061533568211758 -0.9481117122685357 0.0038464716794692766 0.014485071280196937 1.4401092502046324
