L2minimization/plot-figure-data/2d/data2/model_OGA_2D_sinpix2d_neuron_512_N_16384_deterministic.pt (torch, 18830 bytes, 3 tensors)

weight f8 [512, 2]
00000000: ce3b 7f66 9ea0 e63f cd3b 7f66 9ea0 e63f
00000010: ce3b 7f66 9ea0 e6bf cc3b 7f66 9ea0 e6bf
00000020: 0a8a 9e4c 3979 aabc 0000 0000 0000 f0bf
00000030: 4217 156b 80bc e8bf d51d 0925 f34c e43f
00000040: dc2d c656 419f ee3f 069f d52e 0694 d23f
00000050: aeaf 6a22 dfb5 e7bf a1ec 8c34 697d e53f
00000060: 3570 e1fc f70f e33f 4187 f347 e0b3 e93f
00000070: adaf 6a22 dfb5 e73f a2ec 8c34 697d e5bf
00000080: c868 ae39 3bc7 e13f a3a1 0e29 669b ea3f
00000090: 3ff6 0638 5d2b debf aebd 80f1 b238 ecbf
000000a0: c568 ae39 3bc7 e1bf a5a1 0e29 669b ea3f
000000b0: 4287 f347 e0b3 e93f 3370 e1fc f70f e3bf
000000c0: c468 ae39 3bc7 e13f a5a1 0e29 669b eabf
000000d0: 4287 f347 e0b3 e9bf 3470 e1fc f70f e3bf
000000e0: 4217 156b 80bc e83f d51d 0925 f34c e43f
000000f0: afbd 80f1 b238 ec3f 3af6 0638 5d2b de3f
00000100: 16a5 087f 55a7 efbf 3461 8e6e 10c8 c2bf
00000110: 62a9 aea6 e27d d8bf 468d 32cf 6b90 ed3f
00000120: 3570 e1fc f70f e33f 4187 f347 e0b3 e93f
00000130: 3570 e1fc f70f e33f 4187 f347 e0b3 e93f
00000140: b0af 6a22 dfb5 e7bf a0ec 8c34 697d e5bf
00000150: dc1f ab75 9a8f d5bf e586 f604 2121 eebf
00000160: e486 f604 2121 eebf e21f ab75 9a8f d53f
00000170: b0af 6a22 dfb5 e7bf a0ec 8c34 697d e5bf
00000180: 079f d52e 0694 d2bf db2d c656 419f eebf
00000190: d41d 0925 f34c e4bf 4317 156b 80bc e83f
000001a0: 458d 32cf 6b90 edbf 65a9 aea6 e27d d83f
000001b0: 2f70 e1fc f70f e33f 4587 f347 e0b3 e9bf
000001c0: 15a5 087f 55a7 ef3f 5161 8e6e 10c8 c2bf
000001d0: cb3b 7f66 9ea0 e63f ce3b 7f66 9ea0 e6bf
000001e0: cc3b 7f66 9ea0 e6bf ce3b 7f66 9ea0 e63f
000001f0: cc3b 7f66 9ea0 e6bf ce3b 7f66 9ea0 e63f
00000200: 0000 0000 0000 f03f 0000 0000 0000 0000
00000210: 3d6e 1945 8372 eb3f ecff 2299 8773 e03f
00000220: 3d6e 1945 8372 eb3f ecff 2299 8773 e03f
00000230: dc2d c656 419f ee3f 069f d52e 0694 d23f
00000240: a2ec 8c34 697d e5bf aeaf 6a22 dfb5 e7bf
00000250: 4287 f347 e0b3 e93f 3470 e1fc f70f e33f
00000260: d61d 0925 f34c e43f 4117 156b 80bc e8bf
00000270: 079f d52e 0694 d2bf db2d c656 419f eebf
00000280: 13d8 0df1 651f a9bf 7f6d 79e3 21f6 ef3f
00000290: 3d6e 1945 8372 eb3f ecff 2299 8773 e03f
000002a0: 3570 e1fc f70f e33f 4187 f347 e0b3 e93f
000002b0: d61d 0925 f34c e43f 4117 156b 80bc e8bf
000002c0: e486 f604 2121 eebf e21f ab75 9a8f d53f
000002d0: 4287 f347 e0b3 e93f 3370 e1fc f70f e3bf
000002e0: 07b4 29bc a617 b93f 2525 d1a3 8dd8 efbf
000002f0: c868 ae39 3bc7 e13f a3a1 0e29 669b ea3f
00000300: d41d 0925 f34c e4bf 4317 156b 80bc e83f
00000310: 70c7 3cf4 7aed ec3f c85c e109 105d dbbf
00000320: 4417 156b 80bc e8bf d41d 0925 f34c e4bf
00000330: cb3b 7f66 9ea0 e63f ce3b 7f66 9ea0 e6bf
00000340: 3470 e1fc f70f e3bf 4287 f347 e0b3 e93f
00000350: a4a1 0e29 669b ea3f c868 ae39 3bc7 e13f
00000360: 16a5 087f 55a7 efbf 3461 8e6e 10c8 c2bf
00000370: a0ec 8c34 697d e53f b0af 6a22 dfb5 e73f
00000380: aeaf 6a22 dfb5 e7bf a1ec 8c34 697d e53f
00000390: a0ec 8c34 697d e53f b0af 6a22 dfb5 e73f
000003a0: c75c e109 105d dbbf 70c7 3cf4 7aed ecbf
000003b0: 62a9 aea6 e27d d8bf 468d 32cf 6b90 ed3f
000003c0: c75c e109 105d dbbf 70c7 3cf4 7aed ecbf
000003d0: a3a1 0e29 669b ea3f c868 ae39 3bc7 e1bf
000003e0: ce3b 7f66 9ea0 e6bf cc3b 7f66 9ea0 e6bf
000003f0: dc2d c656 419f eebf 069f d52e 0694 d23f
00000400: ebff 2299 8773 e03f 3e6e 1945 8372 ebbf
00000410: 3470 e1fc f70f e3bf 4287 f347 e0b3 e93f
00000420: 09a6 693c b8f8 c8bf b15c f7cf 9762 ef3f
00000430: 4417 156b 80bc e8bf d41d 0925 f34c e4bf
00000440: 075c 1433 26a6 913c 0000 0000 0000 f03f
00000450: b0bd 80f1 b238 ecbf 3af6 0638 5d2b debf
00000460: 3c6e 1945 8372 eb3f eeff 2299 8773 e0bf
00000470: 0a8a 9e4c 3979 aabc 0000 0000 0000 f0bf
00000480: c468 ae39 3bc7 e13f a5a1 0e29 669b eabf
00000490: a3a1 0e29 669b ea3f c868 ae39 3bc7 e1bf
000004a0: 3e17 156b 80bc e83f d91d 0925 f34c e4bf
000004b0: b05c f7cf 9762 efbf 0fa6 693c b8f8 c8bf
000004c0: 3570 e1fc f70f e33f 4187 f347 e0b3 e93f
000004d0: c868 ae39 3bc7 e13f a3a1 0e29 669b ea3f
000004e0: b1af 6a22 dfb5 e73f 9fec 8c34 697d e53f
000004f0: 2f70 e1fc f70f e33f 4587 f347 e0b3 e9bf
00000500: 2425 d1a3 8dd8 efbf 3db4 29bc a617 b93f
00000510: 4217 156b 80bc e83f d51d 0925 f34c e43f
00000520: b0af 6a22 dfb5 e7bf a0ec 8c34 697d e5bf
00000530: 72c7 3cf4 7aed ecbf bf5c e109 105d db3f
00000540: 0da6 693c b8f8 c83f b15c f7cf 9762 ef3f
00000550: 2f70 e1fc f70f e33f 4587 f347 e0b3 e9bf
00000560: 3370 e1fc f70f e3bf 4387 f347 e0b3 e9bf
00000570: c25c e109 105d db3f 72c7 3cf4 7aed ecbf
00000580: a0ec 8c34 697d e5bf afaf 6a22 dfb5 e73f
00000590: 3470 e1fc f70f e3bf 4287 f347 e0b3 e93f
000005a0: 175f 217b f919 cf3f d930 92fb 7e0a efbf
000005b0: 21b4 29bc a617 b9bf 2425 d1a3 8dd8 efbf
000005c0: cc3b 7f66 9ea0 e6bf ce3b 7f66 9ea0 e63f
000005d0: adaf 6a22 dfb5 e73f a2ec 8c34 697d e5bf
000005e0: eeff 2299 8773 e0bf 3c6e 1945 8372 ebbf
000005f0: 2425 d1a3 8dd8 ef3f 2cb4 29bc a617 b93f
00000600: ce3b 7f66 9ea0 e63f cd3b 7f66 9ea0 e63f
00000610: 2425 d1a3 8dd8 ef3f 2cb4 29bc a617 b93f
00000620: 3370 e1fc f70f e3bf 4387 f347 e0b3 e9bf
00000630: 458d 32cf 6b90 edbf 65a9 aea6 e27d d83f
00000640: 7e6d 79e3 21f6 efbf 0ed8 0df1 651f a93f
00000650: c568 ae39 3bc7 e1bf a5a1 0e29 669b ea3f
00000660: d61d 0925 f34c e43f 4117 156b 80bc e8bf
00000670: aeaf 6a22 dfb5 e7bf a1ec 8c34 697d e53f
00000680: d830 92fb 7e0a ef3f 1c5f 217b f919 cf3f
00000690: 7e6d 79e3 21f6 efbf 0ed8 0df1 651f a93f
000006a0: 09a6 693c b8f8 c8bf b15c f7cf 9762 ef3f
000006b0: 4217 156b 80bc e83f d51d 0925 f34c e43f
000006c0: 019f d52e 0694 d23f dc2d c656 419f eebf
000006d0: 9fec 8c34 697d e53f b0af 6a22 dfb5 e7bf
000006e0: 30b4 29bc a617 b9bf 2425 d1a3 8dd8 ef3f
000006f0: 2f70 e1fc f70f e33f 4587 f347 e0b3 e9bf
00000700: 458d 32cf 6b90 edbf 65a9 aea6 e27d d83f
00000710: cb3b 7f66 9ea0 e63f ce3b 7f66 9ea0 e6bf
00000720: 4417 156b 80bc e8bf d41d 0925 f34c e4bf
00000730: 4217 156b 80bc e83f d51d 0925 f34c e43f
00000740: a0ec 8c34 697d e53f b0af 6a22 dfb5 e73f
00000750: 458d 32cf 6b90 edbf 65a9 aea6 e27d d83f
00000760: 4087 f347 e0b3 e9bf 3570 e1fc f70f e33f
00000770: 4217 156b 80bc e8bf d51d 0925 f34c e43f
00000780: a4a1 0e29 669b ea3f c868 ae39 3bc7 e13f
00000790: 7f6d 79e3 21f6 ef3f 1fd8 0df1 651f a9bf
000007a0: 3e17 156b 80bc e83f d91d 0925 f34c e4bf
000007b0: 3e6e 1945 8372 ebbf ecff 2299 8773 e0bf
000007c0: c568 ae39 3bc7 e1bf a5a1 0e29 669b ea3f
000007d0: a5a1 0e29 669b eabf c568 ae39 3bc7 e1bf
000007e0: e586 f604 2121 ee3f de1f ab75 9a8f d53f
000007f0: b0bd 80f1 b238 ecbf 3af6 0638 5d2b debf
0.7071067811865477 0.7071067811865476 -0.7071067811865477 -0.7071067811865475 -1.8369701987210297e-16 -1.0 -0.7730104533627371 0.6343932841636454
0.956940335732209 0.2902846772544624 -0.740951125354959 0.6715589548470186 0.5956993044924334 0.8032075314806449 0.7409511253549589 -0.6715589548470187
0.5555702330196022 0.8314696123025452 -0.47139673682599786 -0.8819212643483547 -0.5555702330196018 0.8314696123025455 0.803207531480645 -0.5956993044924331
0.5555702330196017 -0.8314696123025455 -0.803207531480645 -0.5956993044924332 0.7730104533627371 0.6343932841636454 0.8819212643483548 0.4713967368259976
-0.9891765099647809 -0.14673047445536158 -0.3826834323650897 0.9238795325112867 0.5956993044924334 0.8032075314806449 0.5956993044924334 0.8032075314806449
-0.7409511253549592 -0.6715589548470184 -0.33688985339222 -0.9415440651830208 -0.9415440651830207 0.33688985339222033 -0.7409511253549592 -0.6715589548470184
-0.29028467725446244 -0.9569403357322089 -0.6343932841636453 0.7730104533627372 -0.9238795325112866 0.3826834323650899 0.5956993044924327 -0.8032075314806454
0.9891765099647808 -0.1467304744553624 0.7071067811865474 -0.7071067811865477 -0.7071067811865475 0.7071067811865477 -0.7071067811865475 0.7071067811865477
1.0 0.0 0.857728610000272 0.5141027441932216 0.857728610000272 0.5141027441932216 0.956940335732209 0.2902846772544624
-0.6715589548470187 -0.740951125354959 0.803207531480645 0.5956993044924332 0.6343932841636455 -0.773010453362737 -0.29028467725446244 -0.9569403357322089
-0.04906767432741801 0.9987954562051725 0.857728610000272 0.5141027441932216 0.5956993044924334 0.8032075314806449 0.6343932841636455 -0.773010453362737
-0.9415440651830207 0.33688985339222033 0.803207531480645 -0.5956993044924331 0.09801714032956009 -0.9951847266721968 0.5555702330196022 0.8314696123025452
-0.6343932841636453 0.7730104533627372 0.903989293123443 -0.42755509343028253 -0.7730104533627373 -0.6343932841636453 0.7071067811865474 -0.7071067811865477
-0.5956993044924332 0.803207531480645 0.8314696123025453 0.5555702330196022 -0.9891765099647809 -0.14673047445536158 0.6715589548470184 0.7409511253549592
-0.740951125354959 0.6715589548470186 0.6715589548470184 0.7409511253549592 -0.4275550934302825 -0.903989293123443 -0.3826834323650897 0.9238795325112867
-0.4275550934302825 -0.903989293123443 0.8314696123025452 -0.5555702330196022 -0.7071067811865477 -0.7071067811865475 -0.956940335732209 0.2902846772544624
0.5141027441932214 -0.8577286100002721 -0.5956993044924332 0.803207531480645 -0.19509032201612822 0.9807852804032305 -0.7730104533627373 -0.6343932841636453
6.123233995736766e-17 1.0 -0.8819212643483549 -0.4713967368259976 0.8577286100002719 -0.5141027441932218 -1.8369701987210297e-16 -1.0
0.5555702330196017 -0.8314696123025455 0.8314696123025452 -0.5555702330196022 0.7730104533627367 -0.6343932841636458 -0.9807852804032304 -0.1950903220161284
0.5956993044924334 0.8032075314806449 0.5555702330196022 0.8314696123025452 0.7409511253549593 0.6715589548470183 0.5956993044924327 -0.8032075314806454
-0.9951847266721967 0.09801714032956084 0.7730104533627371 0.6343932841636454 -0.7409511253549592 -0.6715589548470184 -0.9039892931234432 0.42755509343028203
0.19509032201612833 0.9807852804032305 0.5956993044924327 -0.8032075314806454 -0.5956993044924331 -0.8032075314806452 0.4275550934302822 -0.9039892931234432
-0.6715589548470184 0.7409511253549591 -0.5956993044924332 0.803207531480645 0.2429801799032638 -0.9700312531945442 -0.09801714032956045 -0.9951847266721967
-0.7071067811865475 0.7071067811865477 0.7409511253549589 -0.6715589548470187 -0.5141027441932218 -0.8577286100002719 0.9951847266721967 0.0980171403295606
0.7071067811865477 0.7071067811865476 0.9951847266721967 0.0980171403295606 -0.5956993044924331 -0.8032075314806452 -0.9238795325112866 0.3826834323650899
-0.9987954562051724 0.04906767432741797 -0.5555702330196018 0.8314696123025455 0.6343932841636455 -0.773010453362737 -0.740951125354959 0.6715589548470186
0.9700312531945441 0.24298017990326393 -0.9987954562051724 0.04906767432741797 -0.19509032201612822 0.9807852804032305 0.7730104533627371 0.6343932841636454
0.2902846772544621 -0.956940335732209 0.6715589548470183 -0.7409511253549592 -0.09801714032956066 0.9951847266721967 0.5956993044924327 -0.8032075314806454
-0.9238795325112866 0.3826834323650899 0.7071067811865474 -0.7071067811865477 -0.7730104533627373 -0.6343932841636453 0.7730104533627371 0.6343932841636454
0.6715589548470184 0.7409511253549592 -0.9238795325112866 0.3826834323650899 -0.8032075314806448 0.5956993044924334 -0.7730104533627371 0.6343932841636454
0.8314696123025453 0.5555702330196022 0.9987954562051725 -0.04906767432741809 0.7730104533627367 -0.6343932841636458 -0.8577286100002721 -0.5141027441932216
-0.5555702330196018 0.8314696123025455 -0.8314696123025455 -0.5555702330196018 0.9415440651830208 0.3368898533922201 -0.8819212643483549 -0.4713967368259976

bias f8 [512]
00000000: b81e 85eb 51b8 f63f b81e 85eb 51b8 f63f
00000010: 14ae 47e1 7a54 e03f f428 5c8f c275 d23f
00000020: e07a 14ae 47e1 e3bf c01e 85eb 51b8 96bf
00000030: c4f5 285c 8f02 e6bf 6066 6666 6666 bcbf
00000040: 6866 6666 6666 ecbf 52b8 1e85 ebd1 dd3f
00000050: f428 5c8f c275 d23f 6066 6666 6666 bc3f
00000060: 0000 0000 00c0 e13f 85eb 51b8 1e65 f13f
00000070: f428 5c8f c275 d2bf 3c0a d7a3 703d dfbf
00000080: 9999 9999 99d9 e83f 14ae 47e1 7a54 e0bf
00000090: 90c2 f528 5c8f e9bf ec51 b81e 852b e3bf
000000a0: 6666 6666 6686 f33f 47e1 7a14 ae87 ee3f
000000b0: 0000 0000 0000 0080 b81e 85eb 51b8 c63f
000000c0: f428 5c8f c275 d23f ec51 b81e 852b e3bf
000000d0: 6866 6666 6666 cc3f 7c14 ae47 e1fa dabf
000000e0: ac47 e17a 146e e7bf e07a 14ae 47e1 c33f
000000f0: 0000 0000 0000 0080 e07a 14ae 47e1 c33f
00000100: 400a d7a3 703d cfbf 703d 0ad7 a3b0 ebbf
00000110: e07a 14ae 47e1 e3bf b81e 85eb 51b8 e6bf
00000120: 14ae 47e1 7a54 e03f 9899 9999 99d9 e8bf
00000130: e07a 14ae 47e1 d33f 85eb 51b8 1e45 ea3f
00000140: d8a3 703d 0a97 e4bf 48e1 7a14 ae87 eebf
00000150: a470 3d0a d723 e8bf e07a 14ae 47e1 c33f
00000160: 6066 6666 6666 bc3f 90c2 f528 5c8f d9bf
00000170: 08d7 a370 3d0a d13f 48e1 7a14 ae87 eebf
00000180: 0000 0000 0000 0080 e07a 14ae 47e1 d3bf
00000190: d7a3 703d 0a97 f43f eb51 b81e 852b e33f
000001a0: 3c0a d7a3 703d df3f b81e 85eb 51b8 e6bf
000001b0: 6866 6666 6666 cc3f 6866 6666 6666 ecbf
000001c0: 10d7 a370 3d0a b1bf 6066 6666 6666 bcbf
000001d0: a470 3d0a d723 d83f 400a d7a3 703d cfbf
000001e0: 0ad7 a370 3d0a e13f e07a 14ae 47e1 c33f
000001f0: eb51 b81e 852b e33f 0ad7 a370 3d0a e13f
00000200: c01e 85eb 51b8 96bf 6066 6666 6666 bcbf
00000210: 6066 6666 6666 bcbf f628 5c8f c275 f23f
00000220: 7c14 ae47 e1fa dabf 0000 0000 00c0 e13f
00000230: 08d7 a370 3d0a d13f 6066 6666 6666 bc3f
00000240: f428 5c8f c275 d23f f428 5c8f c275 d2bf
00000250: c01e 85eb 51b8 b6bf cccc cccc cc4c d53f
00000260: d8a3 703d 0a97 e4bf 7c14 ae47 e1fa eabf
00000270: 400a d7a3 703d cfbf 400a d7a3 703d cfbf
00000280: 7a14 ae47 e1fa ea3f b81e 85eb 51b8 d6bf
00000290: 6666 6666 6666 dc3f 6066 6666 6666 bc3f
000002a0: 3433 3333 33f3 efbf f628 5c8f c275 e23f
000002b0: 0000 0000 00c0 e13f 08d7 a370 3d0a c13f
000002c0: 6666 6666 6666 dc3f e07a 14ae 47e1 c33f
000002d0: d7a3 703d 0a97 e43f e17a 14ae 47e1 e33f
000002e0: 90c2 f528 5c8f c9bf e07a 14ae 47e1 c3bf
000002f0: 3333 3333 33f3 ef3f 08d7 a370 3d0a c1bf
00000300: 84eb 51b8 1e45 eabf 7c14 ae47 e1fa eabf
00000310: b81e 85eb 51b8 e63f f428 5c8f c275 d23f
00000320: e07a 14ae 47e1 d33f 0000 0000 0000 0080
00000330: b81e 85eb 51b8 d63f 6666 6666 6666 dc3f
00000340: a470 3d0a d723 e8bf 0ad7 a370 3d0a e13f
00000350: f428 5c8f c275 d2bf cccc cccc cc4c f5bf
00000360: a470 3d0a d723 e83f 90c2 f528 5c8f d93f
00000370: 0000 0000 0000 0080 e07a 14ae 47e1 c33f
00000380: 7a14 ae47 e1fa da3f 90c2 f528 5c8f c9bf
00000390: 14ae 47e1 7a54 e03f 90c2 f528 5caf f0bf
000003a0: c4f5 285c 8f02 e6bf 6066 6666 6666 bcbf
000003b0: 10d7 a370 3d0a b1bf c01e 85eb 51b8 a63f
000003c0: 84eb 51b8 1e45 eabf c4f5 285c 8f02 e6bf
000003d0: cccc cccc cc4c d5bf cccc cccc cc4c e53f
000003e0: c01e 85eb 51b8 b6bf f628 5c8f c275 e23f
000003f0: 6866 6666 6666 ecbf a470 3d0a d723 e83f
00000400: c01e 85eb 51b8 b63f c01e 85eb 51b8 963f
00000410: 10d7 a370 3d0a b1bf e07a 14ae 47e1 c33f
00000420: 90c2 f528 5c8f d93f 10d7 a370 3d0a b1bf
00000430: b81e 85eb 51b8 e63f f428 5c8f c275 d2bf
00000440: e07a 14ae 47e1 e3bf 08d7 a370 3d0a d1bf
00000450: 5c8f c2f5 281c edbf 7a14 ae47 e1fa ea3f
00000460: 400a d7a3 703d cfbf 50b8 1e85 ebd1 ddbf
00000470: 14ae 47e1 7a54 f0bf 0ad7 a370 3d0a e1bf
00000480: cccc cccc cc4c d53f c01e 85eb 51b8 b63f
00000490: e17a 14ae 47e1 f33f 5c8f c2f5 281c ed3f
000004a0: 14ae 47e1 7a54 e03f 5c8f c2f5 281c edbf
000004b0: 3c0a d7a3 703d df3f 7c14 ae47 e1fa dabf
000004c0: e07a 14ae 47e1 d3bf 6666 6666 6666 dc3f
000004d0: 8fc2 f528 5c8f e93f b81e 85eb 51b8 e63f
000004e0: 90c2 f528 5c8f d93f cccc cccc cc4c d53f
000004f0: 0000 0000 00c0 e1bf f428 5c8f c275 d2bf
00000500: b81e 85eb 51b8 c63f eb51 b81e 852b e33f
00000510: c01e 85eb 51b8 b63f e07a 14ae 47e1 c3bf
00000520: 0000 0000 0000 0080 eb51 b81e 852b e33f
00000530: 400a d7a3 703d cf3f 8fc2 f528 5c8f e93f
00000540: 0000 0000 00c0 e1bf 9899 9999 99d9 e8bf
00000550: 6666 6666 6666 ec3f 7a14 ae47 e11a f2bf
00000560: 50b8 1e85 ebd1 ddbf 50b8 1e85 ebd1 ddbf
00000570: e07a 14ae 47e1 e3bf 14ae 47e1 7a54 e03f
00000580: e07a 14ae 47e1 c3bf 400a d7a3 703d cfbf
00000590: e07a 14ae 47e1 c3bf 08d7 a370 3d0a d1bf
000005a0: e17a 14ae 47e1 e33f b81e 85eb 51b8 e63f
000005b0: d7a3 703d 0a97 e43f 0000 0000 00c0 f13f
000005c0: e07a 14ae 47e1 c33f 90c2 f528 5c8f d93f
000005d0: 6866 6666 6666 dcbf 6866 6666 6666 ccbf
000005e0: 400a d7a3 703d cf3f 52b8 1e85 ebd1 ed3f
000005f0: ac47 e17a 146e e7bf 08d7 a370 3d0a c13f
00000600: c01e 85eb 51b8 b6bf c01e 85eb 51b8 a63f
00000610: 08d7 a370 3d0a c13f 0000 0000 0000 0080
00000620: 9899 9999 99d9 e8bf 6866 6666 6666 ccbf
00000630: c2f5 285c 8f02 e63f 52b8 1e85 ebd1 dd3f
00000640: ec51 b81e 852b f3bf 10d7 a370 3d0a b13f
00000650: 14ae 47e1 7a54 e03f 0000 0000 00c0 e13f
00000660: cccc cccc cc4c e53f 3c0a d7a3 703d df3f
00000670: 90c2 f528 5c8f d93f 0000 0000 00c0 f13f
00000680: e07a 14ae 47e1 d33f 6066 6666 6666 bc3f
00000690: c01e 85eb 51b8 b63f cccc cccc cc4c e5bf
000006a0: 52b8 1e85 ebd1 ed3f 6066 6666 6666 bc3f
000006b0: 0000 0000 0000 0080 a470 3d0a d723 d83f
000006c0: 08d7 a370 3d0a c1bf 6866 6666 6666 cc3f
000006d0: c01e 85eb 51b8 96bf 10d7 a370 3d0a b13f
000006e0: a470 3d0a d723 e8bf cccc cccc cc4c e53f
000006f0: ae47 e17a 146e e73f e07a 14ae 47e1 c3bf
00000700: f628 5c8f c275 e2bf e07a 14ae 47e1 e3bf
00000710: cccc cccc cc4c d53f f628 5c8f c275 e23f
00000720: d8a3 703d 0a97 e4bf 6866 6666 6666 cc3f
00000730: cccc cccc cc4c d53f 85eb 51b8 1e45 ea3f
00000740: 3c0a d7a3 703d efbf 3c0a d7a3 703d dfbf
00000750: a470 3d0a d723 e8bf 47e1 7a14 ae87 ee3f
00000760: 7a14 ae47 e1fa da3f e07a 14ae 47e1 c3bf
00000770: e07a 14ae 47e1 c33f 703d 0ad7 a3b0 eb3f
00000780: 8fc2 f528 5c8f e93f 0000 0000 00c0 e13f
00000790: 0000 0000 00c0 e13f b81e 85eb 51b8 c6bf
000007a0: 0000 0000 0000 0080 c01e 85eb 51b8 a6bf
000007b0: c01e 85eb 51b8 963f 90c2 f528 5c8f e9bf
000007c0: c01e 85eb 51b8 a6bf c01e 85eb 51b8 b6bf
000007d0: 400a d7a3 703d cfbf 08d7 a370 3d0a c13f
000007e0: 0000 0000 00c0 f13f 7c14 ae47 e1fa eabf
000007f0: e07a 14ae 47e1 e3bf 90c2 f528 5c8f d93f
1.42 1.42 0.5103125 0.2884374999999999 -0.6212499999999999 -0.022187500000000027 -0.6878125000000002 -0.11093749999999991
-0.8875000000000002 0.4659375 0.2884374999999999 0.11093749999999991 0.5546875 1.0871875 -0.2884374999999999 -0.4881249999999999
0.7765624999999999 -0.5103125 -0.7987500000000001 -0.5990625 1.2203125 0.9540624999999999 -0.0 0.1775
0.2884374999999999 -0.5990625 0.22187500000000004 -0.42156250000000006 -0.7321874999999998 0.15531249999999996 -0.0 0.15531249999999996
-0.24406250000000007 -0.8653124999999999 -0.6212499999999999 -0.71 0.5103125 -0.7765624999999998 0.31062499999999993 0.8209375
-0.6434375000000001 -0.9540625 -0.754375 0.15531249999999996 0.11093749999999991 -0.39937500000000004 0.2662499999999999 -0.9540625
-0.0 -0.31062499999999993 1.286875 0.5990624999999999 0.4881249999999999 -0.71 0.22187500000000004 -0.8875000000000002
-0.06656250000000008 -0.11093749999999991 0.3771875 -0.24406250000000007 0.5325 0.15531249999999996 0.5990624999999999 0.5325
-0.022187500000000027 -0.11093749999999991 -0.11093749999999991 1.15375 -0.42156250000000006 0.5546875 0.2662499999999999 0.11093749999999991
0.2884374999999999 -0.2884374999999999 -0.0887500000000001 0.33281249999999996 -0.6434375000000001 -0.8431250000000001 -0.24406250000000007 -0.24406250000000007
0.8431249999999999 -0.355 0.44375 0.11093749999999991 -0.9984375000000001 0.576875 0.5546875 0.13312499999999994
0.44375 0.15531249999999996 0.6434375 0.62125 -0.19968750000000002 -0.15531249999999996 0.9984375 -0.13312499999999994
-0.8209374999999999 -0.8431250000000001 0.71 0.2884374999999999 0.31062499999999993 -0.0 0.355 0.44375
-0.754375 0.5325 -0.2884374999999999 -1.3312499999999998 0.754375 0.39937500000000004 -0.0 0.15531249999999996
0.42156249999999995 -0.19968750000000002 0.5103125 -1.0428125000000001 -0.6878125000000002 -0.11093749999999991 -0.06656250000000008 0.04437500000000005
-0.8209374999999999 -0.6878125000000002 -0.33281249999999996 0.6656249999999999 -0.0887500000000001 0.576875 -0.8875000000000002 0.754375
0.0887500000000001 0.022187500000000027 -0.06656250000000008 0.15531249999999996 0.39937500000000004 -0.06656250000000008 0.71 -0.2884374999999999
-0.6212499999999999 -0.2662499999999999 -0.9096875 0.8431249999999999 -0.24406250000000007 -0.4659374999999999 -1.020625 -0.5325
0.33281249999999996 0.0887500000000001 1.2425 0.9096875 0.5103125 -0.9096875 0.4881249999999999 -0.42156250000000006
-0.31062499999999993 0.44375 0.79875 0.71 0.39937500000000004 0.33281249999999996 -0.5546875 -0.2884374999999999
0.1775 0.5990624999999999 0.0887500000000001 -0.15531249999999996 -0.0 0.5990624999999999 0.24406250000000007 0.79875
-0.5546875 -0.7765624999999998 0.8875 -1.1315624999999998 -0.4659374999999999 -0.4659374999999999 -0.6212499999999999 0.5103125
-0.15531249999999996 -0.24406250000000007 -0.15531249999999996 -0.2662499999999999 0.62125 0.71 0.6434375 1.109375
0.15531249999999996 0.39937500000000004 -0.4437500000000001 -0.22187500000000004 0.24406250000000007 0.931875 -0.7321874999999998 0.13312499999999994
-0.0887500000000001 0.04437500000000005 0.13312499999999994 -0.0 -0.7765624999999998 -0.22187500000000004 0.6878124999999999 0.4659375
-1.198125 0.06656250000000008 0.5103125 0.5546875 0.6656249999999999 0.4881249999999999 0.39937500000000004 1.109375
0.31062499999999993 0.11093749999999991 0.0887500000000001 -0.6656249999999999 0.931875 0.11093749999999991 -0.0 0.3771875
-0.13312499999999994 0.22187500000000004 -0.022187500000000027 0.06656250000000008 -0.754375 0.6656249999999999 0.7321875 -0.15531249999999996
-0.576875 -0.6212499999999999 0.33281249999999996 0.576875 -0.6434375000000001 0.22187500000000004 0.33281249999999996 0.8209375
-0.9762499999999998 -0.4881249999999999 -0.754375 0.9540624999999999 0.42156249999999995 -0.15531249999999996 0.15531249999999996 0.8653124999999999
0.79875 0.5546875 0.5546875 -0.1775 -0.0 -0.04437500000000005 0.022187500000000027 -0.7987500000000001
-0.04437500000000005 -0.0887500000000001 -0.24406250000000007 0.13312499999999994 1.109375 -0.8431250000000001 -0.6212499999999999 0.39937500000000004

weight f8 [1, 512]
00000000: 9bd4 067c 7370 e2bf 823e 5c89 b9c1 b4bf
00000010: 5073 9d29 acc1 713f be4d 1fa9 d53a a1bf
00000020: 8027 1bd2 e62f 72bf c906 df57 c29d c1bf
00000030: ceee 1abd a5df b3bf 62da c042 ec10 c4bf
00000040: 44fd 9044 368e acbf f177 e376 652c 94bf
00000050: 08aa f4fd 5081 9e3f 5f61 1f7a 5929 aabf
00000060: cfb1 f290 7bbf b33f 6e58 1ae6 4892 a73f
00000070: 283b 577c f00a ad3f 8208 b1e9 0959 80bf
00000080: 4097 c46b 995a 4ebf e0c6 dc43 ed3f 6cbf
00000090: 4c45 79b7 d8b6 b4bf 5918 43e5 d733 b4bf
000000a0: ed81 bf18 fe6d be3f 4855 70cd f948 73bf
000000b0: 6092 936c e2cd 463f 0a80 aa8c d1b4 bf3f
000000c0: 729e 643d 14d6 86bf edac ff45 50ba bd3f
000000d0: a054 303d 62bb 6ebf 58d3 6cfc d0c4 bf3f
000000e0: 7ec9 495d 6fd9 89bf 0157 b8fa 7c2e b7bf
000000f0: 54b8 fcd0 3058 b7bf 0252 f526 24ab b6bf
00000100: 0023 9d0d 8ae2 1b3f 7baf fb95 540e 91bf
00000110: 6841 dec2 4280 9abf 4070 a0a3 6a0c 48bf
00000120: 8f1c 88b4 ace6 98bf 04e7 ec41 b810 8cbf
00000130: 28bd 66b0 e12c 93bf a831 6bda 86e9 6d3f
00000140: 0468 b824 2c45 883f 9f7a 3bee dcbc 87bf
00000150: c851 4dab efa2 b5bf 3059 2d8a 393d a3bf
00000160: 2091 ef8c fdb7 4dbf 9c79 d73a 2ed9 9dbf
00000170: 24b6 418c 2fc5 7c3f 9cb4 1dc0 f37f a9bf
00000180: 404f 90e0 6ed5 9cbf a07f 64b1 1185 57bf
00000190: 3471 cebd 139e c33f cad5 fd26 f8a1 c03f
000001a0: d287 2ef0 6f86 cc3f fe13 eab9 c2c1 90bf
000001b0: a8c0 2dbf 02ee 62bf 36f3 346a f622 a6bf
000001c0: 9e83 ea15 212f c0bf 41ec f296 631d c93f
000001d0: cbfe e102 5460 8ebf 006a a413 3adc 4f3f
000001e0: f336 74b6 6183 81bf 878a 447a 01b6 9ebf
000001f0: 4929 8f8f 9e61 a6bf 8049 1b3e 4a87 25bf
00000200: f4fc ed17 869d 89bf 54b5 349f 5439 86bf
00000210: 7486 6ebe deba 70bf 9286 3282 9530 b93f
00000220: 3427 5177 185e 753f 26b8 c76c c00b 85bf
00000230: dca8 25df 1c6a 8c3f e1d2 11f0 92ab 92bf
00000240: 7423 17d7 8fe5 88bf cc8c 7a44 3eeb 91bf
00000250: f450 7b76 03bb b4bf 908b 2e0e 62b0 41bf
00000260: 7e82 012e 5d7b b3bf 8001 a634 a9ce aabf
00000270: 740f 8ec3 db4f b53f 2e39 45b1 d42c 8e3f
00000280: a03e 2eb0 13d1 56bf 9acb 90fd 19e9 863f
00000290: bc60 8ac7 39eb a7bf 2039 4a68 20c9 583f
000002a0: 5101 4fab b71e 93bf cef4 cbaf fd98 b03f
000002b0: bb4b d294 ea45 b3bf d89e d8e4 59b6 80bf
000002c0: 7a4b 9908 ae1d c33f 2ec9 5194 edff 90bf
000002d0: f682 063f 505c 893f b8f2 fcb3 f0e4 853f
000002e0: 3846 cdf6 1630 b4bf 97ff 1727 2ef5 b6bf
000002f0: 9a02 fd53 06d8 9ebf 08d0 8909 b5cf 74bf
00000300: ae94 cde9 2ffe b3bf a089 53ac d8f2 623f
00000310: 9466 8b75 0f3b b5bf b02e b292 4983 7abf
00000320: 9051 7e55 2473 5dbf 1cb1 021b d70f 7dbf
00000330: d002 7d52 7dee 94bf 44f3 bf28 c83e a33f
00000340: 80ad 7fd3 3c67 48bf f015 2c05 150f 703f
00000350: f891 2e2b aeaf 693f 6728 77d3 c64b d03f
00000360: 489e 04fa 302c 74bf d9ea 4f63 c206 913f
00000370: dc85 5cd1 2ff4 8ebf 5011 a0f2 00fb 6f3f
00000380: 809c 167b 5fde 72bf d0a0 b951 3db9 aebf
00000390: 5bdb 193c 261e 94bf 0007 7285 9d5d 963f
000003a0: 1a1f 17bd 5683 b7bf de45 fc8f acb1 82bf
000003b0: 649f 6fd9 f232 a9bf 0073 bd10 162d a8bf
000003c0: 2e2d b06d 03a7 88bf 0050 051e 7ebf ea3e
000003d0: d481 bb2d 61c2 abbf 150a d883 4ebb 98bf
000003e0: 23a4 e084 5e99 9abf 348a 7cc5 8cc7 9cbf
000003f0: 78f2 a2e4 71fe 703f 40aa 509b 707f 6a3f
00000400: 9a25 9ebe 27be bdbf b67d 08ca 2c6b a1bf
00000410: 3ea9 09cb cd57 c93f b470 73fb ccb7 a8bf
00000420: ee0d 878c d125 60bf 4637 9702 2864 92bf
00000430: 6e85 f74a e03a ca3f 44a7 8ed0 0869 acbf
00000440: beed 9146 cdab 92bf 0278 079f 2364 93bf
00000450: 4556 c4e2 54a3 93bf 828e b8cc 3fb6 a1bf
00000460: 87a0 683e 1c0c 943f a015 bc2a 0468 763f
00000470: 66b4 9990 73dd 63bf d35d a787 2365 d03f
00000480: 8827 0baf 2239 86bf dc9f 6ee6 57a1 5ebf
00000490: 96e4 f255 4447 c43f b72f 391f abb2 aebf
000004a0: c91e ba74 6906 a5bf a0ae 1b8d 56e9 26bf
000004b0: e09f 9a9c c989 c83f 3301 18b3 5d77 93bf
000004c0: 0c99 5893 2c96 82bf 1013 ac68 2ad8 7fbf
000004d0: a0ce 9a80 8008 87bf f26e 374b 467b 92bf
000004e0: b0cd 2c51 c94b 6d3f b05c 62f6 014a 61bf
000004f0: e03c 3ca0 0717 a3bf 581b 293c be34 68bf
00000500: 70d6 5373 6581 973f 4785 570f f3eb 8cbf
00000510: bbce 96f5 3fa9 87bf 64d4 01aa a33c 8cbf
00000520: 1682 9cb1 b389 92bf aff4 e503 cf26 c73f
00000530: eaf6 fc1e ae1f 9c3f 083c e984 edb0 85bf
00000540: 8a62 f0c1 8fe3 8b3f bd39 1121 5a03 94bf
00000550: 73f3 30c1 8863 83bf 2286 9711 869f 973f
00000560: e0e5 0294 d633 34bf 6064 14ea 9761 523f
00000570: 9025 2ef6 1b92 623f 4a08 2228 5101 8bbf
00000580: 3f78 fd61 4a4e b53f b82e ff7c ab2a 7b3f
00000590: 9ac7 8f52 7d43 a1bf d06a dc8f 6d27 903f
000005a0: f018 d708 bacf 73bf a03e 09ec 181a 69bf
000005b0: b736 c23d 1310 b5bf 1aa6 fe3e a74f 973f
000005c0: d968 0e7e 0565 973f a0c1 48e6 c6e8 463f
000005d0: 7a7d 2bcf f38f ae3f 3879 bd13 2cb6 72bf
000005e0: 0000 b3df 8d46 fdbe 008f c979 63d8 5c3f
000005f0: 689b fd8f 0a28 b5bf de39 6452 69a7 9bbf
00000600: 8ccf 9b58 f44c 7fbf 2ab0 9674 4b54 68bf
00000610: 6033 611c 0207 c2bf 34b4 eb57 5701 96bf
00000620: 7cb0 4603 fa4d b6bf 0ced 124a 9e09 b93f
00000630: 06fb 199a dea2 79bf de52 e32c 7744 84bf
00000640: 6748 4fc9 39a8 b43f 5ea2 e377 7275 b5bf
00000650: 402c 42b7 ef72 ba3f a7b9 1c5e ef10 b1bf
00000660: 1847 683c 488d 793f 9675 4cb9 d726 acbf
00000670: b6bd a03a 7844 96bf 1a44 6c66 0e12 a13f
00000680: 77ec 51ff a23b 81bf 5a08 7508 521a a6bf
00000690: d0f2 f3b2 4e74 b6bf 478b 6ff6 3aba b2bf
000006a0: ef9c d23c 28b1 a1bf f088 6806 7609 70bf
000006b0: 248c a165 c8f2 74bf 6e5d ffea ffaa a03f
000006c0: b82c 5916 34e0 90bf 9fd3 f20f a7a4 a2bf
000006d0: 609a 60f1 baef b6bf 5071 6268 4a96 95bf
000006e0: 8062 fcf1 a356 b3bf 3e34 4e28 98d2 a1bf
000006f0: 1679 dc59 bebc 97bf 72b2 3000 a611 c13f
00000700: 6f30 d69a 4aa4 c13f 36b0 f2cc fc43 b4bf
00000710: ee45 80f2 71d3 9d3f a00f aa7f 947c b4bf
00000720: c09b 2a1e 3182 4ebf 6efa 9a4b f3b9 a13f
00000730: c430 fa91 4916 5abf 885c cd42 20f2 aabf
00000740: fa3e b40c a60b a1bf 0004 d0f6 7697 033f
00000750: a07c 4314 f141 593f 90d5 a54d 7a9b 753f
00000760: 7e34 4f3d 6928 8abf 2ab9 b117 b83e 97bf
00000770: 5e11 90b3 d52a 92bf 4d3c f7e9 3d38 aebf
00000780: e23f 5631 830c 98bf 6806 446b 2f0c b93f
00000790: f277 aed0 7d45 a33f 6db5 996c 6a4c b9bf
000007a0: 67fc 0468 7e90 babf 4f9f f07b a621 c1bf
000007b0: 47f5 d5e9 fe45 60bf b6d5 88e0 41c2 6d3f
000007c0: 9d01 ca26 2d87 a6bf 84cd 0c74 7524 8ebf
000007d0: 3406 75d2 778d 98bf e678 55ec 2469 a9bf
000007e0: cb5c 1b6a edba a53f 4077 f9cf f740 94bf
000007f0: 2f6a 751c d806 92bf ae73 7e1e c173 973f
-0.5762269422908902 -0.08108100513003971 0.004335091123576287 -0.033651997465905734 -0.004440213817085481 -0.1376269272860127 -0.07763133875681236 -0.15676644572677662
-0.05577249133102183 -0.01970060861719242 0.02979017782232954 -0.05109672179941315 0.07714054383058698 0.04603793915627895 0.056724085977853556 -0.00798232788486453
-0.0009263276220152564 -0.0034484514316311804 -0.08091501693094932 -0.07891606662005425 0.11886585334969597 -0.004708267012593588 0.0006959300600582578 0.12385282215336715
-0.011150510905806519 0.11612416943505695 -0.003751460908015661 0.12409692919466175 -0.012621755632811423 -0.09055310364814419 -0.09118943311907063 -0.08854890776758143
0.00010637252435431385 -0.01665622868942716 -0.02587990106946006 -0.0007339020442063207 -0.02431745387914624 -0.013703765403636499 -0.018725897208864556 0.003651393304016721
0.011850685949912794 -0.0115906963541737 -0.08451745922258802 -0.03757648288471882 -0.0009069431342792235 -0.029148790685093226 0.0070239884699794565 -0.04980432243505925
-0.02815793271663769 -0.0014355347426046952 0.15326163070575094 0.1299429121387859 0.22285269954323766 -0.016364138219177697 -0.0023107579849509126 -0.04323549314947288
-0.12643827028389593 0.19620938177635774 -0.014832168901420492 0.0009722980096598666 -0.008551371937325558 -0.029991171920424022 -0.043713526748961735 -0.00016424924165521146
-0.012507484059595765 -0.010851536854341738 -0.004084463208444345 0.09839758328100803 0.0052166896540002845 -0.010276320762354695 0.013874269065770432 -0.018232627775847447
-0.012156604529893512 -0.017498944215401477 -0.08097859995479323 -0.0005398253236886686 -0.07610113499823432 -0.05235794799500848 0.08324979328432197 0.014733945522178073
-0.00139262125660259 0.011186793375690663 -0.04671650467679586 0.001512796066126372 -0.01867186530194093 0.06483445684348796 -0.07528558858238814 -0.008160307213145243
0.1493432561861388 -0.016601288011267083 0.012383105204948102 0.010690575115967035 -0.07885879064021928 -0.08967865423619369 -0.03012094390510587 -0.005080897499841093
-0.07809733827669404 0.002313063802476381 -0.08293243999232863 -0.006472861666349125 -0.0017974715064826598 -0.007095184570214987 -0.020441015395820383 0.03758836266931678
-0.000744728756214938 0.003920633421107919 0.003135528729631295 0.254625040539969 -0.0049249566220975274 0.016627347289594894 -0.015114186836913505 0.0039038675795401226
-0.00460660264199142 -0.06000701544400189 -0.01964626066043294 0.021841489095556277 -0.09184782139265871 -0.009127948898398349 -0.04921683220146525 -0.04721898035379546
-0.012037302765767945 1.2754448960684839e-05 -0.054217373688291964 -0.024152018353570243 -0.025975682125281573 -0.0281049724136528 0.0041489075612700585 0.0032345961904145792
-0.11618278888467728 -0.034020805036785104 0.19799206174804768 -0.048277288145727765 -0.001971158290162248 -0.017960190923808093 0.2049217573212831 -0.05548884912361854
-0.018233497078183218 -0.018936688023920574 -0.019177748051410388 -0.034593576183650235 0.019577447232365344 0.005470291401939248 -0.0024249322057614984 0.2561730217689419
-0.010851164786249048 -0.0018695219421065367 0.1584248943015935 -0.05995688205857113 -0.04106454419985323 -0.00017480069669005994 0.19170494219474588 -0.01901003270722974
-0.009075496908803625 -0.00777451101271677 -0.011246684956268738 -0.018048380223134104 0.0035761768316661877 -0.0021104849175333715 -0.03728507834431993 -0.002954837372530699
0.022954545177489682 -0.014121912866303389 -0.011553287203106213 -0.013787535310465233 -0.01810341617158614 0.18087184610695803 0.027464600221029402 -0.010591369265197784
0.013617632967041677 -0.019544037121073766 -0.009467190166213979 0.023069472144817145 -0.0003082655785067983 0.0011219008959584484 0.0022669359327138275 -0.013186105763683415
0.08322586910569017 0.006632490039873033 -0.033718029335332037 0.015775405793742092 -0.004836775491133802 -0.003064201999485608 -0.08227653749255635 0.022764790744679166
0.022846303767075724 0.0006991358937451959 0.059692019500057605 -0.004568264175615781 -2.7919390032549174e-05 0.00176057543208058 -0.08264223113438407 -0.027005811361101688
-0.007641748883305054 -0.0029698823679691526 -0.14083887468077716 -0.021489491215948855 -0.0871273286817899 0.0978030138821177 -0.00625884012117584 -0.009896212632534537
0.08069192089831888 -0.08382335116369563 0.10331629013141796 -0.06666465804730724 0.006238252803557186 -0.054983846063105066 -0.02174556596599838 0.03334088325767244
-0.008414529244183051 -0.04316955903279114 -0.0877122103592669 -0.07315414921280904 -0.03455472700562178 -0.003915272746356488 -0.005114348221556351 0.03255462401983321
-0.016480268348726596 -0.036412449547618346 -0.08959549324991078 -0.02108112585175209 -0.07554077775820112 -0.0348098324967414 -0.023180937037175907 0.13335108765876985
0.13782627640137288 -0.07916240695584595 0.02912691156968166 -0.08002594105533811 -0.0009310474236671126 0.03462181375424654 -0.001592227788850529 -0.05262852492767772
-0.03329199700431036 3.736812400490647e-05 0.0015416006363507054 0.005275228259383438 -0.012772390540613406 -0.022700191923314218 -0.017741526684419077 -0.059022841272615346
-0.023485231291090154 0.09784218186180171 0.03763955280668076 -0.09882226134660295 -0.10376730002916333 -0.13383942653421818 -0.0019865015771630998 0.003632668176829691
-0.044000063881870256 -0.014717977146210932 -0.023977157802852214 -0.04963031182227144 0.04244176788568551 -0.01977908331752265 -0.017604233490923157 0.022902505384638942
