L2minimization/data_parameter_distribution_compare/model_OGA_1D_arctan1d_alpha20_neuron_32_N_2048_randomized.pt (torch, 2525 bytes, 3 tensors)

fc1.weight f8 [32, 1]
00000000: 50a4 4584 c486 ed3f 075c 1433 26a6 913c
00000010: 9138 c416 e691 ef3f d39f e170 64c2 ef3f
00000020: 5c57 8d0f 83f3 ef3f 8b05 8f85 f9f8 ef3f
00000030: 44a5 504c 07eb ee3f 0dd1 4cab 7b81 ee3f
00000040: d13b c543 09ff ef3f a377 0c1f 76cf ef3f
00000050: 49c4 b919 8fa0 ec3f 4a7a 1de3 f0e4 ef3f
00000060: def5 52d6 dc69 ef3f 7a9d 2541 691f ef3f
00000070: 6f8f c824 38ff ef3f 5ece 81ff 8d4a ee3f
00000080: 9ba0 3862 52b6 ed3f aefd 25e4 55fb ef3f
00000090: 4a7a 1de3 f0e4 ef3f 29de fb7c ed9b ef3f
000000a0: ad71 8e65 95f0 ef3f 41d7 9571 79b5 ef3f
000000b0: 5d68 43ed a65d ef3f 9f71 4b79 9b30 ef3f
000000c0: 9e5c a72d 0dd6 ef3f 79a6 e29c e0fc ef3f
000000d0: 6349 68e7 40d7 ee3f da2d c656 419f ee3f
000000e0: b83b a677 5a25 ee3f dcfb cb7b fc36 ed3f
000000f0: da47 def7 05ed ed3f fccf 197f 7dec ef3f
0.9227011283338786 6.123233995736766e-17 0.9865599102647754 0.99247953459871 0.9984755805732948 0.9991424187248169 0.9661900034454125 0.9533060403541939
0.9998823474542126 0.9940748793048794 0.8945994856313827 0.9966968952028961 0.9816726861969831 0.9725843689347322 0.9999047010828529 0.9466009130832835
0.9285060804732156 0.9994306045554617 0.9966968952028961 0.9877841416445722 0.9981181129001492 0.99090263542778 0.9801821359681174 0.9746835106885107
0.9948793307948056 0.9996188224951786 0.9637760657954398 0.9569403357322088 0.9420597397710173 0.9129621904283982 0.9351835099389476 0.9976184351385196

fc1.bias f8 [32]
00000000: 44ed d586 4bac d83f 0000 0000 0000 f03f
00000010: 614b 621f 4aea c4bf 0e73 a956 4e56 bf3f
00000020: e2d7 c012 8d42 acbf eba0 bbc3 1e33 a53f
00000030: 1e66 eb05 4e80 d03f 5281 e1c2 1054 d3bf
00000040: ca97 b96a 296a 8fbf 0efa 317f 98d3 bbbf
00000050: 8853 86c3 7f99 dc3f b6a8 1bfc 45ca b43f
00000060: cfb6 b2e9 c064 c83f 9501 b45d 35c4 cdbf
00000070: d98a e4e1 ff45 8c3f f382 1bd1 53a2 d43f
00000080: e7cc 1d31 a9c3 d7bf 7ec1 42db 8546 a1bf
00000090: b6a8 1bfc 45ca b4bf 9348 db57 2ff2 c33f
000000a0: e020 f879 6e65 af3f 76f5 dace f039 c1bf
000000b0: f92a b6e9 495b c9bf a9a6 24b8 909e cc3f
000000c0: 5ca8 24eb b6df b93f 1c3b e54c 4f45 9c3f
000000d0: 77f6 b162 d211 d1bf 059f d52e 0694 d23f
000000e0: 471e 15ec ee77 d5bf c00a b543 651d dabf
000000f0: 167e c77d 9daa d63f 8a4f 6d31 4da8 b1bf
0.38551605384391885 1.0 -0.16339994938297323 0.1224106751992162 -0.055195244349689934 0.04140564097707674 0.257831102162159 -0.3020059493192281
-0.0153392062849881 -0.10869744401313872 0.44686884016237416 0.08121144680959244 0.19057475482025274 -0.23255030703877524 0.01380538852806039 0.32240767880106985
-0.37131719395183754 -0.03374117185137758 -0.08121144680959244 0.15582839765426523 0.06132073630220858 -0.13458070850712617 -0.19809841071795356 0.22358902922979
0.10106986275482782 0.02760814577896574 -0.26671275747489837 0.29028467725446233 -0.3354451470845316 -0.4080441628649787 0.35416352542049034 -0.06897432762826675

fc2.weight f8 [1, 32]
00000000: f37c 7fa3 1f59 b63f a51c ac8b ce8b f7bf
00000010: d068 f5cc 7a3d e4bf 72e3 6756 ea82 f13f
00000020: ad9b 37f3 3757 0dc0 8e72 9b8e 198f 0f40
00000030: 997e 3509 8376 c83f 2ab7 fd44 7800 c0bf
00000040: 2717 9b26 6678 0bc0 a7b6 485a 36d5 f8bf
00000050: 2f9b 7c38 c30f d13f e44f 7a70 8ef3 fe3f
00000060: d8a9 dce6 a59c db3f 943f de72 8839 d0bf
00000070: 4552 1ab3 e157 0540 1ba5 5f46 8ab4 b93f
00000080: b040 a42e d01c b3bf 7dd2 59ed 0acf 14c0
00000090: d76a 32ef 29f7 00c0 0018 b49d 6da8 e93f
000000a0: 7c17 95fd b34c 0a40 fab9 b627 bada e9bf
000000b0: 7c7c 77c0 937e dabf 24a8 c23b 79ec d13f
000000c0: 3d91 17ae db84 f33f 88e6 9cf0 8ccf 0a40
000000d0: ed45 d8db b4ed c6bf 5401 ecc5 1560 c03f
000000e0: b16c b0fb 6b95 b7bf c553 4b20 3d41 aebf
000000f0: 3e49 3438 691f af3f 31ae 4b19 2090 efbf
0.08729741803789519 -1.4716325241040888 -0.6325048449609998 1.0944617629267808 -3.6675871850342987 3.944872964972382 0.1911166949239387 -0.1250143372412194
-3.4337885871963354 -1.5520537878723333 0.26658707157405365 1.934462012640318 0.4314360384475129 -0.2535115358123161 2.667910956612362 0.10041107385736263
-0.07465840471945984 -5.2021901212762005 -2.120685452200046 0.8018100814958871 3.287452679741305 -0.8079500938090967 -0.41397565646725076 0.2800582011792605
1.2199360657187548 3.351343040264343 -0.17912922606096462 0.1279322830596451 -0.09212374586825224 -0.059091482345742054 0.06078652201735445 -0.9863434309058389
