L2minimization/data_parameter_distribution_compare/model_cpu_OGA_2D_atan2d-100_relu1_neuron_2048_N_4096_randomized.pt (torch, 67323 bytes, 3 tensors)

fc1.weight f8 [2048, 2]
-0.0062725992106139735 -0.02252362670698855 0.02335146375079078 0.9997079490200739 0.034295158034893636 -0.9820124040382973 -0.9994528813552803 -0.01203293752784905
0.9769293653548866 -0.019719749011058153 0.7216590326776163 -0.692230684058553 -0.685982639807485 -0.7273551795637073 0.11383772668262633 -0.8812864042573657
-0.8827082961281514 -0.007823210784432042 -0.19508913842686534 0.8553301199164387 0.8647698492572251 0.026163553388520958 -0.5498731983876828 -0.6620095961300299
-0.5788166240870496 -0.6347968824557624 0.6755678887533964 -0.5535981566047639 0.6382721346207026 -0.586269622780756 0.9563973594161586 0.07192084298776812
0.03518361421531317 -0.9746386852878145 -0.9191902924514401 -0.27739190639659367 -0.8349365920903744 -0.4768178732827966 0.5861751954685026 -0.743146507198769
0.5011105392146364 -0.8061708848828215 -0.37544941943046506 0.9261059786836471 -0.8855420569545734 0.3224220685893701 0.8836026436265201 -0.3003743076393744
-0.06561132195156069 -0.9277192063874875 -0.3553234688613455 0.8027417446655717 0.3077827601026319 0.9041963095559383 0.8243317370063618 0.31454254709795537
-0.24064729780911084 0.9125481699819399 0.9152324582774057 0.4027890503013584 -0.11556054410668813 -0.7743346720296976 -0.18315188852388678 -0.8624112354389728
0.3682726824136185 0.8658854333431312 0.7630431857552258 0.4536085558871573 0.14789425391550165 0.8714332825268213 -0.8562656137908934 0.2307468884622995
-0.7970769632509178 0.13848798954496974 0.8388672148295067 -0.27909245642598074 0.7340120173779535 -0.3347633483150245 0.7303131886217945 0.6115724730180588
0.4365865253262803 0.6364809486150101 0.3564995976176398 -0.711308680444011 0.23238290809894196 -0.9009028616496005 -0.06270243957926865 -0.9307081643419042
-0.5387540102574311 -0.7913992152228856 -0.7804855871207358 0.5163284573239149 0.40471768148337145 -0.7873498609530374 -0.7907071751227425 -0.5040369491714206
0.6410575306142083 0.4700691362597599 0.928057310030202 -0.009524160842550559 0.9270123748829899 -0.11953150850744139 0.7972426251296035 -0.03302769987296453
0.07461299131912168 -0.7940679056915536 0.8714652388959988 0.31183669890484794 0.8210701765854772 0.5449870909657201 -0.8661016763902142 -0.20993834133671072
0.9339054674024146 0.3182934327329963 -0.4480933638981204 0.8266243160992189 0.5677383499305184 0.6910468900642635 -0.611315796272164 -0.7130797958025604
0.7043864326557648 -0.6890109006161825 0.35383251388580444 0.8583803448232207 0.3169778812924119 0.8280426108213359 -0.8134263805406161 0.4648808120431332
0.4834786475077935 -0.8600471864330127 0.06973816682914259 -0.8823743323423587 -0.4732640428663079 -0.6766279746463018 0.5166931407877167 -0.7685179577286522
-0.6249353417643333 0.6350077701977255 0.31539807813149345 0.7535934922371532 -0.537245625427881 -0.752711611814647 -0.559488040455577 -0.8188872940431466
0.22742286350880744 -0.8912675033340853 -0.9473513325101063 0.32001748628579935 -0.7115983635175614 0.4080650965329307 0.9126659943974177 0.16294879713512242
0.813183460868009 0.168631745577472 0.6287884992676244 0.6245301282319486 0.7170745606804895 0.5849366869994109 -0.26264082208918216 0.7789995877858271
0.7426200492497463 -0.6259882255521823 0.5119988564430302 -0.7214422486367875 0.039600250927730805 0.831147568603751 0.9250404753525527 0.08067362740387912
0.5644969964570619 0.8009684274984779 -0.589795611806831 0.7021242048901861 -0.8987698170097252 0.015473865367291104 0.7829076346168533 -0.39916606423983814
-0.46173078339127516 -0.7622190625263134 0.287743242287401 0.9414294896115689 0.804232456884639 -0.3926716779731124 0.8985215686654273 0.35227539412529973
-0.7915084059175661 -0.2845403196074362 -0.28410946111549085 0.7977555445412722 -0.475620240705597 0.8481434177968891 0.9648487879177519 -0.11794747483055187
0.6770285972080312 -0.6157532873983116 -0.8452372892393646 0.3562629107352181 -0.9159229100264815 0.14804708330616975 0.059429795907068934 0.8408345500530736
-0.7976023857887999 0.4516510384229447 -0.4103602918462567 -0.8251308373101811 -0.3323288351693482 -0.818045837651208 -0.6918510975031403 -0.550463186317173
-0.7373138113315805 -0.6410080090003153 -0.6075674130342763 0.5807180711344732 -0.03136728869455387 0.9558715200071544 0.8328512799961486 0.39076446470226883
-0.6952877911606378 0.46412893901722574 0.21639610530425316 0.9467889555042269 0.837473060062107 -0.11966797970388095 -0.7172180048069082 -0.42773107555458856
-0.617965040643852 -0.670167934508616 -0.8683129613445475 -0.17192457644745804 0.8489513721245496 -0.35189707751264504 -0.47348435990039917 -0.8771048466776998
-0.9491876790004599 0.2394901980159689 -0.20780005712476451 -0.9044632848410487 -0.21800492391942047 -0.8213332976698883 -0.872878716937877 0.12034523155316174
0.904797988321216 -0.14153264804782906 -0.8283263370949602 0.17985769949132677 0.4699027078865044 0.7518067296343951 0.4085608089610392 0.8173980593875707
-0.07810798042362622 0.8497843887193389 -0.5106686832745829 -0.8065594229674525 0.42374542529357745 -0.8165550339884069 0.7347445380799601 -0.5750702177717273
00000000: 8f2d 8707 4cb1 79bf 7214 6000 6f10 97bf
00000010: 4056 7e34 72e9 973f 5ff5 5286 9bfd ef3f
00000020: e88f 578c 228f a13f e18b f346 a56c efbf
00000030: 720b ea9b 84fb efbf b860 4189 b9a4 88bf
00000040: d570 565f 0143 ef3f 4dee 59f4 6931 94bf
00000050: d3d3 06af d417 e73f d636 aaf6 c026 e6bf
00000060: c519 73dd 91f3 e5bf b1ac 995e 7e46 e7bf
00000070: 4522 2721 7824 bd3f f93b 968b 7f33 ecbf
00000080: c8e7 f877 253f ecbf 7f34 c093 9d05 80bf
00000090: ef91 ac4e aef8 c8bf 4665 8a45 dd5e eb3f
000000a0: 5e0d a4d1 31ac eb3f c477 9a58 9eca 9a3f
000000b0: 5eb4 80ad 8f98 e1bf 5e88 a0bf 2e2f e5bf
000000c0: 5ab8 da70 aa85 e2bf 1802 388d 4150 e4bf
000000d0: 298e 8d8c 409e e53f 80c9 377b 13b7 e1bf
000000e0: df9b 04af b96c e43f 4c69 0f83 b8c2 e2bf
000000f0: 848a 95a2 ce9a ee3f c780 8884 6769 b23f
00000100: f6d7 d130 9603 a23f 7f48 d777 3d30 efbf
00000110: c625 9cc2 016a edbf 6b80 89fb c9c0 d1bf
00000120: 1461 a8f1 ccb7 eabf ed76 f91c 2f84 debf
00000130: a06f c87b f2c1 e23f 5bc5 112f dbc7 e7bf
00000140: 0273 33f8 1809 e03f 24e4 31e2 26cc e9bf
00000150: de62 7000 5d07 d8bf 5b71 6201 a9a2 ed3f
00000160: 5f47 bb4b 5c56 ecbf 9f66 062c 90a2 d43f
00000170: 1a1f 210d 7946 ec3f 15aa f728 5539 d3bf
00000180: e67e 0752 e7cb b0bf 4ac5 6930 e0af edbf
00000190: 2fb0 90a5 9ebd d6bf a51f 8f74 0fb0 e93f
000001a0: 6f75 3a76 b6b2 d33f db9c 5619 2def ec3f
000001b0: 09e9 6ff3 ec60 ea3f da1e 3f10 7721 d43f
000001c0: e3fe fad8 87cd cebf 491b 4338 9833 ed3f
000001d0: a740 9194 9549 ed3f 87cc 8eb9 4bc7 d93f
000001e0: c76c a535 6095 bdbf 93d8 9081 59c7 e8bf
000001f0: d992 b465 8571 c7bf 1e3a 7d72 df98 ebbf
00000200: 0582 be95 c791 d73f 4454 495e 55b5 eb3f
00000210: 9e23 088b d96a e83f fa26 2e2e ec07 dd3f
00000220: d6ac eaeb 32ee c23f f127 230d c8e2 eb3f
00000230: e97a fd24 8766 ebbf 0bb7 cc31 1d89 cd3f
00000240: 90d8 318c a781 e9bf f701 fe74 f9b9 c13f
00000250: 8823 ac0e 00d8 ea3f ad3b 3a9b a6dc d1bf
00000260: 234c 30c5 067d e73f 3066 3a40 c36c d5bf
00000270: 91fa 9ec3 b95e e73f 8de2 576f 0092 e33f
00000280: 3ea4 099c 08f1 db3f 4783 5a4b 0d5e e43f
00000290: d983 33b0 e3d0 d63f 2ec6 fb6b 0ac3 e6bf
000002a0: 1a98 371f b9be cd3f 150d f53c 32d4 ecbf
000002b0: f553 5f5f 440d b0bf 5cff fe7c 5cc8 edbf
000002c0: de9f d40c 793d e1bf a5cb 6e72 2453 e9bf
000002d0: 79da f5e8 bcf9 e8bf 3c69 c641 c385 e03f
000002e0: ab60 85fd e4e6 d93f ceb5 e955 f831 e9bf
000002f0: d1ab 3b22 794d e9bf f756 9518 1221 e0bf
00000300: 1ef6 1a15 8b83 e43f 860e c6db 9c15 de3f
00000310: 2597 6c3e a5b2 ed3f af8b b93a 6781 83bf
00000320: f082 23db 15aa ed3f a589 e1ef 9d99 bebf
00000330: 2d15 3df7 0283 e93f 740a a2b5 01e9 a0bf
00000340: 2786 9245 d619 b33f 2ef3 b718 0169 e9bf
00000350: b117 9511 0be3 eb3f 7b4a dfe9 21f5 d33f
00000360: 6dfa 84f6 3446 ea3f 0714 8ec4 8870 e13f
00000370: 756a e3dc 1ab7 ebbf 33dc 1b73 42df cabf
00000380: 1f91 01b8 8de2 ed3f b9aa 076b eb5e d43f
00000390: bccf dfc9 8fad dcbf 332f 77d6 b473 ea3f
000003a0: de5e b49d e92a e23f 3a83 1a5e 0e1d e63f
000003b0: 708c 1025 e68f e3bf a121 4db8 8cd1 e6bf
000003c0: 6f15 806a 558a e63f 037d 9796 600c e6bf
000003d0: eba9 d920 31a5 d63f 1d70 910e da77 eb3f
000003e0: ae33 6d98 5d49 d43f ca81 a537 537f ea3f
000003f0: e404 c4c2 9607 eabf f1d7 1073 9bc0 dd3f
00000400: e90e d76c 50f1 de3f 2fe4 57ad 8185 ebbf
00000410: c16c d049 5cda b13f 42b0 8718 693c ecbf
00000420: 3bf2 9e44 f549 debf 4444 d5b5 efa6 e5bf
00000430: 4806 b80d c088 e03f 29aa daf8 b297 e8bf
00000440: b2c1 df66 78ff e3bf 4c90 b6d0 fb51 e43f
00000450: f2f1 b26b 7b2f d43f 5462 7419 701d e83f
00000460: d437 e4bc 1d31 e1bf 0307 82a9 3616 e8bf
00000470: 8350 8876 53e7 e1bf dace 6020 5334 eabf
00000480: 2306 9140 311c cd3f c6d6 596d 4385 ecbf
00000490: 637e debd b350 eebf 83b8 6f9f 2a7b d43f
000004a0: d13d 66ee 69c5 e6bf 91df 0f11 bd1d da3f
000004b0: 9b76 c350 8f34 ed3f ff16 4f95 81db c43f
000004c0: 2f70 4252 9905 ea3f 194c 299c b995 c53f
000004d0: 5d92 0e0f 091f e43f d8ee 839b 26fc e33f
000004e0: 1552 5d59 46f2 e63f ef93 9c24 cdb7 e23f
000004f0: 06ed 5d73 1bcf d0bf 4a67 248b 90ed e83f
00000500: d235 1c1f 8bc3 e73f acaf 8d75 1808 e4bf
00000510: 0e64 006d 4b62 e03f 6220 fb0d 0e16 e7bf
00000520: 53c6 4bed 7b46 a43f 66b2 29c9 c298 ea3f
00000530: 3eb2 a37b ee99 ed3f 046f 59df 06a7 b43f
00000540: 5825 4f01 5c10 e23f 1a81 278a 88a1 e93f
00000550: dc1b 010c 9bdf e2bf a077 372e cd77 e63f
00000560: 9f09 56eb b8c2 ecbf b8d0 8f0d c3b0 8f3f
00000570: b2fa ce4f 940d e93f 2a52 e5d1 ef8b d9bf
00000580: 0835 8e45 ff8c ddbf 8406 3e3b 1964 e8bf
00000590: b63d d1a1 626a d23f a4e4 abbc 3020 ee3f
000005a0: ad70 96b4 45bc e93f 0270 bd63 8821 d9bf
000005b0: 6865 054e b0c0 ec3f fa08 3d18 ae8b d63f
000005c0: ec99 bd6f 0954 e9bf 6ede c699 e835 d2bf
000005d0: f469 fe72 d92e d2bf e93c c0a2 3687 e93f
000005e0: 215b c9e0 8f70 debf 712b 38aa fd23 eb3f
000005f0: bc24 b690 0ae0 ee3f 4602 0b43 ce31 bebf
00000600: 56e3 6ee0 37aa e53f b4f7 f83c 40b4 e3bf
00000610: 8591 5412 2f0c ebbf 82ac 98f3 02cd d63f
00000620: 8511 0790 3d4f edbf 57ba 88f2 34f3 c23f
00000630: 895a a80b 956d ae3f fa64 badb 1de8 ea3f
00000640: 4495 4570 f585 e9bf 7dc8 cec1 d9e7 dc3f
00000650: c7a0 43d0 5743 dabf ea62 25c9 7867 eabf
00000660: ee7c a429 e044 d5bf 5be8 ea76 6e2d eabf
00000670: 4749 afe9 a423 e6bf 784b dcf8 649d e1bf
00000680: 34dd 5122 1398 e7bf 772c 643a 2383 e4bf
00000690: 0e1f 2337 3171 e3bf 1d00 7710 3e95 e23f
000006a0: f3ef 368e 5f0f a0bf 2479 b3de 7f96 ee3f
000006b0: 7f7c 40ba b7a6 ea3f c573 15f5 4802 d93f
000006c0: fff9 8a2e cc3f e6bf c631 8ddd 49b4 dd3f
000006d0: a9bb a119 deb2 cb3f 5359 035a 184c ee3f
000006e0: eced 874d 94cc ea3f 25e1 348b 8fa2 bebf
000006f0: f5ef 572c 73f3 e6bf ea59 3f29 f25f dbbf
00000700: 7b5f f49e 5ec6 e3bf 245b 3106 0472 e5bf
00000710: 285e 7543 38c9 ebbf d338 9ce0 9f01 c6bf
00000720: a26a 6511 9c2a eb3f eb62 de51 7b85 d6bf
00000730: 2e24 3c58 914d debf 229a f42e 3e11 ecbf
00000740: 0257 e2d6 be5f eebf 9f77 1864 9da7 ce3f
00000750: 0a99 ba38 3199 cabf b366 9afc 5cf1 ecbf
00000760: 9be9 4cd9 95e7 cbbf c374 93c4 5c48 eabf
00000770: 87ec d358 9fee ebbf b418 c0f1 f1ce be3f
00000780: 5670 2ae9 1af4 ec3f 1442 57e7 bd1d c2bf
00000790: 5da0 073c a681 eabf afe0 9fbc 9305 c73f
000007a0: 0129 abce e212 de3f 7a28 96fc cc0e e83f
000007b0: d28e 3a3c dc25 da3f 7c45 9cf9 1f28 ea3f
000007c0: 91e0 7975 e2fe b3bf df6d c607 6f31 eb3f
000007d0: d32e b8d9 6557 e0bf 7ba0 fdb4 55cf e9bf
000007e0: 2fcb dd21 a51e db3f f8a8 cb05 3821 eabf
000007f0: 4ffa 3efa 0683 e73f 1a76 47a8 f966 e2bf

fc1.bias f8 [2048]
0.9997266330047965 0.006223006248824227 0.185675740069309 0.030808219115665985 0.21265029180849807 0.004992053949539053 0.019551487017654457 -0.4586668133349682
0.4698562134521135 -0.4799485535258899 0.5014863670028551 0.5092963384186605 -0.5118634912795756 -0.4869672562802205 0.4988953914111072 -0.28307504878693945
-0.2210012362661994 -0.2795405811840192 0.27481921859029906 -0.3226947614321199 0.31460567676897516 -0.03695199176947239 -0.33445369642330863 -0.35919582888222873
0.36746731627661694 0.47890596555859943 0.2961398425896579 -0.4706805428623591 0.330673124882845 0.010513242736016509 0.6221346930837621 0.4719133890013701
-0.3385522820954776 0.46043932792332554 0.4676872071837187 0.4621310118400103 0.5877834562204755 0.4673426972258134 0.5908975029306354 0.3043382275883907
0.6358334750181543 -0.6057623279995719 0.36656816268606757 -0.3603480496660571 -0.28884493863686933 -0.3524871238134901 0.465063215866356 0.3474606698309601
-0.6066961756751207 -0.3723156183398042 0.35547190506105325 0.6027548155905182 0.6032321797426282 0.37855806768852107 0.16980234333664346 -0.45364499224707805
-0.16281851441074846 0.34044761309776483 -0.447355967603744 0.34323490796582595 -0.17059816037273923 0.3714643128732836 0.4624613037169263 0.34960456809760077
0.16299458430479735 0.4653516151370782 -0.5640884058867734 0.377370304755828 -0.45411556943404685 -0.5767329544674658 -0.3805159226602759 -0.12804972566105685
-0.3923277694149124 -0.010689305994519012 0.5719358758031345 -0.37481791870558906 -0.5570421827422248 0.4632355147431538 0.37901602423517133 -0.5693675796898082
0.23802143584630023 -0.4662384077732391 0.5546400087719363 0.3712032930902194 -0.19948112477518165 0.3989520487486309 -0.4381476640619005 0.4772023562577211
-0.453681368793548 0.1758247497016129 -0.44611557763776577 -0.26184162644026704 -0.5408800697747435 0.5318532741821973 0.23331980087202564 -0.23485146291803563
0.40308828762530124 -0.3983097579946552 0.37305131552262044 -0.5380198498154964 0.3998021681725727 0.3882827992528831 0.4694236389622042 0.4672604620479307
0.21325354866250304 0.5418748568412214 0.29210568368171935 -0.391997294040056 -0.5487797512934545 -0.23825070691262493 -0.5332151988679639 0.5501313121298518
0.41108897832281716 0.46526824647124226 -0.39427149859697447 0.08062039980177368 -0.20417442319740214 -0.3725121509877025 -0.527148430032372 -0.4728633743052018
0.4016330537523651 -0.5305908849655581 -0.4625776544509754 0.40612618468960454 0.5213114578474578 0.2977908547034545 -0.392017462635221 -0.3597842525648451
0.5506326963039105 -0.3860791925627896 -0.39371270429027555 -0.5175224293196881 0.40000971811040686 -0.23941374479467717 0.3984589779430886 0.402901003632404
0.17262849936061703 0.5275444948543984 0.40550605553662256 -0.46400227844439074 -0.41357468776317585 0.4615502610041439 0.47122440029696516 -0.4512870411790155
-0.22807330744537155 0.4079424636862587 -0.4485677238473791 0.31191909519114613 0.40460251515545803 0.45366512308333823 0.5695615193158897 -0.39820897588806586
0.31064509703969156 -0.049040821383210996 0.4210029287521269 0.3881353471640769 0.4444120115136451 0.4678862151513569 0.41575750728373334 0.5161730587148938
0.41159149961492053 0.45736116785413095 -0.5417682426630087 0.41881849929036447 0.32631361419531885 -0.5168219121340408 -0.6513021449280377 -0.5250097355356091
0.45492117798590953 0.4669267012705905 -0.4660856372686898 -0.08022173080255984 0.4017267257748142 -0.6830479768561227 0.51277101087762 0.4694431231132065
0.10302113142717571 -0.4003989404821693 -0.5262945657881805 -0.5185266185109535 0.4145448797743678 -0.38153206130013206 -0.41017053653869273 0.40787969156034487
-0.29168948616602186 -0.4606431782035797 0.46182261551197357 0.41201439560937886 -0.22114431909354684 0.4590384690852189 0.5181181512189365 -0.5248039125360902
0.4099425859218304 0.4526968335934294 -0.5311280538963328 -0.6450861900255599 0.41074017859465467 -0.11414372939579487 -0.1765221302441562 -0.40213088285946097
-0.18687370566844022 0.4080284231385029 -0.5164574864998522 0.40303992585314635 -0.5172109141512382 -0.4179823749920385 0.45215946703568266 -0.4014221977968824
-0.4068709171549133 -0.4575273400191155 0.40802442121990573 0.4547415756385722 0.4166729665297178 0.4226314152837232 -0.507613702132667 0.5013547247789609
-0.46135075141446297 0.3268262502208557 -0.4565041783256085 -0.4040841235636845 -0.4571276149308476 0.45146436758371766 -0.45223301330586224 0.4058854643827444
0.020235213738485174 -0.04281070265315965 0.41091509339418775 0.42171274122841684 -0.5076281143036583 -0.450361498338039 -0.42144374138325247 -0.41033428856573023
0.1293554286982432 0.5006325613924367 -0.2530997804861631 -0.46022875212044867 0.28754694345849924 -0.46672143567337 -0.42322572635022476 -0.06219174723425237
-0.45596916421613043 -0.4224133898338955 0.4950729205772893 -0.06743025785184725 -0.451681700947676 -0.17168660054528798 0.5013775446411605 0.4926382558771951
-0.4591825880655018 0.4084024566520998 -0.6216238220356175 -0.046855864810296015 -0.4603964474317303 -0.5007764237868287 0.39933795052919213 0.4500220941759178
00000000: f443 36b5 c2fd ef3f 0fe1 2485 4b7d 793f
00000010: 490f a1ff 38c4 c73f 7bfb 3296 308c 9f3f
00000020: 99b3 66f0 1f38 cb3f 7e0d 4047 8c72 743f
00000030: ede3 5015 4e05 943f bf30 c20c cc5a ddbf
00000040: aa59 a6cb 1f12 de3f 39ff 4923 7ab7 debf
00000050: 0459 3523 2d0c e03f db61 afd5 274c e03f
00000060: 34fd 618b 2f61 e0bf c791 fcb5 782a dfbf
00000070: c117 8fef e6ed df3f e69f 36cf e61d d2bf
00000080: 55c7 11bd c449 ccbf c3c5 852d fee3 d1bf
00000090: 4716 0a59 a396 d13f 2941 bced 07a7 d4bf
000000a0: ddf4 36d9 7f22 d43f 3009 5818 5feb a2bf
000000b0: e785 0a7a b067 d5bf 8729 7a80 10fd d6bf
000000c0: 0172 70a2 9584 d73f 40be fb34 65a6 de3f
000000d0: 53c5 bd86 f4f3 d23f 5d45 9d48 a11f debf
000000e0: a96d 429c bf29 d53f c30d cf8d f787 853f
000000f0: 620e 1004 87e8 e33f d98b 1337 d433 de3f
00000100: 0085 e530 d7aa d5bf 0a44 ce83 d677 dd3f
00000110: 3e25 e752 96ee dd3f b37e 94f3 8d93 dd3f
00000120: e718 3340 1fcf e23f bffe 2658 f1e8 dd3f
00000130: 2c01 4ce1 a1e8 e23f 268b 9a0b 477a d33f
00000140: cff5 9c71 bf58 e43f 0806 7dad 6762 e3bf
00000150: 3574 9f4f da75 d73f ef8e 1f44 f10f d7bf
00000160: eade 437b 6f7c d2bf 1090 4227 268f d6bf
00000170: 56fd ad81 98c3 dd3f 9b7e 64ad cb3c d63f
00000180: d540 2419 0e6a e3bf 78ce 23e3 04d4 d7bf
00000190: 1f94 b83b 0dc0 d63f 1cf8 8e77 c449 e33f
000001a0: d175 7c92 ad4d e33f 5afc 169e 4b3a d83f
000001b0: 4420 b54b 15bc c53f 0181 6c01 8508 ddbf
000001c0: 84ea 49b1 3cd7 c4bf f264 10c9 e4c9 d53f
000001d0: 35d3 a1ec 7aa1 dcbf 41c3 238c 8ff7 d53f
000001e0: c482 c717 29d6 c5bf d5ff da40 12c6 d73f
000001f0: 5c4d c84b f798 dd3f c8ba a0d6 eb5f d63f
00000200: f2d1 81ac 01dd c43f cfe3 0924 52c8 dd3f
00000210: 54c4 ea20 030d e2bf f619 5ac7 d526 d83f
00000220: a8b6 d4bf 3a10 ddbf b8d2 3eab 9874 e2bf
00000230: bcb8 db74 5f5a d8bf efed fcf3 ee63 c0bf
00000240: 85c7 bcee e51b d9bf 84a2 4e5d 46e4 85bf
00000250: 7e79 3f77 4c4d e23f 0fe6 b24b 04fd d7bf
00000260: 97d9 ab20 4ad3 e1bf 7db9 8a92 a6a5 dd3f
00000270: 1200 306d cc41 d83f eb73 c55b 4238 e2bf
00000280: 2179 5a85 7c77 ce3f 749c 619e d9d6 ddbf
00000290: da50 5767 9cbf e13f 145c ff74 cbc1 d73f
000002a0: dc12 8af5 9888 c9bf 580b 832c 6e88 d93f
000002b0: f1bc fd7f 9c0a dcbf 0ede 6cc0 7b8a de3f
000002c0: 9d75 7194 1d09 ddbf 35dd e5e6 6c81 c63f
000002d0: be2e 0c5a 288d dcbf 9db6 9261 03c2 d0bf
000002e0: fdb3 57b8 e34e e1bf 0442 5c28 f104 e13f
000002f0: 2896 2059 6cdd cd3f c94a 53dc 9c0f cebf
00000300: 7815 30d1 32cc d93f 26f1 1036 e87d d9bf
00000310: 4b90 f99f 12e0 d73f f0cd 7167 7537 e1bf
00000320: 2bf3 4ad5 5b96 d93f 66fd 1819 a0d9 d83f
00000330: 74f7 5372 090b de3f ea6b cd6c 98e7 dd3f
00000340: 6575 a16c e44b cb3f 1b0c 95f0 0957 e13f
00000350: 8de0 9809 dcb1 d23f 3c71 81d1 7b16 d9bf
00000360: 9665 908d 9a8f e1bf 3724 38c9 ff7e cebf
00000370: fec6 1b52 1910 e1bf 154e 43fb ac9a e13f
00000380: 951f 6925 484f da3f 2b85 9d77 f4c6 dd3f
00000390: b502 0e86 be3b d9bf 0600 8adc 89a3 b43f
000003a0: 3200 2833 6322 cabf fcb4 7634 3dd7 d7bf
000003b0: 990e 6462 66de e0bf b97d 07be 6443 debf
000003c0: 27fa b61f 5bb4 d93f da72 4fbc 99fa e0bf
000003d0: 8b8c 6e4e df9a ddbf 81a1 52ae f8fd d93f
000003e0: 6a84 cf5d 95ae e03f 4df3 7f5f 010f d33f
000003f0: d3aa 5e69 d016 d9bf a36f 9887 b406 d7bf
00000400: 9e79 d775 c89e e13f 054a 6e80 85b5 d8bf
00000410: ad92 3cc5 9632 d9bf 2afc 9b32 8b8f e0bf
00000420: b672 575c c299 d93f 5992 0d0e 1ca5 cebf
00000430: aa0a c415 5a80 d93f b61c 884a 21c9 d93f
00000440: 9642 8ecf b018 c63f 12b4 12fe a4e1 e03f
00000450: 3406 b7ab cff3 d93f 8d0a cc9c 36b2 ddbf
00000460: 305c 99f7 0178 dabf a746 1e1b 0a8a dd3f
00000470: 4792 1663 8a28 de3f 103d be0a e3e1 dcbf
00000480: 1fc2 4892 8131 cdbf 53a8 0bb5 ba1b da3f
00000490: 40cd fd65 55b5 dcbf 3002 3682 7bf6 d33f
000004a0: d935 9ef2 01e5 d93f e1a3 be70 d908 dd3f
000004b0: bdb2 5014 d939 e23f e16c 1a80 417c d9bf
000004c0: aaaf 1cf9 9be1 d33f 830d 05e8 e01b a9bf
000004d0: b9ad a044 b6f1 da3f bb71 9fa3 35d7 d83f
000004e0: c3a4 d913 3f71 dc3f 4bc1 1406 d9f1 dd3f
000004f0: 4f68 3660 c59b da3f 5a37 c85c 7d84 e03f
00000500: 6f17 8adf 8357 da3f fc34 99c6 6745 dd3f
00000510: edf7 875a 2a56 e1bf cf5c 5a1b eccd da3f
00000520: 5757 4d7f 52e2 d43f bb19 4f1b ce89 e0bf
00000530: 77fa 8898 77d7 e4bf 28a0 8637 e1cc e0bf
00000540: 0544 6db7 6d1d dd3f b986 e587 20e2 dd3f
00000550: ee13 4dda 58d4 ddbf 0cbb 394e 6989 b4bf
00000560: 7b72 4803 e4b5 d93f bb45 466e 87db e5bf
00000570: b4cc 41c0 9e68 e03f db9c 462b 5b0b de3f
00000580: b7d1 46c6 975f ba3f 7c55 aee0 22a0 d9bf
00000590: 9ded 83b3 67d7 e0bf 3b85 9322 c597 e0bf
000005a0: f8ba 563f e787 da3f d035 6a73 056b d8bf
000005b0: 74da 0dec 3b40 dabf 6812 fd6b b31a da3f
000005c0: 0ee3 ea60 0aab d2bf caa1 6086 2d7b ddbf
000005d0: c055 8b71 808e dd3f 3be7 a7a0 715e da3f
000005e0: fdfa 1901 754e ccbf 4bec 14e3 e260 dd3f
000005f0: c960 5e84 6c94 e03f a4f8 2493 31cb e0bf
00000600: 5467 f1d3 7f3c da3f 9056 d223 fcf8 dc3f
00000610: ca21 af42 00ff e0bf 495a 28cb 8ba4 e4bf
00000620: 47e7 8d2c 9149 da3f c864 cc00 8638 bdbf
00000630: a09e 35f4 4698 c6bf 94f3 a52b 83bc d9bf
00000640: 1905 2a43 7aeb c7bf f3f8 4d3f 231d da3f
00000650: bb51 c9d9 d186 e0bf b960 21f9 67cb d93f
00000660: 1c3e 2de7 fd8c e0bf 2e4b b925 39c0 dabf
00000670: daae df42 2ef0 dc3f 7444 dbba e6b0 d9bf
00000680: 9eed b750 2c0a dabf 3b1c 9ac0 2048 ddbf
00000690: f7f6 4676 121d da3f 88f2 df68 7c1a dd3f
000006a0: 11d6 1717 c5aa da3f 65f8 b9a2 640c db3f
000006b0: 4a29 3517 5f3e e0bf ecdc 5310 190b e03f
000006c0: 67d9 534d c586 ddbf 9910 0ba6 b8ea d43f
000006d0: 7455 194d 5d37 ddbf 7c7c e2a7 83dc d9bf
000006e0: 837e 0e2f 9441 ddbf 7e35 85cd cae4 dc3f
000006f0: 577e 94bc 62f1 dcbf b285 dc06 07fa d93f
00000700: 0bfd ef34 8ab8 943f ddd1 a0cf 48eb a5bf
00000710: 82e4 e3d1 6e4c da3f e27b f86f 57fd da3f
00000720: 0edc ae50 7d3e e0bf eb52 af08 b9d2 dcbf
00000730: ae13 962b eff8 dabf a14d 74bf ea42 dabf
00000740: 77d5 e8fb b78e c03f 86c8 cf93 2e05 e03f
00000750: ba05 f46b c932 d0bf 6451 c24b 6374 ddbf
00000760: 5904 8e4b 2b67 d23f 70cb a395 c3de ddbf
00000770: ff00 605b 2116 dbbf 6288 e7c0 98d7 afbf
00000780: 26bc 124a 992e ddbf 3fa9 ae2b d208 dbbf
00000790: 3df0 c054 46af df3f 3c0a 3c00 1c43 b1bf
000007a0: 2667 715d 5ae8 dcbf 5170 4097 d3f9 c5bf
000007b0: 91d7 a5eb 480b e03f ec10 709b 6287 df3f
000007c0: f792 a85d 3f63 ddbf 1f51 bb0e 4423 da3f
000007d0: 0dd7 41a4 57e4 e3bf 6fd7 f8ed 7dfd a7bf
000007e0: c37c 3aa9 2277 ddbf 67b6 5847 5c06 e0bf
000007f0: 5dc5 64c3 c08e d93f c7a1 3d78 29cd dc3f

fc2.weight f8 [1, 2048]
-12.119296862353597 0.06302930145845667 0.0200010504712171 -0.0036902154842621032 -0.08066622340632988 -0.03234130856974105 -0.023973018008652938 -3.169472586909091
1.6365427406179462 0.6960291799125045 1.004043993362271 0.18716676964084114 0.968264172281987 0.8683058954719953 0.6176765252130055 0.06372313998068661
-0.09291847265078854 0.011159237725607408 -0.11268524325278047 -0.13822880598022597 -0.07432165676465426 -0.03373205673730327 0.1717470399662662 0.2059377078230424
0.19928203609323922 0.4352975127488612 0.0916451678536689 -1.7054374292470487 -0.02473936131574094 0.10576710153316797 -0.010241877653705855 0.22451858962913818
0.03322301147494794 -0.21115684641648835 2.007891664512893 1.6624924521062374 -0.02453450245252087 2.6866593315061325 0.05179460168630348 0.09771474290212769
-0.22077362163048303 0.12997980871567769 0.334407470730542 -0.057159182119968226 -0.25509304807293615 0.028347412655588947 1.6040897945872779 -0.0632070932034104
0.20665355881951575 0.18053977566556317 0.18096374384919972 0.21252399366338043 -0.0070676309542987426 -0.04644719765861583 -0.010666219791981388 -5.743411661556162
-0.045236333758877846 0.3400075110282282 -8.976673849786119 -0.10308727677637572 0.027533338051623894 -0.10353596206544845 3.070173367527726 -0.119074742076279
-0.14571287637678262 1.6006778947419147 -0.07000256870000182 0.2326960210970643 -8.023574264456956 -0.10151061515125621 -0.11882840645921355 0.07069312075758459
0.33051826355995584 -0.12246036811972728 0.050142195607875535 0.2678122045392959 0.2571072700857378 0.09556104551485797 0.020533856065703158 0.4143179859356265
-0.05616163422850981 2.2720375389566616 0.14675154792792414 -0.329843995472233 -0.08187725991670676 0.0033661123312467285 4.292988463734264 1.1277601413187435
-8.099884485481342 0.030199462250507875 -4.609902466828237 0.03302137799246498 0.24016333199911008 -0.269122667191369 -0.05463416927503952 -0.004542296259617562
0.080970230760017 0.02447959549350593 -0.137349812294207 0.2527751813547957 0.814274732364001 -0.08556472649554024 2.0305518717326065 2.474798318210199
-0.07274898880135995 0.12597038266083763 -0.10696360120934768 0.05821933267551081 0.16571569925149357 0.07169361882157475 0.23763633876713536 0.14673182586138708
0.20126701358384397 0.2718937805026374 0.007772598140851807 -0.10452390516653354 0.023797732406482527 0.06188051473242944 0.3520787224760235 1.0092234166695593
0.410143787705237 0.1388186435070431 1.6495882999527376 0.7685992783308379 0.09827962013676496 0.12641149761996026 -0.18751497017015792 0.09951171322790131
0.14357922550526575 0.2668405077224097 0.5693248493003886 0.2601075570210919 0.30922180570997715 0.04526028119425705 0.4622744681901069 0.18184244413226366
0.0265128352281788 0.41671326909588946 0.1832487351685928 0.43614154434187324 1.6590684614762627 -1.0959227844886492 1.94054052815349 -5.098229629778845
0.06304258676771415 0.7582367564491328 -8.435891889552186 0.2853564283923138 -0.49147903492505873 -4.242723762448961 0.15677872088167022 0.7587954739138006
-0.060606072294986206 -0.012126474334405168 -0.05106569426340753 0.1530999472637448 -0.7819815026478543 1.4770218830559054 0.46981727925164873 0.14138437376560553
0.8132702481079691 -0.48629366370556915 0.3560912516378809 -0.4454936478832475 -0.05468640129223788 0.6429121291802612 0.10333281904953036 0.18910854674228117
-3.9227735677563773 2.383399273635232 2.348126338297184 -0.0889161325388175 0.788875536807098 -0.0009694146330419564 0.602755835748306 1.8319356744138657
0.07075510650752292 0.08134528148077975 0.4682619521908443 0.5318158016288858 -0.047009210791099446 0.2554611655830363 0.948904116787189 0.43824424277747154
-0.000376853720453095 0.3026803095940121 1.4943755191562007 1.0400850386450755 0.07143038990115841 -0.5161447795656112 0.39593924975008743 -0.15845572796047502
0.2842792651183716 -6.217182750159536 0.022685148175283807 0.051905501735075674 0.3462034154566142 -0.0251220414051865 -0.05113516473292619 0.2691484956194892
-0.027933149216469354 0.32368626622641405 0.19808484720061376 0.061691776127142356 0.22795964083799028 -0.7735322552876495 -6.29666463574481 0.0904012588521104
-0.7969341462693782 -4.4995477217778195 0.27822118213017116 -4.164976249132057 1.2934430469849627 0.5952925004976848 0.47520044380911586 0.5789109974648049
1.3928818216951886 0.1883987667607789 -5.684401955583187 -0.0281895439263945 -3.1319184141145997 -9.151347273008758 -7.699321654735395 0.714339019133686
-0.03605180740570739 -0.04579006484104482 -0.035144622202765825 0.5790324313472619 0.8443633196274257 -8.42842316625676 0.8729141808077151 0.47940040949322427
0.1811126405792652 0.17685223866993036 0.07447042390152256 0.2855012438645585 -0.03675453138237336 1.0062474375527022 1.783948438213216 -0.03440251434130367
-1.5525209066215935 1.1791867448443194 0.352357432525198 0.03657549765884357 -10.260730999384306 0.18046801464659293 0.7816080026162062 0.42489716314818354
-0.26991843481874966 -0.3218330427371817 0.10378832315457254 0.015146633181008815 2.0685789613300067 0.02918186622594904 0.14329762841055826 -6.698388881181619
00000000: f2a5 747a 143d 28c0 022c 7434 b022 b03f
00000010: f459 a3c6 277b 943f 493f 3e5a f13a 6ebf
00000020: 4709 6ca7 8aa6 b4bf 01d8 3b3d 0a8f a0bf
00000030: e496 5501 628c 98bf 98be 9271 145b 09c0
00000040: 595d d770 472f fa3f 2626 99fc de45 e63f
00000050: 74c7 336f 9010 f03f 3db0 40a9 14f5 c73f
00000060: 5dde 3a25 05fc ee3f 263d ff71 29c9 eb3f
00000070: 357f 698f 01c4 e33f a329 37e2 2850 b03f
00000080: 6eba 3a49 81c9 b7bf 2760 a388 a7da 863f
00000090: fd32 83aa f0d8 bcbf f26c 8644 7bb1 c1bf
000000a0: 6d50 307d be06 b3bf eeed 0601 5445 a1bf
000000b0: 7182 eb97 cefb c53f 5f7c 0eb4 2a5c ca3f
000000c0: 4fb2 d9e1 1282 c93f 0c56 5219 eadb db3f
000000d0: 9d97 c4c6 0e76 b73f a1d8 ffc1 7849 fbbf
000000e0: bea2 196f 4655 99bf 0be2 1382 8d13 bb3f
000000f0: f311 948c b1f9 84bf 808d e66f 06bd cc3f
00000100: a8e1 8447 9b02 a13f 50b8 d702 3007 cbbf
00000110: 77f3 4781 2910 0040 494a 7aaf 9199 fa3f
00000120: 61fb a096 921f 99bf 1a7f 623f 477e 0540
00000130: f43b b470 d284 aa3f 2108 1a59 d503 b93f
00000140: b277 5c5e 4f42 ccbf 737e c9a9 2da3 c03f
00000150: 2cd9 9497 ee66 d53f 6724 bee3 f743 adbf
00000160: fd40 baca 7153 d0bf 04bd 20a9 1a07 9d3f
00000170: 7098 790f 5aaa f93f 3512 2f0e 572e b0bf
00000180: b0ac 5db2 9f73 ca3f ba2d 0e68 ed1b c73f
00000190: 4e09 cce8 d129 c73f ce23 3379 fc33 cb3f
000001a0: 004c f1bc f2f2 7cbf 4184 de55 edc7 a7bf
000001b0: 9895 6dc9 2bd8 85bf 1b65 17e8 40f9 16c0
000001c0: 35af 2b7c 3729 a7bf a9ad 10dd aec2 d53f
000001d0: 2d61 4798 0ef4 21c0 4e63 6382 ed63 babf
000001e0: d1fd ec09 b331 9c3f 77ef 0733 5581 babf
000001f0: 78a7 f40d b78f 0840 004c ffaa ae7b bebf
00000200: cb7a 5233 b8a6 c2bf e58b 956c 609c f93f
00000210: 1cd7 3337 b0eb b1bf 3fb7 42b4 fbc8 cd3f
00000220: 61bd 0ded 110c 20c0 3580 4584 99fc b9bf
00000230: 80ff 93d7 896b bebf b7bc b4c1 f118 b23f
00000240: 4220 2e13 3627 d53f 995e 210c 9059 bfbf
00000250: d927 92e4 3cac a93f f0d1 fdcc d523 d13f
00000260: d940 250d 7274 d03f 9604 424d b076 b83f
00000270: 0947 0dc1 d306 953f 183d ef95 2f84 da3f
00000280: 5c4c 9abc 37c1 acbf 54d3 6804 222d 0240
00000290: 9570 7e35 c1c8 c23f 2074 55fd 291c d5bf
000002a0: 5ddb a079 e8f5 b4bf ff63 13cc 3f93 6b3f
000002b0: 3360 f72a 052c 1140 3724 cb37 4e0b f23f
000002c0: 510a 2d0f 2433 20c0 2810 e49a 9bec 9e3f
000002d0: a71b b345 8a70 12c0 b3cd 1795 2de8 a03f
000002e0: 8739 510c acbd ce3f 0ec0 8c47 4e39 d1bf
000002f0: 9393 8f84 02f9 abbf 0d0c 245e f19a 72bf
00000300: 3a58 100d 77ba b43f 7273 41d8 2d11 993f
00000310: 722a f5bb ad94 c1bf 3e32 4af4 772d d03f
00000320: 1bcd 2ee2 890e ea3f d751 fde5 91e7 b5bf
00000330: 9362 cffa 913e 0040 d344 870f 63cc 0340
00000340: 910a b87f ad9f b2bf d97d e528 cc1f c03f
00000350: 0979 0e71 f761 bbbf ae2a aca3 ecce ad3f
00000360: 1d06 5c0a 2c36 c53f 67a9 2b54 835a b23f
00000370: 7e4a ac17 de6a ce3f fbb2 adc4 1bc8 c23f
00000380: e297 8d14 1ec3 c93f 05a8 cf2b b566 d13f
00000390: cf58 1eed 28d6 7f3f d828 5722 14c2 babf
000003a0: 5f84 9ec9 6e5e 983f f723 1286 cdae af3f
000003b0: 0fba a931 7588 d63f 0e40 0f74 c725 f03f
000003c0: f57f b6ba cb3f da3f e80a f82e cfc4 c13f
000003d0: 7794 82b3 b664 fa3f f31f 8583 5d98 e83f
000003e0: 09c8 596a da28 b93f bbdc 0e80 402e c03f
000003f0: 4714 3294 7d00 c8bf 00fd e181 9979 b93f
00000400: 5a0e f7d6 cd60 c23f 399c 7a35 ea13 d13f
00000410: 1473 11bf e837 e23f 5e46 b62a 9aa5 d03f
00000420: b400 af41 4aca d33f 7dfe 1207 5b2c a73f
00000430: 4fbf a9a6 e795 dd3f d750 49fb 9c46 c73f
00000440: 5ac4 ea40 2e26 9b3f b4de a421 6eab da3f
00000450: 6a8e 4ace b174 c73f 9404 5839 bee9 db3f
00000460: 6fd9 fd5e 8b8b fa3f bd1e 6554 e688 f1bf
00000470: 7bb5 8f39 740c ff3f e397 dd4e 9664 14c0
00000480: da2d 6c18 8f23 b03f 605f f2ba 7943 e83f
00000490: c36f c438 2ddf 20c0 a07e e99b 4743 d23f
000004a0: a60e 6b7b 6474 dfbf b0b8 f693 8cf8 10c0
000004b0: 489f 723b 5311 c43f c700 1a72 0d48 e83f
000004c0: 2757 e454 c207 afbf 80d8 74d5 c3d5 88bf
000004d0: 3a24 9e5d 4825 aabf 9d30 4271 c798 c33f
000004e0: 1262 7e12 fe05 e9bf 2439 b3b2 e1a1 f73f
000004f0: 66d1 5e7e 7c11 de3f 408e be16 e218 c23f
00000500: 81df cd53 4f06 ea3f 2a84 7775 6f1f dfbf
00000510: 384a 0bf6 32ca d63f 92fe 0eca f782 dcbf
00000520: 7e14 2c22 dbff abbf 89fd 2075 bc92 e43f
00000530: fdd4 6b06 0574 ba3f cc7a d377 b534 c83f
00000540: da03 b91b d761 0fc0 7b96 6ca3 3311 0340
00000550: afe6 2e76 f6c8 0240 424d 5729 35c3 b6bf
00000560: 056e e6e8 773e e93f 163a 9512 0ac4 4fbf
00000570: 4e63 409b c649 e33f 6cbb 1fc8 9b4f fd3f
00000580: 008d 79b4 011d b23f 3dd4 a45b 0bd3 b43f
00000590: 0ebb a7fa 00f8 dd3f 2fbf 6f92 a204 e13f
000005a0: 12c6 ea5d 9711 a8bf 8bf0 e4c9 7959 d03f
000005b0: f480 942a 6c5d ee3f f8ed 9894 310c dc3f
000005c0: e6db 9b67 8eb2 38bf 2d5d b63b 1d5f d33f
000005d0: a180 eb4d f6e8 f73f c6a1 a035 30a4 f03f
000005e0: a4e5 9014 4349 b23f a388 870e 4284 e0bf
000005f0: 1e48 3894 1157 d93f 6020 bafc 4648 c4bf
00000600: 0351 a7a8 a131 d23f 1ec3 a427 65de 18c0
00000610: 292f 1286 c63a 973f ae86 dea0 5b93 aa3f
00000620: 0394 c95e 3228 d63f 06e4 f9a8 97b9 99bf
00000630: ea2f 6868 632e aabf f502 9d9c ba39 d13f
00000640: f6a3 6fe9 819a 9cbf c6d5 e699 46b7 d43f
00000650: 4ea7 4722 d85a c93f cce4 cb81 1096 af3f
00000660: 6981 1a11 c82d cd3f 0b92 5bb7 c6c0 e8bf
00000670: 679d b1da c82f 19c0 c27b 4972 8924 b73f
00000680: 785d e909 7c80 e9bf e44e 1f70 89ff 11c0
00000690: 476d 9337 60ce d13f 458e aa88 efa8 10c0
000006a0: c59f 2056 f1b1 f43f c021 a6db a20c e33f
000006b0: 121c 4d1f af69 de3f 93fe 2c5b 7086 e23f
000006c0: d5fa f572 3e49 f63f 4711 ec66 731d c83f
000006d0: 6431 c2dd d3bc 16c0 a017 0345 b8dd 9cbf
000006e0: 2de6 d23d 2b0e 09c0 a3d2 c763 7d4d 22c0
000006f0: 7be4 d1f9 1acc 1ec0 e4f2 ad80 dddb e63f
00000700: 16d5 89eb 6175 a2bf 0ab1 f29d cb71 a7bf
00000710: a178 fbd5 79fe a1bf 22b7 7e05 6f87 e23f
00000720: bbbc 7739 0605 eb3f d6d7 ff47 5adb 20c0
00000730: 9f14 59b8 e9ee eb3f 1098 1d0e 7fae de3f
00000740: 0b0f 17f2 b22e c73f 03e7 a71a 18a3 c63f
00000750: be21 2d63 7e10 b33f fb65 5702 a745 d23f
00000760: 3cc1 886c 7dd1 a2bf 0290 bfe9 9619 f03f
00000770: 4204 7e84 0d8b fc3f ebfc fdd3 349d a1bf
00000780: 79bc 8429 20d7 f8bf 91ba 8feb f2dd f23f
00000790: 2ab0 4c30 068d d63f 4b2f 8f0c 06ba a23f
000007a0: 67d1 9688 7e85 24c0 09ca 706e 9319 c73f
000007b0: 60e9 30c9 ee02 e93f b19d f8de 8331 db3f
000007c0: 1294 88f8 5746 d1bf f203 559e e998 d4bf
000007d0: 58d3 a71d df91 ba3f 726a 41b1 3205 8f3f
000007e0: 25d9 6020 738c 0040 f189 4ee4 d9e1 9d3f
000007f0: 1011 cfa1 9357 c23f a542 7274 26cb 1ac0
