L2minimization/plot-figure-data/4d/ex2/ex2_model_randDict_relu_4_size_64_num_neurons_512.pt (torch, 26293 bytes, 3 tensors)

fc1.weight f8 [512, 4]
0.8598944654410671 0.5091912401127356 0.03259206040616746 0.01560598906691298 -0.9038499428191539 -0.20157573368616505 0.002071127798605079 0.37738337918400483
0.8254324078852819 -0.45296682469869637 0.32033893645537787 -0.1042370448819587 0.201505644084404 0.146305143190361 0.618465506972203 -0.7453124828981422
-0.3058731121960691 0.7376881801555207 0.19267702744256135 0.5702046572856323 0.7282610298463981 0.43231726290282196 0.514854941864308 0.13289862843978487
0.9804483156645906 -0.12914768255473127 0.007418567194397255 0.14827994221064375 0.9702956124799943 0.12243942605437483 0.01831866152674306 0.20784474491652788
0.8189401274821377 -0.48700788262537337 -0.2504323769039596 0.17159258276080452 0.7420059905900136 0.4969280412895497 -0.1665958116820163 -0.4180137165676199
-0.5858739666253845 0.16546236333898365 -0.568102932762886 0.5537444892142258 0.7134973639330197 -0.04032900501429715 -0.45720033898606194 0.5293986522897645
-0.5959617261733438 0.7583221273322572 -0.232749940839638 -0.12491852214108773 0.24633327634991734 -0.11536303832718105 -0.0699651462282831 -0.959747969346063
-0.6102006522544549 -0.14754482869532662 0.7207590350873276 0.29392533210577315 -0.8897217360988094 0.4481619875645965 0.0582270200857962 0.06446455884747156
0.6886905985787289 -0.4497378680740461 0.38221951684874655 0.42112866251229536 0.0350847486436918 0.6610661704888539 -0.7460390367922396 0.07201620810566155
-0.24460697065013826 0.922275279166046 0.2789153872931884 0.10854467319792847 -0.05299774132300712 -0.35478166058650856 0.59595679020193 0.7184404755707683
-0.0796165399820168 0.8596058069183363 0.35604729473680474 0.3577280911309186 -0.7428327812328501 -0.6062814027897782 0.2491684456826871 -0.1361521407587896
-0.27929400835226226 0.4193371831725793 0.8637510814278723 0.009233257258117931 0.23918557130962026 0.37295670954553806 0.7062032709104965 0.5522413380376116
0.34726012876642 -0.5763460167823585 0.6995936021220226 -0.24042558885894766 0.2770936733561346 -0.723173375990214 -0.04282511288522587 0.6311936106705199
-0.22216191319980066 0.8327767215278193 0.49078110546555076 -0.1275183238707014 0.15459388262986262 -0.25152819441364505 -0.9013284208507427 0.31692487538081054
-0.013603385302921664 0.8592025405092929 -0.11500210659484772 -0.49835776081989974 -0.8202309276752467 -0.32219347955246874 0.4623349718595505 -0.09828001228380932
-0.1316872916495154 -0.8496190433012755 0.3054054798957058 -0.40930847942293397 -0.0006347873871017993 -0.9976281760990696 0.04807857461705356 0.049255151618989336
-0.4867986619052773 0.014159554682710096 0.593950875637233 -0.6403506282562571 0.8043590233584031 0.48642220777637885 0.15587717080838845 0.3034836156115213
0.5749474620151636 -0.1789473730756552 0.7936137432761013 -0.08712336124678964 -0.22704591667449478 -0.14318129343197433 -0.4130318146507661 0.8702608741169975
0.5041671324415663 -0.09050930316728643 -0.8546815254626375 -0.08451661752980584 -0.7726109349276359 -0.5305226626839603 0.11775156360657182 -0.3282569372871999
-0.6725837468675476 0.3057811652241064 0.04694977246842972 0.6722534502023483 0.14124239143363004 0.1463895492351257 0.6489946660489405 0.733093861778197
0.734174036939653 0.2913500574172568 -0.3978795357594313 0.466685657108244 0.6546280712478214 0.40258037544730324 -0.13425531539316857 0.6255930305939686
0.3571595192957513 0.7477374724643516 0.479888359771079 -0.2881543201225242 -0.69451622939756 0.4072855287705338 0.37165759290636363 -0.4622081119934507
0.37435477229415126 0.673577199831938 -0.6298587790664826 0.09710910750305332 -0.4486534447058255 -0.2989475372601127 -0.7858804109049556 0.3028736308686652
-0.09450140587796162 0.7876822686673849 0.4093058668584631 -0.4506604434264588 0.6976733108958948 0.5571461701706116 0.20206944052612177 0.4025022205320612
0.7595301265704306 -0.22649202051008105 -0.32510839461159424 -0.5158680870438086 -0.6603647701007636 -0.0760824539201236 -0.3513684537319028 -0.6592951086860191
0.4088691865353575 0.6712609564794059 0.3129758687618627 -0.5331799153953809 0.6881120168295339 -0.2160103848256105 -0.23242150651051754 0.6525500817973011
-0.5501037359129904 -0.23617973985740262 0.0743735368861334 -0.7975422165794783 -0.7183817968122255 -0.5374325496113607 0.14600588195527778 0.4168646435733454
0.7178968182163168 -0.4768265463655721 -0.4493334498344313 -0.23528717333475324 0.13857774506063072 -0.9029134914782256 -0.0360155142491116 -0.4052731402571393
0.9716558901279589 -0.018069172556229227 0.23569824593322494 -0.0021617231039329117 0.05797440054258979 0.04416542604472566 -0.959693079247226 -0.27143613920956167
-0.41469749562090585 -0.5280268813131582 0.7375591475919677 0.07225028401230282 -0.9725772557205241 0.19902294656614353 -0.05296906695165435 -0.10806306650070331
-0.2475970924851987 0.20982384923452913 -0.7845510057997342 -0.5283458634113708 -0.03273598771330191 -0.21080768522847787 -0.4779697892343601 0.852075909491817
0.20810606502532522 0.6691075621530486 -0.5407029566751941 0.46543232441675403 0.09558994896136552 -0.6113291916981167 -0.14623564710292883 -0.7718512269548312
00000000: cb95 e265 4184 eb3f 4a34 766d 4b4b e03f
00000010: 8f84 1b13 e8af a03f aa20 5065 08f6 8f3f
00000020: a3ca 1cb7 56ec ecbf 5ab5 eccf 3bcd c9bf
00000030: 05a5 2545 78f7 603f 9b8d e99d 0c27 d83f
00000040: 4ea0 9d39 f169 ea3f 573f 9090 68fd dcbf
00000050: 7385 ede1 6e80 d43f eeb8 cc6a 47af babf
00000060: ada5 a6db efca c93f 079e 9e7e 20ba c23f
00000070: 1dca c42c 78ca e33f 7923 6b90 99d9 e7bf
00000080: 1be7 66d1 6c93 d3bf 2d3d 0d3e 249b e73f
00000090: b134 c70d a4a9 c83f 9e32 62d6 1d3f e23f
000000a0: a887 4413 ea4d e73f 977c 6a06 16ab db3f
000000b0: c8b7 2f12 b179 e03f 4983 6a7f d202 c13f
000000c0: 9153 6625 d55f ef3f 17a0 7648 e987 c0bf
000000d0: 77d6 ba77 ee62 7e3f 2f47 394f d6fa c23f
000000e0: 43b9 6162 a90c ef3f 3e01 a5b2 3058 bf3f
000000f0: 92c9 a790 20c2 923f f6ed 0717 a89a ca3f
00000100: 0c5f 1ded c134 ea3f b74a 311c 232b dfbf
00000110: 105f 2a85 1507 d0bf 62cf 98e9 bef6 c53f
00000120: 6aa5 e058 83be e73f fa73 7345 abcd df3f
00000130: 2f94 69f5 0253 c5bf 64fd 7b9a bcc0 dabf
00000140: 787b c7c2 7abf e2bf 4341 a1e7 de2d c53f
00000150: 174e 9f33 e62d e2bf 8a7d f05c 46b8 e13f
00000160: 25fc 7b6c f8d4 e63f 70b6 3bdb 00a6 a4bf
00000170: 7493 ea35 c542 ddbf 4431 4471 d5f0 e03f
00000180: 89a1 7253 1e12 e3bf c734 17c4 2c44 e83f
00000190: d5ad 0604 c0ca cdbf 3cb8 4207 a9fa bfbf
000001a0: 4972 eb4a d987 cf3f cd4d c89c 6e88 bdbf
000001b0: a10b e95e 3ce9 b1bf cfcc 975f 41b6 eebf
000001c0: b9c8 ad84 c386 e3bf 655d f8ba bfe2 c2bf
000001d0: 0ee4 7f40 7510 e73f 150e 3732 accf d23f
000001e0: 1ab6 e2b7 9978 ecbf 879e f99d afae dc3f
000001f0: c528 0696 eecf ad3f c53e 00d4 bf80 b03f
00000200: 6faa bedd c009 e63f 8da6 c956 81c8 dcbf
00000210: c887 30d9 4876 d83f 8381 39a2 c5f3 da3f
00000220: bdac 06d0 a0f6 a13f 16bb d73d 7427 e53f
00000230: fcfb 1142 8ddf e7bf d782 987a a76f b23f
00000240: e471 a8fd 474f cfbf 92ad 3d72 4783 ed3f
00000250: 73a0 b1ec bfd9 d13f af44 8a6d 95c9 bb3f
00000260: 9a05 7d1b 8522 abbf d722 5c23 beb4 d6bf
00000270: b2e2 77f9 1312 e33f 545f 56e1 76fd e63f
00000280: 3185 71e3 bf61 b4bf 6c4f 8509 e481 eb3f
00000290: 8c53 ae97 7ac9 d63f af23 115d 04e5 d63f
000002a0: 8a56 b940 49c5 e7bf 95f6 a441 a866 e3bf
000002b0: 5a7e b36a c0e4 cf3f 2171 ebef 6e6d c1bf
000002c0: b2de f5f9 f3df d1bf 7645 ee9f 6bd6 da3f
000002d0: 49c1 d34e d9a3 eb3f ec61 accf e2e8 823f
000002e0: 2896 39ff a19d ce3f 4e99 94d1 85de d73f
000002f0: 2371 1c9a 3799 e63f c7dd cb06 f6ab e13f
00000300: de6a 108c 8239 d63f b752 a833 6d71 e2bf
00000310: 885b 331f 1263 e63f 06a7 a204 44c6 cebf
00000320: 078f 3f1a e7bb d13f 7fe8 e67d 3c24 e7bf
00000330: 5540 9456 2ced a5bf efc4 68f1 bc32 e43f
00000340: 5612 ce33 cd6f ccbf 6da0 fa5d 1ba6 ea3f
00000350: 7a08 5e27 f568 df3f c82b 553b 8552 c0bf
00000360: 3c49 077b bbc9 c33f 86d3 41b6 0919 d0bf
00000370: e54b 50b3 aed7 ecbf 4d2a c345 7f48 d43f
00000380: a56f ed77 17dc 8bbf b614 8453 967e eb3f
00000390: 24c5 cb2e c770 bdbf fd78 1bf3 17e5 dfbf
000003a0: bb0d 31ee 543f eabf 1763 6a66 d19e d4bf
000003b0: 32c4 fb6b e596 dd3f 3704 9cfe e028 b9bf
000003c0: 5b7c 7711 21db c0bf 8b35 a146 1430 ebbf
000003d0: a1f5 0a6d c38b d33f 1735 4631 1c32 dabf
000003e0: 3c59 a488 fbcc 44bf 7b3c bdec 91ec efbf
000003f0: 60b1 3c43 c19d a83f b5e5 b9a2 f837 a93f
00000400: 9ca9 2793 b527 dfbf ad28 4e42 afff 8c3f
00000410: fd5b 4944 a501 e33f 7dad ca99 c07d e4bf
00000420: 9123 7222 4fbd e93f 87a6 9c9c 8a21 df3f
00000430: 0b53 687b c8f3 c33f a917 fb8a 466c d33f
00000440: 1ebf 4838 f865 e23f 8f53 885d bfe7 c6bf
00000450: 25dd 20a6 4865 e93f 2fc6 4573 b74d b6bf
00000460: 7b55 6731 d70f cdbf 4a3b 58be c353 c2bf
00000470: 187c 08fe 1c6f dabf a044 2a55 2dd9 eb3f
00000480: 83bf 311c 2322 e03f a755 1621 9e2b b7bf
00000490: fb6f 0b12 8d59 ebbf 8551 428c e1a2 b5bf
000004a0: 4f7a 4191 3ab9 e8bf 5e76 c0a9 0afa e0bf
000004b0: 223b be6a f724 be3f 775a 9562 2902 d5bf
000004c0: 97c0 9359 ce85 e5bf 27b3 172a eb91 d33f
000004d0: b5f3 9cf2 cc09 a83f 84c0 e7aa 1983 e53f
000004e0: 3015 020e 3b14 c23f 3874 388b e4bc c23f
000004f0: 30ad 3e76 90c4 e43f dc8a 2742 8175 e73f
00000500: a44c c78c 5a7e e73f a9de 12b6 7aa5 d23f
00000510: 2367 75ba db76 d9bf 0bb3 b284 2dde dd3f
00000520: c6b1 a191 b6f2 e43f 35af a37a e0c3 d93f
00000530: f3c2 7636 472f c1bf 4136 e0ac db04 e43f
00000540: 2c24 b599 b3db d63f 854c c722 77ed e73f
00000550: d8a9 bcaa 7db6 de3f 9a26 48d1 1e71 d2bf
00000560: 5ab8 7919 7a39 e6bf 4e06 8d52 f710 da3f
00000570: 4bf2 b5ed 3cc9 d73f 344c 3d55 d194 ddbf
00000580: cab6 06b8 6df5 d73f 7480 93c5 f18d e53f
00000590: 8d0c 2699 cd27 e4bf 868e de78 24dc b83f
000005a0: f5f3 0ff0 bcb6 dcbf 8c1f f0d9 f421 d3bf
000005b0: 25ec ecac ee25 e9bf 57b5 d914 4862 d33f
000005c0: 7fff ab7f 3e31 b8bf 9b18 f271 b134 e93f
000005d0: 31f4 0d3c 1132 da3f 1985 87e6 9ed7 dcbf
000005e0: 88e0 b2fa 5653 e63f 832e 7f34 24d4 e13f
000005f0: b554 4a53 69dd c93f 502a 70ac 98c2 d93f
00000600: b24b be1f 124e e83f 3ea8 72c6 b0fd ccbf
00000610: 50c2 a070 93ce d4bf 56e7 5cca fd81 e0bf
00000620: 446d 604c b521 e5bf 59e8 62c3 237a b3bf
00000630: a3f9 671c d27c d6bf d503 470e f218 e5bf
00000640: 27bc 20aa e92a da3f ae24 e541 f87a e53f
00000650: a83d 31f0 cb07 d43f 0c3b 7053 cf0f e1bf
00000660: f38e 087e 0305 e63f 4710 3671 3aa6 cbbf
00000670: c1c3 ace8 fcbf cdbf 004a 8ab5 b0e1 e43f
00000680: 3beb 6426 739a e1bf 9929 5541 233b cebf
00000690: 8421 9de4 240a b33f 346c 2c41 7785 e9bf
000006a0: 0c35 6bd2 fbfc e6bf c75f 0cbf a532 e1bf
000006b0: 4dc2 021c 52b0 c23f d465 c00a e9ad da3f
000006c0: 7a87 84bf 02f9 e63f fc4d a07d 5384 debf
000006d0: 516a 0216 e1c1 dcbf e00d 52dd e31d cebf
000006e0: 2192 7e61 eabc c13f 5584 a0d5 aae4 ecbf
000006f0: f975 b21f a070 a2bf 2d81 d6c0 feef d9bf
00000700: 5f17 e217 ce17 ef3f c975 c7a4 b980 92bf
00000710: 7bfe 0031 5c2b ce3f e8cc 1941 76b5 61bf
00000720: 68d7 ab14 d2ae ad3f b6b6 f3c8 d99c a63f
00000730: 560f b242 ceb5 eebf 70e2 36af 355f d1bf
00000740: 7631 5b5d 678a dabf b1c3 54a1 98e5 e0bf
00000750: 8dbd 38a4 159a e73f 38a5 f59e fe7e b23f
00000760: 08e6 4456 5a1f efbf b1db 537b 9579 c93f
00000770: 2c94 83f4 c21e abbf 89a7 8668 05aa bbbf
00000780: b980 67f3 42b1 cfbf a40a 3105 82db ca3f
00000790: 3e85 feb5 0a1b e9bf e184 8a95 35e8 e0bf
000007a0: f403 4379 c5c2 a0bf 8ea0 e608 bffb cabf
000007b0: ab34 4f99 0e97 debf 0742 9fb2 3444 eb3f
000007c0: d706 b133 38a3 ca3f 2584 1e43 5469 e53f
000007d0: a3a7 7849 704d e1bf 15c2 f7a8 a4c9 dd3f
000007e0: 2889 9d38 9578 b83f 72df ad3c 0290 e3bf
000007f0: 4d82 e884 d9b7 c2bf 4cc0 2458 01b3 e8bf

fc1.bias f8 [512]
1.7245137986329286 1.5951100316286304 1.7613763927805541 1.7344326793883251 1.8723743041856404 1.572514226217348 1.9459480748021831 1.487082293578898
1.919805094472494 1.3842962925369906 1.7396071053775226 1.8546767577496435 1.5516141667441512 1.6695602161753214 1.9498481021549514 1.947509101242844
1.6685786024727745 0.9117031819196075 1.5641461139778845 1.244965796390653 0.7080400208735123 1.5910669183094122 1.8457051927831643 0.43238959088974793
1.9916650962870013 1.6831275630628122 1.8795388074886619 1.4805373533773158 1.5745367231658736 1.7374383934307978 1.9976375919632754 1.8203142523841946
1.8989784030384431 1.8895452996532587 0.27638682955214433 1.2695540681475737 1.8661054440967555 1.9953425634188706 0.4157884283024935 1.1392304366720918
0.4158501863230688 0.7965914870064008 -0.17196053054038618 1.0716405425326352 1.5911779347090258 1.6395447881665373 1.4852970895910174 0.9522214463695602
0.4943010055906809 1.15023364252695 1.5905153419415385 0.7612710780102145 1.8710089885452752 0.5009407908857875 1.9746863160041723 1.5465626666651797
-0.36585691551158295 1.9328712920063316 0.44169695841099177 1.3756258454780887 1.9911514967972055 0.5992525649339493 0.11294261169033915 1.016519309691792
1.778759770462515 1.974578284470756 1.9543561730354435 0.20496806928924682 0.48393186661952603 0.13347247650643768 1.640685826309538 -0.22528319394366214
0.34604754210003685 -0.17124580294018887 0.6850984231367043 0.9432508286723889 0.013578633101142934 0.6373018913842481 1.8297661524007682 0.28939143317678795
1.1739035545276826 0.05853106995081392 0.23749635595440477 -0.6886651441683846 -0.23699020161267592 0.7225682192711766 0.49236016003362604 0.4787266053609076
-0.3496176987374864 0.5426372518614326 0.833027033496216 0.19381063890005423 0.24789912730106334 0.22984003515865714 0.36470076854768907 0.1525933855766093
0.11619159775555277 -0.04392168987300504 -0.8649815672651187 -0.8740364313528657 0.4199070468011086 0.07312505137697478 -0.5345351650030352 -0.15333547288896465
0.5436040368709776 -0.5977268698670422 -0.771766611893224 1.0150096803323119 -0.21020227990895224 -1.257304413770827 0.463782734270652 0.5969387773186616
-0.1486484827942709 -0.23429627745285497 -0.288078287748212 -0.4489159734163426 -0.28365751153028507 -0.11375752090935354 0.46267915618133415 -0.39862611919343394
0.6035864400656701 0.0022903756893613014 0.35278867149272264 1.5931364646888562 -0.6388867531899152 0.7055611656576 0.1377438191558289 0.32031894672974826
-0.04540933815955217 -0.036090414183404196 -0.059425296386174775 -0.35378869241844635 0.4179993987721278 0.17045544023516035 0.061605064125511255 1.0019341727280424
0.27579775886330093 -0.0862320592793786 0.08121248009212412 0.29586244219865643 0.138289581586863 -0.8310943140879941 -0.48121191521816975 -0.4950933837425988
-0.6740755643737191 -0.23120204705832625 0.8332903902694588 0.7883751851640541 0.7448745845473157 0.5638670147791154 0.37019297100735526 0.8582972317675446
0.3328410661350456 -0.8637397676917282 0.561485131143515 -0.6845567793976444 -0.035227878156272485 0.6392902333194637 -0.07643189497169445 0.07735817720298499
-0.2088693577118188 0.019089808606203906 1.1854157942720223 -0.9740573848436513 -0.276823820231761 0.47287202872319556 -0.13186448955921826 -0.30066217109937643
-0.7009795170682569 0.2330757494938145 -0.367872115749984 1.93362560100087 -0.9678334816267813 0.9051324170132022 0.05048642465260533 -0.02913241355954277
0.6941683924584257 0.5286273729753495 -0.1374646868694609 0.31336540546750324 -0.32391163209114326 -0.7053265075946387 -0.4103162075277722 0.2962543985165511
-0.3002678951802995 -0.2960635648307792 -0.16896943563363598 -0.29832636331643014 0.42198338451726336 0.2412316291290435 1.0656897492543345 -0.4164381815499625
0.7369900892231116 -0.6454828117918892 -0.6228932585805018 0.7078179099789521 0.6511238247349231 -0.6921637291697524 -0.632983899983429 -0.11431005542345485
-0.6843872578722316 0.07509300722313794 -0.33009224229282497 -0.5046831645723704 0.9563125746228653 0.9410568971010438 0.8314159054133672 -0.7201803686600363
0.6049364417128373 0.3518974901406007 0.4331724185683372 0.9593939291549196 -0.07702202030253114 0.6114973342699255 0.13878021365119286 -0.011643806840406778
0.028982562103440745 0.8602014162353462 -0.5239762842198679 0.6508295200412335 -0.23372206674709206 0.6615245076161593 -0.6095311756539266 0.47547039907146127
0.37285200354134984 0.38417885087356796 0.6298462635330195 -0.32658328308459206 -0.6426841290242398 -0.4714676688925188 -0.30967557712828997 0.7768285367465562
0.8091931987864895 -0.053312921374728095 0.22009618068005254 0.31416459029146626 -0.2794230061919629 -0.6632770976247242 0.030744514448637794 0.28021342076809574
0.07981992033950425 0.6811574183150113 -0.535379028256485 0.22366338815747078 0.14554474357320668 0.17212661562754494 0.04310298127079282 -0.05764654911889844
-0.2907325119443378 -0.5909112066841935 -0.008570013044535418 0.7738267306168818 -0.08599866270793255 0.6829943101709977 0.03134903834011782 0.2942349897859584
00000000: 0811 eac7 9b97 fb3f 28dd b518 9285 f93f
00000010: dc05 2f03 992e fc3f 5862 317b 3cc0 fb3f
00000020: be91 25c2 3ef5 fd3f 7492 61ad 0429 f93f
00000030: 26d5 cf72 9a22 ff3f d41c 96cd 16cb f73f
00000040: c041 f78b 85b7 fe3f 0eba 86de 1326 f63f
00000050: 5ec5 9742 6ed5 fb3f fef9 3289 c1ac fd3f
00000060: 9ed2 6260 69d3 f83f a6cf f2c5 84b6 fa3f
00000070: 5cc5 6eec 9332 ff3f 8201 a84d ff28 ff3f
00000080: b2d0 067a 7fb2 fa3f 901f c026 ac2c ed3f
00000090: 4235 5b13 be06 f93f e62e 4241 61eb f33f
000000a0: 0826 bd8b 43a8 e63f d02e be95 0275 f93f
000000b0: 20fa 102b 0288 fd3f 7825 0064 45ac db3f
000000c0: a232 5238 dcdd ff3f 849d e52a 17ee fa3f
000000d0: 54a0 db48 9712 fe3f 0431 94ef 47b0 f73f
000000e0: 2e93 456b 4d31 f93f d699 6933 8ccc fb3f
000000f0: 1ee1 ebd5 52f6 ff3f c6ec 66d6 0120 fd3f
00000100: 48c4 8d2d 3762 fe3f e823 25da 933b fe3f
00000110: 782e 7e62 52b0 d13f 4e29 33ed 1750 f43f
00000120: aa87 d461 91db fd3f b436 e352 ecec ff3f
00000130: 2853 6711 479c da3f b8d4 c1b1 493a f23f
00000140: f0c1 9219 4a9d da3f 30dd 1e6e ad7d e93f
00000150: a0d7 6f7b cd02 c6bf 04ed b38d 7025 f13f
00000160: cc12 7bfe 7675 f93f 580a d850 933b fa3f
00000170: cc32 8ae1 c6c3 f73f 64a0 561c 9978 ee3f
00000180: b014 59af a0a2 df3f 6498 5664 5b67 f23f
00000190: 7acd 1637 c072 f93f a439 ee29 555c e83f
000001a0: 162f 051f a7ef fd3f 54c7 42fb b407 e03f
000001b0: d88b b1ad 5098 ff3f f8a9 a87e b8be f83f
000001c0: d0cf c81f 336a d7bf 1cb6 a872 0aed fe3f
000001d0: 608b c751 c344 dc3f 98c5 1d3f 9002 f63f
000001e0: d401 02ac c1db ff3f 08ef 0db7 132d e33f
000001f0: e0ea 8897 cee9 bc3f 540f 6ec0 a943 f03f
00000200: 443b 19ce cc75 fc3f 5219 3366 df97 ff3f
00000210: 64c4 7efa 0a45 ff3f 7029 29c9 643c ca3f
00000220: d8e0 275d bdf8 de3f 9071 c148 a015 c13f
00000230: ca29 f0c7 3f40 fa3f 40c9 2967 14d6 ccbf
00000240: e892 0b97 a425 d63f a049 9ae9 61eb c5bf
00000250: e039 3d87 53ec e53f 7454 a25c 1c2f ee3f
00000260: 0016 c048 1dcf 8b3f c893 a5ef c664 e43f
00000270: 8e39 7edf b846 fd3f f028 4fa5 6385 d23f
00000280: 3cac f517 4fc8 f23f 402e 7ace c8f7 ad3f
00000290: e025 dfd4 4766 ce3f 9425 037c 8b09 e6bf
000002a0: d00e b3e6 b155 cebf d4c1 dc62 471f e73f
000002b0: f0a7 4c30 d482 df3f 3803 70ea 74a3 de3f
000002c0: c889 8be9 2260 d6bf e4c1 4acc 485d e13f
000002d0: c89a 314f 28a8 ea3f 10a7 d879 c9ce c83f
000002e0: 6085 3b9a 28bb cf3f b0b1 28f5 656b cd3f
000002f0: c841 6fe4 4157 d73f 2098 5118 2e88 c33f
00000300: 201a 6e88 bbbe bd3f 80e1 2d5b e77c a6bf
00000310: 007d e1d2 edad ebbf 188a 0540 1bf8 ebbf
00000320: 98b9 57ce c1df da3f 80b3 2ec8 52b8 b23f
00000330: 0000 887d e91a e1bf 60f9 af2c 7fa0 c3bf
00000340: a0b3 0a4b 3465 e13f e09e c019 9420 e3bf
00000350: 643c c7e4 4fb2 e8bf 3e69 62ca 7a3d f03f
00000360: 9075 e086 e8e7 cabf c831 a43b eb1d f4bf
00000370: 0815 09c7 9dae dd3f 3888 c959 1f1a e33f
00000380: e0c7 19da e906 c3bf e005 9ea0 6bfd cdbf
00000390: 683d 24ea df6f d2bf a069 1e10 0abb dcbf
000003a0: 6863 d2d5 7127 d2bf 40ce fa7f 361f bdbf
000003b0: c0bd 1509 899c dd3f c019 5120 1783 d9bf
000003c0: 0884 8c82 9450 e33f 00b4 cd15 44c3 623f
000003d0: 5879 9def 1694 d63f 8a75 5ea9 7c7d f93f
000003e0: c08b d9a1 c271 e4bf 0877 7a02 f593 e63f
000003f0: e00d 40e7 96a1 c13f 7094 1f0a 1b80 d43f
00000400: 8014 a88c e43f a7bf 40cf 3b59 717a a2bf
00000410: c044 1111 fe6c aebf e86f e853 79a4 d6bf
00000420: 3855 de8c 80c0 da3f 301e 9ede 7bd1 c53f
00000430: 80c5 5fef b28a af3f c2c9 8920 ec07 f03f
00000440: b030 a8a4 aba6 d13f 00bf 78e2 4d13 b6bf
00000450: 40d1 0552 57ca b43f 28e8 5606 69ef d23f
00000460: 5084 2517 79b3 c13f 98c8 5c1a 5398 eabf
00000470: 20af 930f 2dcc debf f8fc e828 9caf dfbf
00000480: 5c92 00eb 0692 e5bf 301f 7157 0798 cdbf
00000490: ace8 c89b 50aa ea3f e83d a898 5e3a e93f
000004a0: e812 8839 03d6 e73f 549f 78d6 320b e23f
000004b0: f8e1 ebdb 3db1 d73f c40b 96c1 2b77 eb3f
000004c0: f835 749d 444d d53f 14b3 cf94 c1a3 ebbf
000004d0: 1074 6eaa aff7 e13f 3493 789e e3e7 e5bf
000004e0: 4065 2d71 6309 a2bf 3c4c 98ca 1075 e43f
000004f0: 0055 4669 0a91 b3bf 003d 2ad9 becd b33f
00000500: f01f 412a 3bbc cabf 8028 9a5e 478c 933f
00000510: 94f6 488d 76f7 f23f a895 8a64 7a2b efbf
00000520: 708c a941 7bb7 d1bf 88cb a30a 8943 de3f
00000530: c08d 1483 efe0 c0bf 1009 018c 0c3e d3bf
00000540: 502b 9f98 6c6e e6bf 1087 c818 6dd5 cd3f
00000550: a06a 907c 378b d7bf 021d f065 21f0 fe3f
00000560: 6cf2 f1eb 7df8 eebf 5ce0 3342 d8f6 ec3f
00000570: c0c0 8c4d 5bd9 a93f 0096 f72d e3d4 9dbf
00000580: 9cd3 f0a1 a036 e63f 7862 d6f3 83ea e03f
00000590: 90c7 3a5f 7198 c1bf b090 0bc6 2d0e d43f
000005a0: 4807 a8da f7ba d4bf 28de 63e5 0892 e6bf
000005b0: 186f 16e9 9e42 dabf e82e 3b02 d5f5 d23f
000005c0: 20a4 75d5 9637 d3bf 5810 1f98 b4f2 d2bf
000005d0: 30f7 085c caa0 c5bf b8a2 7e75 c717 d3bf
000005e0: 2040 fd98 c601 db3f 905d ef92 ade0 ce3f
000005f0: 4aad cbb1 100d f13f e804 a454 eca6 dabf
00000600: 740f 563d 6c95 e73f 58d7 d891 cba7 e4bf
00000610: 6c11 d0d7 bdee e3bf d83e dcbe 71a6 e63f
00000620: f840 9ca1 01d6 e43f 1c5e 888c 3426 e6bf
00000630: fc58 aa73 6741 e4bf c0ce a57d 6c43 bdbf
00000640: 0488 4b1b 80e6 e5bf e081 2e9a 4b39 b33f
00000650: 48e7 5336 3b20 d5bf 84c3 d54e 5d26 e0bf
00000660: d047 18d4 1c9a ee3f d02c 975a 231d ee3f
00000670: 10fd 6387 f59a ea3f ecb6 53b3 b70b e7bf
00000680: 8016 2aab a35b e33f f8b1 ec0c 7d85 d63f
00000690: 50ef d1ce 18b9 db3f 3871 b6e5 5ab3 ee3f
000006a0: a06e 4512 b7b7 b3bf f0f9 88db 6291 e33f
000006b0: b05c 7bcf 8cc3 c13f 00d7 a44c b5d8 87bf
000006c0: 80e4 8dd1 9aad 9d3f ac84 d61e c586 eb3f
000006d0: 6c53 93e9 69c4 e0bf b426 fb6d 98d3 e43f
000006e0: 1022 84cc 9aea cdbf 54d8 b671 352b e53f
000006f0: f86e 2a86 4781 e3bf 7897 8e65 1b6e de3f
00000700: b852 5da6 cedc d73f 0847 14e4 6296 d83f
00000710: 4c3a ec59 b327 e43f 4831 1192 bde6 d4bf
00000720: c427 7a4e de90 e4bf 40f1 c0ba 862c debf
00000730: 18b3 0883 b9d1 d3bf bca1 fd84 c7db e83f
00000740: 0ce0 9d22 e9e4 e93f 4071 84cb d44b abbf
00000750: 1067 ff94 1c2c cc3f d03c 37cc 451b d43f
00000760: 100c 5608 11e2 d1bf d87c 4fe4 9039 e5bf
00000770: 006b 5a70 7d7b 9f3f 405a 8645 04ef d13f
00000780: 6070 6d0b 146f b43f 8ce7 62a4 0acc e53f
00000790: 786d 2a33 d321 e1bf 4075 b97c 00a1 cc3f
000007a0: 6035 e0cc 35a1 c23f a01b 72b4 3e08 c63f
000007b0: 8018 d60d 9811 a63f 40c7 6236 d983 adbf
000007c0: c0d4 ab89 5c9b d2bf 608d 719e bee8 e2bf
000007d0: 0045 05ae 278d 81bf bca4 9846 30c3 e83f
000007e0: e08e d423 0204 b6bf 843b 31e2 16db e53f
000007f0: 401c dd2c fb0c a03f b00d 9efe bed4 d23f

fc2.weight f8 [1, 512]
-0.5271635756263574 -0.36083756805763356 -3.7938251584935334 2.0997675514075165 -1.8018158161786317 1.3969951361476307 3.6243622385558263 -2.0283239298532254
-0.8113005207837451 1.0932521638335178 -2.150236914701314 -1.364472595420556 -1.4296236073253077 -0.8950551945688872 0.018384501334755415 -1.9231190406250471
1.4102250290309686 -5.790779821347662 7.822379863322759 -2.406226763866242 -8.218055384941685 4.333650048463029 -3.001333347054285 0.7504763069825384
2.4204716820112733 -2.3630749636518096 -0.2091603327911805 0.2886140285422386 -2.3685060404739025 -3.2202501305490676 -2.768916432432591 -2.276362166381906
7.094616429078296 -2.800363880320546 -1.2307319666618786 1.8212244653523704 1.092703642983294 -0.4518151245991156 -2.1274819866667034 4.58844831171815
-6.317923575082334 2.144586498418633 -0.38719552286035036 -6.537808124427227 2.9108138219272197 -0.1165709017415112 0.17769614613985704 4.524425591370355
0.5597717417040475 0.17961004133086012 -1.1032171356383391 4.964205534729541 -3.166337402177983 0.4941306574383468 1.7428584262473803 3.9057187892341836
0.2100799297161426 -3.8481567107895605 0.22730628391056096 3.3426034793385733 2.3580558538030476 -4.238102059819695 -0.9102447966009078 0.18675617596235017
2.9324158927439172 0.42856132133084246 0.16332076626120534 0.4320034959177486 0.03409943250055426 -8.582235017125608 -1.7321320496573238 0.47258742996042186
0.3864365619259835 0.28293908957867664 -0.06595733251063561 -0.10576045251885867 -0.1703085918527324 0.14062811407414094 -1.3240949779063438 0.24532045274990288
0.6799078922817111 0.191031244977241 -0.4600754716611066 0.12677296607602542 -0.6702050675398139 -0.5035575857826837 -0.28558480349009524 -0.5770448279547467
0.22896306820618254 -0.4307983333478441 -0.09637399659027567 0.5544764011239122 -0.2552215059606623 0.2887323315218208 0.9142716598430914 0.22853216422930855
-0.46607339672289866 -0.18236154483921194 -0.500294833007529 -0.06163181017719532 0.6739825501880162 0.08023270241025479 -0.25467105581380856 -0.10950520816827485
-0.16867832086273427 0.584370775502696 0.37642545720652737 0.49191915806577163 -0.19177858859512972 -0.13749199155770286 0.5986897997381317 -0.18812639225376324
-0.3852275990894911 -0.5190787913963397 -0.3315454896558316 -0.2933038643689455 -0.6615319536818649 -0.5406458994768945 -0.2837065452045023 0.13449633532896677
-0.6021231948401415 0.3691982028519821 -0.4498952859817145 3.637815068252539 0.6114706604607579 -0.07144252855281913 -0.2699886944071525 0.05878676624014334
-0.17362556960206388 0.20575837277865006 0.5497268357102932 -0.5613152603585562 0.6094952301851876 0.9611525963208162 -0.7632715141988815 0.4135635843249665
-0.4365685071135233 -0.5432864020713297 0.2699468712233936 0.3067740452300301 -0.4150460580247375 -0.37505062391254024 0.2847436275995121 -0.6064300890841499
-0.07563511554208127 0.7066241287534671 0.2521842690621756 0.4255260120781851 0.5751430493322264 0.39412503012308003 -0.5550767525581658 0.031853647229639466
-0.35143617831579455 -0.13255983078141392 -0.48351540429457335 0.7458994478091323 -0.006427981201065825 0.44046670007660116 0.4964032636286341 0.3346550675279702
0.6167636390293181 0.4691452149380101 -7.177013775811391 -0.31171169011006694 -0.3831765069807766 -0.3794086075111332 0.6014662707536965 -0.21055464736748614
0.48088901507527876 -0.5456236617711226 0.6165834222058862 4.769941521000709 0.1722428678850228 -0.4402990517006872 -0.20473080075021538 -0.0978384250169061
0.7744300818989487 -0.2399532930348305 0.3755472903116209 0.12057820978323369 -0.5867560602905296 -0.1834231669573718 0.0016985583923705802 0.49017691837405974
0.3672344670466249 -0.46657859813367203 -0.5009411579617593 -0.13927289097489196 -0.5732820003100371 -0.00932242499917027 -0.1881745483833977 0.040002544788344085
0.51652092661554 -0.46506333946493095 0.16235358286468482 4.038227120836514 -0.3744419395422727 -0.3778700800659288 -0.7902229151128778 0.6516341152326662
0.039696714628028956 0.014189662309250659 0.24700677223663933 0.7439613146410211 0.03967216986090786 -0.03667367258997812 -0.04284158537265616 0.36380733819194594
-0.41282542530030303 0.008284113441350782 0.4518660991495852 0.04828193754911187 0.04489652786092502 -0.56967206352762 0.4585975065562308 0.0731221246137405
0.21511895201008271 0.18390880648106472 -0.2556233393431497 -0.16560228558336584 -0.04271566745503768 0.502327604079274 0.44873209770019257 -0.4790514400166408
0.36192346170772405 -0.11273056269210813 0.40537436632570595 -0.45364655059387604 0.017328634271120948 0.18890233609835216 -0.09964695623842848 0.7671043224974287
-0.1464725974418779 -0.17934510723917368 -0.7865603202817156 0.2465972952340773 0.10555872555514983 -0.3340575333189127 -0.31550270686592197 0.04561868583555434
-0.021060711942614965 0.671075402293472 -0.3813025697245489 0.30342476627623505 0.05525120875797853 0.15655091230308363 0.13101961867422404 0.3954725191294946
0.885253649605127 -0.6534361052925356 0.18505038604875634 1.1316937501107596 0.2355055776232932 0.14061208808941228 -0.6070163546972226 -0.7867584098283564
00000000: e3a4 9e25 86de e0bf 0a72 7e74 f617 d7bf
00000010: 21c6 3301 c159 0ec0 6ffa 13ee 52cc 0040
00000020: c071 3ed2 3cd4 fcbf 61cd 6692 175a f63f
00000030: 12a3 1ba1 b1fe 0c40 774f 83e5 013a 00c0
00000040: 78ce 7f82 2cf6 e9bf 9b23 1ffb f57d f13f
00000050: 495a 5a69 af33 01c0 96e9 5937 e1d4 f5bf
00000060: f0d3 f000 bddf f6bf a639 99ca 4aa4 ecbf
00000070: 38b5 f1ff 62d3 923f a4ca 9c78 18c5 febf
00000080: c104 bb1e 4890 f63f 8719 7c2f c229 17c0
00000090: d870 67f2 1d4a 1f40 fd85 4cd1 f33f 03c0
000000a0: 1c15 96f4 a46f 20c0 81d4 b95b a855 1140
000000b0: 61f0 cf0e bb02 08c0 2436 5de3 e603 e83f
000000c0: 6c0f d941 205d 0340 1b0c b7d8 93e7 02c0
000000d0: 4bb3 7a0a c4c5 cabf ce5d 70f9 a678 d23f
000000e0: feb5 814b b3f2 02c0 0e2f 1d80 12c3 09c0
000000f0: 623d 95a8 bd26 06c0 2bb2 135e fd35 02c0
00000100: eb38 1221 e360 1c40 e002 972d 2567 06c0
00000110: c245 af00 14b1 f3bf f6d0 d543 bc23 fd3f
00000120: 3a55 add0 b67b f13f 8d72 fffb 89ea dcbf
00000130: 3480 9c46 1505 01c0 0cdd b831 925a 1240
00000140: 926c f6c1 8d45 19c0 a035 51f7 1c28 0140
00000150: d9f0 f5ba cfc7 d8bf 8dc0 472c b726 1ac0
00000160: 9e60 cfc1 5849 0740 0920 a532 97d7 bdbf
00000170: cbe0 2550 bfbe c63f 0b7c b005 0319 1240
00000180: c400 7b6d a6e9 e13f e84d c63a 76fd c63f
00000190: 6241 df02 c7a6 f1bf 6d24 19b2 58db 1340
000001a0: f6a5 33b4 a854 09c0 f383 6931 d69f df3f
000001b0: ffa5 6484 bfe2 fb3f 7b11 197e e93e 0f40
000001c0: bea1 d62d e6e3 ca3f f1ca b562 06c9 0ec0
000001d0: 741b c94f 5f18 cd3f 350a 9ae4 a6bd 0a40
000001e0: b7cd 3163 4cdd 0240 af24 c006 d1f3 10c0
000001f0: 8b29 18b2 b920 edbf d8ca 0a5a a0e7 c73f
00000200: 9dd8 ac76 9675 0740 b693 dc76 8c6d db3f
00000210: a2bd ece2 b1e7 c43f 915c aefd f1a5 db3f
00000220: 31d8 cd16 7b75 a13f ee47 4ab5 1a2a 21c0
00000230: 411b 9a18 d0b6 fbbf a190 0b59 df3e de3f
00000240: 8cd9 dc6a 60bb d83f 0e07 208e ac1b d23f
00000250: 2788 106a 94e2 b0bf 2f56 c7f4 1d13 bbbf
00000260: 3c1e 1e04 accc c5bf 265d 6c1f 1a00 c23f
00000270: 4b7d 2e37 7e2f f5bf 40e5 cc1c a966 cf3f
00000280: 3b8d 3432 cec1 e53f 4480 d83a b673 c83f
00000290: 847a 1e64 e071 ddbf 051f a8b7 183a c03f
000002a0: 984d d6e5 5172 e5bf e2db 52cc 241d e0bf
000002b0: f55e ce7b 0547 d2bf da87 0cb7 2677 e2bf
000002c0: c9fb f76c a94e cd3f 769e 392c 3392 dbbf
000002d0: af40 8a5b f7ab b8bf 3164 274b 45be e13f
000002e0: fe8f 5595 8c55 d0bf 7bc7 4b2c 977a d23f
000002f0: 5ff1 d5a3 b641 ed3f 3878 b9bd 8a40 cd3f
00000300: 8f78 1d83 25d4 ddbf 37f4 9083 9f57 c7bf
00000310: f800 444f 6a02 e0bf 406b 3562 348e afbf
00000320: 0d3b 64da 4391 e53f 76f7 eb60 218a b43f
00000330: 7c51 fdd3 874c d0bf b30c d387 8808 bcbf
00000340: 5827 d34f 4097 c5bf 2bb6 3057 2ab3 e23f
00000350: 555e 05cd 5a17 d83f 25c6 0a7e 9a7b df3f
00000360: 4f68 0b67 338c c8bf 10e3 996b 5699 c1bf
00000370: be5e ca82 7728 e33f df47 1f8f 8614 c8bf
00000380: 1cc8 e6a8 91a7 d8bf 0606 2320 4b9c e0bf
00000390: 8f51 cd92 0a38 d5bf 9652 5092 7dc5 d2bf
000003a0: b652 4a0f 452b e5bf 5108 1fa1 f84c e1bf
000003b0: 7d20 547f 3f28 d2bf c0ba d508 2d37 c13f
000003c0: d40b c0dc 9744 e3bf 6e70 bf7f f1a0 d73f
000003d0: 41a0 fa98 15cb dcbf 4753 58c9 3e1a 0d40
000003e0: 298f 24eb 2a91 e33f 248b adbb 0e4a b2bf
000003f0: 6b2e 31a9 7e47 d1bf 40c6 e08c 4c19 ae3f
00000400: a859 98d7 5c39 c6bf 8032 fb54 4a56 ca3f
00000410: 2d7f a3bb 5c97 e13f 0d8b bf6b 4bf6 e1bf
00000420: f3d3 1624 fc80 e33f 893a f516 c3c1 ee3f
00000430: aa7b ee61 b86c e8bf 5781 5f65 d377 da3f
00000440: 3508 2109 bdf0 dbbf 7440 282a 9a62 e1bf
00000450: cbf7 e33d cf46 d13f 1d93 e19a 2fa2 d33f
00000460: a432 6357 1d90 dabf d11e 0355 d400 d8bf
00000470: 1832 1256 3d39 d23f 44a8 fd12 e067 e3bf
00000480: 1ab3 aeab d25c b3bf b8f0 7134 aa9c e63f
00000490: 6c03 0c7d c923 d03f 5e47 5e74 d13b db3f
000004a0: 83ea 6c65 9267 e23f 2379 ba30 5839 d93f
000004b0: 093b 6052 30c3 e1bf 7120 380a 1f4f a03f
000004c0: 0ed8 1f2b ee7d d6bf 7e17 fc74 b8f7 c0bf
000004d0: 9dac 2398 eaf1 debf d63a ce84 68de e73f
000004e0: 9a28 9b10 3a54 7abf 3496 f33d 9b30 dc3f
000004f0: da68 ba31 12c5 df3f 9b4a 9e16 fd6a d53f
00000500: 98c5 5f19 87bc e33f 06f4 cea6 7906 de3f
00000510: a234 6819 43b5 1cc0 946e b396 15f3 d3bf
00000520: 27fd 84c1 f685 d8bf a932 450a 3b48 d8bf
00000530: 3b18 5131 363f e33f c669 3b66 74f3 cabf
00000540: 1941 30b8 e2c6 de3f 3362 e7c0 bf75 e1bf
00000550: 4d29 3428 0dbb e33f 461f d28c 6b14 1340
00000560: b288 44e6 0d0c c63f b7e9 e012 dc2d dcbf
00000570: 6a60 da6e 9e34 cabf e860 bd63 f00b b9bf
00000580: 406d 5998 21c8 e83f 1178 131d cab6 cebf
00000590: 5d59 7f80 f708 d83f 4c14 a1ab 36de be3f
000005a0: 23af 35a5 b4c6 e2bf 7f90 b40b 697a c7bf
000005b0: b28c b72f 45d4 5b3f e6eb 6a02 0f5f df3f
000005c0: ba78 7bfe c480 d73f 77d9 ff7a 6cdc ddbf
000005d0: e850 55c0 b507 e0bf b96f faaf b1d3 c1bf
000005e0: 3ff2 567e 5358 e2bf 5042 edb3 a217 83bf
000005f0: 8a85 9f85 1a16 c8bf 40d4 3eab 367b a43f
00000600: 736d f0e4 5687 e03f d681 6406 99c3 ddbf
00000610: 5c68 6590 00c8 c43f 9540 a702 2527 1040
00000620: 846e 2553 dbf6 d7bf c248 01fd 052f d8bf
00000630: ffb4 1e91 8149 e9bf f53a bcc9 2fda e43f
00000640: 040c 2cb6 2053 a43f 38e3 793c 780f 8d3f
00000650: 2fcd 52fc ea9d cf3f 4eea 7bf5 87ce e73f
00000660: 7558 3a20 e94f a43f a1dc cb40 e4c6 a2bf
00000670: f22f 2b10 55ef a5bf ef11 e592 9e48 d73f
00000680: 5dd0 2755 bb6b dabf 26a5 74e2 42f7 803f
00000690: 1e30 81c9 5feb dc3f 399b 85fd 68b8 a83f
000006a0: 60b6 bb7d adfc a63f 8678 49e8 c03a e2bf
000006b0: ffe9 2b5b a959 dd3f 4b7e d4ad 21b8 b23f
000006c0: 6109 d18f 0489 cb3f 1e2b a4e2 528a c73f
000006d0: 4bae a4fe 215c d0bf a798 5ca8 7432 c5bf
000006e0: b70d 7ef5 d3de a5bf a9c0 ec56 1113 e03f
000006f0: 616b 12d5 06b8 dc3f 8c48 fe5e c7a8 debf
00000700: 6825 ec05 c129 d73f 48b4 0500 e9db bcbf
00000710: 415c 8053 a7f1 d93f 2c9c af8a 8b08 ddbf
00000720: fa4c eaf5 98be 913f 1818 d7a5 f32d c83f
00000730: 6aa3 3082 7682 b9bf e9e4 375d 1e8c e83f
00000740: f0f2 e233 9dbf c2bf 421a 25cd c7f4 c6bf
00000750: c11e 7e8c 802b e9bf 56fd 270b 8090 cf3f
00000760: 541a 118a e505 bb3f 0994 25d9 3261 d5bf
00000770: 9478 f243 3231 d4bf c81a 8017 555b a73f
00000780: 8795 1874 f090 95bf 2404 401f 7379 e53f
00000790: ac40 b6e4 4267 d8bf e0fb fcb5 4f6b d33f
000007a0: 3327 5ced e249 ac3f 3517 403c dc09 c43f
000007b0: 1f8b ab38 40c5 c03f bd2f 08f8 6b4f d93f
000007c0: 4bff 3676 ff53 ec3f c739 c8d5 f2e8 e4bf
000007d0: cc85 1826 bbaf c73f 5003 dde7 6a1b f23f
000007e0: 0575 f5f8 0b25 ce3f 0416 e2af 93ff c13f
000007f0: 81f9 f18f ad6c e3bf ac1a 02f9 1f2d e9bf
