L2minimization/data-revision-2d/model_OGA_2D_gabor2d_neuron_512_N_512_randomized.pt (torch, 18800 bytes, 3 tensors)

weight f8 [512, 2]
00000000: 731f d0e0 e31f edbf e090 eca5 deb4 9abf
00000010: 71f6 62e3 d333 c53f 2ec9 08d6 fd50 dd3f
00000020: 1e33 df24 4e9b ecbf 66e2 fa2b a62e 84bf
00000030: 7027 ab7d 14fe ee3f 32bb 799f 0607 cabf
00000040: 2f2f 75d0 545a c33f c42f a1bb f6ae e8bf
00000050: 96f1 4945 1cc5 eb3f bbb9 2126 796a d3bf
00000060: d1df 102d 728c eb3f 284f da63 e383 a63f
00000070: 70db af1d 0b61 e63f 6a3b 8660 d2b6 e03f
00000080: fa1b ad2c ed97 e4bf 6db7 4c99 2717 e83f
00000090: 2d94 2db9 1a32 ed3f b865 2699 1d22 b93f
000000a0: df23 025e 5788 e8bf e217 3e50 1285 c9bf
000000b0: 2c5e 663b 5b06 eebf 2a6a 1b3a 6c80 bdbf
000000c0: 22a1 5e68 f8f7 a8bf bfed 853b 1018 edbf
000000d0: 17d0 2756 118d e8bf 3bd3 39b2 811b de3f
000000e0: 2525 0fa2 837d eebf b5c3 a83c b913 bf3f
000000f0: c4a1 5100 8710 ea3f 660b 7232 835a cc3f
00000100: df96 9b93 0e94 e03f 7200 7fd5 760b e43f
00000110: a31b 7b4f 8c71 e3bf b7db 9c3c 0562 e93f
00000120: e50e 37e3 c54d ed3f e2a9 17b7 84a0 c8bf
00000130: bf56 d15c 249b ebbf 13e1 4ebb 24b8 a63f
00000140: f19f b64d dab3 ec3f f2f1 4ffd 0b5c d33f
00000150: 9740 5528 93b4 ecbf 9c9a ec33 9bab d73f
00000160: 2917 3e1a 34a1 ef3f 4048 d23b 5772 aabf
00000170: abab 5816 1706 eabf f2c3 1e4a 6c3a a9bf
00000180: e3db 39ef fceb e5bf a001 52af c8d7 d9bf
00000190: d0ed b37b b3e7 e93f 10ac 6412 ce06 aabf
000001a0: 3a90 12ec b151 ec3f bfde 2d21 f26a b6bf
000001b0: 36e1 561e 4af4 eebf 8980 8a95 c58f b23f
000001c0: d58c 8826 1f45 e9bf ac67 a40b dc74 be3f
000001d0: 2842 bce0 c7a5 ee3f fda3 af06 aa1f abbf
000001e0: e226 90eb 4ce9 ee3f c7c9 93b1 0492 a03f
000001f0: 0eb8 b84d 91f1 e9bf ad84 8132 eba6 e23f
00000200: 1e30 9cd9 0c06 ec3f bf0b b228 6090 debf
00000210: 059c 6b98 18e3 ed3f cc03 50cd 7136 c3bf
00000220: f15f 7419 fe7c ebbf 62fc 07f1 40dd db3f
00000230: 5a4d fabe b9d8 eabf 96aa 3209 7671 c43f
00000240: 94b8 e806 e444 c6bf fc2b d062 bc80 e7bf
00000250: 6384 14d1 b4c8 e93f 6a1d 58d7 6b43 c03f
00000260: a0d7 970f 29b8 dfbf da4d 65d2 655e e83f
00000270: 72ff bc95 d76a efbf 76d1 307e e958 b03f
00000280: fd77 60d6 fa66 e7bf 1b94 a8d2 2f8e dbbf
00000290: 6072 923d d363 d43f 86b6 8c5c b7c2 ebbf
000002a0: f386 abcc ae8a ebbf d3e9 df2b e580 bfbf
000002b0: 05a1 9cd6 558f e83f 4869 2345 87a5 e1bf
000002c0: 02b6 2abb e64c ed3f 8996 688c 3627 d9bf
000002d0: ed37 4abf 6a34 ed3f a802 dddc 5daf d63f
000002e0: 4fa6 8faf ce34 d53f 19cf 1e09 9ed8 ec3f
000002f0: 16ac af36 ac4a e73f 08ab 89bb ff99 c93f
00000300: 909f fdb0 b42c ed3f 28d5 17dc fca6 d8bf
00000310: f013 8290 0aba d33f 4158 4262 a95c eebf
00000320: c0b7 367f 045c e83f 43f7 54ee 91a4 e3bf
00000330: 712d 581c c0cc e0bf d7f3 4540 70ef e1bf
00000340: 66da 248a 38b2 e9bf d594 44ba 070b e33f
00000350: 5437 7eaa 9e4c b9bf d7db 9b56 f0ca eabf
00000360: 8a8f 6daa 1274 e53f f305 55d5 cdaf e33f
00000370: be33 677d 78a3 e8bf 0e14 7411 cb3b a0bf
00000380: 1f90 9fae 951a d93f b836 8231 7131 e43f
00000390: fe96 6a67 ca8e ed3f 5a32 1d83 a039 b9bf
000003a0: 8423 2d17 45c9 ea3f 9ed0 a133 975e cf3f
000003b0: f086 a1bf 4b41 e53f 7d99 57c5 848c cc3f
000003c0: 8271 cf5d 75d4 dfbf aa05 ded1 fa02 e6bf
000003d0: c77c 697b f03a d5bf 9b51 2ea8 546e e4bf
000003e0: 37e9 d841 25f8 eb3f ec4f dc09 2d18 dfbf
000003f0: a913 fb98 1548 ec3f 700f 3a96 ac60 d4bf
00000400: 5cf2 3618 ef2d ebbf 4aa6 d037 f05f c13f
00000410: 2ccc 7c37 967a d7bf 1b77 0c5f a45a ebbf
00000420: 0faa 881e e7b4 e83f 798b 1d8e 4b26 bd3f
00000430: dfc4 ddc1 10f2 ed3f 5f7a 61f6 5d09 d5bf
00000440: e323 38d8 e263 eb3f 3b91 e809 f9cb abbf
00000450: 96db 0c59 6d43 e93f be64 70f4 3674 e3bf
00000460: c12e 484a 44f0 cf3f 00b4 19be 0d5f eebf
00000470: 3cf7 81ff 38fa e9bf 5f1f 17a5 081b d0bf
00000480: 0e49 5ccb 895f ea3f 7003 d100 2495 a8bf
00000490: 313d e641 4373 ec3f 8e93 a25e aab5 cf3f
000004a0: 4f68 ed24 a6a2 ed3f 00fd c335 1cf2 c03f
000004b0: 9a92 5562 fb4c e0bf 759b 2a39 90a7 e0bf
000004c0: 444b 1015 db68 eabf 4726 3ea7 9d97 bdbf
000004d0: 126e 1a6d 630e eebf d77c c36b 4540 ce3f
000004e0: a89d 1b7a 7e1c ee3f 079f b83e 7abc b6bf
000004f0: 1d36 2321 f185 e8bf 226e baa3 2d24 b13f
00000500: 2781 8cb2 4619 e1bf cfed 9297 b036 ea3f
00000510: 8b0b b640 eab4 e9bf 0395 b6e1 4696 cbbf
00000520: 8c44 24ee 0208 e6bf c5bc e917 6c62 e23f
00000530: ef3a 561c 6daf e73f d90b b633 ba1d d83f
00000540: 2423 5ab3 eddf edbf a4e8 90ba e0da b93f
00000550: 5ca3 aa8c 7017 ed3f affc f158 9ff3 b5bf
00000560: fb48 16df 8eeb eb3f fcc3 5d5a d0fd c4bf
00000570: e5d7 f629 660e ed3f 7516 7edd 4c71 d7bf
00000580: 786e 85fa af4c efbf fe30 b0e3 7351 b4bf
00000590: d6af a967 db5f eebf 6f74 879f 183d c5bf
000005a0: 7912 e37f 24d8 edbf f7be d374 e9ad c4bf
000005b0: 1720 f97c 25c5 ea3f d771 ea50 352f a7bf
000005c0: 6af2 0bd0 6fed e73f 2284 20ff 85c4 abbf
000005d0: fe08 fe7d 3741 ecbf 95d2 0b5a 9f2c a03f
000005e0: 18bd 99cd d2bf ee3f 578c a077 e826 913f
000005f0: 2544 5a70 78bf ed3f 928f 3a4c 2a04 d5bf
00000600: 5510 12ab 3b98 e7bf 6579 e13d 1763 b5bf
00000610: 3810 b84a 4606 ed3f 0e7d bcfe ddec d43f
00000620: 181e 77b3 7adb efbf b2dd dd00 fbff a63f
00000630: feac f540 4a2e eb3f 0e82 cdaf e3cd d1bf
00000640: 208c e6ec 0a3b e43f 56e2 f3a4 0b9e d93f
00000650: cd04 d726 3d14 eebf 0fe0 4891 1928 883f
00000660: 5c8f 500f d8b8 ee3f 4360 aa21 2567 b9bf
00000670: d886 e80d ae51 ec3f c957 4b61 c324 c23f
00000680: dd26 cb6d f875 ecbf ecc6 d9c6 4648 cb3f
00000690: 440a ca66 6fa4 ecbf 31fd f7a5 7553 afbf
000006a0: b1d3 9adb a6b0 ed3f 246b a9b4 459c d7bf
000006b0: ff6a 6341 a47a ddbf dcb8 38b3 9890 e0bf
000006c0: a6cd 2407 a663 df3f 0d84 2de5 32d2 ebbf
000006d0: f17a bb7c 2448 e53f a05d 9a12 d705 d83f
000006e0: 345a 88f8 19cb db3f 5334 c6ca 1420 eabf
000006f0: cbe2 6cee d044 eebf 7657 0beb a84c 49bf
00000700: 08e1 6e7b b6da ea3f f9f6 bc87 4933 c03f
00000710: 5da4 5875 2a16 ec3f 2a4e 2987 2b9e c93f
00000720: 21f5 ae1c a6a0 ed3f 440b 5158 b31f cdbf
00000730: 0366 de97 c8bd e83f 48f5 dcd4 ec67 aabf
00000740: 84d3 e18f dd24 e8bf 192d 254e 70ac e43f
00000750: 1ab3 f308 5e4a ecbf 147b f059 9c81 5bbf
00000760: 4e22 0fa3 39af efbf f4db f5d9 4d50 843f
00000770: 0c21 fb52 5524 ee3f 680d 8896 ed55 b33f
00000780: a4ef eb8c 5796 eabf 02e5 62fc 574a 89bf
00000790: fce6 0d6b e594 e53f ed88 ef0d 82d0 d43f
000007a0: 3e72 08ae cc6a d3bf 1bdf 100a e92a e3bf
000007b0: aecd 137a e8ee e93f 98bd 6d67 eda1 c1bf
000007c0: 54d8 accf 44d4 ec3f 5032 21ea 87c2 b13f
000007d0: ce9d 4b5f 15de e13f 04bf 8ee0 5538 e6bf
000007e0: d5ec 5601 6d43 ea3f a1b7 2747 b2ea c1bf
000007f0: 635f 5d90 f790 eebf 2225 9103 e325 c9bf
-0.9101428404692186 -0.026080588223650447 0.16564415552959447 0.45806833173550643 -0.8939581604150566 -0.009854601113475425 0.9685156301941173 -0.2033394125641848
0.15119419268227705 -0.7713578858033476 0.8678113320634562 -0.3033736107235218 0.8608942871278434 0.04397497743516815 0.6993461208174789 0.522317112468824
-0.6435457108099165 0.7528264993795638 0.9123662583120954 0.09817681302083414 -0.7666432224369791 -0.19937352102368694 -0.9382759246972845 -0.1152408258307466
-0.04876686357539685 -0.9091874277650546 -0.7672201807713489 0.47042887120123894 -0.9528215565889339 0.12139470797479997 0.8145174986103076 0.2215122219386913
0.5180733569111132 0.626399437889644 -0.6076108505593435 0.793215387710794 0.9157437742037159 -0.19239863338528013 -0.8626882374616897 0.044373653282891244
0.8969546811904349 0.30249309289482007 -0.897042826438354 0.3698490149567222 0.9884281647252681 -0.0516536007427395 -0.8132434307529953 -0.049273857162354676
-0.685057131994537 -0.4037954055893582 0.8095338264533272 -0.05083316778685554 0.8849725352088236 -0.0875693636897905 -0.9673204987111947 0.07250628376869107
-0.7896877052884529 0.11897063526376311 0.9577369107592562 -0.05297595340363868 0.9659790612069765 0.0323640314835703 -0.8107382314681233 0.5828758226818046
0.8757385492513128 -0.4775619885842239 0.9339716889343214 -0.15009901547457927 -0.8590078828010502 0.4353792527981054 -0.8389557580980338 0.15971255730740513
-0.17397737824780235 -0.7344648294396161 0.8057502826305946 0.12705753340581377 -0.4956152584339808 0.7615231618205442 -0.9817922520232811 0.06385669070079367
-0.7313207804725149 -0.4305533940517436 0.31859284413238775 -0.8675190742121266 -0.860679054018162 -0.12306053467901927 0.767496985591635 -0.5514561033590235
0.9156373649217928 -0.39301837646267096 0.9126485572940034 0.3544535309666039 0.33134810585633984 0.9014425447589672 0.7278653209772326 0.20001217515103797
0.9117072541093751 -0.38519212239710265 0.30823005783196233 -0.9488112372516825 0.761232613052691 -0.613839116565693 -0.524993949280015 -0.5604783301674797
-0.8030054758190317 0.5950964582486004 -0.09882537519862683 -0.8372728053644732 0.670419056765682 0.6152104536669739 -0.7699549149780223 -0.03170618618063524
0.39224760106140083 0.631035420128419 0.9236804981089504 -0.09853556824709511 0.837069077745682 0.24507417698953743 0.6642206900398531 0.22303828845833698
-0.497342435466429 -0.6878637408228105 -0.331722374457922 -0.6384681019576876 0.8740412031250234 -0.48585058176945384 0.8837993610292091 -0.3184005229052138
-0.8493571732465841 0.13574030614226934 -0.36685710352611767 -0.8548147064609312 0.772082862507263 0.1138655874215554 0.9357990061236271 -0.32869671879408274
0.8559431288750797 -0.05429056402161555 0.7894808520567149 -0.6079363607597299 0.24951985957192416 -0.9491032326601498 -0.8117947569259978 -0.25165001031972695
0.8241623851666036 -0.04801285276381051 0.8890701567742437 0.24773149128773436 0.9261046143758537 0.13238861680290626 -0.5093972130385567 -0.5204545132190633
-0.8252997790717491 -0.11559472401690939 -0.9392563944742867 0.23633640062232672 0.9409782776755735 -0.08881343871382451 -0.7663503310411134 0.06695828673621709
-0.5343354689867156 0.81917600254331 -0.8033343566788614 -0.21552358647492306 -0.6884779597477446 0.5745144335795876 0.7401643327192157 0.3768144135466947
-0.9335850241633108 0.10099606089434815 0.9091112849610954 -0.08574863358988936 0.8725046498459784 -0.163995784877926 0.9080076999296095 -0.36629029874925517
-0.9781112568848149 -0.0793678694610129 -0.9492013001122312 -0.16592700757510978 -0.9326345918457967 -0.1615573711819633 0.8365657273179775 -0.045282045485894144
0.7477339805041769 -0.05423372973769626 -0.8829610310351936 0.0315904424113899 0.9609159484515741 0.016749985028706806 0.9296228594195141 -0.32837922519888096
-0.7373331395360859 -0.08354325543175418 0.9070159396510524 0.32695722462263255 -0.9955419068509768 0.044921726089281036 0.8494006413215229 -0.27819149177779046
0.6322073580707901 0.40027133091601763 -0.9399705656616334 0.011795234438167794 0.9600639628520002 -0.09923011848366152 0.8849706908842689 0.14174692393015523
-0.8894006866841796 0.21314320287233757 -0.895072651634401 -0.061183620939113566 0.9278139390140635 -0.3689131035113624 -0.4606104506071204 -0.5176509380742362
0.49045706460602856 -0.8694090343598205 0.6650564609697921 0.3753564531011424 0.434271328647273 -0.816416164439611 -0.945900407480701 -0.0007720780177702241
0.8391983423998974 0.12656516197051085 0.8777057926100827 0.20013946628260842 0.9258604583953095 -0.22752992451031606 0.7731669393717201 -0.0515741357653306
-0.7545001802633213 0.6460496450685326 -0.8840780424921804 -0.0016788508289732927 -0.9901397881267913 0.009918792928813126 0.9419352169725541 0.07552990841945972
-0.8308522941947456 -0.012348830594748342 0.6744258013634119 0.32522631989389944 -0.303393526033492 -0.5989880749320692 0.8104135879825003 -0.13775413084247812
0.9009117180019168 0.06937455621773236 0.5583598004567933 -0.6943768869295757 0.8207306886828528 -0.1399748656689868 -0.9551961726783528 -0.1964687125603542

bias f8 [512]
00000000: 1fd5 d5e7 5676 da3f b683 05ee 75f2 eb3f
00000010: 98b9 cda2 b8ac dc3f 0081 0166 9462 c2bf
00000020: 03ce 96ce 22c8 e33f 43e3 328e a32f d9bf
00000030: 7701 652f 5c38 e0bf 3864 7e8e a63a dfbf
00000040: d4af 0380 c4b0 c1bf acfe ba6c 766f d9bf
00000050: 26e9 f680 dc87 e33f c831 4f7c 3ddf d43f
00000060: 7eda eccb 2277 da3f 2d10 84dc eee6 db3f
00000070: b6cc 5016 01ce d13f 3762 56ee 6b28 e1bf
00000080: d6bd 0e81 42a3 e2bf 2f25 44fb f198 a43f
00000090: ff98 e1fa 9b92 d6bf 52a4 cd16 031f e03f
000000a0: 1007 b7c7 eca2 d4bf fcda ab3a 46f7 ce3f
000000b0: 6853 9bb0 8241 c2bf 4081 d890 ff8d e23f
000000c0: 5da1 2157 1f67 e33f b0b2 0fce 3db7 e2bf
000000d0: 7ac5 c1a2 f944 ddbf 687a caf2 9a19 cf3f
000000e0: 8178 1c9f 7642 e33f 5b81 ce94 2b18 d2bf
000000f0: fee7 33fa ec6b d0bf 2140 0d2b 3dda abbf
00000100: d881 b8ef c021 b23f 686d 0151 3fc1 d4bf
00000110: 5a72 ef1b 0f3d d13f cc12 a83d c5a5 e03f
00000120: 31f8 526f affd e43f aa8f bf0a cb82 e2bf
00000130: 63f5 0ec0 19bb dabf e6d8 2a74 4be6 c63f
00000140: 50d3 f0a0 33ed e03f 0c50 132e 5f72 d83f
00000150: 73fb 0485 8d9e df3f 53f7 3ea7 73eb d4bf
00000160: e727 6591 8ba3 b53f c9f8 8dd9 240e cabf
00000170: f3d6 c273 57d4 d1bf 25d8 14d3 25fd e4bf
00000180: 0594 c465 254a c2bf f61f ab6b 74a5 b1bf
00000190: c2ac bce6 12c4 cabf e684 4247 027f e43f
000001a0: fb5f a295 d787 a03f 0ca8 c44f 7f35 e13f
000001b0: 0b7d f7c4 fd8b dabf 1389 7e1f d864 e43f
000001c0: e3da 4184 be6a e5bf 1088 f36d 9eb2 d7bf
000001d0: 2e24 44ff 004e dfbf 5a8d 5a4d e4d4 e6bf
000001e0: 978e 2254 e1ea e03f 79a7 0fb3 4639 e63f
000001f0: 5a25 0088 82da 513f 599a f015 a0f0 d5bf
00000200: b00d a92f 7552 e03f aa89 7253 587d d73f
00000210: 3661 d954 f301 e4bf ff44 e29b a94f c0bf
00000220: 020f 6d8c 6c74 e0bf a01a a223 1f9f b5bf
00000230: 23ea aa44 2f9a c83f 884b 46e1 a8dc e03f
00000240: fea0 93ca dd0e e2bf 4692 ca3a f4a2 d8bf
00000250: 7ffc d85b 109c d6bf 373e 10aa 02ee e53f
00000260: 75d1 bc65 05b0 e13f 9b2a b146 62db cf3f
00000270: 77d7 088b 20e7 d4bf 3150 3c8c 1072 e43f
00000280: f34d 3818 4dad ca3f b006 e98b e0c3 e13f
00000290: 5164 05e9 3b54 dc3f 31a9 5986 58d2 e1bf
000002a0: 1070 e2e4 4d01 d63f 2e93 e481 a416 dabf
000002b0: 67b4 4b56 ee74 ddbf 26a6 7f0c 8d07 cabf
000002c0: 72dc c391 f99e c83f 9a9c fb88 8a1c d13f
000002d0: 23ef 3f1c 04a6 d43f e8ad 9952 c478 e1bf
000002e0: 5c1c 9afa 4c2d e5bf fd90 a43a f9f9 dd3f
000002f0: bcec c6fe 70af d1bf 64bd 24e4 0a68 c53f
00000300: 1ae0 4e25 7473 e53f f279 e20a d1fb d0bf
00000310: f840 4c2a 483b b53f 6cb8 3b28 c8b3 dcbf
00000320: 7026 1025 8e3a e5bf af35 872d cad3 d53f
00000330: b2d4 34f2 edbd d0bf 177d 1a7a 1663 dcbf
00000340: ee58 7c27 a1e1 d93f 3b25 9a87 dc44 dc3f
00000350: ce67 4e81 c657 acbf 86a0 24cb a012 e73f
00000360: b26d 7d4b 39a2 aebf 44a3 0e73 cea8 e4bf
00000370: 5c62 c71d 1c5c d83f a461 89eb e3c3 d43f
00000380: f6bc 6f36 b0ec e0bf ed22 1e2f a9dd dbbf
00000390: 1f99 0d9b c54e d3bf 3ee3 2310 2e3a e4bf
000003a0: bb4a cd19 fc93 bd3f 2501 ff6a d6e8 dd3f
000003b0: c0ee 488a b6e2 c13f 59b0 e938 aef0 d4bf
000003c0: e4de 070c abcd e13f 9b17 4c28 1d36 e5bf
000003d0: 0243 9f6b bdb6 e73f ee05 86f4 ca38 e2bf
000003e0: 7b77 c04f 436b dbbf e9fa 0df3 980d dd3f
000003f0: 39f7 691a 92b9 e1bf c6e4 ba89 8755 cc3f
00000400: 87ce dfe6 fb9c ddbf a21c eabc 119d c63f
00000410: c76b a971 8f36 c2bf 615c f2f5 0c91 b33f
00000420: a5c5 b3d1 1216 cdbf ef05 9e14 a105 e23f
00000430: fbb1 59fb 192f e33f c251 ca1c 7757 dbbf
00000440: 515c 47bd 6d12 d6bf 303e 822a eef6 d83f
00000450: 9c6a 9819 6712 e53f f59a ebbb bfbb d6bf
00000460: 9264 cbf7 116d e03f b515 e54a d40b d93f
00000470: 3477 3b46 174d d73f cdac 4659 4210 e3bf
00000480: 9b48 7124 9382 ddbf 7ce9 6bf4 371e e03f
00000490: 02cb b6b8 5ce1 e3bf 1990 f4e0 e056 dabf
000004a0: 3c5a f1ef f3d9 df3f 295e 81cf 80e9 e5bf
000004b0: 264e 474e 6177 df3f c6fe e1c0 3078 d7bf
000004c0: e8c6 22d8 8a76 c6bf 7255 6d96 d10a e0bf
000004d0: a53b 8335 88ac dabf 952e 7632 7c44 debf
000004e0: 94ee 6084 0dc9 c9bf 0f6f 4a0e c1bd d1bf
000004f0: 39b9 6a94 3dbb dfbf e459 503b 51fb cabf
00000500: 9078 404d c38d c13f 77da 6d5e 0249 d93f
00000510: 936f 01ff d560 a43f 5441 6cde f032 c93f
00000520: a28f 2bbe 9d60 ddbf af5d 0e7e 632e e33f
00000530: f668 5b26 d985 d73f de5b 7312 ff8d e23f
00000540: a5c2 f662 191c e1bf 3ca6 31e7 63aa e3bf
00000550: cc67 43bc 7328 e03f 3d5c 7bcb 1c4c e23f
00000560: 1d20 2469 198a d3bf b16e c859 4a0c debf
00000570: 86da 9ba9 31cd d4bf c5bd 2931 bbed e13f
00000580: e390 e4e3 9998 ccbf cf9d 7019 29c5 bfbf
00000590: e2e5 cb79 d464 e13f f2b9 35b0 26cc d73f
000005a0: 2917 09ce e922 c33f b25c 25e9 a2e0 dabf
000005b0: 65f5 0831 533d dabf 25f6 ce94 5ace d5bf
000005c0: 0cb0 6a76 d12a e33f 2e1e 9ece 30fa e5bf
000005d0: c9b5 ece0 2d2d ddbf 0610 4025 57c1 b0bf
000005e0: 6f3a 8f15 8580 debf cc46 3e1f 6f98 d93f
000005f0: 45da 7a24 aeb5 dbbf 5f6d a2db cacc e43f
00000600: 7b04 e564 564f c73f 6917 8bb8 e444 b6bf
00000610: 6a70 1b27 25c9 e23f 4d99 37fc f857 e33f
00000620: 5b3b 544d 9d2c e2bf fae2 e1c0 2fbe e73f
00000630: 3495 062b 5fc8 a8bf e65c e00d 95a6 dcbf
00000640: 46b9 54e3 5578 e03f b34d 5081 41e3 c53f
00000650: bace cc77 69e1 e1bf 2c9b fb4d 2249 e33f
00000660: 423c 57a0 1ead d23f 1f25 9399 ed59 e63f
00000670: 9747 3cb3 f933 dc3f 4d12 4f3c 84c2 9abf
00000680: 2408 63bf 3518 d0bf e98b c9fc 9471 a93f
00000690: 78e9 29f5 fcf6 e13f a4b0 d1c9 58de de3f
000006a0: b2d3 63ce 5363 cd3f 1f18 a7f0 0d46 e0bf
000006b0: c6fb 643c 903e d4bf e265 405b 61f4 dcbf
000006c0: 01a0 df91 df0e e2bf 820d 3bcb 5f77 b5bf
000006d0: e13f 450e 5206 c63f b3ff 1a2c 612e ae3f
000006e0: 422f ba3f 250a e4bf 2ecc f6be c048 e23f
000006f0: 63b9 a97a 62e4 d13f f442 89fb f4c0 e1bf
00000700: c967 face ee62 debf bf89 3156 f584 e53f
00000710: 2ebf cf36 9949 d63f 3182 c806 80b2 cdbf
00000720: 10b5 a489 dbf8 e33f cc42 aba2 2aac d73f
00000730: 3bce 5cd8 4862 e53f 1591 69b5 79a3 c13f
00000740: 384d f816 e42f d9bf 4db2 a4ef 3dbc c3bf
00000750: d1e3 22d7 b2d2 de3f e067 0236 fbcb e0bf
00000760: 51e1 6192 4717 e3bf 782e c4b6 96b5 d3bf
00000770: dece ee6f 4c77 e1bf e4db 1c4a 9e5f d83f
00000780: 4ae9 1d6b 4859 c13f 59a6 b7fa 11f3 e33f
00000790: 5d16 3e64 7090 d9bf 9af6 6575 a4d0 e5bf
000007a0: 34b8 c379 84ee debf 69a9 ca6e 7633 da3f
000007b0: 8d6d d5e5 bb1f e0bf eb15 921d b664 e6bf
000007c0: 3e5e c247 397f d7bf 73d6 985c 2d78 dcbf
000007d0: 5406 497c 39da d1bf 2dd6 c489 809e c6bf
000007e0: 538b d8b3 5b92 c53f 4b10 a78a 5a30 ca3f
000007f0: e56e 9c64 b425 99bf 6adf 9ace 6783 d03f
0.4134728683487356 0.8733472489221785 0.4480420675162349 -0.1436334131312904 0.6181806597655285 -0.3935326470050777 -0.50687989479779 -0.487954749254246
-0.13820701838210303 -0.3974281369992052 0.6103346365773958 0.3261254991491822 0.41352147974559006 0.43597003493073566 0.27819850138912317 -0.536184278013997
-0.5824291725784245 0.040229379579680084 -0.35269832134362383 0.5037856526734095 -0.3224441480962108 0.24192121376810138 -0.14262422202468916 0.5798337773340236
0.6063381864342251 -0.5848683380732691 -0.4573349084303896 0.24296891074205296 0.6018632037773984 -0.2827252343359043 -0.25658726152289535 -0.05439940596136262
0.07082753994519153 -0.3242948809690547 0.269351746826748 0.5202356533269152 0.6559674429224797 -0.5784659585883578 -0.4176697135515807 0.17890303776011435
0.5289552825330279 0.3819807004886122 0.49405229559118097 -0.326870835615286 0.08452675151525534 -0.2035566389349184 -0.2785853033523004 -0.6559018252071424
-0.14288775891432706 -0.06893088940262246 -0.20910869852500552 0.6405040160936124 0.03228639318075462 0.5377804334614225 -0.41479439005884505 0.637310086738838
-0.6692802985333767 -0.3702770303481211 -0.48913597992265323 -0.7134877692046004 0.5286718981992234 0.6944917199409552 0.0010896944731960318 -0.34281160490573864
0.5100656443468576 0.36702545308267054 -0.6252380997857816 -0.12743110763089047 -0.5142119162269128 -0.0844592535014308 0.19220534184371826 0.5269359969992005
-0.5643147427154245 -0.3849459241994605 -0.3532753846120115 0.6853040048171753 0.5527369486867842 0.24888256503830494 -0.3266068799742849 0.6389239062286888
0.20841373140920857 0.5551607830641014 0.44264123683894235 -0.5569269775417408 0.34382960655216355 -0.4076319950566355 -0.46026190211597967 -0.20335543737682932
0.1923515283340041 0.2673670137141443 0.3226328159214395 -0.5459920514380743 -0.6617798704691142 0.46838217474784455 -0.27633309250422733 0.16723762645549833
0.6703434685396161 -0.26536966383892413 0.08293581993735077 -0.44847301415473484 -0.6633978580368431 0.3410516209231344 -0.2615923753067576 -0.4435478393952094
0.4043963323214389 0.44170296900172773 -0.05535717323728272 0.7210239379537746 -0.05983141943462601 -0.6456062552652857 0.38062193782892506 0.32445619584680174
-0.5288926184856837 -0.43540410615291486 -0.3016828550520518 -0.6321020426977169 0.1155393183701489 0.4673362774738215 0.13973123314086955 -0.32718997533698296
0.5563559756255612 -0.6628557002120375 0.7410571195597131 -0.5694327140665203 -0.42842181003822305 0.45395492301751844 -0.5539026752373736 0.22136015153026828
-0.46270654245675086 0.17666837429371635 -0.14229004907505624 0.07643204693373341 -0.2272361301361744 0.5631871607476436 0.5994996937930063 -0.42721345721772874
-0.34487479671719706 0.3900714316486953 0.6584964275273992 -0.35520928718180694 0.5133142318474191 0.3913470012087957 0.3640802560674843 -0.595734762542088
-0.461094651783364 0.5036887906892811 -0.6212600333877563 -0.41155263870519004 0.4976777880851022 -0.6847538044775706 0.4916613830984907 -0.366710842477897
-0.17549262574680502 -0.5013206422833447 -0.4167805216392771 -0.4729300015248808 -0.20144814456749727 -0.2772066726263213 -0.49580325597607416 -0.21079459568200243
0.1371387603002785 0.3950811311873745 0.03980129945622859 0.196867092709463 -0.45902198382668236 0.599412676051477 0.36754444833572053 0.5798335419048006
-0.5346800740135974 -0.6145495906359382 0.5049379994409207 0.5717910742049593 -0.30530390994727147 -0.46950014846673144 -0.3250240475021332 0.5602699241844041
-0.22340701701717255 -0.12410218115893844 0.5435583475911552 0.3718353958892343 0.14950296936347598 -0.41996071594389683 -0.4099929789407127 -0.34071983844828174
0.5989768326594471 -0.6867908511639536 -0.4558825203447126 -0.06545014056615636 -0.47659422974985594 0.39992883730984086 -0.43296388208856157 0.6499990739570584
0.1821086876534855 -0.08698873048260015 0.5870538486301602 0.6044888425938467 -0.5679461012203818 0.7419661299928457 -0.04840371513572919 -0.447667373229207
0.5146893920953424 0.1709977990545731 -0.558766111359055 0.602677490530231 0.29181638391759546 0.6984775542743228 0.4406723261209832 -0.026132646733247267
-0.2514776581775797 0.04969468675405848 0.5613999164918786 0.4823209734811462 0.22959373071321704 -0.5085515690086629 -0.3163185682096209 -0.4524157897118056
-0.5643155907719121 -0.08385275565802 0.17206788727571534 0.05894759810826091 -0.6262384648011692 0.5713809709326421 0.279564494884559 -0.5548043167892431
-0.4747883816977461 0.6724802669016795 0.34824209549605 -0.23200989085400317 0.6241281212184351 0.36988321195262297 0.6682476259069924 0.1378013740351284
-0.3935480331721979 -0.15418218804679143 0.48161002168086237 -0.5249000601645513 -0.596591745284096 -0.307958296282528 -0.5458128153026924 0.3808360790021068
0.1355371974021387 0.6234216591667049 -0.3994408587389893 -0.6817190449653083 -0.4833079518419965 0.4093910295438464 -0.5038737763347158 -0.699793870692415
-0.36714012153376874 -0.4448350338237567 -0.2789443696711704 -0.1767121002864526 0.16852899819886122 0.20460063715120422 -0.024557894364177896 0.2580203549982715

weight f8 [1, 512]
00000000: 7533 a7b1 1266 0340 1d85 abc7 ac15 e2bf
00000010: 53e7 0062 1e3e 21c0 76bf 672e b1b1 f6bf
00000020: d368 72f9 30fd 66bf e09a 300c adcc debf
00000030: ed36 7323 d313 2440 cf18 bfc6 01e1 bfbf
00000040: c627 fdc7 12c8 90bf b09f a0c7 608b 1dc0
00000050: 3958 8a58 090d fa3f 6a36 c4cb 6546 d0bf
00000060: c6fa f843 999d 653f c014 a5e0 b846 7b3f
00000070: e355 a8b6 6189 f8bf 002a b53c 8c1c 01c0
00000080: eeca 51fb 924a 833f fdfd edc0 6a1f 67bf
00000090: cad2 eb44 2398 0ac0 e5cf 5838 68b3 12c0
000000a0: ae54 d664 cb59 d03f 1508 d12c c06c c2bf
000000b0: 47d2 d3c0 0040 d83f 5047 5733 3e66 0c40
000000c0: 1378 351f c5a0 b13f 3132 f4da 4e1e 0bc0
000000d0: 76dd d933 0a3f 0c40 45e3 e84a 0142 ddbf
000000e0: 4a73 e223 0935 d4bf 6fe8 1cfc 97ba 1240
000000f0: 44b7 2d9d 5f05 07c0 213b 6f8e 0a0e a83f
00000100: 013b 8d78 b5c3 b43f 9ad4 2578 8f24 ff3f
00000110: ffb3 7f98 118d d1bf 72a9 e1b7 9975 f73f
00000120: 8296 fa3b 89ee 8fbf 764e ee89 1bd9 0bc0
00000130: d4cf ed63 d879 93bf 7b35 53db d25d 0340
00000140: a1cf 746b 37ea bdbf d6a1 072a a3e4 7fbf
00000150: b698 115a abd9 f6bf 0207 9f24 7226 863f
00000160: 5f3f 56eb 73ae ab3f 0fd7 02b7 15a0 be3f
00000170: ebae 10c8 14a0 90bf 05a6 cced a3ec e6bf
00000180: bccc 38e6 9a55 d7bf 4883 5b91 cdcd 8c3f
00000190: 7168 c8b6 a63f c2bf a996 c4d8 26a2 b83f
000001a0: 4310 cd67 cb61 a23f b133 dcb8 149e 7f3f
000001b0: 3156 0ea8 e8a2 a0bf 65e6 9256 3e92 0d40
000001c0: c7a9 4bc7 5a0b 9dbf 219a c7bb 3ef7 0840
000001d0: 8caa d2a7 4edc 923f fa78 6e90 5dad d3bf
000001e0: 95b8 5026 6d42 b03f 6b53 6dc9 bd55 a43f
000001f0: 0b00 7836 467d 30bf ba3b 026e cd97 f23f
00000200: 72a1 8ce5 d262 0240 4b92 6a45 5544 853f
00000210: e6c5 54a0 b4b4 f7bf 6a6b 3a8b 401d b63f
00000220: a841 d8f2 1697 0dc0 4e0e baff 68ed a7bf
00000230: 7ada 1fd8 955a a0bf e9ca d254 571e f5bf
00000240: 2656 350b 6ef0 e8bf 7465 656a 4ad5 e53f
00000250: c646 69c0 9ef6 f73f 70d7 d9df a01b b83f
00000260: 49c4 f278 ebfc 07c0 ad1e daaa 629b e7bf
00000270: 11c0 4576 fb24 09c0 a8fc 6768 3d39 ecbf
00000280: dc50 64c7 b63b aebf f54f 237d 1fa0 e93f
00000290: 1157 7e2b 7b5d 673f 3a46 3a9f 07db c8bf
000002a0: 0345 5604 fc7f 0440 7f67 e6c1 a9f2 18c0
000002b0: c653 84d6 d805 12c0 98b3 7d6f f5b5 d23f
000002c0: 4091 9b94 3539 f1bf 51fb fec6 9b1e eb3f
000002d0: 7f21 aa4f 88e3 f3bf 2a3e 363a 1487 1a40
000002e0: a9fa 63a9 8d14 ef3f 8743 86bf 9147 2440
000002f0: d8dd ddc9 8aa3 03c0 009f 34cd 1ae7 abbf
00000300: 3b76 a014 775e eabf 661e 1535 de80 8c3f
00000310: e778 0d28 b2eb d43f d3f0 03bb 9692 e83f
00000320: 98ea f21a 4c5c bcbf e6a2 172d 88dc 0ac0
00000330: e5f9 f336 4860 0d40 83cd 59b0 2ee2 d8bf
00000340: b2cf f333 1c7e f63f 1ac7 f4c3 a2d9 1d40
00000350: e6f0 b656 559c babf 9da3 b810 10d9 a4bf
00000360: 69dc 5813 e4f9 7abf 4091 a372 0847 cdbf
00000370: cc58 b49c 937a 9fbf 8784 8473 c152 0540
00000380: d923 69b4 b1f7 1840 c18a 3f98 fb88 0ec0
00000390: 0079 ac02 6085 f73f cfbd 99c2 07fd 03c0
000003a0: f5d9 bbee 54cd b7bf 2b7c 2cf4 504b ee3f
000003b0: 916f c057 ef21 e2bf ac12 ada9 9d32 0c40
000003c0: 5d0d f621 c3ee 0940 fdd5 16e7 82ed ccbf
000003d0: fcbe 0581 49e3 a2bf 95ed 1bae 2d3c d83f
000003e0: 7775 0bcf b278 1740 3e94 a202 a494 71bf
000003f0: cee4 9fd4 cf51 f2bf 42e5 d6da 241c e1bf
00000400: bff5 73f5 91e6 fb3f ef67 2ec3 a682 f6bf
00000410: c9d1 cebb 1dec 85bf fa84 d279 51d1 89bf
00000420: 9e6c c2cb 9b9d fcbf a8bf 40d3 0a64 05c0
00000430: ac1b 374c e16f e3bf c4bb 831d f56f 0d40
00000440: 7084 454f ff81 15c0 fad8 13a9 8afa 0f40
00000450: f101 8fcf 6e3e a43f 899a a63b 16c1 0840
00000460: 3933 18ca d310 d33f 508a 4ea0 6ad6 8d3f
00000470: 582d 965f 1980 dcbf 81e7 a2fb 459d 0cc0
00000480: 4d16 eab2 2a5f a4bf 306d 1f76 9376 d43f
00000490: 2750 d25a 8f46 f83f 8192 ed31 ea8f 15c0
000004a0: e65f 8910 dbfe c6bf f720 e0f9 6730 b9bf
000004b0: b9a7 80b4 d1ba c13f 4e41 9954 9557 f1bf
000004c0: 13ca 7a7e 39e2 86bf 2455 a92a 1592 1e40
000004d0: 130b 5482 d544 88bf 6483 f1b6 8090 1dc0
000004e0: dc54 59d0 cb0c 02c0 03b2 c082 72c5 b83f
000004f0: 5f87 c349 7401 b13f 4cea 7af9 f921 f73f
00000500: f66b 5b0e ffe1 b53f 699b 1016 07c2 d13f
00000510: 3d20 b16e e026 ddbf 5071 2981 4258 703f
00000520: be69 b6f9 bc06 b2bf b1f0 2974 26db 0040
00000530: 0d49 c92e 81f9 fcbf 038f 6a25 092d 13c0
00000540: 11dc f081 d625 f33f 6909 3ae8 c477 98bf
00000550: 0e75 1992 5419 04c0 7a0c 64e1 ad8a fb3f
00000560: f0fd b44a 2db0 0ac0 f53e 6cbe 405f ad3f
00000570: fa9f c34c c6b0 96bf 72a6 1b80 47ee 973f
00000580: b657 d186 2ebe 90bf 3377 c8b8 4245 ccbf
00000590: e29e cde7 9e61 17c0 c386 7ab0 1941 0640
000005a0: 1101 6ca7 23f5 b13f 8649 351e e148 ffbf
000005b0: a3b8 69c6 6e51 81bf 28b4 6274 f63c 78bf
000005c0: 9a41 c80d 0ce6 a7bf 65dc be21 77d7 993f
000005d0: a02c e86e 3a73 893f 3e7c 06d6 9bbf e1bf
000005e0: 5b83 8e86 3057 2240 567c 4e9c 9551 a13f
000005f0: e8fd fc0e 4ae1 16c0 807b 98ac df9c fc3f
00000600: 0478 bf3e 533b b03f 6bc7 855a 8aec abbf
00000610: 0e35 957c ab27 bcbf 2ff2 e8fb 5858 ddbf
00000620: ead6 4885 655b f13f 0db1 d435 6efb a13f
00000630: 9edc 65bb 378a 77bf 5395 29ec a2f1 b13f
00000640: c201 150d 3058 ebbf e310 681c d79e fcbf
00000650: 14ee 6a70 19eb c63f 267d 64e3 7f61 febf
00000660: 5400 4c3d 6ad5 0840 4e35 6c85 45a6 e63f
00000670: fda5 bf92 3e8f a83f 1c6c 6026 98b7 96bf
00000680: 850b 8a0c dbd6 0240 c3a2 9d31 9092 e93f
00000690: c478 c932 2cf6 c13f 4047 e583 b47b f2bf
000006a0: a0b8 1574 9ba7 ab3f 1ca7 9559 46b0 06c0
000006b0: 5699 0be8 9a75 f03f cde3 ee31 d306 e7bf
000006c0: 7cb0 9974 c554 a93f 7f6f a6ef c94d ca3f
000006d0: d4c6 dc94 2055 9cbf 534f 9ab2 11db d1bf
000006e0: 6761 0e99 4a51 99bf 574f bfec e78c 6e3f
000006f0: 1657 046e 5aa5 a8bf 20b2 2434 03c6 0840
00000700: bdc0 4d2a f1a3 f9bf 8da9 ebf1 7c66 c2bf
00000710: 751f 7091 e5c3 0a40 4f8c 193e c75c b1bf
00000720: d974 1a49 9530 fc3f c1c6 8702 a932 06c0
00000730: 7d7e 4300 853a df3f f572 9b71 0e04 8abf
00000740: 49ba b619 b6a1 f63f f9ff 94ff 1819 ec3f
00000750: d605 895b c620 0140 b62d d716 5b3d c43f
00000760: fe03 f6b0 a486 fe3f 178a 9ae6 523a 1740
00000770: caf7 0889 a7e2 8b3f 5e58 3073 85a5 0bc0
00000780: 1709 a9f2 f49e 943f 2b9d d935 a049 fbbf
00000790: bc1b 3596 0643 1940 2051 eafc 0df2 b3bf
000007a0: 7c79 03cd e93c 1cc0 825e 19d6 5e16 903f
000007b0: e392 395a e971 c13f 6b18 3e59 262f 86bf
000007c0: e513 4ff1 70e1 01c0 1408 7074 f0c8 be3f
000007d0: 8e1b 031b d788 e5bf a594 26dc b8b7 f13f
000007e0: bd67 ea23 e972 f5bf 00f8 7cde 74d4 b0bf
000007f0: f127 5046 0f64 8f3f 5de6 1861 06a9 973f
2.424840343394346 -0.5651458644680677 -8.621325552568726 -1.4183818638520882 -0.0028062778979577123 -0.48124242964187935 10.038720233740117 -0.12452708341797634
-0.016388219314911877 -7.386111373118112 1.628182741032573 -0.254296730986289 0.0026386254756113085 0.006659242799576137 -1.5335404524861296 -2.1389393561159977
0.009419582647955473 -0.0028225979835381208 -3.324286020704993 -4.675202255650196 0.2554806217897959 -0.1439438074904166 0.3789064295845361 3.5499233256349854
0.06885940563140051 -3.3897988420269702 3.530781178556647 -0.4571536284961904 -0.3157370424685736 4.682220401062394 -2.877623775441778 0.046982126128219066
0.08111128037601746 1.9464258855125878 -0.2742351521727073 1.4662110503073476 -0.015591690199765699 -3.4810095573282593 -0.019019490336589076 2.4208123335617393
-0.11685510991520555 -0.007786404953073553 -1.4281419294652955 0.01081551718005214 0.054065344312333556 0.1196302005581311 -0.016235661231049397 -0.7163867611427014
-0.36459991915326007 0.014064413069208151 -0.1425674812788347 0.09622423927484171 0.035902363225006194 0.007719117112867589 -0.03249289561715008 3.696407963140518
-0.02836362687495766 3.1207251234329907 0.01841853045758994 -0.30745638947145404 0.06351358590538532 0.03971665462328285 -0.00025160755328101973 1.162061147424295
2.298253815988738 0.010384241276662062 -1.481617571157011 0.0863838519966699 -3.698774239754318 -0.046733170715950054 -0.03194111121404304 -1.3199075044073487
-0.7793493479645732 0.682286460690348 1.4977099910797036 0.09417157616721084 -2.9984960030638246 -0.7377179467157099 -3.143057750705346 -0.8819872893508505
-0.059049331512285724 0.800796265039479 0.002852192465023225 -0.1941842582205469 2.5624924029185663 -6.236975698173295 -4.50570998366033 0.2923558796672352
-1.076467113970537 0.8474863897934971 -1.2430499183556944 6.63191309887001 0.9712589558037809 10.139783845080968 -2.4548545618851954 -0.05449756388617111
-0.8240313914172427 0.013917671198796455 0.3268857375277449 0.7678941395420459 -0.11078334482128083 -3.357681610378097 3.6720127385335553 -0.3888050768066124
1.405788615168586 7.462534963431404 -0.10394795767837514 -0.04071855739704875 -0.006585970802510757 -0.2287302551041055 -0.030741030158502977 2.6654080414596737
6.241888827244986 -3.8168861288444025 1.470062265819763 -2.4985499575775303 -0.09297686413251667 0.9466938752192439 -0.5666424478435933 3.524714780420558
3.2415831235136197 -0.22599827083256221 -0.03689031314831756 0.3786730003627892 5.867869601320641 -0.0042921454097824534 -1.1449735932968 -0.5346855425079087
1.7437915409094413 -1.4068973182934277 -0.010704262060110008 -0.012606274156782938 -1.7884786567072193 -2.673848772443268 -0.6074072350100912 3.6796667390658246
-5.37695049154091 3.997334786337089 0.039538824879404084 3.0942806873529816 0.2979020570353899 0.014569123284507018 -0.4453185494864633 -3.5767936381425334
-0.03978856500638681 0.3197373059790207 1.5172265575138313 -5.3905418206455815 -0.17965257937862517 -0.09839486933208606 0.1385137683258202 -1.0838826470026848
-0.01117367665515182 7.642658869347802 -0.011850040473750966 -7.391116007319258 -2.2562481190931134 0.09676280681805598 0.06642844010232583 1.4457950349157214
0.08547968006625681 0.2774675097920665 -0.45549784478908234 0.0039904210885562535 -0.07041531654832675 2.1070069384860166 -1.8109142139042576 -4.793980202320884
1.1967377734961284 -0.023894383119576732 -2.5123683370608267 1.7213572315529562 -3.3360238872989996 0.05736734699723726 -0.022158716616928566 0.023369900888531032
-0.01635048578130923 -0.22086366675005706 -5.845332738804901 2.7817872798339933 0.07014677846382635 -1.9552928142553312 -0.008456101827701018 -0.005917513574030621
-0.04667699497452134 0.025235997614541 0.012426811704264573 -0.5546397381002703 9.17029209603941 0.03382556469954838 -5.720009073439975 1.7882992498414012
0.06340523034984363 -0.0545390353680791 -0.1099803141743971 -0.4585173091943799 1.084813614504521 0.0351213875495394 -0.005747049048628798 0.0700933291023678
-0.8545151000508258 -1.7887793645505148 0.17904966344018247 -1.8988036043663867 3.104206541902423 0.7077968221580393 0.04796786824574537 -0.022184731809925848
2.3549099902751913 0.7991410225923449 0.14032509307702956 -1.155201449601421 0.05401311676074383 -2.836071681861439 1.028712183405863 -0.7195831275231456
0.04947487877220255 0.20549892617861684 -0.027668484769668947 -0.278995918671389 -0.02472416457348583 0.003729298570741262 -0.04813654511433023 3.096685798044078
-1.6025249149788998 -0.14375268757369178 3.345652710184306 -0.06782193437679605 1.7618611198043281 -2.7747364232717193 0.4879467489790626 -0.01270304950906496
1.414480305141881 0.8780636779629268 2.1410033370200194 0.15812243094692996 1.9078719055689812 5.806956866438234 0.013615902776219619 -3.4558209418419628
0.020137622175988214 -1.7054750541227104 6.315454813949085 -0.07791221069993925 -7.059485629403181 0.01571033651120369 0.13628880410683228 -0.010832118605105209
-2.235078702188263 0.12025359003749286 -0.6729541328030437 1.1073540305745067 -1.340554371161928 -0.06574182922210525 0.01532756741837102 0.02310571639666247
